empty_dirs_for_codex/outputs/runs_recovery/recovery_vonly_seedrep_t1/ablation_no_contr_vonly_tuned_loto_overwrite_seed2026/checkpoints/train_state_step_2500.pt (torch, 44204 bytes, 48 tensors)

layer_10.Wk bf16 [64, 4]
0.20507812 0.16113281 -0.12988281 -0.07080078 0.21582031 0.03564453 -0.19042969 0.030639648
-0.059326172 -0.25 0.036865234 0.2890625 0.22070312 0.28125 -0.22265625 -0.0031585693
0.24804688 0.016967773 0.25976562 0.033691406 0.16992188 0.19238281 -0.13378906 -0.1875
-0.15625 -0.1484375 0.27929688 0.23144531 0.060058594 -0.18554688 -0.0053100586 -0.27734375
-0.234375 0.20996094 -0.2578125 0.296875 -0.078125 0.07861328 0.078125 0.15039062
-0.11328125 0.19433594 -0.26367188 0.06933594 0.03564453 -0.27734375 -0.10107422 0.083496094
-0.18945312 0.27734375 0.2109375 -0.22363281 0.18261719 0.055419922 0.29296875 0.23046875
0.15722656 -0.21582031 -0.03955078 -0.026245117 -0.25195312 0.15234375 -0.059814453 -0.011657715
-0.0010528564 -0.0024108887 0.068847656 0.14648438 0.044677734 -0.09277344 -0.2734375 0.11035156
0.022705078 0.061035156 0.060546875 0.22851562 0.2109375 0.13867188 0.27539062 -0.13378906
-0.092285156 0.13085938 -0.096191406 -0.032226562 0.021118164 0.16113281 0.14746094 -0.26367188
0.25 0.033203125 0.04663086 -0.28515625 0.0004711151 -0.118652344 -0.20898438 -0.22265625
-0.0546875 -0.25390625 0.025268555 0.20019531 0.21582031 0.07080078 -0.10498047 0.28125
0.09863281 -0.08251953 0.12695312 -0.12792969 -0.12402344 0.07373047 -0.13476562 -0.06982422
-0.21582031 0.15332031 -0.25976562 -0.25195312 0.13476562 -0.06542969 -0.123535156 0.16113281
0.16601562 0.10546875 -0.20507812 -0.23730469 -0.12207031 -0.026245117 0.265625 -0.20117188
-0.19628906 -0.19335938 0.119628906 -0.037597656 -0.19335938 -0.23828125 0.28710938 -0.25976562
-0.25 -0.009765625 -0.24902344 0.2734375 0.21191406 0.022705078 0.021118164 0.096191406
0.1015625 0.10058594 0.01184082 0.061035156 0.12792969 -0.0546875 0.071777344 0.068359375
0.125 0.23730469 -0.28320312 -0.123046875 -0.23535156 0.1953125 0.15917969 0.12988281
0.22949219 -0.016235352 0.171875 -0.13574219 -0.21777344 -0.022705078 0.20703125 -0.033935547
0.21777344 -0.0390625 -0.06591797 -0.25195312 -0.011962891 -0.28125 -0.23242188 0.16699219
-0.064941406 0.032958984 0.076171875 -0.16894531 0.030883789 0.11767578 0.2890625 0.23632812
0.17285156 -0.22363281 0.13769531 0.083496094 0.18847656 0.21582031 -0.041259766 0.14160156
0.27929688 0.27539062 0.28320312 -0.21484375 0.18164062 -0.011352539 0.16210938 0.16015625
-0.13964844 0.23144531 0.015380859 -0.11279297 0.2578125 -0.12597656 -0.22070312 -0.13964844
-0.14648438 0.16796875 -0.0069885254 0.09423828 0.16796875 0.05810547 -0.24609375 -0.1328125
0.22363281 0.25195312 -0.20507812 -0.06640625 0.265625 0.27734375 -0.14257812 0.020996094
-0.15527344 -0.24316406 -0.23828125 0.19042969 -0.25585938 0.21484375 -0.10498047 -0.16699219
-0.2890625 0.2890625 -0.020996094 -0.2578125 -0.20996094 0.00970459 0.11669922 0.234375
-0.048095703 -0.15332031 -0.080078125 -0.013671875 0.21679688 -0.11816406 0.15722656 0.13183594
-0.17382812 -0.11669922 0.18554688 -0.25976562 -0.06689453 -0.010864258 0.14648438 -0.28515625
00000000: 523e 253e 05be 91bd 5d3e 123d 43be fb3c
00000010: 73bd 80be 173d 943e 623e 903e 64be 4fbb
00000020: 7e3e 8b3c 853e 0a3d 2e3e 453e 09be 40be
00000030: 20be 18be 8f3e 6d3e 763d 3ebe aebb 8ebe
00000040: 70be 573e 84be 983e a0bd a13d a03d 1a3e
00000050: e8bd 473e 87be 8e3d 123d 8ebe cfbd ab3d
00000060: 42be 8e3e 583e 65be 3b3e 633d 963e 6c3e
00000070: 213e 5dbe 22bd d7bc 81be 1c3e 75bd 3fbc
00000080: 8aba 1ebb 8d3d 163e 373d bebd 8cbe e23d
00000090: ba3c 7a3d 783d 6a3e 583e 0e3e 8d3e 09be
000000a0: bdbd 063e c5bd 04bd ad3c 253e 173e 87be
000000b0: 803e 083d 3f3d 92be f739 f3bd 56be 64be
000000c0: 60bd 82be cf3c 4d3e 5d3e 913d d7bd 903e
000000d0: ca3d a9bd 023e 03be febd 973d 0abe 8fbd
000000e0: 5dbe 1d3e 85be 81be 0a3e 86bd fdbd 253e
000000f0: 2a3e d83d 52be 73be fabd d7bc 883e 4ebe
00000100: 49be 46be f53d 1abd 46be 74be 933e 85be
00000110: 80be 20bc 7fbe 8c3e 593e ba3c ad3c c53d
00000120: d03d ce3d 423c 7a3d 033e 60bd 933d 8c3d
00000130: 003e 733e 91be fcbd 71be 483e 233e 053e
00000140: 6b3e 85bc 303e 0bbe 5fbe babc 543e 0bbd
00000150: 5f3e 20bd 87bd 81be 44bc 90be 6ebe 2b3e
00000160: 85bd 073d 9c3d 2dbe fd3c f13d 943e 723e
00000170: 313e 65be 0d3e ab3d 413e 5d3e 29bd 113e
00000180: 8f3e 8d3e 913e 5cbe 3a3e 3abc 263e 243e
00000190: 0fbe 6d3e 7c3c e7bd 843e 01be 62be 0fbe
000001a0: 16be 2c3e e5bb c13d 2c3e 6e3d 7cbe 08be
000001b0: 653e 813e 52be 88bd 883e 8e3e 12be ac3c
000001c0: 1fbe 79be 74be 433e 83be 5c3e d7bd 2bbe
000001d0: 94be 943e acbc 84be 57be 1f3c ef3d 703e
000001e0: 45bd 1dbe a4bd 60bc 5e3e f2bd 213e 073e
000001f0: 32be efbd 3e3e 85be 89bd 32bc 163e 92be

layer_10.Uk bf16 [64, 4]
0.10595703 0.14355469 0.18359375 0.21386719 0.10107422 -0.014892578 -0.171875 0.234375
0.056884766 -0.26757812 -0.03930664 -0.23046875 0.119140625 -0.28515625 0.104003906 0.22070312
-0.22851562 0.27539062 0.051757812 -0.010314941 -0.22460938 0.09814453 0.15722656 -0.075683594
0.05102539 0.11425781 0.040527344 0.05444336 -0.036621094 0.28710938 0.15917969 0.057373047
0.15722656 0.083984375 0.20117188 0.24707031 0.15625 0.21484375 -0.07861328 0.03881836
0.007080078 -0.03149414 0.17089844 -0.21679688 -0.140625 0.017822266 0.27539062 -0.22167969
0.044677734 -0.24511719 -0.068847656 -0.21289062 0.010864258 -0.04638672 -0.055419922 -0.22460938
0.045898438 -0.27539062 -0.25976562 0.26367188 0.14160156 0.2734375 0.13964844 0.20996094
0.029907227 -0.27539062 0.10839844 -0.20703125 -0.10449219 -0.26757812 -0.27734375 0.107910156
-0.26367188 -0.14746094 -0.15820312 -0.087890625 0.22363281 -0.16210938 -0.078125 0.12890625
0.09814453 0.25585938 0.072753906 0.15722656 0.07763672 -0.18359375 0.11035156 0.015319824
-0.107910156 0.17675781 0.05908203 0.234375 -0.05053711 -0.25 0.0390625 0.29296875
-0.15527344 -0.25390625 -0.19921875 -0.26757812 0.2578125 -0.28125 0.027954102 0.23144531
0.09472656 -0.11376953 -0.20605469 -0.20214844 -0.038085938 -0.15039062 -0.19726562 -0.110839844
-0.076660156 -0.14257812 -0.19726562 -0.25195312 -0.20019531 -0.21875 0.055664062 -0.016845703
0.25 -0.1484375 0.26171875 -0.21191406 0.01171875 -0.107910156 0.08984375 -0.26367188
0.021484375 -0.1953125 -0.23632812 -0.19921875 0.07519531 0.29296875 -0.1796875 0.13085938
-0.15917969 0.041503906 -0.1328125 -0.1640625 -0.140625 -0.13769531 0.29296875 0.15234375
-0.09472656 0.13671875 -0.13769531 0.10595703 0.0023651123 -0.09326172 0.042236328 -0.2578125
0.27539062 -0.27929688 0.09863281 -0.021850586 0.19628906 -0.115234375 0.039794922 0.20605469
-0.07714844 0.22167969 -0.27734375 0.1171875 0.24902344 0.19824219 -0.23828125 -0.03564453
0.07324219 0.16699219 0.041992188 -0.13964844 0.20605469 0.04321289 0.19140625 -0.16894531
-0.12597656 -0.06738281 0.008483887 0.18261719 -0.26171875 0.044433594 0.2421875 0.01586914
0.017333984 -0.16113281 0.045654297 -0.23339844 0.14453125 -0.15234375 0.009399414 0.20800781
0.29296875 0.119628906 -0.234375 0.26367188 0.11279297 -0.08203125 0.28320312 0.14550781
0.033447266 -0.03515625 -0.24804688 0.28320312 0.11621094 -0.048828125 -0.21679688 -0.28125
0.1015625 0.17089844 0.28515625 0.041259766 0.20214844 0.107421875 -0.17480469 -0.140625
0.140625 -0.26757812 -0.09716797 0.25390625 0.15917969 0.15136719 0.24804688 0.27734375
-0.265625 0.28125 -0.22851562 -0.21582031 0.013916016 -0.19140625 0.24316406 -0.23828125
0.26953125 -0.068359375 -0.21386719 0.25976562 0.12207031 0.24414062 -0.16015625 -0.12597656
0.2890625 -0.06542969 -0.15527344 0.047851562 -0.1015625 -0.25195312 -0.1328125 0.011657715
0.024169922 0.24414062 0.08203125 -0.25390625 0.076660156 0.27148438 0.26953125 0.29492188
00000000: d93d 133e 3c3e 5b3e cf3d 74bc 30be 703e
00000010: 693d 89be 21bd 6cbe f43d 92be d53d 623e
00000020: 6abe 8d3e 543d 29bc 66be c93d 213e 9bbd
00000030: 513d ea3d 263d 5f3d 16bd 933e 233e 6b3d
00000040: 213e ac3d 4e3e 7d3e 203e 5c3e a1bd 1f3d
00000050: e83b 01bd 2f3e 5ebe 10be 923c 8d3e 63be
00000060: 373d 7bbe 8dbd 5abe 323c 3ebd 63bd 66be
00000070: 3c3d 8dbe 85be 873e 113e 8c3e 0f3e 573e
00000080: f53c 8dbe de3d 54be d6bd 89be 8ebe dd3d
00000090: 87be 17be 22be b4bd 653e 26be a0bd 043e
000000a0: c93d 833e 953d 213e 9f3d 3cbe e23d 7b3c
000000b0: ddbd 353e 723d 703e 4fbd 80be 203d 963e
000000c0: 1fbe 82be 4cbe 89be 843e 90be e53c 6d3e
000000d0: c23d e9bd 53be 4fbe 1cbd 1abe 4abe e3bd
000000e0: 9dbd 12be 4abe 81be 4dbe 60be 643d 8abc
000000f0: 803e 18be 863e 59be 403c ddbd b83d 87be
00000100: b03c 48be 72be 4cbe 9a3d 963e 38be 063e
00000110: 23be 2a3d 08be 28be 10be 0dbe 963e 1c3e
00000120: c2bd 0c3e 0dbe d93d 1b3b bfbd 2d3d 84be
00000130: 8d3e 8fbe ca3d b3bc 493e ecbd 233d 533e
00000140: 9ebd 633e 8ebe f03d 7f3e 4b3e 74be 12bd
00000150: 963d 2b3e 2c3d 0fbe 533e 313d 443e 2dbe
00000160: 01be 8abd 0b3c 3b3e 86be 363d 783e 823c
00000170: 8e3c 25be 3b3d 6fbe 143e 1cbe 1a3c 553e
00000180: 963e f53d 70be 873e e73d a8bd 913e 153e
00000190: 093d 10bd 7ebe 913e ee3d 48bd 5ebe 90be
000001a0: d03d 2f3e 923e 293d 4f3e dc3d 33be 10be
000001b0: 103e 89be c7bd 823e 233e 1b3e 7e3e 8e3e
000001c0: 88be 903e 6abe 5dbe 643c 44be 793e 74be
000001d0: 8a3e 8cbd 5bbe 853e fa3d 7a3e 24be 01be
000001e0: 943e 86bd 1fbe 443d d0bd 81be 08be 3f3c
000001f0: c63c 7a3e a83d 82be 9d3d 8b3e 8a3e 973e

layer_10.Wv bf16 [64, 4]
-0.118652344 -0.22949219 -0.1328125 0.02355957 -0.04345703 -0.26171875 0.16308594 0.09472656
0.059570312 0.06982422 0.045654297 0.22851562 0.015625 -0.04345703 -0.017211914 0.18554688
0.06542969 0.11816406 0.07080078 -0.047607422 -0.033203125 0.103515625 0.18457031 0.17382812
0.24121094 -0.19921875 0.051757812 0.09667969 0.09667969 -0.22851562 -0.23046875 0.12060547
0.24609375 -0.07470703 -0.17675781 0.15332031 -0.29492188 0.19726562 0.27148438 -0.16210938
0.08642578 0.27929688 0.12402344 0.17285156 0.20605469 0.13867188 -0.2890625 0.016601562
0.09375 -0.032958984 0.011413574 -0.16601562 0.21386719 0.034179688 -0.15625 -0.2734375
0.03540039 -0.28710938 -0.10546875 0.17675781 0.25390625 0.08642578 -0.19824219 0.064453125
-0.115234375 0.064453125 0.07714844 -0.031982422 0.22363281 0.13476562 -0.25 0.24707031
0.0022277832 -0.20117188 0.014099121 -0.09765625 -0.036865234 0.100097656 0.08105469 -0.030761719
0.14648438 -0.02758789 -0.02709961 0.26953125 0.122558594 0.12695312 -0.17578125 0.16601562
0.0054016113 0.25976562 -0.265625 -0.022460938 0.20117188 -0.29492188 -0.100097656 0.043945312
0.21289062 0.03881836 0.12060547 -0.18359375 0.19140625 0.03540039 0.12792969 -0.16308594
0.23535156 -0.087890625 0.021850586 0.08886719 -0.16796875 -0.019042969 -0.09326172 -0.13183594
0.16503906 -0.25390625 -0.029663086 0.096191406 0.14257812 -0.114746094 0.0018844604 -0.10595703
-0.07470703 -0.16113281 -0.19726562 -0.111816406 -0.265625 0.119628906 -0.033935547 -0.27734375
-0.060791016 0.013793945 0.23828125 0.14257812 -0.036865234 0.043701172 -0.20898438 0.049560547
0.16894531 0.01940918 -0.021606445 -0.19433594 -0.2578125 -0.036132812 -0.21972656 0.26757812
-0.032958984 -0.061035156 -0.2421875 0.13378906 0.0072631836 0.24121094 -0.27148438 0.053710938
0.17089844 -0.07519531 0.27929688 -0.07421875 0.18261719 0.2734375 -0.12890625 -0.07519531
-0.14648438 0.15820312 -0.09765625 -0.1328125 -0.21289062 -0.13769531 -0.015991211 0.20019531
-0.296875 0.018676758 0.12890625 -0.08496094 -0.10205078 0.24609375 -0.110839844 -0.08886719
-0.045410156 0.14453125 0.05517578 0.20019531 0.16503906 -0.091796875 -0.18457031 0.06542969
-0.0039367676 -0.25976562 0.25195312 -0.20996094 -0.15039062 0.1875 -0.1875 -0.032714844
0.28515625 0.07470703 0.033203125 0.13867188 0.18945312 -0.25 -0.15722656 0.043945312
0.18847656 0.11279297 -0.29296875 0.18847656 0.23632812 -0.2109375 0.27734375 0.22070312
-0.12011719 0.2578125 0.125 -0.21484375 -0.19140625 -0.08203125 0.15039062 -0.12890625
-0.10498047 0.032958984 0.125 -0.036865234 -0.25976562 -0.03149414 -0.11328125 -0.123535156
0.15039062 0.040039062 0.08691406 0.012817383 -0.20898438 0.0078125 -0.13085938 -0.26757812
0.23632812 0.25976562 -0.044921875 -0.15234375 0.119140625 0.10253906 0.16015625 -0.23242188
-0.111328125 0.12988281 0.068359375 -0.19335938 -0.15820312 -0.03857422 0.12695312 -0.05517578
0.06542969 0.23925781 -0.17773438 0.03857422 0.015625 0.05126953 0.03515625 0.096191406
00000000: f3bd 6bbe 08be c13c 32bd 86be 273e c23d
00000010: 743d 8f3d 3b3d 6a3e 803c 32bd 8dbc 3e3e
00000020: 863d f23d 913d 43bd 08bd d43d 3d3e 323e
00000030: 773e 4cbe 543d c63d c63d 6abe 6cbe f73d
00000040: 7c3e 99bd 35be 1d3e 97be 4a3e 8b3e 26be
00000050: b13d 8f3e fe3d 313e 533e 0e3e 94be 883c
00000060: c03d 07bd 3b3c 2abe 5b3e 0c3d 20be 8cbe
00000070: 113d 93be d8bd 353e 823e b13d 4bbe 843d
00000080: ecbd 843d 9e3d 03bd 653e 0a3e 80be 7d3e
00000090: 123b 4ebe 673c c8bd 17bd cd3d a63d fcbc
000000a0: 163e e2bc debc 8a3e fb3d 023e 34be 2a3e
000000b0: b13b 853e 88be b8bc 4e3e 97be cdbd 343d
000000c0: 5a3e 1f3d f73d 3cbe 443e 113d 033e 27be
000000d0: 713e b4bd b33c b63d 2cbe 9cbc bfbd 07be
000000e0: 293e 82be f3bc c53d 123e ebbd f73a d9bd
000000f0: 99bd 25be 4abe e5bd 88be f53d 0bbd 8ebe
00000100: 79bd 623c 743e 123e 17bd 333d 56be 4b3d
00000110: 2d3e 9f3c b1bc 47be 84be 14bd 61be 893e
00000120: 07bd 7abd 78be 093e ee3b 773e 8bbe 5c3d
00000130: 2f3e 9abd 8f3e 98bd 3b3e 8c3e 04be 9abd
00000140: 16be 223e c8bd 08be 5abe 0dbe 83bc 4d3e
00000150: 98be 993c 043e aebd d1bd 7c3e e3bd b6bd
00000160: 3abd 143e 623d 4d3e 293e bcbd 3dbe 863d
00000170: 81bb 85be 813e 57be 1abe 403e 40be 06bd
00000180: 923e 993d 083d 0e3e 423e 80be 21be 343d
00000190: 413e e73d 96be 413e 723e 58be 8e3e 623e
000001a0: f6bd 843e 003e 5cbe 44be a8bd 1a3e 04be
000001b0: d7bd 073d 003e 17bd 85be 01bd e8bd fdbd
000001c0: 1a3e 243d b23d 523c 56be 003c 06be 89be
000001d0: 723e 853e 38bd 1cbe f43d d23d 243e 6ebe
000001e0: e4bd 053e 8c3d 46be 22be 1ebd 023e 62bd
000001f0: 863d 753e 36be 1e3d 803c 523d 103d c53d

layer_10.Uv bf16 [64, 4]
0.08496094 0.14257812 0.29296875 0.28320312 0.12597656 -0.076660156 0.23242188 -0.17382812
0.015991211 -0.17480469 0.07373047 -0.18359375 0.17675781 0.028564453 -0.18652344 0.087402344
-0.18359375 0.17480469 -0.038085938 0.1484375 -0.15527344 -0.17382812 0.2421875 0.052978516
-0.087402344 0.083984375 -0.21289062 0.020874023 -0.19921875 -0.18457031 -0.06298828 0.025512695
0.16601562 0.12109375 0.083496094 -0.21679688 -0.03930664 0.18847656 -0.24121094 -0.20117188
-0.18847656 -0.28125 0.14550781 0.16113281 -0.00079345703 -0.076660156 -0.034423828 -0.03564453
-0.057861328 -0.234375 0.18457031 -0.19921875 0.28125 -0.006225586 -0.20507812 -0.0625
0.25390625 0.023071289 0.119140625 -0.03881836 -0.017456055 0.13378906 0.044921875 0.21972656
0.2734375 -0.21679688 0.11230469 0.18359375 -0.28515625 0.27734375 -0.15917969 0.18847656
0.012084961 -0.03857422 -0.24902344 -0.27734375 0.2890625 -0.050048828 0.014038086 0.26757812
0.0115356445 -0.17480469 0.26367188 -0.1171875 0.28710938 -0.034179688 0.111816406 0.03491211
-0.1640625 0.23339844 -0.28320312 -0.03564453 0.15722656 0.03125 0.17578125 0.25
-0.23535156 0.009643555 -0.10839844 0.25390625 -0.017700195 -0.14257812 -0.013305664 0.09716797
0.15234375 -0.18457031 -0.13964844 -0.07714844 0.017089844 0.23828125 0.01159668 0.083496094
-0.016479492 -0.20019531 -0.26367188 -0.041015625 -0.099609375 0.107910156 -0.009460449 0.27539062
-0.22265625 0.23535156 -0.09033203 -0.052246094 0.21679688 0.20019531 -0.040039062 0.12792969
-0.22558594 0.14550781 -0.22851562 -0.055908203 0.1640625 0.010131836 0.015136719 0.1796875
-0.035888672 -0.11230469 0.2890625 -0.17675781 0.296875 -0.28710938 -0.03930664 -0.071777344
0.042236328 0.029785156 0.18554688 0.24023438 0.24609375 -0.18261719 -0.043945312 -0.09863281
0.12890625 0.21386719 -0.119628906 -0.049560547 0.17382812 0.18847656 0.034423828 0.15429688
-0.12988281 -0.030395508 -0.024902344 -0.296875 -0.18359375 -0.20117188 -0.027709961 0.234375
0.265625 0.140625 -0.017578125 -0.12011719 -0.26757812 -0.05493164 -0.23046875 0.030761719
-0.19335938 -0.10253906 0.19921875 0.28125 0.21484375 0.0703125 0.042236328 -0.08886719
-0.14257812 0.16308594 0.06738281 0.18359375 -0.19824219 -0.20605469 -0.24023438 -0.005218506
0.13671875 0.13867188 -0.10058594 0.24902344 0.03540039 -0.16992188 0.25585938 -0.29296875
0.091308594 -0.24316406 0.14941406 -0.26171875 0.28515625 -0.0625 -0.18554688 -0.088378906
0.22851562 -0.27734375 -0.09814453 0.18164062 0.29296875 -0.12158203 0.17773438 -0.0234375
0.083984375 0.26757812 0.017578125 -0.27148438 0.05053711 0.099121094 -0.039794922 -0.29101562
0.26171875 -0.22265625 -0.2890625 0.07714844 0.029418945 -0.12207031 -0.29101562 -0.12109375
0.109375 0.24121094 -0.08154297 0.13378906 -0.12109375 -0.14355469 0.28710938 0.21875
-0.2421875 -0.22167969 -0.080566406 -0.09814453 -0.18457031 0.203125 0.11328125 0.06347656
-0.0234375 0.10595703 -0.25195312 0.2734375 0.036376953 -0.23828125 0.28320312 0.21191406
00000000: ae3d 123e 963e 913e 013e 9dbd 6e3e 32be
00000010: 833c 33be 973d 3cbe 353e ea3c 3fbe b33d
00000020: 3cbe 333e 1cbd 183e 1fbe 32be 783e 593d
00000030: b3bd ac3d 5abe ab3c 4cbe 3dbe 81bd d13c
00000040: 2a3e f83d ab3d 5ebe 21bd 413e 77be 4ebe
00000050: 41be 90be 153e 253e 50ba 9dbd 0dbd 12bd
00000060: 6dbd 70be 3d3e 4cbe 903e ccbb 52be 80bd
00000070: 823e bd3c f43d 1fbd 8fbc 093e 383d 613e
00000080: 8c3e 5ebe e63d 3c3e 92be 8e3e 23be 413e
00000090: 463c 1ebd 7fbe 8ebe 943e 4dbd 663c 893e
000000a0: 3d3c 33be 873e f0bd 933e 0cbd e53d 0f3d
000000b0: 28be 6f3e 91be 12bd 213e 003d 343e 803e
000000c0: 71be 1e3c debd 823e 91bc 12be 5abc c73d
000000d0: 1c3e 3dbe 0fbe 9ebd 8c3c 743e 3e3c ab3d
000000e0: 87bc 4dbe 87be 28bd ccbd dd3d 1bbc 8d3e
000000f0: 64be 713e b9bd 56bd 5e3e 4d3e 24bd 033e
00000100: 67be 153e 6abe 65bd 283e 263c 783c 383e
00000110: 13bd e6bd 943e 35be 983e 93be 21bd 93bd
00000120: 2d3d f43c 3e3e 763e 7c3e 3bbe 34bd cabd
00000130: 043e 5b3e f5bd 4bbd 323e 413e 0d3d 1e3e
00000140: 05be f9bc ccbc 98be 3cbe 4ebe e3bc 703e
00000150: 883e 103e 90bc f6bd 89be 61bd 6cbe fc3c
00000160: 46be d2bd 4c3e 903e 5c3e 903d 2d3d b6bd
00000170: 12be 273e 8a3d 3c3e 4bbe 53be 76be abbb
00000180: 0c3e 0e3e cebd 7f3e 113d 2ebe 833e 96be
00000190: bb3d 79be 193e 86be 923e 80bd 3ebe b5bd
000001a0: 6a3e 8ebe c9bd 3a3e 963e f9bd 363e c0bc
000001b0: ac3d 893e 903c 8bbe 4f3d cb3d 23bd 95be
000001c0: 863e 64be 94be 9e3d f13c fabd 95be f8bd
000001d0: e03d 773e a7bd 093e f8bd 13be 933e 603e
000001e0: 78be 63be a5bd c9bd 3dbe 503e e83d 823d
000001f0: c0bc d93d 81be 8c3e 153d 74be 913e 593e

layer_10.gate_k.net.0.weight bf16 [4, 64]
-0.08691406 -0.06201172 0.057861328 -0.10888672 -0.12011719 -0.0013656616 0.064453125 -0.125
0.049560547 -0.11328125 0.078125 -0.076171875 0.055908203 0.03515625 -0.025268555 -0.040771484
0.103027344 0.049316406 0.0016860962 0.10888672 -0.016479492 0.068359375 0.052246094 0.008361816
0.06689453 -0.064453125 0.09667969 -0.048583984 -0.041748047 -0.10888672 0.109375 -0.020141602
0.08642578 0.018188477 -0.09716797 0.010498047 0.072753906 -0.013977051 -0.029418945 -0.029785156
0.08300781 0.03125 -0.10498047 -0.023925781 -0.032958984 -0.08642578 0.020385742 0.08984375
-0.025268555 0.06933594 0.0043945312 0.05834961 -0.078125 0.0012588501 -0.123535156 0.006164551
-0.016113281 0.010803223 0.060058594 0.052490234 -0.09423828 0.11328125 0.08203125 -0.030029297
-0.076660156 0.011352539 0.013366699 -0.110839844 0.09863281 0.0074157715 -0.111328125 -0.02722168
-0.10888672 0.009033203 -0.00592041 -0.071777344 -0.115722656 -0.00970459 -0.018432617 -0.043945312
0.030395508 -0.0020141602 0.07714844 -0.1015625 0.09716797 0.096191406 0.06689453 0.0073547363
-0.12207031 -0.044921875 0.09326172 -0.091796875 0.068847656 -0.053466797 -0.12109375 0.07763672
0.06640625 0.026489258 0.02331543 -0.107910156 0.0024108887 -0.053710938 0.083496094 0.041503906
0.028442383 0.002670288 -0.083984375 -0.056640625 0.10205078 0.12158203 0.091308594 0.063964844
-0.111816406 -0.052246094 0.018676758 -0.12402344 -0.05810547 0.11376953 -0.015136719 -0.033447266
-0.012817383 0.05810547 0.119628906 0.044189453 -0.024536133 0.06298828 0.071777344 -0.015319824
-0.041503906 0.036376953 -0.092285156 -0.10205078 -0.06982422 -0.0023651123 -0.06982422 0.064453125
-0.10986328 0.092285156 -0.033691406 0.043701172 0.053466797 -0.09277344 -0.018310547 -0.011352539
-0.057617188 -0.015014648 0.087890625 -0.053222656 -0.007293701 0.095703125 0.056640625 -0.056152344
-0.020996094 -0.01953125 0.014282227 -0.010192871 0.067871094 -0.088378906 -0.034179688 -0.03173828
-0.003479004 -0.0009384155 -0.111328125 0.018798828 -0.0033874512 0.078125 -0.03125 0.115722656
0.021484375 0.079589844 -0.122558594 -0.12207031 0.0017623901 0.021484375 -0.043945312 0.12011719
-0.055419922 0.015136719 0.10839844 -0.036865234 0.11669922 -0.043945312 0.07373047 -0.08984375
-0.050048828 -0.00041770935 0.114746094 -0.061767578 0.06542969 -0.029785156 -0.008850098 -0.021606445
0.087890625 0.07080078 0.07910156 -0.10449219 0.123535156 0.11328125 0.091308594 -0.067871094
0.03112793 0.09326172 0.06347656 0.041503906 0.040527344 -0.05419922 0.095703125 -0.09375
0.099121094 0.05493164 -0.034423828 -0.07714844 -0.03112793 -0.048339844 0.053955078 0.008972168
0.07128906 -0.055664062 -0.11328125 -0.08300781 -0.10888672 0.016113281 0.011230469 -0.08691406
0.09375 -0.047607422 0.013427734 0.021362305 -0.028442383 0.095703125 -0.036621094 0.051513672
-0.080566406 0.12451172 0.037353516 -0.028808594 -0.064453125 -0.044677734 -0.08496094 -0.103027344
-0.024047852 0.0546875 0.12158203 -0.11767578 0.036376953 0.037841797 -0.030395508 -0.092285156
-0.10595703 -0.040771484 0.06933594 0.06738281 -0.0022888184 0.10644531 0.079589844 0.009094238
00000000: b2bd 7ebd 6d3d dfbd f6bd b3ba 843d 00be
00000010: 4b3d e8bd a03d 9cbd 653d 103d cfbc 27bd
00000020: d33d 4a3d dd3a df3d 87bc 8c3d 563d 093c
00000030: 893d 84bd c63d 47bd 2bbd dfbd e03d a5bc
00000040: b13d 953c c7bd 2c3c 953d 65bc f1bc f4bc
00000050: aa3d 003d d7bd c4bc 07bd b1bd a73c b83d
00000060: cfbc 8e3d 903b 6f3d a0bd a53a fdbd ca3b
00000070: 84bc 313c 763d 573d c1bd e83d a83d f6bc
00000080: 9dbd 3a3c 5b3c e3bd ca3d f33b e4bd dfbc
00000090: dfbd 143c c2bb 93bd edbd 1fbc 97bc 34bd
000000a0: f93c 04bb 9e3d d0bd c73d c53d 893d f13b
000000b0: fabd 38bd bf3d bcbd 8d3d 5bbd f8bd 9f3d
000000c0: 883d d93c bf3c ddbd 1e3b 5cbd ab3d 2a3d
000000d0: e93c 2f3b acbd 68bd d13d f93d bb3d 833d
000000e0: e5bd 56bd 993c febd 6ebd e93d 78bc 09bd
000000f0: 52bc 6e3d f53d 353d c9bc 813d 933d 7bbc
00000100: 2abd 153d bdbd d1bd 8fbd 1bbb 8fbd 843d
00000110: e1bd bd3d 0abd 333d 5b3d bebd 96bc 3abc
00000120: 6cbd 76bc b43d 5abd efbb c43d 683d 66bd
00000130: acbc a0bc 6a3c 27bc 8b3d b5bd 0cbd 02bd
00000140: 64bb 76ba e4bd 9a3c 5ebb a03d 00bd ed3d
00000150: b03c a33d fbbd fabd e73a b03c 34bd f63d
00000160: 63bd 783c de3d 17bd ef3d 34bd 973d b8bd
00000170: 4dbd dbb9 eb3d 7dbd 863d f4bc 11bc b1bc
00000180: b43d 913d a23d d6bd fd3d e83d bb3d 8bbd
00000190: ff3c bf3d 823d 2a3d 263d 5ebd c43d c0bd
000001a0: cb3d 613d 0dbd 9ebd ffbc 46bd 5d3d 133c
000001b0: 923d 64bd e8bd aabd dfbd 843c 383c b2bd
000001c0: c03d 43bd 5c3c af3c e9bc c43d 16bd 533d
000001d0: a5bd ff3d 193d ecbc 84bd 37bd aebd d3bd
000001e0: c5bc 603d f93d f1bd 153d 1b3d f9bc bdbd
000001f0: d9bd 27bd 8e3d 8a3d 16bb da3d a33d 153c

layer_10.gate_k.net.0.bias bf16 [4]
-0.028198242 0.10595703 -0.012756348 0.05493164
00000000: e7bc d93d 51bc 613d

layer_10.gate_k.net.2.weight bf16 [4, 4]
0.21972656 -0.28320312 0.42382812 -0.17285156 0.026733398 0.421875 -0.053710938 -0.43554688
0.13671875 0.001663208 0.45898438 -0.16796875 -0.12597656 -0.068847656 0.021606445 -0.08154297
00000000: 613e 91be d93e 31be db3c d83e 5cbd dfbe
00000010: 0c3e da3a eb3e 2cbe 01be 8dbd b13c a7bd

layer_10.gate_k.net.2.bias bf16 [4]
0.11376953 -0.20019531 -0.375 0.33007812
00000000: e93d 4dbe c0be a93e

layer_10.gate_v.net.0.weight bf16 [4, 64]
-0.09716797 -0.03173828 0.083496094 -0.08642578 -0.007873535 -0.032470703 0.078125 0.075683594
0.07128906 0.079589844 0.10644531 0.11279297 -0.0126953125 0.0625 0.05126953 0.03491211
-0.075683594 0.03125 -0.03149414 0.118652344 -0.12158203 -0.0625 0.023071289 0.068847656
-0.037597656 -0.12158203 0.02319336 0.033203125 -0.03125 -0.05517578 0.020751953 0.05419922
0.034179688 -0.123535156 -0.09082031 -0.03955078 0.038330078 -0.045654297 0.10253906 0.09863281
0.053955078 -0.103515625 0.06640625 0.08544922 0.10595703 -0.041259766 0.07519531 -0.033203125
-0.107421875 0.030151367 -0.06982422 0.11669922 -0.076660156 0.11328125 -0.056396484 0.068847656
0.095214844 0.067871094 -0.029907227 -0.071777344 0.064941406 0.03564453 -0.03173828 0.09033203
-0.10546875 0.067871094 0.044433594 0.04711914 0.103027344 0.03173828 -0.021484375 0.0019073486
-0.032226562 0.10058594 -0.125 -0.037353516 -0.064453125 0.123046875 -0.039794922 -0.045410156
-0.083496094 -0.0017471313 0.080078125 -0.11035156 0.08544922 0.09326172 0.06738281 -0.0625
0.09082031 0.049072266 0.040771484 0.05053711 0.088378906 -0.037353516 -0.05078125 -0.01171875
0.09765625 -0.03857422 0.119140625 -0.017211914 -0.033203125 -0.002822876 -0.024047852 0.012145996
-0.043701172 0.063964844 -0.0546875 0.0703125 -0.031982422 -0.08203125 0.039794922 0.119140625
0.10888672 0.0017852783 -0.10058594 0.11376953 0.09472656 0.034179688 0.042236328 -0.096191406
-0.091308594 -0.025390625 -0.115722656 0.010437012 0.03173828 -0.033935547 -0.111816406 -0.11230469
0.100097656 0.045166016 -0.046142578 -0.104003906 0.104003906 0.11328125 0.096191406 -0.040527344
-0.0625 -0.056152344 -0.048828125 -0.06347656 0.084472656 -0.064453125 0.079589844 -0.0028076172
0.043701172 0.049072266 0.032958984 0.0859375 0.04711914 -0.08935547 0.026000977 -0.10205078
-0.010498047 -0.018432617 0.038085938 0.07470703 -0.06689453 0.10205078 0.0625 0.022460938
-0.042236328 -0.080078125 0.088378906 0.07519531 -0.031982422 0.08984375 0.11669922 0.12158203
0.03930664 -0.057861328 -0.04248047 -0.053710938 0.04296875 0.06347656 0.032958984 0.049316406
0.03149414 -0.09716797 0.11425781 -0.08154297 0.044433594 -0.031982422 0.10498047 0.11425781
-0.1171875 0.095214844 0.049560547 -0.03173828 -0.035888672 0.051513672 0.03930664 -0.032226562
0.0625 -0.032226562 -0.006011963 0.068847656 0.072753906 -0.040527344 -0.03149414 -0.031982422
0.11816406 -0.037353516 0.0625 0.111816406 0.029907227 -0.088378906 -0.08300781 0.115234375
-0.037597656 -0.0625 -0.111816406 0.07519531 -0.10498047 -0.05908203 -0.044677734 -0.03149414
-0.0625 -0.09863281 -0.11669922 -0.04296875 0.076660156 -0.048095703 0.083496094 0.03857422
-0.09423828 0.047607422 -0.060302734 0.068847656 -0.02368164 -0.03955078 0.03173828 -0.083984375
0.0625 -0.05517578 0.10205078 -0.037109375 0.0625 0.072753906 0.080078125 -0.09472656
-0.088378906 -0.052001953 0.11425781 -0.109375 0.043945312 -0.08300781 -0.10449219 -0.12402344
0.06640625 0.040283203 -0.068847656 -0.059814453 0.083984375 0.0625 0.0625 0.0625
00000000: c7bd 02bd ab3d b1bd 01bc 05bd a03d 9b3d
00000010: 923d a33d da3d e73d 50bc 803d 523d 0f3d
00000020: 9bbd 003d 01bd f33d f9bd 80bd bd3c 8d3d
00000030: 1abd f9bd be3c 083d 00bd 62bd aa3c 5e3d
00000040: 0c3d fdbd babd 22bd 1d3d 3bbd d23d ca3d
00000050: 5d3d d4bd 883d af3d d93d 29bd 9a3d 08bd
00000060: dcbd f73c 8fbd ef3d 9dbd e83d 67bd 8d3d
00000070: c33d 8b3d f5bc 93bd 853d 123d 02bd b93d
00000080: d8bd 8b3d 363d 413d d33d 023d b0bc fa3a
00000090: 04bd ce3d 00be 19bd 84bd fc3d 23bd 3abd
000000a0: abbd e5ba a43d e2bd af3d bf3d 8a3d 80bd
000000b0: ba3d 493d 273d 4f3d b53d 19bd 50bd 40bc
000000c0: c83d 1ebd f43d 8dbc 08bd 39bb c5bc 473c
000000d0: 33bd 833d 60bd 903d 03bd a8bd 233d f43d
000000e0: df3d ea3a cebd e93d c23d 0c3d 2d3d c5bd
000000f0: bbbd d0bc edbd 2b3c 023d 0bbd e5bd e6bd
00000100: cd3d 393d 3dbd d5bd d53d e83d c53d 26bd
00000110: 80bd 66bd 48bd 82bd ad3d 84bd a33d 38bb
00000120: 333d 493d 073d b03d 413d b7bd d53c d1bd
00000130: 2cbc 97bc 1c3d 993d 89bd d13d 803d b83c
00000140: 2dbd a4bd b53d 9a3d 03bd b83d ef3d f93d
00000150: 213d 6dbd 2ebd 5cbd 303d 823d 073d 4a3d
00000160: 013d c7bd ea3d a7bd 363d 03bd d73d ea3d
00000170: f0bd c33d 4b3d 02bd 13bd 533d 213d 04bd
00000180: 803d 04bd c5bb 8d3d 953d 26bd 01bd 03bd
00000190: f23d 19bd 803d e53d f53c b5bd aabd ec3d
000001a0: 1abd 80bd e5bd 9a3d d7bd 72bd 37bd 01bd
000001b0: 80bd cabd efbd 30bd 9d3d 45bd ab3d 1e3d
000001c0: c1bd 433d 77bd 8d3d c2bc 22bd 023d acbd
000001d0: 803d 62bd d13d 18bd 803d 953d a43d c2bd
000001e0: b5bd 55bd ea3d e0bd 343d aabd d6bd febd
000001f0: 883d 253d 8dbd 75bd ac3d 803d 803d 803d

layer_10.gate_v.net.0.bias bf16 [4]
0.0625 0.063964844 0.09033203 -0.07763672
00000000: 803d 833d b93d 9fbd

layer_10.gate_v.net.2.weight bf16 [4, 4]
-0.31445312 0.15917969 0.33203125 -0.42382812 0.47851562 -0.03125 -0.37109375 0.16210938
-0.484375 0.40820312 -0.48632812 -0.453125 -0.27148438 0.29882812 -0.19140625 -0.17773438
00000000: a1be 233e aa3e d9be f53e 00bd bebe 263e
00000010: f8be d13e f9be e8be 8bbe 993e 44be 36be

layer_10.gate_v.net.2.bias bf16 [4]
0.44335938 0.43359375 0.41015625 0.06347656
00000000: e33e de3e d23e 823d

layer_11.Wk bf16 [64, 4]
-0.18066406 -0.25 -0.14746094 0.2734375 0.25195312 -0.03466797 -0.053955078 0.03930664
0.2265625 0.0015716553 -0.15722656 -0.07373047 0.064453125 -0.28515625 0.060791016 -0.05444336
-0.17675781 -0.296875 -0.15527344 -0.12890625 0.111328125 0.0138549805 0.013366699 0.13574219
-0.28710938 -0.20214844 0.076660156 0.099609375 0.038085938 0.24804688 -0.0025634766 -0.0033416748
-0.26757812 -0.2109375 -0.2734375 0.11328125 -0.1328125 -0.25390625 0.15234375 -0.06542969
-0.2265625 -0.024780273 0.12207031 -0.11767578 0.0033111572 -0.036865234 -0.25195312 0.053955078
-0.067871094 0.14550781 -0.23242188 0.28710938 -0.057861328 -0.029052734 0.10107422 0.030151367
0.0625 0.24902344 0.12207031 -0.039794922 -0.16015625 -0.18164062 0.02758789 0.23046875
0.265625 0.028076172 -0.055908203 -0.0047912598 0.060546875 -0.27929688 -0.08691406 -0.18847656
0.2578125 -0.2734375 0.0077819824 0.0057373047 0.024169922 -0.1796875 -0.05102539 0.22265625
-0.10058594 -0.04272461 0.10449219 0.18066406 -0.12011719 0.265625 0.25976562 -0.1640625
0.28125 -0.21386719 -0.26171875 -0.17871094 0.115234375 -0.2578125 -0.13183594 -0.029052734
-0.1640625 -0.067871094 0.12988281 0.12890625 -0.140625 -0.20019531 0.060791016 -0.20800781
-0.028686523 -0.071777344 0.13085938 -0.114746094 -0.27929688 0.0008277893 0.103027344 0.20898438
0.15625 -0.13867188 -0.029418945 0.0067443848 -0.25 -0.14550781 -0.107421875 -0.049560547
-0.026855469 0.002319336 0.030273438 -0.15136719 -0.06542969 -0.08935547 -0.14257812 -0.2734375
-0.037597656 0.040283203 -0.07080078 -0.20703125 0.27148438 0.022094727 0.17773438 -0.07373047
0.114746094 0.021606445 -0.09033203 -0.21679688 0.07080078 0.17871094 0.07470703 -0.26367188
0.29492188 0.13183594 -0.22363281 -0.037353516 0.0115356445 -0.044677734 0.09375 0.23632812
-0.14941406 0.051513672 0.171875 -0.13867188 0.109375 -0.019042969 0.15136719 -0.29492188
0.041259766 -0.09667969 0.27929688 0.009277344 0.09375 -0.032958984 0.011108398 -0.14355469
-0.28320312 0.056640625 0.23144531 0.25390625 -0.19335938 -0.11816406 0.22363281 0.26171875
-0.011657715 0.17382812 0.14648438 0.21191406 0.171875 -0.10888672 0.25585938 -0.20996094
0.025512695 -0.15820312 0.19433594 0.140625 -0.17578125 -0.25976562 0.26757812 -0.296875
-0.27734375 0.024291992 -0.12792969 0.25976562 -0.08544922 0.296875 -0.009521484 -0.28710938
-7.867813e-06 0.15039062 -0.115722656 -0.05834961 -0.022583008 0.27929688 0.14941406 0.11035156
0.21386719 -0.019165039 0.17089844 0.18359375 0.014953613 -0.04711914 -0.23828125 -0.23144531
-0.21289062 0.18554688 0.103515625 -0.119140625 -0.16503906 0.20898438 0.01928711 0.29492188
-0.020141602 -0.23535156 -0.19824219 -0.27539062 0.20410156 -0.088378906 0.22851562 -0.115722656
-0.17578125 0.0625 0.018188477 0.28515625 0.20996094 0.09765625 -0.24316406 -0.0859375
-0.20507812 -0.075683594 0.16503906 0.0067443848 0.10498047 -0.171875 -0.04345703 0.28710938
0.13671875 -0.21484375 0.15917969 0.083984375 0.14160156 -0.28320312 0.083984375 0.2890625
00000000: 39be 80be 17be 8c3e 813e 0ebd 5dbd 213d
00000010: 683e ce3a 21be 97bd 843d 92be 793d 5fbd
00000020: 35be 98be 1fbe 04be e43d 633c 5b3c 0b3e
00000030: 93be 4fbe 9d3d cc3d 1c3d 7e3e 28bb 5bbb
00000040: 89be 58be 8cbe e83d 08be 82be 1c3e 86bd
00000050: 68be cbbc fa3d f1bd 593b 17bd 81be 5d3d
00000060: 8bbd 153e 6ebe 933e 6dbd eebc cf3d f73c
00000070: 803d 7f3e fa3d 23bd 24be 3abe e23c 6c3e
00000080: 883e e63c 65bd 9dbb 783d 8fbe b2bd 41be
00000090: 843e 8cbe ff3b bc3b c63c 38be 51bd 643e
000000a0: cebd 2fbd d63d 393e f6bd 883e 853e 28be
000000b0: 903e 5bbe 86be 37be ec3d 84be 07be eebc
000000c0: 28be 8bbd 053e 043e 10be 4dbe 793d 55be
000000d0: ebbc 93bd 063e ebbd 8fbe 593a d33d 563e
000000e0: 203e 0ebe f1bc dd3b 80be 15be dcbd 4bbd
000000f0: dcbc 183b f83c 1bbe 86bd b7bd 12be 8cbe
00000100: 1abd 253d 91bd 54be 8b3e b53c 363e 97bd
00000110: eb3d b13c b9bd 5ebe 913d 373e 993d 87be
00000120: 973e 073e 65be 19bd 3d3c 37bd c03d 723e
00000130: 19be 533d 303e 0ebe e03d 9cbc 1b3e 97be
00000140: 293d c6bd 8f3e 183c c03d 07bd 363c 13be
00000150: 91be 683d 6d3e 823e 46be f2bd 653e 863e
00000160: 3fbc 323e 163e 593e 303e dfbd 833e 57be
00000170: d13c 22be 473e 103e 34be 85be 893e 98be
00000180: 8ebe c73c 03be 853e afbd 983e 1cbc 93be
00000190: 04b7 1a3e edbd 6fbd b9bc 8f3e 193e e23d
000001a0: 5b3e 9dbc 2f3e 3c3e 753c 41bd 74be 6dbe
000001b0: 5abe 3e3e d43d f4bd 29be 563e 9e3c 973e
000001c0: a5bc 71be 4bbe 8dbe 513e b5bd 6a3e edbd
000001d0: 34be 803d 953c 923e 573e c83d 79be b0bd
000001e0: 52be 9bbd 293e dd3b d73d 30be 32bd 933e
000001f0: 0c3e 5cbe 233e ac3d 113e 91be ac3d 943e

layer_11.Uk bf16 [64, 4]
-0.2578125 -0.07080078 0.20117188 -0.060791016 -0.01184082 0.076660156 0.20019531 -0.049072266
0.053222656 0.009765625 -0.21289062 0.29296875 0.05078125 -0.060058594 0.21679688 -0.1796875
0.25 -0.265625 0.21191406 -0.009643555 0.053222656 0.06738281 -0.06591797 0.022583008
0.19628906 0.20605469 -0.014404297 -0.20996094 -0.17382812 0.21679688 -0.28710938 0.122558594
-0.18847656 0.08154297 0.24414062 -0.1953125 -0.265625 -0.22460938 0.037109375 -0.140625
0.24902344 0.15527344 -0.25976562 0.008239746 0.11376953 -0.18164062 0.28320312 -0.125
-0.0053100586 -0.24414062 0.296875 -0.13769531 0.13378906 -0.049072266 -0.05493164 -0.125
0.06738281 -0.1875 0.041992188 -0.1875 -0.27734375 -0.17773438 -0.12597656 -0.28515625
-0.28320312 -0.06689453 -0.20507812 0.25976562 0.045410156 -0.09863281 -0.080566406 -0.14453125
0.09082031 0.07763672 -0.2421875 0.265625 -0.25585938 0.22265625 0.13085938 -0.033447266
-0.008850098 0.10888672 0.24121094 0.20800781 -0.0009918213 -0.111816406 0.05029297 0.16796875
-0.125 -0.087402344 0.22265625 0.18359375 -0.0055236816 0.07910156 0.029418945 0.18457031
0.18359375 -0.033691406 0.21289062 -0.07324219 -0.18945312 -0.041503906 -0.26757812 0.040527344
-0.28515625 -0.296875 0.18847656 -0.048828125 0.17675781 0.22851562 -0.26171875 0.06298828
-0.23535156 -0.057373047 -0.083496094 0.28710938 -0.23730469 0.19140625 0.20410156 -0.22753906
0.2734375 0.265625 0.19238281 -0.140625 0.26757812 -0.15722656 -0.19921875 -0.20117188
0.15136719 -0.14746094 -0.26757812 -0.053710938 0.18554688 0.2890625 -0.1328125 0.07910156
-0.21289062 0.036376953 -0.16113281 0.15136719 0.13378906 0.095214844 0.03466797 -0.047607422
0.056396484 -0.29492188 0.032714844 0.24511719 0.12207031 0.09423828 0.13867188 0.1875
-0.13867188 -0.22265625 -0.13574219 0.25390625 -0.080078125 0.26953125 -0.21582031 -0.16503906
-0.100097656 0.171875 -0.203125 0.11328125 -0.075683594 -0.20800781 0.2109375 0.03125
-0.12060547 0.20019531 0.21191406 -0.0126953125 0.22167969 0.095703125 0.18945312 -0.08154297
0.15332031 0.16113281 -0.10839844 -0.1328125 0.0703125 0.19824219 -0.0061035156 -0.12451172
-0.061767578 -0.123535156 -0.1328125 -0.28515625 -0.020141602 -0.16601562 -0.087890625 0.04711914
0.07421875 0.24023438 -0.26367188 -0.13183594 0.13574219 0.16894531 0.27148438 0.29101562
0.21679688 0.22753906 0.22851562 0.26757812 0.072265625 0.17871094 0.15429688 0.13085938
-0.018310547 -0.22851562 0.1875 -0.011230469 -0.17675781 0.24707031 0.08154297 -0.22949219
0.16601562 0.100097656 -0.13085938 0.16894531 0.01940918 0.012939453 -0.29101562 -0.26953125
-0.24804688 0.19140625 -0.20019531 -0.21386719 0.13769531 -0.2890625 0.19335938 0.095703125
0.17089844 0.21191406 -0.07910156 -0.020019531 0.19238281 0.21191406 0.24707031 0.044189453
-0.06298828 -0.06982422 0.13476562 0.088378906 -0.021850586 -0.059814453 -0.2890625 -0.087890625
-0.2109375 0.26757812 -0.15234375 0.021118164 -0.08300781 0.15527344 -0.27539062 0.23828125
00000000: 84be 91bd 4e3e 79bd 42bc 9d3d 4d3e 49bd
00000010: 5a3d 203c 5abe 963e 503d 76bd 5e3e 38be
00000020: 803e 88be 593e 1ebc 5a3d 8a3d 87bd b93c
00000030: 493e 533e 6cbc 57be 32be 5e3e 93be fb3d
00000040: 41be a73d 7a3e 48be 88be 66be 183d 10be
00000050: 7f3e 1f3e 85be 073c e93d 3abe 913e 00be
00000060: aebb 7abe 983e 0dbe 093e 49bd 61bd 00be
00000070: 8a3d 40be 2c3d 40be 8ebe 36be 01be 92be
00000080: 91be 89bd 52be 853e 3a3d cabd a5bd 14be
00000090: ba3d 9f3d 78be 883e 83be 643e 063e 09bd
000000a0: 11bc df3d 773e 553e 82ba e5bd 4e3d 2c3e
000000b0: 00be b3bd 643e 3c3e b5bb a23d f13c 3d3e
000000c0: 3c3e 0abd 5a3e 96bd 42be 2abd 89be 263d
000000d0: 92be 98be 413e 48bd 353e 6a3e 86be 813d
000000e0: 71be 6bbd abbd 933e 73be 443e 513e 69be
000000f0: 8c3e 883e 453e 10be 893e 21be 4cbe 4ebe
00000100: 1b3e 17be 89be 5cbd 3e3e 943e 08be a23d
00000110: 5abe 153d 25be 1b3e 093e c33d 0e3d 43bd
00000120: 673d 97be 063d 7b3e fa3d c13d 0e3e 403e
00000130: 0ebe 64be 0bbe 823e a4bd 8a3e 5dbe 29be
00000140: cdbd 303e 50be e83d 9bbd 55be 583e 003d
00000150: f7bd 4d3e 593e 50bc 633e c43d 423e a7bd
00000160: 1d3e 253e debd 08be 903d 4b3e c8bb ffbd
00000170: 7dbd fdbd 08be 92be a5bc 2abe b4bd 413d
00000180: 983d 763e 87be 07be 0b3e 2d3e 8b3e 953e
00000190: 5e3e 693e 6a3e 893e 943d 373e 1e3e 063e
000001a0: 96bc 6abe 403e 38bc 35be 7d3e a73d 6bbe
000001b0: 2a3e cd3d 06be 2d3e 9f3c 543c 95be 8abe
000001c0: 7ebe 443e 4dbe 5bbe 0d3e 94be 463e c43d
000001d0: 2f3e 593e a2bd a4bc 453e 593e 7d3e 353d
000001e0: 81bd 8fbd 0a3e b53d b3bc 75bd 94be b4bd
000001f0: 58be 893e 1cbe ad3c aabd 1f3e 8dbe 743e

layer_11.Wv bf16 [64, 4]
-0.23144531 0.21777344 0.08300781 -0.23339844 0.25976562 0.26171875 0.095214844 -0.23730469
-0.08105469 0.095703125 0.064941406 0.10546875 0.17089844 -0.140625 0.10253906 0.19824219
0.28125 -0.22265625 0.15820312 -0.28710938 0.0005264282 0.18164062 -0.15429688 0.25195312
0.076171875 -0.23925781 -0.0049743652 -0.15527344 -0.27148438 0.25976562 0.16113281 -0.05834961
-0.026123047 0.24609375 0.11621094 0.26953125 -0.24804688 0.16503906 0.18554688 -0.22265625
-0.27148438 0.29296875 -0.15625 -0.20703125 -0.017211914 -0.18164062 -0.02331543 0.2890625
0.265625 -0.012145996 -0.18847656 0.12597656 0.14453125 0.040039062 -0.20507812 -0.18652344
-0.08935547 0.21875 -0.20996094 -0.26953125 0.2578125 0.1796875 0.008850098 0.067871094
-0.28515625 -0.029907227 -0.2890625 -0.20703125 -0.010375977 0.08203125 0.27148438 -0.15039062
-0.12695312 -0.099609375 0.17480469 0.0390625 -0.28125 0.11816406 -0.23242188 0.0034484863
-0.009399414 -0.26757812 -0.0390625 -0.10888672 0.079589844 0.18945312 -0.23339844 0.1953125
0.22167969 -0.09863281 -0.18457031 0.13183594 -0.28320312 -0.25585938 -0.048828125 0.20800781
-0.25 0.29296875 -0.2890625 -0.064941406 0.010925293 0.018066406 -0.25390625 0.036132812
0.23632812 0.008056641 -0.22949219 -0.059814453 0.067871094 0.056396484 -0.2109375 0.014404297
0.22070312 0.03125 -0.09765625 -0.099609375 -0.24902344 0.265625 0.0048217773 -0.15332031
0.23925781 -0.08886719 -0.087890625 -0.2578125 -0.11669922 0.24609375 -0.12988281 -0.0154418945
-0.13378906 0.14453125 0.29492188 -0.025268555 -0.24902344 -0.23925781 -0.20898438 0.296875
0.28710938 0.016479492 0.24023438 -0.088378906 -0.03173828 0.028320312 0.0107421875 -0.25195312
-0.10888672 -0.008117676 0.16992188 0.2265625 0.15332031 -0.038085938 -0.2734375 -0.22460938
-0.1796875 0.07861328 0.067871094 0.20214844 0.2734375 0.296875 0.17382812 0.29101562
-0.109375 0.09716797 0.14160156 -0.035888672 0.026611328 -0.16796875 0.092285156 -0.17480469
-0.15625 -0.017211914 0.019897461 -0.09423828 0.075683594 0.27734375 -0.037353516 -0.075683594
-0.20898438 -0.14550781 -0.19921875 0.14257812 0.265625 -0.11328125 -0.018676758 0.2578125
-0.1640625 0.20117188 0.23925781 -0.087402344 -0.26953125 -0.09863281 0.29492188 0.11621094
0.12011719 0.0107421875 -0.27929688 -0.22460938 -0.0703125 0.19824219 0.11669922 0.104003906
-0.032470703 0.007537842 -0.16308594 -0.14355469 0.23046875 0.1953125 -0.2109375 0.012634277
-0.0072631836 0.28515625 0.12158203 0.080078125 -0.088378906 0.20800781 -0.28515625 -0.046142578
0.12451172 0.014038086 0.17773438 -0.20605469 -0.21679688 0.17285156 -0.16796875 0.03173828
0.15820312 -0.11425781 0.071777344 0.296875 0.114746094 -0.17480469 -0.24609375 -0.26953125
0.26953125 0.20605469 0.09863281 0.12988281 -0.17871094 -0.029052734 0.123535156 0.059814453
0.23046875 0.16015625 0.2421875 0.2890625 -0.10107422 0.10888672 -0.28320312 -0.24511719
-0.2890625 0.27929688 -0.17089844 0.09033203 -0.0032653809 -0.2890625 0.11767578 0.21289062
00000000: 6dbe 5f3e aa3d 6fbe 853e 863e c33d 73be
00000010: a6bd c43d 853d d83d 2f3e 10be d23d 4b3e
00000020: 903e 64be 223e 93be 0a3a 3a3e 1ebe 813e
00000030: 9c3d 75be a3bb 1fbe 8bbe 853e 253e 6fbd
00000040: d6bc 7c3e ee3d 8a3e 7ebe 293e 3e3e 64be
00000050: 8bbe 963e 20be 54be 8dbc 3abe bfbc 943e
00000060: 883e 47bc 41be 013e 143e 243d 52be 3fbe
00000070: b7bd 603e 57be 8abe 843e 383e 113c 8b3d
00000080: 92be f5bc 94be 54be 2abc a83d 8b3e 1abe
00000090: 02be ccbd 333e 203d 90be f23d 6ebe 623b
000000a0: 1abc 89be 20bd dfbd a33d 423e 6fbe 483e
000000b0: 633e cabd 3dbe 073e 91be 83be 48bd 553e
000000c0: 80be 963e 94be 85bd 333c 943c 82be 143d
000000d0: 723e 043c 6bbe 75bd 8b3d 673d 58be 6c3c
000000e0: 623e 003d c8bd ccbd 7fbe 883e 9e3b 1dbe
000000f0: 753e b6bd b4bd 84be efbd 7c3e 05be 7dbc
00000100: 09be 143e 973e cfbc 7fbe 75be 56be 983e
00000110: 933e 873c 763e b5bd 02bd e83c 303c 81be
00000120: dfbd 05bc 2e3e 683e 1d3e 1cbd 8cbe 66be
00000130: 38be a13d 8b3d 4f3e 8c3e 983e 323e 953e
00000140: e0bd c73d 113e 13bd da3c 2cbe bd3d 33be
00000150: 20be 8dbc a33c c1bd 9b3d 8e3e 19bd 9bbd
00000160: 56be 15be 4cbe 123e 883e e8bd 99bc 843e
00000170: 28be 4e3e 753e b3bd 8abe cabd 973e ee3d
00000180: f63d 303c 8fbe 66be 90bd 4b3e ef3d d53d
00000190: 05bd f73b 27be 13be 6c3e 483e 58be 4f3c
000001a0: eebb 923e f93d a43d b5bd 553e 92be 3dbd
000001b0: ff3d 663c 363e 53be 5ebe 313e 2cbe 023d
000001c0: 223e eabd 933d 983e eb3d 33be 7cbe 8abe
000001d0: 8a3e 533e ca3d 053e 37be eebc fd3d 753d
000001e0: 6c3e 243e 783e 943e cfbd df3d 91be 7bbe
000001f0: 94be 8f3e 2fbe b93d 56bb 94be f13d 5a3e

layer_11.Uv bf16 [64, 4]
-0.0079956055 -0.20703125 -0.14355469 -0.09033203 -0.17675781 0.17089844 0.084472656 0.026489258
-0.21289062 -0.10205078 0.27734375 0.15039062 0.26953125 -0.28515625 -0.02331543 -0.140625
-0.0017089844 -0.10595703 0.03491211 0.13378906 -0.15039062 0.083984375 -0.19042969 -0.22363281
0.035888672 0.20507812 -0.09472656 0.25585938 -0.14648438 0.041015625 -0.11669922 -0.033447266
-0.27539062 0.26367188 -0.07128906 -0.04272461 0.06347656 0.095703125 -0.1484375 -0.09716797
0.19433594 0.24316406 -0.01184082 -0.14257812 0.2265625 0.19921875 -0.265625 -0.25390625
-0.18652344 -0.06640625 -0.28515625 -0.036376953 0.20019531 0.21191406 -0.025512695 0.28710938
-0.040039062 0.068359375 0.18359375 0.027954102 0.14746094 -0.19628906 0.123535156 0.030517578
-0.26953125 0.27929688 0.2734375 0.1328125 -0.16210938 -0.23632812 -0.26953125 -0.037597656
0.084472656 -0.2890625 0.03857422 -0.22851562 -0.11767578 -0.0046081543 -0.20800781 -0.11279297
0.11328125 0.20117188 -0.027954102 0.095214844 0.15332031 -0.19042969 -0.119140625 -0.04663086
0.14160156 0.107421875 -0.25 0.020019531 0.10498047 0.15136719 0.27148438 -0.15332031
0.023803711 0.13671875 0.0078125 0.049560547 -0.28125 -0.059326172 0.10107422 -0.079589844
-0.2734375 -0.2890625 -0.0025024414 0.22070312 0.17578125 -0.140625 -0.07324219 -0.03881836
-0.17382812 0.28320312 -0.27734375 0.043701172 0.27148438 0.19140625 -0.075683594 0.1796875
0.24707031 -0.24902344 0.2421875 0.15332031 -0.09423828 0.19824219 0.18164062 0.091308594
0.10839844 -0.09863281 0.19824219 -0.109375 0.009643555 0.28320312 0.22070312 0.13964844
-0.016601562 -0.16503906 0.27734375 -0.28320312 -0.1484375 -0.072265625 -0.111328125 -0.14453125
-0.023925781 -0.12207031 -0.12011719 -0.18261719 0.24414062 -0.20605469 -0.16796875 -0.049072266
0.19335938 -0.28515625 -0.107910156 -0.09375 -0.22167969 -0.1484375 0.12597656 -0.015625
0.046142578 -0.25976562 -0.092285156 0.17089844 -0.09814453 -0.016723633 0.17089844 -0.12207031
-0.037109375 -0.26367188 -0.09667969 0.18652344 -0.12988281 0.15527344 -0.19628906 -0.24511719
0.16796875 0.26757812 0.07861328 0.25390625 0.08642578 -0.03930664 0.18945312 -0.029052734
-0.052001953 -0.092285156 0.13183594 -0.21289062 -0.16992188 -0.06347656 -0.27148438 0.07421875
-0.05078125 -0.024169922 0.0047912598 -0.022583008 0.11816406 -0.28320312 0.28710938 0.19433594
-0.0030517578 -0.25585938 -0.015991211 0.29101562 0.12402344 0.21875 0.2109375 -0.171875
-0.063964844 0.026489258 0.047607422 -0.23046875 0.1328125 -0.265625 0.24121094 -0.2734375
-0.17382812 -0.20996094 -0.063964844 0.22167969 0.16699219 0.033203125 0.14453125 0.21582031
0.032226562 0.00035095215 -0.1640625 0.03173828 -0.063964844 0.23242188 -0.0063171387 -0.012939453
0.09863281 -0.24511719 0.18457031 -0.23339844 0.20214844 -0.22070312 -0.21386719 -0.20800781
0.15527344 -0.16992188 -0.14257812 0.27734375 -0.234375 -0.0046691895 0.064941406 0.29101562
-0.111816406 -0.28710938 -0.11621094 0.14453125 -0.22558594 0.29296875 0.03540039 0.18652344
00000000: 03bc 54be 13be b9bd 35be 2f3e ad3d d93c
00000010: 5abe d1bd 8e3e 1a3e 8a3e 92be bfbc 10be
00000020: e0ba d9bd 0f3d 093e 1abe ac3d 43be 65be
00000030: 133d 523e c2bd 833e 16be 283d efbd 09bd
00000040: 8dbe 873e 92bd 2fbd 823d c43d 18be c7bd
00000050: 473e 793e 42bc 12be 683e 4c3e 88be 82be
00000060: 3fbe 88bd 92be 15bd 4d3e 593e d1bc 933e
00000070: 24bd 8c3d 3c3e e53c 173e 49be fd3d fa3c
00000080: 8abe 8f3e 8c3e 083e 26be 72be 8abe 1abd
00000090: ad3d 94be 1e3d 6abe f1bd 97bb 55be e7bd
000000a0: e83d 4e3e e5bc c33d 1d3e 43be f4bd 3fbd
000000b0: 113e dc3d 80be a43c d73d 1b3e 8b3e 1dbe
000000c0: c33c 0c3e 003c 4b3d 90be 73bd cf3d a3bd
000000d0: 8cbe 94be 24bb 623e 343e 10be 96bd 1fbd
000000e0: 32be 913e 8ebe 333d 8b3e 443e 9bbd 383e
000000f0: 7d3e 7fbe 783e 1d3e c1bd 4b3e 3a3e bb3d
00000100: de3d cabd 4b3e e0bd 1e3c 913e 623e 0f3e
00000110: 88bc 29be 8e3e 91be 18be 94bd e4bd 14be
00000120: c4bc fabd f6bd 3bbe 7a3e 53be 2cbe 49bd
00000130: 463e 92be ddbd c0bd 63be 18be 013e 80bc
00000140: 3d3d 85be bdbd 2f3e c9bd 89bc 2f3e fabd
00000150: 18bd 87be c6bd 3f3e 05be 1f3e 49be 7bbe
00000160: 2c3e 893e a13d 823e b13d 21bd 423e eebc
00000170: 55bd bdbd 073e 5abe 2ebe 82bd 8bbe 983d
00000180: 50bd c6bc 9d3b b9bc f23d 91be 933e 473e
00000190: 48bb 83be 83bc 953e fe3d 603e 583e 30be
000001a0: 83bd d93c 433d 6cbe 083e 88be 773e 8cbe
000001b0: 32be 57be 83bd 633e 2b3e 083d 143e 5d3e
000001c0: 043d b839 28be 023d 83bd 6e3e cfbb 54bc
000001d0: ca3d 7bbe 3d3e 6fbe 4f3e 62be 5bbe 55be
000001e0: 1f3e 2ebe 12be 8e3e 70be 99bb 853d 953e
000001f0: e5bd 93be eebd 143e 67be 963e 113d 3f3e
