empty_dirs_for_codex/outputs/runs/mve_gpu_20260215_121245/checkpoints/repair_step_2000.pt (torch, 43513 bytes, 48 tensors)

layer_8.Wk bf16 [64, 8]
-0.19726562 -0.06298828 -0.25390625 0.115234375 0.20800781 -0.0625 -0.28710938 0.09765625
0.028442383 0.075683594 -0.08544922 -0.21972656 -0.23339844 0.08544922 -0.091308594 0.25976562
0.03173828 0.0625 0.19042969 0.26953125 0.10205078 0.24316406 0.23144531 0.28515625
-0.24023438 0.114746094 -0.13183594 -0.20800781 0.06225586 0.2109375 0.25 0.035888672
0.119628906 0.0625 -0.056884766 -0.072753906 -0.13378906 -0.18164062 -0.26367188 0.040527344
0.27148438 0.10205078 0.0625 -0.24511719 -0.0625 -0.26953125 -0.0625 -0.1015625
0.22949219 0.18261719 -0.24609375 0.16308594 -0.07421875 -0.28320312 -0.09863281 0.026489258
0.15820312 -0.032226562 0.21875 -0.2578125 -0.12597656 -0.28710938 -0.044921875 -0.20605469
0.16699219 0.17480469 -0.12011719 0.26757812 -0.20019531 -0.21875 -0.0625 0.06347656
0.25976562 -0.19628906 0.22558594 0.11621094 -0.140625 -0.18945312 0.096191406 -0.034423828
0.23144531 0.033447266 -0.265625 -0.09033203 -0.111816406 -0.16601562 0.0625 0.12207031
-0.1796875 -0.036132812 -0.125 0.18066406 0.22265625 0.23828125 0.28320312 -0.13769531
-0.20214844 0.20703125 0.12109375 0.0625 -0.16210938 -0.23046875 -0.095703125 0.23828125
-0.14550781 -0.18359375 0.10644531 0.24511719 0.06542969 0.076171875 0.1875 -0.084472656
-0.25976562 -0.0625 -0.16210938 0.114746094 -0.15136719 0.26953125 -0.00021362305 0.22949219
-0.20507812 -0.24707031 -0.13769531 -0.07128906 0.21972656 -0.22460938 -0.109375 0.0859375
-0.0625 -0.12695312 0.19042969 -0.16308594 0.13671875 0.06933594 -0.16210938 0.0625
0.08984375 0.026855469 -0.08935547 0.140625 -0.12402344 -0.064941406 -0.06298828 0.0625
0.0625 0.06347656 -0.24511719 -0.18164062 0.07470703 0.23925781 -0.18847656 -0.083984375
-0.18359375 -0.22460938 -0.25585938 0.08544922 0.05517578 -0.1484375 0.28125 0.024169922
-0.038085938 0.2890625 -0.20605469 -0.096191406 -0.23046875 0.09277344 -0.06640625 -0.28320312
0.06298828 0.0625 0.26367188 -0.0625 -0.2109375 0.16503906 0.16503906 0.11669922
-0.11816406 0.17089844 -0.09326172 -0.0042419434 0.099121094 -0.12060547 0.25585938 0.2578125
-0.03125 0.0625 -0.15332031 0.19726562 -0.111816406 0.25 0.0625 0.22753906
0.1484375 0.20996094 -0.07714844 -0.05444336 -0.2578125 0.16796875 -0.043945312 -0.19140625
-0.08544922 -0.25390625 0.23339844 0.04663086 -0.063964844 0.008056641 -0.0625 0.17871094
-0.16894531 0.23144531 -0.14648438 0.0625 -0.0625 0.03540039 -0.0234375 0.11767578
-0.171875 -0.17773438 0.18554688 -0.23632812 0.21679688 -0.28125 -0.0625 0.1171875
0.12890625 -0.03125 0.0625 0.27734375 -0.22558594 -0.063964844 0.18164062 0.26757812
-0.063964844 0.25976562 0.11425781 0.0625 0.21777344 0.15820312 -0.2578125 -0.02368164
-0.26757812 -0.1875 0.063964844 0.03955078 0.28125 -0.07861328 0.23144531 0.27148438
0.044189453 0.26757812 -0.04711914 0.10498047 0.0625 0.171875 0.10644531 -0.039794922
00000000: 4abe 81bd 82be ec3d 553e 80bd 93be c83d
00000010: e93c 9b3d afbd 61be 6fbe af3d bbbd 853e
00000020: 023d 803d 433e 8a3e d13d 793e 6d3e 923e
00000030: 76be eb3d 07be 55be 7f3d 583e 803e 133d
00000040: f53d 803d 69bd 95bd 09be 3abe 87be 263d
00000050: 8b3e d13d 803d 7bbe 80bd 8abe 80bd d0bd
00000060: 6b3e 3b3e 7cbe 273e 98bd 91be cabd d93c
00000070: 223e 04bd 603e 84be 01be 93be 38bd 53be
00000080: 2b3e 333e f6bd 893e 4dbe 60be 80bd 823d
00000090: 853e 49be 673e ee3d 10be 42be c53d 0dbd
000000a0: 6d3e 093d 88be b9bd e5bd 2abe 803d fa3d
000000b0: 38be 14bd 00be 393e 643e 743e 913e 0dbe
000000c0: 4fbe 543e f83d 803d 26be 6cbe c4bd 743e
000000d0: 15be 3cbe da3d 7b3e 863d 9c3d 403e adbd
000000e0: 85be 80bd 26be eb3d 1bbe 8a3e 60b9 6b3e
000000f0: 52be 7dbe 0dbe 92bd 613e 66be e0bd b03d
00000100: 80bd 02be 433e 27be 0c3e 8e3d 26be 803d
00000110: b83d dc3c b7bd 103e febd 85bd 81bd 803d
00000120: 803d 823d 7bbe 3abe 993d 753e 41be acbd
00000130: 3cbe 66be 83be af3d 623d 18be 903e c63c
00000140: 1cbd 943e 53be c5bd 6cbe be3d 88bd 91be
00000150: 813d 803d 873e 80bd 58be 293e 293e ef3d
00000160: f2bd 2f3e bfbd 8bbb cb3d f7bd 833e 843e
00000170: 00bd 803d 1dbe 4a3e e5bd 803e 803d 693e
00000180: 183e 573e 9ebd 5fbd 84be 2c3e 34bd 44be
00000190: afbd 82be 6f3e 3f3d 83bd 043c 80bd 373e
000001a0: 2dbe 6d3e 16be 803d 80bd 113d c0bc f13d
000001b0: 30be 36be 3e3e 72be 5e3e 90be 80bd f03d
000001c0: 043e 00bd 803d 8e3e 67be 83bd 3a3e 893e
000001d0: 83bd 853e ea3d 803d 5f3e 223e 84be c2bc
000001e0: 89be 40be 833d 223d 903e a1bd 6d3e 8b3e
000001f0: 353d 893e 41bd d73d 803d 303e da3d 23bd

layer_8.Uk bf16 [64, 8]
-0.26171875 0.20507812 -0.034423828 0.007232666 -0.057617188 -0.04321289 -0.016967773 -0.21191406
-0.014465332 0.110839844 -0.20507812 -0.27539062 0.03857422 0.078125 -0.08105469 -0.18164062
0.033935547 0.140625 -0.16796875 -0.26953125 0.27929688 -0.27148438 -0.006866455 0.13574219
-0.1796875 0.048095703 -0.03125 0.028930664 0.067871094 -0.13867188 0.19726562 0.037109375
0.28515625 0.06298828 -0.14257812 -0.034423828 0.2734375 -0.19042969 0.032470703 -0.16601562
-0.14648438 0.21777344 0.25390625 0.16503906 -0.19433594 -0.14941406 -0.24316406 -0.09667969
0.08642578 0.20214844 -0.12695312 -0.1640625 0.096191406 0.234375 -0.032958984 0.20800781
0.24511719 0.031982422 0.26757812 0.2109375 0.07763672 -0.25 -0.08935547 0.041503906
-0.03564453 -0.25195312 0.21972656 0.19726562 -0.0625 -0.234375 -0.18847656 -0.28710938
-0.10107422 0.17675781 -0.21972656 0.19335938 -0.041503906 -0.05859375 -0.09814453 -0.03125
-0.10205078 -0.14355469 -0.03540039 -0.234375 0.1015625 -0.21191406 0.22070312 0.20117188
-0.03125 0.032958984 -0.004211426 0.09863281 -0.064453125 0.044189453 0.0138549805 -0.1875
0.110839844 -0.23339844 0.03540039 0.27148438 -0.0014801025 0.033203125 0.1328125 0.265625
0.11425781 -0.0859375 0.1953125 0.022827148 0.063964844 0.17089844 -0.024902344 0.111328125
-0.040527344 0.1484375 0.20703125 -0.011474609 0.03125 -0.22949219 -0.15722656 0.030639648
0.25585938 0.0625 0.100097656 -0.16210938 0.06591797 -0.19921875 -0.14355469 -0.26367188
0.1953125 -0.19042969 -0.16699219 0.18554688 0.21582031 0.15332031 0.24707031 -0.18847656
0.07373047 -0.14355469 -0.25976562 -0.16015625 -0.107910156 0.012084961 0.0014343262 -0.032470703
-0.26367188 0.22070312 0.2734375 0.15820312 0.28320312 -0.07861328 -0.008117676 -0.24609375
-0.034423828 -0.2109375 -0.26757812 -0.045898438 -0.1328125 -0.22851562 0.041748047 0.040771484
0.26171875 -0.05493164 0.06591797 0.234375 -0.06933594 0.20410156 0.26953125 -0.12158203
-0.234375 0.15917969 -0.14160156 -0.24316406 -0.26171875 0.27148438 0.27539062 -0.22070312
-0.12695312 0.076171875 0.005004883 -0.041748047 -0.052001953 -0.06738281 -0.20605469 -0.030639648
0.025390625 0.26757812 0.01171875 0.12109375 0.19335938 -0.27734375 0.042236328 0.28710938
-0.099121094 0.08251953 0.029785156 -0.045410156 0.17871094 -0.033935547 -0.1875 0.13964844
-0.091308594 0.008850098 0.14160156 -0.10449219 -0.22167969 -0.19042969 0.26953125 -0.09716797
0.16796875 -0.19238281 0.20410156 0.24121094 0.0020141602 -0.095214844 0.18652344 0.111328125
-0.10107422 -0.23730469 0.1796875 -0.1328125 0.114746094 -0.27539062 -0.265625 0.16894531
-0.08544922 0.25 0.04345703 0.19921875 0.0038604736 0.25976562 -0.22753906 -0.10107422
0.017944336 -0.24316406 -0.0014648438 -0.20898438 0.06982422 0.06591797 -0.26757812 -0.2578125
-0.28320312 0.0625 -0.02734375 -0.020019531 0.20605469 -0.26367188 0.107910156 0.21386719
-0.25585938 0.017211914 0.23632812 0.12890625 -0.0625 -0.022827148 0.19628906 0.007537842
00000000: 86be 523e 0dbd ed3b 6cbd 31bd 8bbc 59be
00000010: 6dbc e33d 52be 8dbe 1e3d a03d a6bd 3abe
00000020: 0b3d 103e 2cbe 8abe 8f3e 8bbe e1bb 0b3e
00000030: 38be 453d 00bd ed3c 8b3d 0ebe 4a3e 183d
00000040: 923e 813d 12be 0dbd 8c3e 43be 053d 2abe
00000050: 16be 5f3e 823e 293e 47be 19be 79be c6bd
00000060: b13d 4f3e 02be 28be c53d 703e 07bd 553e
00000070: 7b3e 033d 893e 583e 9f3d 80be b7bd 2a3d
00000080: 12bd 81be 613e 4a3e 80bd 70be 41be 93be
00000090: cfbd 353e 61be 463e 2abd 70bd c9bd 00bd
000000a0: d1bd 13be 11bd 70be d03d 59be 623e 4e3e
000000b0: 00bd 073d 8abb ca3d 84bd 353d 633c 40be
000000c0: e33d 6fbe 113d 8b3e c2ba 083d 083e 883e
000000d0: ea3d b0bd 483e bb3c 833d 2f3e ccbc e43d
000000e0: 26bd 183e 543e 3cbc 003d 6bbe 21be fb3c
000000f0: 833e 803d cd3d 26be 873d 4cbe 13be 87be
00000100: 483e 43be 2bbe 3e3e 5d3e 1d3e 7d3e 41be
00000110: 973d 13be 85be 24be ddbd 463c bc3a 05bd
00000120: 87be 623e 8c3e 223e 913e a1bd 05bc 7cbe
00000130: 0dbd 58be 89be 3cbd 08be 6abe 2b3d 273d
00000140: 863e 61bd 873d 703e 8ebd 513e 8a3e f9bd
00000150: 70be 233e 11be 79be 86be 8b3e 8d3e 62be
00000160: 02be 9c3d a43b 2bbd 55bd 8abd 53be fbbc
00000170: d03c 893e 403c f83d 463e 8ebe 2d3d 933e
00000180: cbbd a93d f43c 3abd 373e 0bbd 40be 0f3e
00000190: bbbd 113c 113e d6bd 63be 43be 8a3e c7bd
000001a0: 2c3e 45be 513e 773e 043b c3bd 3f3e e43d
000001b0: cfbd 73be 383e 08be eb3d 8dbe 88be 2d3e
000001c0: afbd 803e 323d 4c3e 7d3b 853e 69be cfbd
000001d0: 933c 79be c0ba 56be 8f3d 873d 89be 84be
000001e0: 91be 803d e0bc a4bc 533e 87be dd3d 5b3e
000001f0: 83be 8d3c 723e 043e 80bd bbbc 493e f73b

layer_8.Wv bf16 [64, 8]
-0.040527344 0.26757812 -0.104003906 -0.24804688 -0.07910156 0.10498047 0.13867188 0.25976562
0.0703125 0.16503906 -0.006591797 -0.083496094 0.0008621216 0.25390625 0.06347656 0.09326172
-0.03173828 -0.15820312 0.03125 -0.09814453 0.27734375 0.007293701 -0.041748047 0.25195312
-0.091308594 0.14746094 -0.14453125 -0.14648438 0.14257812 -0.0059814453 0.20019531 0.0625
0.0154418945 0.20996094 -0.03125 -0.16796875 0.24414062 -0.10253906 -0.24902344 0.26171875
-0.23535156 -0.076660156 0.22949219 -0.19335938 0.21679688 0.26757812 0.15039062 0.056152344
-0.07324219 0.20214844 -0.20800781 0.030883789 -0.25195312 -0.111816406 0.045410156 -0.080566406
0.111816406 -0.10498047 -0.22167969 0.23242188 0.08251953 0.017944336 -0.0625 -0.20507812
-0.014160156 0.22851562 -0.14941406 -0.23925781 0.122558594 -0.17480469 -0.13378906 0.28125
-0.26171875 -0.16796875 0.15820312 -0.036621094 0.09033203 0.25 -0.003829956 -0.21875
-0.01171875 -0.27148438 -0.033935547 0.010986328 -0.17871094 0.17089844 0.08251953 0.0107421875
0.17675781 0.16992188 0.103515625 0.064453125 -0.032226562 -0.016845703 0.15820312 -0.19238281
0.07861328 0.24902344 0.072753906 -0.09472656 0.16503906 -0.0027923584 -0.12988281 -0.20898438
0.10107422 -0.012023926 -0.28320312 0.17675781 0.23632812 -0.123046875 -0.21679688 -0.047851562
-0.08984375 0.0625 -0.234375 -0.24023438 -0.1328125 -0.22167969 0.08886719 0.23535156
0.0625 0.13671875 0.07128906 -0.09716797 -0.18359375 0.08984375 0.033691406 -0.25976562
0.28125 -0.20703125 0.14355469 -0.024047852 0.24902344 -0.11425781 0.07714844 -0.21875
-0.22265625 -0.0013275146 0.26757812 -0.03491211 0.011047363 0.16015625 -0.01940918 0.037597656
-0.1484375 -0.16601562 0.28125 -0.17578125 -0.24511719 0.09472656 0.020141602 0.07714844
-0.20800781 0.16210938 0.15332031 -0.08935547 -0.14746094 0.111816406 0.087402344 -0.15234375
-0.03857422 -0.015625 -0.14257812 0.018554688 0.06542969 0.16308594 -0.22070312 0.21582031
-0.0065307617 0.03515625 0.11279297 0.032226562 -0.2578125 -0.25390625 0.033935547 0.27929688
-0.22460938 0.27148438 -0.12988281 0.16113281 -0.040527344 -0.24023438 0.21875 -0.20800781
-0.06982422 -0.072265625 0.234375 -0.23144531 -0.26757812 -0.0074768066 -0.083496094 -0.17773438
-0.18652344 -0.26171875 0.23925781 -0.2265625 0.09277344 0.15722656 -0.025024414 0.087890625
0.119140625 -0.26367188 0.20703125 0.06738281 0.27148438 -0.1484375 -0.14355469 0.2578125
-0.28710938 -0.17285156 0.19921875 0.118652344 -0.20996094 -0.16992188 0.2109375 0.10839844
-0.068847656 -0.23242188 -0.25976562 0.21972656 -0.033447266 0.15136719 -0.061523438 0.27734375
0.09375 0.068359375 0.1640625 -0.15429688 -0.28710938 0.20019531 0.07470703 -0.036865234
0.035888672 0.039794922 -0.07861328 -0.21875 -0.015380859 0.043945312 0.21679688 -0.16503906
0.110839844 -0.27929688 -0.26953125 0.15820312 0.18359375 -0.008544922 -0.04345703 0.27539062
-0.23242188 0.03149414 -0.21679688 0.03125 -0.13964844 0.10498047 0.107421875 0.009643555
00000000: 26bd 893e d5bd 7ebe a2bd d73d 0e3e 853e
00000010: 903d 293e d8bb abbd 623a 823e 823d bf3d
00000020: 02bd 22be 003d c9bd 8e3e ef3b 2bbd 813e
00000030: bbbd 173e 14be 16be 123e c4bb 4d3e 803d
00000040: 7d3c 573e 00bd 2cbe 7a3e d2bd 7fbe 863e
00000050: 71be 9dbd 6b3e 46be 5e3e 893e 1a3e 663d
00000060: 96bd 4f3e 55be fd3c 81be e5bd 3a3d a5bd
00000070: e53d d7bd 63be 6e3e a93d 933c 80bd 52be
00000080: 68bc 6a3e 19be 75be fb3d 33be 09be 903e
00000090: 86be 2cbe 223e 16bd b93d 803e 7bbb 60be
000000a0: 40bc 8bbe 0bbd 343c 37be 2f3e a93d 303c
000000b0: 353e 2e3e d43d 843d 04bd 8abc 223e 45be
000000c0: a13d 7f3e 953d c2bd 293e 37bb 05be 56be
000000d0: cf3d 45bc 91be 353e 723e fcbd 5ebe 44bd
000000e0: b8bd 803d 70be 76be 08be 63be b63d 713e
000000f0: 803d 0c3e 923d c7bd 3cbe b83d 0a3d 85be
00000100: 903e 54be 133e c5bc 7f3e eabd 9e3d 60be
00000110: 64be aeba 893e 0fbd 353c 243e 9fbc 1a3d
00000120: 18be 2abe 903e 34be 7bbe c23d a53c 9e3d
00000130: 55be 263e 1d3e b7bd 17be e53d b33d 1cbe
00000140: 1ebd 80bc 12be 983c 863d 273e 62be 5d3e
00000150: d6bb 103d e73d 043d 84be 82be 0b3d 8f3e
00000160: 66be 8b3e 05be 253e 26bd 76be 603e 55be
00000170: 8fbd 94bd 703e 6dbe 89be f5bb abbd 36be
00000180: 3fbe 86be 753e 68be be3d 213e cdbc b43d
00000190: f43d 87be 543e 8a3d 8b3e 18be 13be 843e
000001a0: 93be 31be 4c3e f33d 57be 2ebe 583e de3d
000001b0: 8dbd 6ebe 85be 613e 09bd 1b3e 7cbd 8e3e
000001c0: c03d 8c3d 283e 1ebe 93be 4d3e 993d 17bd
000001d0: 133d 233d a1bd 60be 7cbc 343d 5e3e 29be
000001e0: e33d 8fbe 8abe 223e 3c3e 0cbc 32bd 8d3e
000001f0: 6ebe 013d 5ebe 003d 0fbe d73d dc3d 1e3c

layer_8.Uv bf16 [64, 8]
-0.08886719 0.1015625 -0.11328125 -0.23242188 -0.072265625 -0.28125 -0.28320312 -0.04638672
0.033935547 0.12792969 0.25 -0.11035156 0.17871094 0.20800781 -0.22363281 0.22460938
0.25976562 0.051757812 -0.11425781 0.15136719 0.19335938 0.15039062 0.053222656 0.021972656
0.0390625 0.15625 0.020507812 -0.14355469 -0.21386719 0.068847656 0.037109375 0.26953125
0.020874023 0.2890625 -0.11425781 -0.203125 0.015014648 -0.10546875 -0.059326172 -0.08886719
0.26367188 0.12792969 -0.0234375 0.030395508 0.27539062 0.12792969 -0.071777344 -0.27539062
-0.27539062 -0.10595703 -0.033691406 0.046875 0.13671875 0.13085938 -0.123046875 0.13964844
0.15722656 0.076660156 0.23242188 -0.20800781 0.010070801 -0.0625 0.25976562 -0.22558594
0.09472656 -0.20703125 -0.19433594 -0.26171875 -0.03857422 0.26367188 -0.14550781 -0.049072266
-0.23535156 -0.20800781 0.111328125 -0.057861328 0.03125 -0.16308594 0.1796875 -0.22070312
-0.1328125 0.1875 0.12695312 -0.265625 -0.28125 -0.16699219 -0.27734375 0.20214844
-0.140625 0.11425781 -0.234375 0.07080078 0.26953125 0.18652344 0.2578125 0.026855469
-0.06347656 -0.23925781 -0.12158203 -0.17578125 -0.022949219 -0.03125 -0.072265625 -0.11816406
0.28125 -0.006164551 -0.26171875 -0.10253906 0.15917969 -0.27148438 0.26953125 0.0119018555
0.11035156 -0.068359375 -0.1875 0.15527344 0.087402344 -0.15527344 0.118652344 -0.15136719
-0.21191406 -0.28515625 0.21289062 0.23339844 0.19921875 0.19921875 0.26367188 0.049316406
-0.26757812 -0.18261719 0.171875 -0.22851562 -0.013183594 -0.0625 -0.0625 -0.26171875
0.23925781 0.061523438 0.030273438 -0.10449219 -0.048583984 0.0035247803 -0.16210938 0.23925781
0.00031471252 0.016723633 -0.20410156 0.28515625 -0.08935547 0.18457031 -0.15820312 -0.008117676
0.028442383 0.0390625 0.032226562 -0.05029297 -0.16699219 -0.08984375 -0.22070312 0.22460938
-0.10986328 -0.04711914 -0.2421875 -0.21386719 -0.18847656 0.10644531 0.26953125 0.027832031
0.22265625 -0.26757812 -0.28710938 0.11035156 -0.15820312 -0.1484375 0.22851562 0.008666992
0.18457031 -0.104003906 0.015625 0.27734375 0.007507324 0.16503906 0.25976562 0.23144531
0.24121094 -0.14648438 0.10449219 0.010559082 -0.13183594 -0.16113281 0.12597656 0.14453125
0.047607422 0.2421875 0.092285156 0.234375 0.1484375 0.018310547 -0.10595703 -0.24023438
0.2890625 -0.07910156 0.115234375 0.16308594 -0.20019531 0.13964844 0.17675781 -0.14941406
-0.109375 -0.032470703 0.24511719 0.265625 0.033203125 -0.13867188 0.13671875 0.034179688
-0.024658203 -0.234375 -0.026000977 0.07324219 -0.10205078 -0.010253906 0.234375 -0.265625
0.2578125 -0.18457031 -0.25585938 0.04296875 0.27539062 -0.20117188 -0.265625 0.234375
-0.13476562 -0.25 -0.2578125 -0.08300781 -0.27929688 -0.25195312 0.12060547 -0.037841797
0.09326172 0.15136719 0.035888672 0.2421875 -0.16210938 0.18554688 0.011352539 0.22558594
0.17675781 -0.21484375 -0.16015625 -0.09033203 -0.032470703 0.16503906 0.119140625 0.18554688
00000000: b6bd d03d e8bd 6ebe 94bd 90be 91be 3ebd
00000010: 0b3d 033e 803e e2bd 373e 553e 65be 663e
00000020: 853e 543d eabd 1b3e 463e 1a3e 5a3d b43c
00000030: 203d 203e a83c 13be 5bbe 8d3d 183d 8a3e
00000040: ab3c 943e eabd 50be 763c d8bd 73bd b6bd
00000050: 873e 033e c0bc f93c 8d3e 033e 93bd 8dbe
00000060: 8dbe d9bd 0abd 403d 0c3e 063e fcbd 0f3e
00000070: 213e 9d3d 6e3e 55be 253c 80bd 853e 67be
00000080: c23d 54be 47be 86be 1ebd 873e 15be 49bd
00000090: 71be 55be e43d 6dbd 003d 27be 383e 62be
000000a0: 08be 403e 023e 88be 90be 2bbe 8ebe 4f3e
000000b0: 10be ea3d 70be 913d 8a3e 3f3e 843e dc3c
000000c0: 82bd 75be f9bd 34be bcbc 00bd 94bd f2bd
000000d0: 903e cabb 86be d2bd 233e 8bbe 8a3e 433c
000000e0: e23d 8cbd 40be 1f3e b33d 1fbe f33d 1bbe
000000f0: 59be 92be 5a3e 6f3e 4c3e 4c3e 873e 4a3d
00000100: 89be 3bbe 303e 6abe 58bc 80bd 80bd 86be
00000110: 753e 7c3d f83c d6bd 47bd 673b 26be 753e
00000120: a539 893c 51be 923e b7bd 3d3e 22be 05bc
00000130: e93c 203d 043d 4ebd 2bbe b8bd 62be 663e
00000140: e1bd 41bd 78be 5bbe 41be da3d 8a3e e43c
00000150: 643e 89be 93be e23d 22be 18be 6a3e 0e3c
00000160: 3d3e d5bd 803c 8e3e f63b 293e 853e 6d3e
00000170: 773e 16be d63d 2d3c 07be 25be 013e 143e
00000180: 433d 783e bd3d 703e 183e 963c d9bd 76be
00000190: 943e a2bd ec3d 273e 4dbe 0f3e 353e 19be
000001a0: e0bd 05bd 7b3e 883e 083d 0ebe 0c3e 0c3d
000001b0: cabc 70be d5bc 963d d1bd 28bc 703e 88be
000001c0: 843e 3dbe 83be 303d 8d3e 4ebe 88be 703e
000001d0: 0abe 80be 84be aabd 8fbe 81be f73d 1bbd
000001e0: bf3d 1b3e 133d 783e 26be 3e3e 3a3c 673e
000001f0: 353e 5cbe 24be b9bd 05bd 293e f43d 3e3e

layer_8.gate_k.net.0.weight bf16 [8, 64]
-0.11767578 0.0074768066 -0.0625 -0.0625 -0.11035156 0.041015625 -0.111816406 -0.051757812
0.0625 0.061035156 0.072265625 0.0625 0.068847656 0.080078125 -0.0625 0.04663086
-0.036132812 0.037353516 -0.06542969 -0.036865234 -0.0625 -0.055664062 -0.0625 -0.0014419556
0.11669922 0.05517578 -0.057128906 -0.0625 0.07128906 -0.08691406 -0.0625 -0.052490234
0.072753906 -0.0625 0.06298828 0.04321289 0.08642578 -0.03540039 0.11425781 -0.10595703
-0.0625 -0.12451172 0.048828125 -0.0625 -0.0546875 0.06298828 -0.063964844 -0.10839844
0.096191406 0.07714844 -0.0625 0.100097656 0.06298828 0.06689453 0.104003906 0.0625
-0.09765625 -0.06298828 -0.0625 -0.05444336 0.028808594 0.071777344 0.0625 -0.092285156
0.0625 0.032470703 0.076171875 -0.06298828 0.05444336 -0.06347656 -0.03515625 -0.040283203
-0.12207031 0.115234375 0.06640625 0.0625 -0.080566406 -0.063964844 0.07128906 -0.08935547
0.06298828 0.017944336 -0.080566406 -0.06689453 -0.09423828 0.115722656 0.06738281 -0.115722656
-0.068847656 0.029418945 -0.0625 -0.0625 -0.10205078 -0.06542969 -0.03564453 -0.095214844
0.0625 -0.0625 0.06542969 -0.04711914 0.0625 0.0625 0.0625 -0.04321289
0.095214844 0.12207031 0.06225586 -0.06542969 -0.10986328 -0.123535156 -0.0625 -0.05419922
-0.036132812 -0.0625 0.11767578 0.119628906 -0.016479492 0.0625 -0.034179688 0.0625
-0.119140625 -0.0625 0.119140625 -0.099121094 0.021484375 0.0625 -0.1015625 -0.106933594
0.09326172 -0.03955078 0.072753906 0.042236328 -0.04345703 -0.083496094 -0.03173828 0.08251953
0.041992188 -0.04638672 -0.012634277 0.095214844 -0.109375 0.080078125 -0.03540039 -0.055908203
0.05810547 -0.104003906 0.032226562 0.119628906 0.03955078 -0.05859375 -0.03149414 0.09863281
-0.025634766 0.08496094 -0.080566406 0.040771484 0.017700195 0.018310547 0.11621094 0.06933594
0.0859375 0.053222656 -0.01574707 0.01977539 -0.11035156 -0.10546875 -0.078125 -0.08105469
0.0625 0.038085938 -0.037109375 -0.095214844 0.123046875 0.09375 0.061767578 0.123535156
-0.06640625 -0.07128906 -0.07324219 0.031982422 -0.11035156 0.099121094 -0.014099121 -0.025390625
-0.068847656 0.036621094 0.05834961 0.028076172 0.11816406 -0.0625 0.043945312 -0.08496094
-0.03125 -0.03515625 0.061279297 0.087402344 -0.03125 -0.0390625 0.05517578 0.09814453
-0.04736328 0.09033203 0.0037078857 0.103027344 0.12451172 0.08544922 0.071777344 -0.017456055
-0.061035156 0.022216797 0.049316406 -0.032470703 0.022338867 0.07324219 -0.115722656 -0.11376953
-0.07470703 -0.014709473 -0.024536133 0.022094727 -0.03564453 -0.08203125 0.0625 0.084472656
-0.07519531 0.109375 -0.045410156 0.123046875 -0.114746094 -0.119628906 0.032470703 -0.11669922
-0.10253906 0.06347656 0.043701172 -0.11376953 0.08984375 0.016235352 0.09277344 -0.07324219
-0.118652344 -0.08300781 0.034423828 -0.125 -0.032714844 -0.061523438 -0.0625 -0.05517578
-0.033203125 -0.12207031 0.064453125 -0.076660156 0.076171875 0.114746094 -0.042236328 -0.05053711
00000000: f1bd f53b 80bd 80bd e2bd 283d e5bd 54bd
00000010: 803d 7a3d 943d 803d 8d3d a43d 80bd 3f3d
00000020: 14bd 193d 86bd 17bd 80bd 64bd 80bd bdba
00000030: ef3d 623d 6abd 80bd 923d b2bd 80bd 57bd
00000040: 953d 80bd 813d 313d b13d 11bd ea3d d9bd
00000050: 80bd ffbd 483d 80bd 60bd 813d 83bd debd
00000060: c53d 9e3d 80bd cd3d 813d 893d d53d 803d
00000070: c8bd 81bd 80bd 5fbd ec3c 933d 803d bdbd
00000080: 803d 053d 9c3d 81bd 5f3d 82bd 10bd 25bd
00000090: fabd ec3d 883d 803d a5bd 83bd 923d b7bd
000000a0: 813d 933c a5bd 89bd c1bd ed3d 8a3d edbd
000000b0: 8dbd f13c 80bd 80bd d1bd 86bd 12bd c3bd
000000c0: 803d 80bd 863d 41bd 803d 803d 803d 31bd
000000d0: c33d fa3d 7f3d 86bd e1bd fdbd 80bd 5ebd
000000e0: 14bd 80bd f13d f53d 87bc 803d 0cbd 803d
000000f0: f4bd 80bd f43d cbbd b03c 803d d0bd dbbd
00000100: bf3d 22bd 953d 2d3d 32bd abbd 02bd a93d
00000110: 2c3d 3ebd 4fbc c33d e0bd a43d 11bd 65bd
00000120: 6e3d d5bd 043d f53d 223d 70bd 01bd ca3d
00000130: d2bc ae3d a5bd 273d 913c 963c ee3d 8e3d
00000140: b03d 5a3d 81bc a23c e2bd d8bd a0bd a6bd
00000150: 803d 1c3d 18bd c3bd fc3d c03d 7d3d fd3d
00000160: 88bd 92bd 96bd 033d e2bd cb3d 67bc d0bc
00000170: 8dbd 163d 6f3d e63c f23d 80bd 343d aebd
00000180: 00bd 10bd 7b3d b33d 00bd 20bd 623d c93d
00000190: 42bd b93d 733b d33d ff3d af3d 933d 8fbc
000001a0: 7abd b63c 4a3d 05bd b73c 963d edbd e9bd
000001b0: 99bd 71bc c9bc b53c 12bd a8bd 803d ad3d
000001c0: 9abd e03d 3abd fc3d ebbd f5bd 053d efbd
000001d0: d2bd 823d 333d e9bd b83d 853c be3d 96bd
000001e0: f3bd aabd 0d3d 00be 06bd 7cbd 80bd 62bd
000001f0: 08bd fabd 843d 9dbd 9c3d eb3d 2dbd 4fbd

layer_8.gate_k.net.0.bias bf16 [8]
0.104003906 0.07910156 -0.09082031 -0.06201172 0.06640625 -0.0625 -0.06298828 0.12158203
00000000: d53d a23d babd 7ebd 883d 80bd 81bd f93d

layer_8.gate_k.net.2.weight bf16 [8, 8]
-0.24804688 -0.28710938 0.114746094 0.14941406 -0.0057678223 -0.03125 0.1484375 0.25
-0.17089844 0.09667969 -0.12988281 -0.18261719 -0.18359375 -0.26367188 0.29882812 -0.125
-0.10888672 -0.07763672 -0.23046875 0.22949219 -0.11035156 0.1875 0.10253906 -0.3515625
-0.32421875 -0.34375 0.31640625 0.32226562 0.12109375 -0.14648438 0.11621094 -0.26757812
-0.0625 -0.07373047 0.2421875 0.033203125 -0.03881836 -0.05834961 0.33984375 -0.24707031
0.16015625 -0.31835938 0.064941406 -0.296875 0.171875 0.31640625 -0.16992188 0.31640625
-0.31640625 0.16894531 0.0625 -0.08105469 -0.052734375 0.14160156 -0.064453125 -0.34179688
-0.12792969 0.30078125 -0.3046875 -0.119140625 0.14550781 0.2578125 -0.265625 -0.24511719
00000000: 7ebe 93be eb3d 193e bdbb 00bd 183e 803e
00000010: 2fbe c63d 05be 3bbe 3cbe 87be 993e 00be
00000020: dfbd 9fbd 6cbe 6b3e e2bd 403e d23d b4be
00000030: a6be b0be a23e a53e f83d 16be ee3d 89be
00000040: 80bd 97bd 783e 083d 1fbd 6fbd ae3e 7dbe
00000050: 243e a3be 853d 98be 303e a23e 2ebe a23e
00000060: a2be 2d3e 803d a6bd 58bd 113e 84bd afbe
00000070: 03be 9a3e 9cbe f4bd 153e 843e 88be 7bbe

layer_8.gate_k.net.2.bias bf16 [8]
0.21289062 0.24023438 0.22949219 0.203125 -0.30078125 0.11621094 -0.0625 -0.0625
00000000: 5a3e 763e 6b3e 503e 9abe ee3d 80bd 80bd

layer_8.gate_v.net.0.weight bf16 [8, 64]
-0.056152344 0.12011719 0.04345703 -0.08544922 0.064453125 0.056884766 -0.078125 -0.055419922
-0.07861328 -0.0029907227 -0.036376953 -0.052978516 -0.020385742 -0.067871094 -0.12402344 -0.03149414
0.118652344 -0.09326172 0.034423828 -0.06298828 0.043701172 0.0625 -0.0625 -0.106933594
-0.025878906 -0.0025482178 0.09033203 0.0625 0.071777344 -0.07861328 -0.1171875 -0.075683594
-0.10058594 0.028930664 -0.0625 -0.030517578 -0.057617188 -0.044189453 -0.041503906 0.122558594
-0.037841797 0.10253906 0.11230469 0.0625 0.010681152 0.03564453 -0.08203125 0.028808594
-0.055908203 -0.095703125 -0.10546875 -0.0625 0.026367188 0.033447266 0.030761719 -0.045898438
0.03930664 0.083984375 0.033447266 0.0625 0.037841797 -0.0625 -0.083984375 -0.0390625
-0.11816406 0.03125 -0.099121094 -0.036621094 -0.044433594 0.107421875 -0.10205078 -0.04321289
0.048583984 0.023803711 0.10253906 -0.023803711 0.07324219 -0.07519531 0.07763672 0.032470703
-0.056884766 -0.053466797 0.046875 0.06542969 -0.091308594 -0.09667969 0.049560547 -0.110839844
-0.11767578 0.09033203 0.0625 0.033935547 0.0057678223 0.04663086 -0.08935547 0.104003906
-0.032470703 0.040039062 -0.11816406 -0.008605957 -0.076171875 0.0703125 -0.118652344 0.11279297
0.005584717 -0.041259766 -0.052734375 -0.10205078 0.009094238 0.10205078 0.052490234 0.03149414
-0.104003906 0.036621094 0.092285156 0.1015625 0.04711914 0.0625 -0.091796875 -0.0625
0.12207031 0.03466797 0.0625 -0.09277344 -0.103027344 0.09814453 -0.0625 -0.06738281
-0.033203125 -0.019897461 0.052001953 0.078125 0.110839844 -0.018188477 -0.005340576 -0.09814453
-0.06347656 -0.015625 -0.06298828 -0.024047852 -0.037109375 0.071777344 -0.10888672 -0.041748047
-0.052001953 0.021118164 -0.06738281 -0.122558594 -0.032958984 0.036621094 0.10839844 -0.08496094
-0.018188477 0.10107422 0.12060547 0.034179688 -0.05419922 0.07373047 -0.09033203 -0.10449219
-0.018554688 -0.072753906 -0.052978516 -0.046142578 -0.09033203 -0.048583984 -0.08154297 -0.087402344
0.06542969 -0.037597656 -0.056640625 -0.122558594 0.095703125 -0.07324219 0.1015625 -0.10595703
-0.05078125 0.12011719 0.060791016 -0.080078125 -0.08203125 -0.06298828 0.041015625 0.06542969
-0.045654297 -0.10498047 -0.083496094 0.078125 0.03955078 0.041992188 0.064453125 -0.080566406
-0.09423828 -0.08886719 0.123046875 0.059814453 -0.033935547 -0.12109375 -0.03100586 -0.11621094
-0.08203125 0.03540039 -0.11035156 0.05517578 0.09033203 -0.06225586 0.09082031 0.09716797
-0.115234375 0.0073547363 -0.020385742 -0.012817383 0.06982422 -0.06542969 -0.08300781 0.027832031
0.012390137 -0.06738281 -0.057617188 -0.11230469 0.07080078 -0.063964844 -0.037597656 -0.103027344
-0.083496094 -0.036376953 0.12402344 0.03491211 -0.00340271 -0.05029297 -0.028930664 -0.0038452148
0.09667969 -0.03125 0.064453125 -0.015625 0.09423828 -0.07910156 -0.063964844 -0.05493164
-0.04711914 -0.04248047 0.05517578 -0.092285156 -0.087890625 0.075683594 0.06225586 0.020996094
0.034179688 -0.032714844 -0.052246094 -0.041259766 0.0014572144 -0.04345703 -0.076171875 0.0625
00000000: 66bd f63d 323d afbd 843d 693d a0bd 63bd
00000010: a1bd 44bb 15bd 59bd a7bc 8bbd febd 01bd
00000020: f33d bfbd 0d3d 81bd 333d 803d 80bd dbbd
00000030: d4bc 27bb b93d 803d 933d a1bd f0bd 9bbd
00000040: cebd ed3c 80bd fabc 6cbd 35bd 2abd fb3d
00000050: 1bbd d23d e63d 803d 2f3c 123d a8bd ec3c
00000060: 65bd c4bd d8bd 80bd d83c 093d fc3c 3cbd
00000070: 213d ac3d 093d 803d 1b3d 80bd acbd 20bd
00000080: f2bd 003d cbbd 16bd 36bd dc3d d1bd 31bd
00000090: 473d c33c d23d c3bc 963d 9abd 9f3d 053d
000000a0: 69bd 5bbd 403d 863d bbbd c6bd 4b3d e3bd
000000b0: f1bd b93d 803d 0b3d bd3b 3f3d b7bd d53d
000000c0: 05bd 243d f2bd 0dbc 9cbd 903d f3bd e73d
000000d0: b73b 29bd 58bd d1bd 153c d13d 573d 013d
000000e0: d5bd 163d bd3d d03d 413d 803d bcbd 80bd
000000f0: fa3d 0e3d 803d bebd d3bd c93d 80bd 8abd
00000100: 08bd a3bc 553d a03d e33d 95bc afbb c9bd
00000110: 82bd 80bc 81bd c5bc 18bd 933d dfbd 2bbd
00000120: 55bd ad3c 8abd fbbd 07bd 163d de3d aebd
00000130: 95bc cf3d f73d 0c3d 5ebd 973d b9bd d6bd
00000140: 98bc 95bd 59bd 3dbd b9bd 47bd a7bd b3bd
00000150: 863d 1abd 68bd fbbd c43d 96bd d03d d9bd
00000160: 50bd f63d 793d a4bd a8bd 81bd 283d 863d
00000170: 3bbd d7bd abbd a03d 223d 2c3d 843d a5bd
00000180: c1bd b6bd fc3d 753d 0bbd f8bd febc eebd
00000190: a8bd 113d e2bd 623d b93d 7fbd ba3d c73d
000001a0: ecbd f13b a7bc 52bc 8f3d 86bd aabd e43c
000001b0: 4b3c 8abd 6cbd e6bd 913d 83bd 1abd d3bd
000001c0: abbd 15bd fe3d 0f3d 5fbb 4ebd edbc 7cbb
000001d0: c63d 00bd 843d 80bc c13d a2bd 83bd 61bd
000001e0: 41bd 2ebd 623d bdbd b4bd 9b3d 7f3d ac3c
000001f0: 0c3d 06bd 56bd 29bd bf3a 32bd 9cbd 803d

layer_8.gate_v.net.0.bias bf16 [8]
0.12451172 0.08642578 -0.0625 0.07373047 -0.09765625 0.071777344 0.064941406 0.12402344
00000000: ff3d b13d 80bd 973d c8bd 933d 853d fe3d

layer_8.gate_v.net.2.weight bf16 [8, 8]
-0.10058594 -0.234375 0.29492188 0.34570312 -0.032714844 0.07763672 0.34375 -0.29882812
-0.10888672 -0.25976562 0.16894531 0.23632812 -0.3046875 -0.063964844 -0.3203125 0.26171875
0.28125 0.115234375 -0.037353516 -0.06347656 0.23632812 0.12109375 -0.26953125 -0.0625
0.28125 0.22949219 -0.25 -0.27539062 0.22167969 0.28710938 -0.17773438 -0.22070312
0.08203125 -0.17871094 0.18261719 0.1328125 0.27929688 -0.07128906 -0.104003906 -0.27734375
0.31445312 0.18066406 -0.014404297 -0.21582031 0.29492188 0.32421875 -0.087402344 -0.20507812
-0.15332031 0.23144531 -0.3046875 -0.16015625 -0.033935547 0.22949219 -0.0625 -0.25976562
-0.23925781 0.114746094 -0.03515625 -0.092285156 0.22265625 0.13476562 -0.0625 -0.114746094
00000000: cebd 70be 973e b13e 06bd 9f3d b03e 99be
00000010: dfbd 85be 2d3e 723e 9cbe 83bd a4be 863e
00000020: 903e ec3d 19bd 82bd 723e f83d 8abe 80bd
00000030: 903e 6b3e 80be 8dbe 633e 933e 36be 62be
00000040: a83d 37be 3b3e 083e 8f3e 92bd d5bd 8ebe
00000050: a13e 393e 6cbc 5dbe 973e a63e b3bd 52be
00000060: 1dbe 6d3e 9cbe 24be 0bbd 6b3e 80bd 85be
00000070: 75be eb3d 10bd bdbd 643e 0a3e 80bd ebbd

layer_8.gate_v.net.2.bias bf16 [8]
-0.23242188 -0.34960938 0.16992188 -0.0625 0.29296875 -0.12695312 -0.34179688 -0.19335938
00000000: 6ebe b3be 2e3e 80bd 963e 02be afbe 46be

layer_9.Wk bf16 [64, 8]
-0.13964844 0.14746094 -0.28125 -0.21777344 -0.03125 0.03564453 -0.09667969 -0.16308594
-0.21972656 0.04345703 -0.20898438 -0.24804688 -0.16113281 -0.17871094 0.0625 0.18652344
0.11230469 0.13085938 0.26171875 -0.0625 -0.079589844 -0.0625 0.076171875 -0.15332031
0.0625 -0.1875 0.17871094 -0.27929688 0.12402344 0.0625 -0.078125 -0.1328125
0.20996094 0.08203125 -0.063964844 -0.068847656 0.0625 -0.092285156 0.032226562 -0.1484375
0.057861328 -0.24902344 -0.08300781 0.0625 -0.17480469 0.075683594 0.057373047 0.14941406
-0.16992188 0.10644531 0.23242188 -0.28320312 0.026367188 0.15136719 0.19238281 0.16601562
0.061035156 -0.17773438 0.17089844 -0.23339844 0.060058594 0.0625 0.24023438 -0.11328125
-0.123535156 0.095214844 -0.20410156 0.15820312 0.18359375 0.0625 0.14453125 0.17382812
0.0625 0.25976562 -0.22167969 0.16015625 -0.103027344 -0.20605469 -0.036376953 -0.2109375
0.15625 0.07861328 -0.0625 0.06347656 -0.18945312 0.21582031 -0.203125 -0.14941406
0.23339844 -0.099609375 0.036865234 -0.25976562 -0.20214844 -0.0625 -0.18652344 -0.051757812
0.27734375 0.060058594 0.047851562 0.115722656 0.25390625 -0.06347656 -0.24707031 -0.25195312
-0.22363281 0.092285156 0.17773438 0.17285156 -0.111816406 -0.0625 0.06591797 -0.10107422
-0.037109375 0.072265625 -0.22363281 0.109375 -0.0625 -0.095703125 -0.1484375 -0.17773438
-0.23828125 0.14453125 -0.0625 0.20996094 -0.23828125 -0.19433594 0.079589844 -0.18066406
0.21484375 0.19433594 -0.28515625 0.19628906 -0.15625 0.21777344 -0.0625 0.12402344
0.0625 0.22949219 0.040527344 -0.2265625 0.28710938 -0.0625 -0.09423828 0.06347656
-0.20996094 0.046875 0.044677734 0.052734375 0.2421875 -0.0859375 0.040039062 0.100097656
0.16113281 -0.122558594 0.24316406 0.0625 -0.2578125 0.12109375 -0.17773438 0.055908203
0.13574219 -0.0625 -0.050048828 -0.034179688 0.26757812 -0.171875 -0.038085938 -0.18457031
-0.015075684 -0.15429688 -0.111328125 0.20898438 0.23339844 0.20996094 -0.07714844 -0.017578125
-0.23046875 0.16113281 0.2578125 -0.10107422 0.0625 -0.022705078 -0.28710938 -0.19042969
-0.234375 0.15234375 -0.18164062 0.08544922 -0.12792969 -0.15429688 -0.09277344 -0.059814453
0.27929688 -0.23339844 0.18164062 0.27929688 -0.14257812 -0.20019531 0.10253906 -0.19335938
-0.09326172 0.0703125 -0.1015625 0.21875 0.28710938 -0.110839844 0.27148438 -0.0625
-0.16015625 -0.18359375 0.26171875 0.0625 -0.16992188 0.044433594 0.04638672 -0.20996094
-0.12792969 0.22851562 0.11035156 0.20800781 -0.16503906 0.17089844 -0.28320312 0.08984375
0.22558594 -0.010131836 -0.122558594 0.060058594 0.12158203 -0.0625 -0.14453125 0.12109375
0.26757812 0.25390625 0.07861328 -0.043945312 0.024536133 0.053710938 -0.27734375 -0.11669922
0.18261719 0.06201172 0.10058594 0.16308594 -0.23339844 -0.24414062 0.08886719 -0.03515625
0.22363281 -0.24316406 0.19335938 0.28125 0.028076172 0.111816406 -0.25390625 0.021850586
00000000: 0fbe 173e 90be 5fbe 00bd 123d c6bd 27be
00000010: 61be 323d 56be 7ebe 25be 37be 803d 3f3e
00000020: e63d 063e 863e 80bd a3bd 80bd 9c3d 1dbe
00000030: 803d 40be 373e 8fbe fe3d 803d a0bd 08be
00000040: 573e a83d 83bd 8dbd 803d bdbd 043d 18be
00000050: 6d3d 7fbe aabd 803d 33be 9b3d 6b3d 193e
00000060: 2ebe da3d 6e3e 91be d83c 1b3e 453e 2a3e
00000070: 7a3d 36be 2f3e 6fbe 763d 803d 763e e8bd
00000080: fdbd c33d 51be 223e 3c3e 803d 143e 323e
00000090: 803d 853e 63be 243e d3bd 53be 15bd 58be
000000a0: 203e a13d 80bd 823d 42be 5d3e 50be 19be
000000b0: 6f3e ccbd 173d 85be 4fbe 80bd 3fbe 54bd
000000c0: 8e3e 763d 443d ed3d 823e 82bd 7dbe 81be
000000d0: 65be bd3d 363e 313e e5bd 80bd 873d cfbd
000000e0: 18bd 943d 65be e03d 80bd c4bd 18be 36be
000000f0: 74be 143e 80bd 573e 74be 47be a33d 39be
00000100: 5c3e 473e 92be 493e 20be 5f3e 80bd fe3d
00000110: 803d 6b3e 263d 68be 933e 80bd c1bd 823d
00000120: 57be 403d 373d 583d 783e b0bd 243d cd3d
00000130: 253e fbbd 793e 803d 84be f83d 36be 653d
00000140: 0b3e 80bd 4dbd 0cbd 893e 30be 1cbd 3dbe
00000150: 77bc 1ebe e4bd 563e 6f3e 573e 9ebd 90bc
00000160: 6cbe 253e 843e cfbd 803d babc 93be 43be
00000170: 70be 1c3e 3abe af3d 03be 1ebe bebd 75bd
00000180: 8f3e 6fbe 3a3e 8f3e 12be 4dbe d23d 46be
00000190: bfbd 903d d0bd 603e 933e e3bd 8b3e 80bd
000001a0: 24be 3cbe 863e 803d 2ebe 363d 3e3d 57be
000001b0: 03be 6a3e e23d 553e 29be 2f3e 91be b83d
000001c0: 673e 26bc fbbd 763d f93d 80bd 14be f83d
000001d0: 893e 823e a13d 34bd c93c 5c3d 8ebe efbd
000001e0: 3b3e 7e3d ce3d 273e 6fbe 7abe b63d 10bd
000001f0: 653e 79be 463e 903e e63c e53d 82be b33c

layer_9.Uk bf16 [64, 8]
0.118652344 -0.018676758 -0.18359375 -0.06542969 -0.05517578 0.115234375 0.052001953 -0.12695312
-0.13867188 -0.039794922 0.18261719 0.119140625 0.079589844 -0.016967773 -0.24023438 -0.14355469
-0.140625 -0.25585938 0.080078125 0.07470703 -0.28320312 0.07421875 -0.114746094 -0.19921875
-0.15429688 -0.09765625 0.2734375 -0.26367188 0.0625 -0.23632812 -0.07763672 0.12158203
0.21484375 0.16796875 -0.20996094 -0.0625 0.064453125 -0.13964844 0.25390625 0.26757812
-0.1875 -0.060546875 0.041015625 0.15625 0.028930664 0.28515625 -0.06542969 -0.16796875
-0.19433594 0.25195312 0.041748047 0.06689453 -0.19042969 0.21777344 0.14355469 0.15332031
0.092285156 -0.20996094 -0.09863281 0.078125 -0.18066406 -0.15722656 0.13867188 -0.16796875
0.28125 0.03125 0.104003906 -0.032470703 -0.1796875 0.07470703 -0.17578125 -0.26953125
0.060302734 -0.13085938 -0.14746094 -0.1484375 -0.20605469 0.016601562 0.140625 0.08203125
0.08154297 0.28710938 0.029541016 -0.23730469 0.2578125 -0.1875 0.114746094 0.17773438
0.23046875 0.17871094 -0.21289062 -0.13867188 0.16210938 0.26953125 0.06542969 0.10498047
-0.20898438 0.17382812 -0.15527344 0.265625 -0.26953125 -0.2109375 -0.037109375 -0.025878906
0.107910156 -0.23730469 0.07373047 0.20605469 -0.15917969 -0.06542969 0.2421875 0.23046875
0.25976562 0.0625 0.26953125 0.09082031 0.047851562 0.25976562 0.28710938 -0.088378906
-0.07910156 -0.21582031 0.23535156 -0.110839844 -0.080566406 -0.13476562 -0.15234375 -0.0034484863
0.23828125 0.032958984 -0.0625 -0.1640625 -0.203125 -0.0625 -0.19824219 0.28125
-0.15136719 0.18652344 0.18847656 0.0625 0.06347656 0.017456055 -0.09814453 0.030761719
0.011291504 -0.12792969 -0.18457031 -0.20507812 0.234375 0.13867188 0.022338867 -0.03149414
-0.22460938 -0.2734375 -0.28710938 -0.034179688 -0.024047852 -0.111816406 -0.16015625 -0.05834961
-0.030761719 0.037109375 0.047607422 0.24707031 -0.11621094 0.19335938 0.10058594 0.067871094
-0.0154418945 0.07519531 0.24804688 -0.068359375 0.061523438 0.06347656 -0.26367188 0.09863281
0.10253906 -0.20410156 -0.27148438 -0.19335938 0.20703125 0.15917969 -0.1875 0.19335938
0.04296875 0.119628906 -0.2421875 -0.15332031 -0.13964844 0.09033203 0.07861328 -0.13085938
-0.20898438 -0.28320312 -0.27539062 0.22558594 -0.16308594 -0.2265625 -0.203125 -0.06640625
-0.1640625 0.19824219 -0.19335938 0.10498047 0.27148438 -0.24316406 -0.20214844 0.16796875
-0.20410156 -0.0625 -0.20214844 -0.23144531 0.22753906 -0.24511719 -0.0625 0.09863281
-0.26953125 -0.0625 0.029174805 -0.08300781 0.20703125 0.0625 -0.032958984 -0.038330078
-0.0625 -0.13378906 0.28125 0.0625 0.19238281 -0.106933594 -0.21289062 0.13085938
0.036132812 0.2890625 -0.26367188 0.11328125 0.23925781 -0.20898438 -0.13964844 0.20898438
-0.22851562 0.26171875 -0.122558594 -0.24902344 0.17578125 0.19140625 -0.09326172 0.075683594
0.28125 0.0625 0.064453125 0.1328125 -0.016601562 0.104003906 -0.1484375 -0.18359375
00000000: f33d 99bc 3cbe 86bd 62bd ec3d 553d 02be
00000010: 0ebe 23bd 3b3e f43d a33d 8bbc 76be 13be
00000020: 10be 83be a43d 993d 91be 983d ebbd 4cbe
00000030: 1ebe c8bd 8c3e 87be 803d 72be 9fbd f93d
00000040: 5c3e 2c3e 57be 80bd 843d 0fbe 823e 893e
00000050: 40be 78bd 283d 203e ed3c 923e 86bd 2cbe
00000060: 47be 813e 2b3d 893d 43be 5f3e 133e 1d3e
00000070: bd3d 57be cabd a03d 39be 21be 0e3e 2cbe
00000080: 903e 003d d53d 05bd 38be 993d 34be 8abe
00000090: 773d 06be 17be 18be 53be 883c 103e a83d
000000a0: a73d 933e f23c 73be 843e 40be eb3d 363e
000000b0: 6c3e 373e 5abe 0ebe 263e 8a3e 863d d73d
000000c0: 56be 323e 1fbe 883e 8abe 58be 18bd d4bc
000000d0: dd3d 73be 973d 533e 23be 86bd 783e 6c3e
000000e0: 853e 803d 8a3e ba3d 443d 853e 933e b5bd
000000f0: a2bd 5dbe 713e e3bd a5bd 0abe 1cbe 62bb
00000100: 743e 073d 80bd 28be 50be 80bd 4bbe 903e
00000110: 1bbe 3f3e 413e 803d 823d 8f3c c9bd fc3c
00000120: 393c 03be 3dbe 52be 703e 0e3e b73c 01bd
00000130: 66be 8cbe 93be 0cbd c5bc e5bd 24be 6fbd
00000140: fcbc 183d 433d 7d3e eebd 463e ce3d 8b3d
00000150: 7dbc 9a3d 7e3e 8cbd 7c3d 823d 87be ca3d
00000160: d23d 51be 8bbe 46be 543e 233e 40be 463e
00000170: 303d f53d 78be 1dbe 0fbe b93d a13d 06be
00000180: 56be 91be 8dbe 673e 27be 68be 50be 88bd
00000190: 28be 4b3e 46be d73d 8b3e 79be 4fbe 2c3e
000001a0: 51be 80bd 4fbe 6dbe 693e 7bbe 80bd ca3d
000001b0: 8abe 80bd ef3c aabd 543e 803d 07bd 1dbd
000001c0: 80bd 09be 903e 803d 453e dbbd 5abe 063e
000001d0: 143d 943e 87be e83d 753e 56be 0fbe 563e
000001e0: 6abe 863e fbbd 7fbe 343e 443e bfbd 9b3d
000001f0: 903e 803d 843d 083e 88bc d53d 18be 3cbe

layer_9.Wv bf16 [64, 8]
-0.095703125 -0.028930664 -0.18457031 -0.06933594 -0.1796875 -0.0625 0.083496094 -0.16992188
-0.13085938 0.21972656 0.08984375 -0.16015625 -0.12695312 -0.25585938 0.0625 -0.111328125
-0.13476562 -0.10205078 -0.27148438 0.12597656 0.22558594 0.14746094 -0.19726562 0.111816406
0.13183594 -0.12597656 0.12451172 0.106933594 -0.099121094 0.22265625 -0.28710938 0.1640625
0.03955078 -0.15917969 0.032226562 -0.2578125 -0.14746094 0.08203125 0.03857422 -0.23046875
0.03540039 -0.20703125 -0.037353516 -0.14648438 0.18652344 0.19238281 -0.12988281 0.052978516
0.10205078 -0.13964844 -0.032714844 -0.07324219 -0.26367188 -0.036621094 -0.15527344 -0.24707031
-0.26367188 -0.036132812 0.0625 0.12158203 -0.20117188 -0.033935547 0.25976562 -0.2109375
-0.19042969 -0.2109375 -0.22558594 0.19726562 -0.19238281 0.20410156 -0.18945312 0.22363281
0.24414062 -0.27148438 0.2734375 0.0022125244 -0.0625 -0.2890625 -0.09667969 -0.109375
-0.032958984 -0.16015625 -0.20214844 0.07080078 0.20117188 -0.11621094 0.18164062 0.024780273
-0.20996094 -0.24609375 -0.17480469 -0.26953125 0.106933594 0.17285156 0.036376953 0.14648438
0.21289062 -0.23339844 0.10205078 -0.15136719 -0.029541016 -0.053466797 -0.21289062 0.051513672
0.049804688 0.099609375 0.11669922 -0.23339844 -0.010314941 0.11230469 -0.15039062 0.16308594
0.107910156 0.25585938 -0.072753906 -0.265625 0.24414062 -0.13867188 0.1953125 -0.2578125
-0.27929688 0.119628906 -0.00063705444 0.24609375 0.14648438 0.24609375 0.10986328 0.16210938
-0.13574219 -0.17675781 -0.26171875 0.21972656 -0.27929688 0.0625 -0.16015625 0.23242188
0.09423828 0.0038604736 -0.012145996 -0.25195312 -0.234375 0.044433594 0.09423828 0.265625
-0.2421875 0.096191406 0.23046875 -0.23339844 -0.1953125 0.24316406 0.088378906 -0.091308594
-0.0087890625 -0.045654297 0.27148438 -0.083496094 -0.19433594 -0.18945312 0.041748047 0.18652344
-0.1875 -0.2109375 -0.23046875 -0.05444336 -0.19726562 -0.10449219 0.043701172 -0.16113281
-0.049316406 0.22753906 -0.04663086 -0.265625 0.111816406 0.07861328 -0.11328125 -0.21582031
-0.25390625 0.111816406 0.15722656 0.052490234 -0.171875 0.21582031 -0.234375 0.109375
-0.2265625 -0.26953125 -0.265625 0.171875 0.28320312 0.09814453 -0.20605469 -0.24804688
0.234375 0.01928711 -0.18164062 -0.1875 -0.032226562 -0.14257812 0.19726562 0.091796875
0.16503906 -0.032226562 0.048828125 0.16796875 0.119140625 0.07470703 0.21875 0.22753906
-0.21386719 -0.15039062 0.17578125 0.25585938 -0.084472656 -0.1015625 0.11816406 -0.12109375
-0.18164062 0.15527344 0.08105469 -0.0625 0.23632812 -0.23730469 0.11376953 -0.09423828
-0.17480469 -0.03955078 -0.2421875 0.14648438 -0.07714844 -0.25585938 -0.071777344 -0.13671875
0.10058594 0.22558594 0.2734375 0.21679688 -0.26953125 -0.14746094 -0.10644531 -0.20507812
0.063964844 0.18066406 0.10644531 -0.076660156 0.018676758 -0.07519531 0.2421875 0.037109375
-0.049072266 -0.06298828 -0.26367188 0.20214844 0.07763672 -0.20214844 0.21582031 -0.14941406
00000000: c4bd edbc 3dbe 8ebd 38be 80bd ab3d 2ebe
00000010: 06be 613e b83d 24be 02be 83be 803d e4bd
00000020: 0abe d1bd 8bbe 013e 673e 173e 4abe e53d
00000030: 073e 01be ff3d db3d cbbd 643e 93be 283e
00000040: 223d 23be 043d 84be 17be a83d 1e3d 6cbe
00000050: 113d 54be 19bd 16be 3f3e 453e 05be 593d
00000060: d13d 0fbe 06bd 96bd 87be 16bd 1fbe 7dbe
00000070: 87be 14bd 803d f93d 4ebe 0bbd 853e 58be
00000080: 43be 58be 67be 4a3e 45be 513e 42be 653e
00000090: 7a3e 8bbe 8c3e 113b 80bd 94be c6bd e0bd
000000a0: 07bd 24be 4fbe 913d 4e3e eebd 3a3e cb3c
000000b0: 57be 7cbe 33be 8abe db3d 313e 153d 163e
000000c0: 5a3e 6fbe d13d 1bbe f2bc 5bbd 5abe 533d
000000d0: 4c3d cc3d ef3d 6fbe 29bc e63d 1abe 273e
000000e0: dd3d 833e 95bd 88be 7a3e 0ebe 483e 84be
000000f0: 8fbe f53d 27ba 7c3e 163e 7c3e e13d 263e
00000100: 0bbe 35be 86be 613e 8fbe 803d 24be 6e3e
00000110: c13d 7d3b 47bc 81be 70be 363d c13d 883e
00000120: 78be c53d 6c3e 6fbe 48be 793e b53d bbbd
00000130: 10bc 3bbd 8b3e abbd 47be 42be 2b3d 3f3e
00000140: 40be 58be 6cbe 5fbd 4abe d6bd 333d 25be
00000150: 4abd 693e 3fbd 88be e53d a13d e8bd 5dbe
00000160: 82be e53d 213e 573d 30be 5d3e 70be e03d
00000170: 68be 8abe 88be 303e 913e c93d 53be 7ebe
00000180: 703e 9e3c 3abe 40be 04bd 12be 4a3e bc3d
00000190: 293e 04bd 483d 2c3e f43d 993d 603e 693e
000001a0: 5bbe 1abe 343e 833e adbd d0bd f23d f8bd
000001b0: 3abe 1f3e a63d 80bd 723e 73be e93d c1bd
000001c0: 33be 22bd 78be 163e 9ebd 83be 93bd 0cbe
000001d0: ce3d 673e 8c3e 5e3e 8abe 17be dabd 52be
000001e0: 833d 393e da3d 9dbd 993c 9abd 783e 183d
000001f0: 49bd 81bd 87be 4f3e 9f3d 4fbe 5d3e 19be

layer_9.Uv bf16 [64, 8]
0.09277344 0.17089844 -0.07763672 0.24511719 -0.16113281 0.09472656 0.030639648 0.009643555
0.1953125 0.15039062 -0.21972656 -0.20019531 0.26953125 0.24414062 0.24316406 0.26757812
-0.064453125 -0.265625 0.18457031 -0.14257812 0.061035156 -0.16894531 -0.118652344 0.27734375
0.0390625 0.19921875 -0.071777344 0.14453125 0.2421875 -0.018676758 0.011291504 -0.08300781
-0.23046875 0.18554688 0.22851562 -0.026611328 0.2265625 -0.1640625 -0.02355957 0.1875
0.025634766 -0.13867188 -0.15332031 0.016967773 0.20214844 -0.15234375 0.12988281 -0.20996094
-0.08935547 0.03125 -0.19140625 -0.0703125 -0.087890625 0.17480469 0.080078125 0.10449219
0.063964844 -0.16699219 -0.11816406 -0.12207031 -0.109375 0.03125 0.24804688 -0.032470703
-0.18261719 -0.16210938 0.0625 -0.23144531 -0.125 -0.013549805 -0.06738281 0.15429688
-0.26171875 0.091308594 -0.11279297 0.07519531 -0.09814453 -0.16503906 0.18261719 0.034423828
-0.12060547 -0.09765625 0.22949219 -0.037597656 -0.23828125 0.24414062 0.10546875 -0.18359375
-0.26367188 0.27148438 0.25195312 -0.18359375 -0.22851562 0.16601562 -0.171875 -0.11816406
-0.10839844 0.026245117 -0.10449219 -0.16113281 0.096191406 0.20605469 -0.18554688 -0.014404297
-0.06689453 -0.091308594 -0.11425781 -0.012268066 0.15527344 -0.033447266 -0.10839844 0.072265625
0.21484375 0.11376953 -0.27148438 0.2578125 -0.22949219 0.111328125 0.07763672 -0.10595703
-0.26757812 -0.091308594 0.265625 0.08105469 -0.16210938 0.22558594 -0.19628906 0.20117188
-0.083984375 -0.111816406 -0.1875 0.14941406 -0.12207031 0.2734375 0.1953125 0.111816406
0.15527344 -0.265625 0.22949219 -0.16796875 0.18652344 0.17578125 -0.020263672 -0.0390625
0.23046875 -0.18457031 -0.234375 -0.265625 0.109375 0.03125 -0.071777344 -0.0625
-0.016601562 0.19042969 -0.05493164 -0.0019683838 -0.16894531 -0.16601562 -0.20117188 0.12988281
-0.23046875 0.0029449463 0.068359375 -0.18261719 -0.171875 0.20214844 -0.014526367 -0.1640625
-0.17480469 0.22167969 -0.16601562 0.15625 -0.042236328 0.140625 0.28515625 -0.06738281
0.091796875 -0.020141602 0.03173828 0.08105469 0.26367188 -0.21679688 -0.14160156 0.1875
-0.17578125 0.17480469 -0.13183594 0.13183594 -0.02734375 -0.044433594 -0.21582031 0.076660156
-0.26171875 0.28125 -0.11621094 0.10253906 -0.23339844 -0.023925781 0.16699219 0.2578125
-0.18164062 0.033203125 -0.24511719 0.11328125 -0.17773438 -0.100097656 -0.20019531 -0.20996094
-0.0625 -0.13964844 0.2734375 -0.17089844 0.24511719 -0.026855469 -0.27148438 0.13476562
0.25 0.1953125 0.16992188 0.033935547 -0.109375 -0.12207031 -0.07470703 -0.09472656
0.023071289 -0.0087890625 0.012878418 0.019897461 0.16210938 0.21777344 0.25585938 0.0025787354
-0.06640625 -0.14453125 -0.140625 -0.064941406 0.265625 -0.068359375 0.09375 -0.24511719
-0.16015625 -0.23828125 -0.103515625 0.24609375 0.100097656 0.19335938 -0.24316406 -0.22558594
0.041503906 0.017089844 -0.027832031 0.265625 -0.09863281 -0.104003906 -0.19335938 0.25585938
00000000: be3d 2f3e 9fbd 7b3e 25be c23d fb3c 1e3c
00000010: 483e 1a3e 61be 4dbe 8a3e 7a3e 793e 893e
00000020: 84bd 88be 3d3e 12be 7a3d 2dbe f3bd 8e3e
00000030: 203d 4c3e 93bd 143e 783e 99bc 393c aabd
00000040: 6cbe 3e3e 6a3e dabc 683e 28be c1bc 403e
00000050: d23c 0ebe 1dbe 8b3c 4f3e 1cbe 053e 57be
00000060: b7bd 003d 44be 90bd b4bd 333e a43d d63d
00000070: 833d 2bbe f2bd fabd e0bd 003d 7e3e 05bd
00000080: 3bbe 26be 803d 6dbe 00be 5ebc 8abd 1e3e
00000090: 86be bb3d e7bd 9a3d c9bd 29be 3b3e 0d3d
000000a0: f7bd c8bd 6b3e 1abd 74be 7a3e d83d 3cbe
000000b0: 87be 8b3e 813e 3cbe 6abe 2a3e 30be f2bd
000000c0: debd d73c d6bd 25be c53d 533e 3ebe 6cbc
000000d0: 89bd bbbd eabd 49bc 1f3e 09bd debd 943d
000000e0: 5c3e e93d 8bbe 843e 6bbe e43d 9f3d d9bd
000000f0: 89be bbbd 883e a63d 26be 673e 49be 4e3e
00000100: acbd e5bd 40be 193e fabd 8c3e 483e e53d
00000110: 1f3e 88be 6b3e 2cbe 3f3e 343e a6bc 20bd
00000120: 6c3e 3dbe 70be 88be e03d 003d 93bd 80bd
00000130: 88bc 433e 61bd 01bb 2dbe 2abe 4ebe 053e
00000140: 6cbe 413b 8c3d 3bbe 30be 4f3e 6ebc 28be
00000150: 33be 633e 2abe 203e 2dbd 103e 923e 8abd
00000160: bc3d a5bc 023d a63d 873e 5ebe 11be 403e
00000170: 34be 333e 07be 073e e0bc 36bd 5dbe 9d3d
00000180: 86be 903e eebd d23d 6fbe c4bc 2b3e 843e
00000190: 3abe 083d 7bbe e83d 36be cdbd 4dbe 57be
000001a0: 80bd 0fbe 8c3e 2fbe 7b3e dcbc 8bbe 0a3e
000001b0: 803e 483e 2e3e 0b3d e0bd fabd 99bd c2bd
000001c0: bd3c 10bc 533c a33c 263e 5f3e 833e 293b
000001d0: 88bd 14be 10be 85bd 883e 8cbd c03d 7bbe
000001e0: 24be 74be d4bd 7c3e cd3d 463e 79be 67be
000001f0: 2a3d 8c3c e4bc 883e cabd d5bd 46be 833e
