empty_dirs_for_codex/outputs/runs/mve_gpu_20260215_121245/checkpoints/train_state_step_3000.pt (torch, 148919 bytes, 144 tensors)

layer_8.Wk bf16 [64, 8]
0	0xbe4a	-0.19726562
1	0xbd81	-0.06298828
2	0xbe82	-0.25390625
3	0x3dec	0.115234375
4	0x3e55	0.20800781
5	0xbd80	-0.0625
6	0xbe93	-0.28710938
7	0x3dc8	0.09765625
8	0x3d05	0.032470703
9	0x3d9b	0.075683594
10	0xbdaf	-0.08544922
11	0xbe61	-0.21972656
12	0xbe6f	-0.23339844
13	0x3daf	0.08544922
14	0xbdbb	-0.091308594
15	0x3e85	0.25976562
16	0x3d06	0.032714844
17	0x3d80	0.0625
18	0x3e43	0.19042969
19	0x3e8a	0.26953125
20	0x3dd1	0.10205078
21	0x3e79	0.24316406
22	0x3e6d	0.23144531
23	0x3e92	0.28515625
24	0xbe76	-0.24023438
25	0x3deb	0.114746094
26	0xbe07	-0.13183594
27	0xbe55	-0.20800781
28	0x3d7f	0.06225586
29	0x3e58	0.2109375
30	0x3e80	0.25
31	0x3d1d	0.038330078
32	0x3df5	0.119628906
33	0x3d80	0.0625
34	0xbd80	-0.0625
35	0xbd95	-0.072753906
36	0xbe09	-0.13378906
37	0xbe3a	-0.18164062
38	0xbe87	-0.26367188
39	0x3d2f	0.04272461
40	0x3e8b	0.27148438
41	0x3dd1	0.10205078
42	0x3d80	0.0625
43	0xbe7b	-0.24511719
44	0xbd80	-0.0625
45	0xbe8a	-0.26953125
46	0xbd80	-0.0625
47	0xbdd0	-0.1015625
48	0x3e6b	0.22949219
49	0x3e3b	0.18261719
50	0xbe7c	-0.24609375
51	0x3e27	0.16308594
52	0xbd98	-0.07421875
53	0xbe91	-0.28320312
54	0xbdca	-0.09863281
55	0x3cc2	0.02368164
56	0x3e22	0.15820312
57	0xbd09	-0.033447266
58	0x3e60	0.21875
59	0xbe84	-0.2578125
60	0xbe01	-0.12597656
61	0xbe93	-0.28710938
62	0xbd3e	-0.04638672
63	0xbe53	-0.20605469
64	0x3e2b	0.16699219
65	0x3e33	0.17480469
66	0xbdf6	-0.12011719
67	0x3e89	0.26757812
68	0xbe4d	-0.20019531
69	0xbe60	-0.21875
70	0xbd80	-0.0625
71	0x3d82	0.06347656
72	0x3e85	0.25976562
73	0xbe49	-0.19628906
74	0x3e67	0.22558594
75	0x3dee	0.11621094
76	0xbe10	-0.140625
77	0xbe42	-0.18945312
78	0x3dc5	0.096191406
79	0xbd0d	-0.034423828
80	0x3e6d	0.23144531
81	0x3d0a	0.033691406
82	0xbe88	-0.265625
83	0xbdb9	-0.09033203
84	0xbde5	-0.111816406
85	0xbe2a	-0.16601562
86	0x3d80	0.0625
87	0x3dfa	0.12207031
88	0xbe38	-0.1796875
89	0xbd15	-0.036376953
90	0xbe00	-0.125
91	0x3e39	0.18066406
92	0x3e64	0.22265625
93	0x3e74	0.23828125
94	0x3e91	0.28320312
95	0xbe0d	-0.13769531
96	0xbe4f	-0.20214844
97	0x3e54	0.20703125
98	0x3df8	0.12109375
99	0x3d80	0.0625
100	0xbe26	-0.16210938
101	0xbe6c	-0.23046875
102	0xbdc4	-0.095703125
103	0x3e74	0.23828125
104	0xbe15	-0.14550781
105	0xbe3c	-0.18359375
106	0x3dda	0.10644531
107	0x3e7b	0.24511719
108	0x3d86	0.06542969
109	0x3d9c	0.076171875
110	0x3e40	0.1875
111	0xbdad	-0.084472656
112	0xbe85	-0.25976562
113	0xbd80	-0.0625
114	0xbe26	-0.16210938
115	0x3deb	0.114746094
116	0xbe1b	-0.15136719
117	0x3e8a	0.26953125
118	0x3bd0	0.0063476562
119	0x3e6b	0.22949219
120	0xbe52	-0.20507812
121	0xbe7d	-0.24707031
122	0xbe0d	-0.13769531
123	0xbd92	-0.07128906
124	0x3e61	0.21972656
125	0xbe66	-0.22460938
126	0xbde0	-0.109375
127	0x3db0	0.0859375
128	0xbd80	-0.0625
129	0xbe02	-0.12695312
130	0x3e43	0.19042969
131	0xbe27	-0.16308594
132	0x3e0c	0.13671875
133	0x3d8e	0.06933594
134	0xbe26	-0.16210938
135	0x3d80	0.0625
136	0x3db8	0.08984375
137	0x3d00	0.03125
138	0xbdb7	-0.08935547
139	0x3e10	0.140625
140	0xbdfe	-0.12402344
141	0xbd85	-0.064941406
142	0xbd81	-0.06298828
143	0x3d80	0.0625
144	0x3d80	0.0625
145	0x3d82	0.06347656
146	0xbe7b	-0.24511719
147	0xbe3a	-0.18164062
148	0x3d99	0.07470703
149	0x3e75	0.23925781
150	0xbe41	-0.18847656
151	0xbdac	-0.083984375
152	0xbe3c	-0.18359375
153	0xbe66	-0.22460938
154	0xbe83	-0.25585938
155	0x3daf	0.08544922
156	0x3d7a	0.061035156
157	0xbe18	-0.1484375
158	0x3e90	0.28125
159	0x3cc6	0.024169922
160	0xbd24	-0.040039062
161	0x3e94	0.2890625
162	0xbe53	-0.20605469
163	0xbdc5	-0.096191406
164	0xbe6c	-0.23046875
165	0x3dbe	0.09277344
166	0xbd88	-0.06640625
167	0xbe91	-0.28320312
168	0x3d81	0.06298828
169	0x3d80	0.0625
170	0x3e87	0.26367188
171	0xbd80	-0.0625
172	0xbe58	-0.2109375
173	0x3e29	0.16503906
174	0x3e29	0.16503906
175	0x3def	0.11669922
176	0xbdf2	-0.11816406
177	0x3e2f	0.17089844
178	0xbdbf	-0.09326172
179	0xbbe3	-0.0069274902
180	0x3dcb	0.099121094
181	0xbdf7	-0.12060547
182	0x3e83	0.25585938
183	0x3e84	0.2578125
184	0xbcff	-0.03112793
185	0x3d80	0.0625
186	0xbe1d	-0.15332031
187	0x3e4a	0.19726562
188	0xbde5	-0.111816406
189	0x3e80	0.25
190	0x3d80	0.0625
191	0x3e69	0.22753906
192	0x3e18	0.1484375
193	0x3e57	0.20996094
194	0xbd9e	-0.07714844
195	0xbd56	-0.052246094
196	0xbe84	-0.2578125
197	0x3e2c	0.16796875
198	0xbd36	-0.044433594
199	0xbe44	-0.19140625
200	0xbdaf	-0.08544922
201	0xbe82	-0.25390625
202	0x3e6f	0.23339844
203	0x3d50	0.05078125
204	0xbd83	-0.063964844
205	0x3c50	0.0126953125
206	0xbd80	-0.0625
207	0x3e37	0.17871094
208	0xbe2d	-0.16894531
209	0x3e6d	0.23144531
210	0xbe16	-0.14648438
211	0x3d80	0.0625
212	0xbd80	-0.0625
213	0x3d11	0.03540039
214	0xbcae	-0.021240234
215	0x3df1	0.11767578
216	0xbe30	-0.171875
217	0xbe36	-0.17773438
218	0x3e3e	0.18554688
219	0xbe72	-0.23632812
220	0x3e5e	0.21679688
221	0xbe90	-0.28125
222	0xbd80	-0.0625
223	0x3df0	0.1171875
224	0x3e04	0.12890625
225	0xbd02	-0.03173828
226	0x3d80	0.0625
227	0x3e8e	0.27734375
228	0xbe67	-0.22558594
229	0xbd83	-0.063964844
230	0x3e3a	0.18164062
231	0x3e89	0.26757812
232	0xbd83	-0.063964844
233	0x3e85	0.25976562
234	0x3dea	0.11425781
235	0x3d80	0.0625
236	0x3e5f	0.21777344
237	0x3e22	0.15820312
238	0xbe84	-0.2578125
239	0xbcb9	-0.022583008
240	0xbe89	-0.26757812
241	0xbe40	-0.1875
242	0x3d83	0.063964844
243	0x3d1c	0.038085938
244	0x3e90	0.28125
245	0xbda1	-0.07861328
246	0x3e6d	0.23144531
247	0x3e8b	0.27148438
248	0x3d37	0.044677734
249	0x3e89	0.26757812
250	0xbd53	-0.051513672
251	0x3dd7	0.10498047
252	0x3d80	0.0625
253	0x3e30	0.171875
254	0x3dda	0.10644531
255	0xbd23	-0.039794922

layer_8.Uk bf16 [64, 8]
0	0xbe86	-0.26171875
1	0x3e52	0.20507812
2	0xbd10	-0.03515625
3	0x3c25	0.010070801
4	0xbd7d	-0.061767578
5	0xbd3a	-0.045410156
6	0xbc91	-0.017700195
7	0xbe59	-0.21191406
8	0xbc91	-0.017700195
9	0x3de3	0.110839844
10	0xbe52	-0.20507812
11	0xbe8d	-0.27539062
12	0x3d1d	0.038330078
13	0x3da0	0.078125
14	0xbda6	-0.08105469
15	0xbe3a	-0.18164062
16	0x3d0e	0.03466797
17	0x3e10	0.140625
18	0xbe2c	-0.16796875
19	0xbe8a	-0.26953125
20	0x3e8f	0.27929688
21	0xbe8b	-0.27148438
22	0xbac9	-0.0015335083
23	0x3e0b	0.13574219
24	0xbe38	-0.1796875
25	0x3d4b	0.049560547
26	0xbd01	-0.03149414
27	0x3cec	0.028808594
28	0x3d8b	0.067871094
29	0xbe0e	-0.13867188
30	0x3e4a	0.19726562
31	0x3d17	0.036865234
32	0x3e92	0.28515625
33	0x3d81	0.06298828
34	0xbe12	-0.14257812
35	0xbd14	-0.036132812
36	0x3e8c	0.2734375
37	0xbe43	-0.19042969
38	0x3d22	0.03955078
39	0xbe2a	-0.16601562
40	0xbe16	-0.14648438
41	0x3e5f	0.21777344
42	0x3e82	0.25390625
43	0x3e29	0.16503906
44	0xbe47	-0.19433594
45	0xbe19	-0.14941406
46	0xbe79	-0.24316406
47	0xbdc6	-0.09667969
48	0x3db1	0.08642578
49	0x3e4f	0.20214844
50	0xbe02	-0.12695312
51	0xbe28	-0.1640625
52	0x3dc5	0.096191406
53	0x3e70	0.234375
54	0xbd0b	-0.033935547
55	0x3e55	0.20800781
56	0x3e7b	0.24511719
57	0x3d08	0.033203125
58	0x3e89	0.26757812
59	0x3e58	0.2109375
60	0x3d9f	0.07763672
61	0xbe80	-0.25
62	0xbdb7	-0.08935547
63	0x3d36	0.044433594
64	0xbd12	-0.03564453
65	0xbe81	-0.25195312
66	0x3e61	0.21972656
67	0x3e4a	0.19726562
68	0xbd80	-0.0625
69	0xbe70	-0.234375
70	0xbe41	-0.18847656
71	0xbe93	-0.28710938
72	0xbdcf	-0.10107422
73	0x3e35	0.17675781
74	0xbe61	-0.21972656
75	0x3e46	0.19335938
76	0xbd2b	-0.041748047
77	0xbd76	-0.060058594
78	0xbdc9	-0.09814453
79	0xbd00	-0.03125
80	0xbdd1	-0.10205078
81	0xbe13	-0.14355469
82	0xbd1b	-0.037841797
83	0xbe70	-0.234375
84	0x3dd0	0.1015625
85	0xbe59	-0.21191406
86	0x3e62	0.22070312
87	0x3e4e	0.20117188
88	0xbcfc	-0.030761719
89	0x3d0c	0.034179688
90	0xbbd2	-0.0064086914
91	0x3dca	0.09863281
92	0xbd84	-0.064453125
93	0x3d2a	0.041503906
94	0x3c4c	0.012451172
95	0xbe40	-0.1875
96	0x3de3	0.110839844
97	0xbe6f	-0.23339844
98	0x3d20	0.0390625
99	0x3e8b	0.27148438
100	0xbb24	-0.0025024414
101	0x3d0b	0.033935547
102	0x3e08	0.1328125
103	0x3e88	0.265625
104	0x3dea	0.11425781
105	0xbdb0	-0.0859375
106	0x3e48	0.1953125
107	0x3cbb	0.022827148
108	0x3d83	0.063964844
109	0x3e2f	0.17089844
110	0xbcdb	-0.026733398
111	0x3de4	0.111328125
112	0xbd25	-0.040283203
113	0x3e18	0.1484375
114	0x3e54	0.20703125
115	0xbc55	-0.013000488
116	0x3d00	0.03125
117	0xbe6b	-0.22949219
118	0xbe21	-0.15722656
119	0x3cff	0.03112793
120	0x3e83	0.25585938
121	0x3d80	0.0625
122	0x3dcd	0.100097656
123	0xbe26	-0.16210938
124	0x3d87	0.06591797
125	0xbe4c	-0.19921875
126	0xbe13	-0.14355469
127	0xbe87	-0.26367188
128	0x3e48	0.1953125
129	0xbe43	-0.19042969
130	0xbe2b	-0.16699219
131	0x3e3e	0.18554688
132	0x3e5d	0.21582031
133	0x3e1d	0.15332031
134	0x3e7d	0.24707031
135	0xbe41	-0.18847656
136	0x3d97	0.07373047
137	0xbe13	-0.14355469
138	0xbe85	-0.25976562
139	0xbe24	-0.16015625
140	0xbddd	-0.107910156
141	0x3c7b	0.015319824
142	0x3af4	0.0018615723
143	0xbcdb	-0.026733398
144	0xbe87	-0.26367188
145	0x3e62	0.22070312
146	0x3e8c	0.2734375
147	0x3e22	0.15820312
148	0x3e91	0.28320312
149	0xbda1	-0.07861328
150	0xbb82	-0.003967285
151	0xbe7c	-0.24609375
152	0xbd0d	-0.034423828
153	0xbe58	-0.2109375
154	0xbe89	-0.26757812
155	0xbd44	-0.047851562
156	0xbe08	-0.1328125
157	0xbe6a	-0.22851562
158	0x3d2d	0.042236328
159	0x3d2d	0.042236328
160	0x3e86	0.26171875
161	0xbd67	-0.056396484
162	0x3d87	0.06591797
163	0x3e70	0.234375
164	0xbd8e	-0.06933594
165	0x3e51	0.20410156
166	0x3e8a	0.26953125
167	0xbdf9	-0.12158203
168	0xbe70	-0.234375
169	0x3e23	0.15917969
170	0xbe11	-0.14160156
171	0xbe79	-0.24316406
172	0xbe86	-0.26171875
173	0x3e8b	0.27148438
174	0x3e8d	0.27539062
175	0xbe62	-0.22070312
176	0xbe02	-0.12695312
177	0x3d9c	0.076171875
178	0x3b3b	0.0028533936
179	0xbd2b	-0.041748047
180	0xbd5e	-0.05419922
181	0xbd8a	-0.06738281
182	0xbe53	-0.20605469
183	0xbcfc	-0.030761719
184	0x3cd5	0.026000977
185	0x3e89	0.26757812
186	0x3c5f	0.01361084
187	0x3df8	0.12109375
188	0x3e46	0.19335938
189	0xbe8e	-0.27734375
190	0x3d44	0.047851562
191	0x3e93	0.28710938
192	0xbdcb	-0.099121094
193	0x3da9	0.08251953
194	0x3d00	0.03125
195	0xbd3e	-0.04638672
196	0x3e37	0.17871094
197	0xbd12	-0.03564453
198	0xbe40	-0.1875
199	0x3e0f	0.13964844
200	0xbdbb	-0.091308594
201	0x3c00	0.0078125
202	0x3e11	0.14160156
203	0xbdd6	-0.10449219
204	0xbe63	-0.22167969
205	0xbe43	-0.19042969
206	0x3e8a	0.26953125
207	0xbdc7	-0.09716797
208	0x3e2c	0.16796875
209	0xbe45	-0.19238281
210	0x3e51	0.20410156
211	0x3e77	0.24121094
212	0x3bd7	0.0065612793
213	0xbdc3	-0.095214844
214	0x3e3f	0.18652344
215	0x3de4	0.111328125
216	0xbdcf	-0.10107422
217	0xbe73	-0.23730469
218	0x3e38	0.1796875
219	0xbe08	-0.1328125
220	0x3deb	0.114746094
221	0xbe8d	-0.27539062
222	0xbe88	-0.265625
223	0x3e2d	0.16894531
224	0xbdaf	-0.08544922
225	0x3e80	0.25
226	0x3d42	0.04736328
227	0x3e4c	0.19921875
228	0x3b93	0.004486084
229	0x3e85	0.25976562
230	0xbe69	-0.22753906
231	0xbdcf	-0.10107422
232	0x3c92	0.017822266
233	0xbe79	-0.24316406
234	0xbb0c	-0.0021362305
235	0xbe56	-0.20898438
236	0x3d8f	0.06982422
237	0x3d87	0.06591797
238	0xbe89	-0.26757812
239	0xbe84	-0.2578125
240	0xbe91	-0.28320312
241	0x3d80	0.0625
242	0xbce8	-0.028320312
243	0xbc9d	-0.019165039
244	0x3e53	0.20605469
245	0xbe87	-0.26367188
246	0x3ddd	0.107910156
247	0x3e5b	0.21386719
248	0xbe83	-0.25585938
249	0x3c8a	0.016845703
250	0x3e72	0.23632812
251	0x3e04	0.12890625
252	0xbd80	-0.0625
253	0xbccf	-0.025268555
254	0x3e49	0.19628906
255	0x3bee	0.0072631836

layer_8.Wv bf16 [64, 8]
0	0xbd29	-0.041259766
1	0x3e89	0.26757812
2	0xbdd5	-0.104003906
3	0xbe7e	-0.24804688
4	0xbda2	-0.07910156
5	0x3dd7	0.10498047
6	0x3e0e	0.13867188
7	0x3e85	0.25976562
8	0x3d90	0.0703125
9	0x3e29	0.16503906
10	0xbaf4	-0.0018615723
11	0xbdab	-0.083496094
12	0x3a36	0.0006942749
13	0x3e82	0.25390625
14	0x3d82	0.06347656
15	0x3dbf	0.09326172
16	0xbd02	-0.03173828
17	0xbe22	-0.15820312
18	0x3d00	0.03125
19	0xbdc9	-0.09814453
20	0x3e8e	0.27734375
21	0x3c36	0.011108398
22	0xbd4a	-0.049316406
23	0x3e81	0.25195312
24	0xbdbb	-0.091308594
25	0x3e17	0.14746094
26	0xbe14	-0.14453125
27	0xbe16	-0.14648438
28	0x3e12	0.14257812
29	0xbc13	-0.008972168
30	0x3e4d	0.20019531
31	0x3d80	0.0625
32	0x3c3c	0.011474609
33	0x3e57	0.20996094
34	0xbcf0	-0.029296875
35	0xbe2c	-0.16796875
36	0x3e7a	0.24414062
37	0xbdd2	-0.10253906
38	0xbe7f	-0.24902344
39	0x3e86	0.26171875
40	0xbe71	-0.23535156
41	0xbd9d	-0.076660156
42	0x3e6b	0.22949219
43	0xbe46	-0.19335938
44	0x3e5e	0.21679688
45	0x3e89	0.26757812
46	0x3e1a	0.15039062
47	0x3d80	0.0625
48	0xbd96	-0.07324219
49	0x3e4f	0.20214844
50	0xbe55	-0.20800781
51	0x3d00	0.03125
52	0xbe81	-0.25195312
53	0xbde5	-0.111816406
54	0x3d3c	0.045898438
55	0xbda5	-0.080566406
56	0x3de5	0.111816406
57	0xbdd7	-0.10498047
58	0xbe63	-0.22167969
59	0x3e6e	0.23242188
60	0x3da9	0.08251953
61	0x3c9b	0.018920898
62	0xbd80	-0.0625
63	0xbe52	-0.20507812
64	0xbca9	-0.020629883
65	0x3e6a	0.22851562
66	0xbe19	-0.14941406
67	0xbe75	-0.23925781
68	0x3dfb	0.122558594
69	0xbe33	-0.17480469
70	0xbe09	-0.13378906
71	0x3e90	0.28125
72	0xbe86	-0.26171875
73	0xbe2c	-0.16796875
74	0x3e22	0.15820312
75	0xbd18	-0.037109375
76	0x3db9	0.09033203
77	0x3e80	0.25
78	0xbb83	-0.0039978027
79	0xbe60	-0.21875
80	0xbc75	-0.014953613
81	0xbe8b	-0.27148438
82	0xbd0b	-0.033935547
83	0x3c5e	0.013549805
84	0xbe37	-0.17871094
85	0x3e2f	0.17089844
86	0x3da9	0.08251953
87	0x3c0a	0.008422852
88	0x3e35	0.17675781
89	0x3e2e	0.16992188
90	0x3dd4	0.103515625
91	0x3d84	0.064453125
92	0xbd06	-0.032714844
93	0xbcaf	-0.021362305
94	0x3e22	0.15820312
95	0xbe45	-0.19238281
96	0x3da1	0.07861328
97	0x3e7f	0.24902344
98	0x3d95	0.072753906
99	0xbdc2	-0.09472656
100	0x3e29	0.16503906
101	0xbbb3	-0.0054626465
102	0xbe05	-0.12988281
103	0xbe56	-0.20898438
104	0x3dcf	0.10107422
105	0xbc8d	-0.017211914
106	0xbe91	-0.28320312
107	0x3e35	0.17675781
108	0x3e72	0.23632812
109	0xbdfc	-0.123046875
110	0xbe5e	-0.21679688
111	0xbd53	-0.051513672
112	0xbdb8	-0.08984375
113	0x3d80	0.0625
114	0xbe70	-0.234375
115	0xbe76	-0.24023438
116	0xbe08	-0.1328125
117	0xbe63	-0.22167969
118	0x3db6	0.08886719
119	0x3e71	0.23535156
120	0x3d80	0.0625
121	0x3e0c	0.13671875
122	0x3d92	0.07128906
123	0xbdc7	-0.09716797
124	0xbe3c	-0.18359375
125	0x3db8	0.08984375
126	0x3d0e	0.03466797
127	0xbe85	-0.25976562
128	0x3e90	0.28125
129	0xbe54	-0.20703125
130	0x3e13	0.14355469
131	0xbcd8	-0.026367188
132	0x3e7f	0.24902344
133	0xbdea	-0.11425781
134	0x3d9e	0.07714844
135	0xbe60	-0.21875
136	0xbe64	-0.22265625
137	0x3b1c	0.002380371
138	0x3e89	0.26757812
139	0xbd10	-0.03515625
140	0x3bef	0.007293701
141	0x3e24	0.16015625
142	0xbc70	-0.0146484375
143	0x3d1d	0.038330078
144	0xbe18	-0.1484375
145	0xbe2a	-0.16601562
146	0x3e90	0.28125
147	0xbe34	-0.17578125
148	0xbe7b	-0.24511719
149	0x3dc2	0.09472656
150	0x3c94	0.018066406
151	0x3d9e	0.07714844
152	0xbe55	-0.20800781
153	0x3e26	0.16210938
154	0x3e1d	0.15332031
155	0xbdb7	-0.08935547
156	0xbe17	-0.14746094
157	0x3de5	0.111816406
158	0x3db3	0.087402344
159	0xbe1c	-0.15234375
160	0xbd1e	-0.03857422
161	0xbcce	-0.025146484
162	0xbe12	-0.14257812
163	0x3c80	0.015625
164	0x3d86	0.06542969
165	0x3e27	0.16308594
166	0xbe62	-0.22070312
167	0x3e5d	0.21582031
168	0xbbec	-0.0072021484
169	0x3d1e	0.03857422
170	0x3de7	0.11279297
171	0x3d05	0.032470703
172	0xbe84	-0.2578125
173	0xbe82	-0.25390625
174	0x3d0e	0.03466797
175	0x3e8f	0.27929688
176	0xbe66	-0.22460938
177	0x3e8b	0.27148438
178	0xbe05	-0.12988281
179	0x3e25	0.16113281
180	0xbd3b	-0.045654297
181	0xbe76	-0.24023438
182	0x3e60	0.21875
183	0xbe55	-0.20800781
184	0xbd8f	-0.06982422
185	0xbd94	-0.072265625
186	0x3e70	0.234375
187	0xbe6d	-0.23144531
188	0xbe89	-0.26757812
189	0xbaff	-0.0019454956
190	0xbdab	-0.083496094
191	0xbe36	-0.17773438
192	0xbe3f	-0.18652344
193	0xbe86	-0.26171875
194	0x3e75	0.23925781
195	0xbe68	-0.2265625
196	0x3dbe	0.09277344
197	0x3e21	0.15722656
198	0xbcf1	-0.029418945
199	0x3db4	0.087890625
200	0x3df4	0.119140625
201	0xbe87	-0.26367188
202	0x3e54	0.20703125
203	0x3d8a	0.06738281
204	0x3e8b	0.27148438
205	0xbe18	-0.1484375
206	0xbe13	-0.14355469
207	0x3e84	0.2578125
208	0xbe93	-0.28710938
209	0xbe31	-0.17285156
210	0x3e4c	0.19921875
211	0x3df3	0.118652344
212	0xbe57	-0.20996094
213	0xbe2e	-0.16992188
214	0x3e58	0.2109375
215	0x3dde	0.10839844
216	0xbd8d	-0.068847656
217	0xbe6e	-0.23242188
218	0xbe85	-0.25976562
219	0x3e61	0.21972656
220	0xbd1c	-0.038085938
221	0x3e1b	0.15136719
222	0xbd80	-0.0625
223	0x3e8e	0.27734375
224	0x3dc0	0.09375
225	0x3d8c	0.068359375
226	0x3e28	0.1640625
227	0xbe1e	-0.15429688
228	0xbe93	-0.28710938
229	0x3e4d	0.20019531
230	0x3d99	0.07470703
231	0xbd17	-0.036865234
232	0x3d14	0.036132812
233	0x3d27	0.040771484
234	0xbda1	-0.07861328
235	0xbe60	-0.21875
236	0xbc8b	-0.016967773
237	0x3d38	0.044921875
238	0x3e5e	0.21679688
239	0xbe29	-0.16503906
240	0x3de3	0.110839844
241	0xbe8f	-0.27929688
242	0xbe8a	-0.26953125
243	0x3e22	0.15820312
244	0x3e3c	0.18359375
245	0xbb91	-0.004425049
246	0xbd3f	-0.04663086
247	0x3e8d	0.27539062
248	0xbe6e	-0.23242188
249	0x3d0d	0.034423828
250	0xbe5e	-0.21679688
251	0x3d01	0.03149414
252	0xbe0f	-0.13964844
253	0x3dd7	0.10498047
254	0x3ddc	0.107421875
255	0x3bfa	0.0076293945

layer_8.Uv bf16 [64, 8]
0	0xbdb6	-0.08886719
1	0x3dd0	0.1015625
2	0xbde8	-0.11328125
3	0xbe6e	-0.23242188
4	0xbd94	-0.072265625
5	0xbe90	-0.28125
6	0xbe91	-0.28320312
7	0xbd44	-0.047851562
8	0x3d0a	0.033691406
9	0x3e03	0.12792969
10	0x3e80	0.25
11	0xbde2	-0.11035156
12	0x3e37	0.17871094
13	0x3e55	0.20800781
14	0xbe65	-0.22363281
15	0x3e66	0.22460938
16	0x3e85	0.25976562
17	0x3d5f	0.05444336
18	0xbdea	-0.11425781
19	0x3e1b	0.15136719
20	0x3e46	0.19335938
21	0x3e1a	0.15039062
22	0x3d6b	0.057373047
23	0x3cb7	0.022338867
24	0x3d1d	0.038330078
25	0x3e20	0.15625
26	0x3cb2	0.021728516
27	0xbe13	-0.14355469
28	0xbe5b	-0.21386719
29	0x3d8d	0.068847656
30	0x3d1e	0.03857422
31	0x3e8a	0.26953125
32	0x3c80	0.015625
33	0x3e94	0.2890625
34	0xbdea	-0.11425781
35	0xbe50	-0.203125
36	0x3c97	0.018432617
37	0xbdd8	-0.10546875
38	0xbd6e	-0.05810547
39	0xbdb6	-0.08886719
40	0x3e87	0.26367188
41	0x3e03	0.12792969
42	0xbce0	-0.02734375
43	0x3d01	0.03149414
44	0x3e8d	0.27539062
45	0x3e03	0.12792969
46	0xbd93	-0.071777344
47	0xbe8d	-0.27539062
48	0xbe8d	-0.27539062
49	0xbdd9	-0.10595703
50	0xbd0c	-0.034179688
51	0x3d43	0.047607422
52	0x3e0c	0.13671875
53	0x3e06	0.13085938
54	0xbdfc	-0.123046875
55	0x3e0f	0.13964844
56	0x3e21	0.15722656
57	0x3d9d	0.076660156
58	0x3e6e	0.23242188
59	0xbe55	-0.20800781
60	0x3c63	0.0138549805
61	0xbd80	-0.0625
62	0x3e85	0.25976562
63	0xbe67	-0.22558594
64	0x3dc2	0.09472656
65	0xbe54	-0.20703125
66	0xbe47	-0.19433594
67	0xbe86	-0.26171875
68	0xbd25	-0.040283203
69	0x3e87	0.26367188
70	0xbe15	-0.14550781
71	0xbd5b	-0.053466797
72	0xbe71	-0.23535156
73	0xbe55	-0.20800781
74	0x3de4	0.111328125
75	0xbd72	-0.05908203
76	0x3cf9	0.030395508
77	0xbe27	-0.16308594
78	0x3e38	0.1796875
79	0xbe62	-0.22070312
80	0xbe08	-0.1328125
81	0x3e40	0.1875
82	0x3e02	0.12695312
83	0xbe88	-0.265625
84	0xbe90	-0.28125
85	0xbe2b	-0.16699219
86	0xbe8e	-0.27734375
87	0x3e4f	0.20214844
88	0xbe10	-0.140625
89	0x3dea	0.11425781
90	0xbe70	-0.234375
91	0x3d91	0.07080078
92	0x3e8a	0.26953125
93	0x3e3f	0.18652344
94	0x3e84	0.2578125
95	0x3d00	0.03125
96	0xbd82	-0.06347656
97	0xbe75	-0.23925781
98	0xbdf9	-0.12158203
99	0xbe34	-0.17578125
100	0xbcb6	-0.022216797
101	0xbd0b	-0.033935547
102	0xbd94	-0.072265625
103	0xbdf2	-0.11816406
104	0x3e90	0.28125
105	0xbc12	-0.008911133
106	0xbe86	-0.26171875
107	0xbdd2	-0.10253906
108	0x3e23	0.15917969
109	0xbe8b	-0.27148438
110	0x3e8a	0.26953125
111	0x3c49	0.012268066
112	0x3de2	0.11035156
113	0xbd8c	-0.068359375
114	0xbe40	-0.1875
115	0x3e1f	0.15527344
116	0x3db3	0.087402344
117	0xbe1f	-0.15527344
118	0x3df1	0.11767578
119	0xbe1b	-0.15136719
120	0xbe59	-0.21191406
121	0xbe92	-0.28515625
122	0x3e5a	0.21289062
123	0x3e6f	0.23339844
124	0x3e4c	0.19921875
125	0x3e4c	0.19921875
126	0x3e87	0.26367188
127	0x3d49	0.049072266
128	0xbe89	-0.26757812
129	0xbe3b	-0.18261719
130	0x3e30	0.171875
131	0xbe6a	-0.22851562
132	0xbc51	-0.012756348
133	0xbd80	-0.0625
134	0xbd80	-0.0625
135	0xbe86	-0.26171875
136	0x3e75	0.23925781
137	0x3d80	0.0625
138	0x3d00	0.03125
139	0xbdd6	-0.10449219
140	0xbd4e	-0.05029297
141	0x3bf9	0.007598877
142	0xbe26	-0.16210938
143	0x3e75	0.23925781
144	0x3b29	0.0025787354
145	0x3ca6	0.020263672
146	0xbe51	-0.20410156
147	0x3e92	0.28515625
148	0xbdb7	-0.08935547
149	0x3e3d	0.18457031
150	0xbe22	-0.15820312
151	0xbc33	-0.010925293
152	0x3cf0	0.029296875
153	0x3d25	0.040283203
154	0x3d04	0.032226562
155	0xbd4a	-0.049316406
156	0xbe2b	-0.16699219
157	0xbdb8	-0.08984375
158	0xbe62	-0.22070312
159	0x3e66	0.22460938
160	0xbde1	-0.10986328
161	0xbd51	-0.05102539
162	0xbe78	-0.2421875
163	0xbe5b	-0.21386719
164	0xbe41	-0.18847656
165	0x3dda	0.10644531
166	0x3e8a	0.26953125
167	0x3ce8	0.028320312
168	0x3e64	0.22265625
169	0xbe89	-0.26757812
170	0xbe93	-0.28710938
171	0x3de2	0.11035156
172	0xbe22	-0.15820312
173	0xbe18	-0.1484375
174	0x3e6a	0.22851562
175	0x3c1e	0.009643555
176	0x3e3d	0.18457031
177	0xbdd5	-0.104003906
178	0x3c83	0.015991211
179	0x3e8e	0.27734375
180	0x3ac6	0.0015106201
181	0x3e29	0.16503906
182	0x3e85	0.25976562
183	0x3e6d	0.23144531
184	0x3e77	0.24121094
185	0xbe16	-0.14648438
186	0x3dd6	0.10449219
187	0x3bde	0.0067749023
188	0xbe07	-0.13183594
189	0xbe25	-0.16113281
190	0x3e01	0.12597656
191	0x3e14	0.14453125
192	0x3d44	0.047851562
193	0x3e78	0.2421875
194	0x3dbd	0.092285156
195	0x3e70	0.234375
196	0x3e18	0.1484375
197	0x3c9d	0.019165039
198	0xbdd9	-0.10595703
199	0xbe76	-0.24023438
200	0x3e94	0.2890625
201	0xbda2	-0.07910156
202	0x3dec	0.115234375
203	0x3e27	0.16308594
204	0xbe4d	-0.20019531
205	0x3e0f	0.13964844
206	0x3e35	0.17675781
207	0xbe19	-0.14941406
208	0xbde0	-0.109375
209	0xbd05	-0.032470703
210	0x3e7b	0.24511719
211	0x3e88	0.265625
212	0x3d0f	0.03491211
213	0xbe0e	-0.13867188
214	0x3e0c	0.13671875
215	0x3d0c	0.034179688
216	0xbcdd	-0.026977539
217	0xbe70	-0.234375
218	0xbcca	-0.024658203
219	0x3d96	0.07324219
220	0xbdd1	-0.10205078
221	0xbc5b	-0.013366699
222	0x3e70	0.234375
223	0xbe88	-0.265625
224	0x3e84	0.2578125
225	0xbe3d	-0.18457031
226	0xbe83	-0.25585938
227	0x3d30	0.04296875
228	0x3e8d	0.27539062
229	0xbe4e	-0.20117188
230	0xbe88	-0.265625
231	0x3e70	0.234375
232	0xbe0a	-0.13476562
233	0xbe80	-0.25
234	0xbe84	-0.2578125
235	0xbdaa	-0.08300781
236	0xbe8f	-0.27929688
237	0xbe81	-0.25195312
238	0x3df7	0.12060547
239	0xbd17	-0.036865234
240	0x3dbf	0.09326172
241	0x3e1b	0.15136719
242	0x3d0e	0.03466797
243	0x3e78	0.2421875
244	0xbe26	-0.16210938
245	0x3e3e	0.18554688
246	0x3c08	0.008300781
247	0x3e67	0.22558594
248	0x3e35	0.17675781
249	0xbe5c	-0.21484375
250	0xbe24	-0.16015625
251	0xbdb9	-0.09033203
252	0xbd09	-0.033447266
253	0x3e29	0.16503906
254	0x3df4	0.119140625
255	0x3e3e	0.18554688

layer_8.gate_k.net.0.weight bf16 [8, 64]
0	0xbdf1	-0.11767578
1	0x3cb3	0.021850586
2	0xbd80	-0.0625
3	0xbd80	-0.0625
4	0xbde2	-0.11035156
5	0x3d26	0.040527344
6	0xbde5	-0.111816406
7	0xbd73	-0.059326172
8	0x3d80	0.0625
9	0x3d80	0.0625
10	0x3d94	0.072265625
11	0x3d80	0.0625
12	0x3d8d	0.068847656
13	0x3da4	0.080078125
14	0xbd80	-0.0625
15	0x3d40	0.046875
16	0xbd07	-0.032958984
17	0x3d17	0.036865234
18	0xbd86	-0.06542969
19	0xbd27	-0.040771484
20	0xbd80	-0.0625
21	0xbd64	-0.055664062
22	0xbd80	-0.0625
23	0xbc77	-0.015075684
24	0x3def	0.11669922
25	0x3d62	0.05517578
26	0xbd80	-0.0625
27	0xbd80	-0.0625
28	0x3d92	0.07128906
29	0xbdb2	-0.08691406
30	0xbd80	-0.0625
31	0xbd5e	-0.05419922
32	0x3d95	0.072753906
33	0xbd80	-0.0625
34	0x3d81	0.06298828
35	0x3d35	0.044189453
36	0x3db1	0.08642578
37	0xbd10	-0.03515625
38	0x3dea	0.11425781
39	0xbdd9	-0.10595703
40	0xbd80	-0.0625
41	0xbdff	-0.12451172
42	0x3d66	0.056152344
43	0xbd80	-0.0625
44	0xbd60	-0.0546875
45	0x3d81	0.06298828
46	0xbd83	-0.063964844
47	0xbdde	-0.10839844
48	0x3dc5	0.096191406
49	0x3d9e	0.07714844
50	0xbd80	-0.0625
51	0x3dcd	0.100097656
52	0x3d81	0.06298828
53	0x3d89	0.06689453
54	0x3dd5	0.104003906
55	0x3d80	0.0625
56	0xbdc8	-0.09765625
57	0xbd81	-0.06298828
58	0xbd80	-0.0625
59	0xbd7b	-0.061279297
60	0x3cf5	0.029907227
61	0x3d93	0.071777344
62	0x3d80	0.0625
63	0xbdbd	-0.092285156
64	0x3d80	0.0625
65	0x3d17	0.036865234
66	0x3d9c	0.076171875
67	0xbd81	-0.06298828
68	0x3d80	0.0625
69	0xbd82	-0.06347656
70	0xbd12	-0.03564453
71	0xbd2a	-0.041503906
72	0xbdfa	-0.12207031
73	0x3dec	0.115234375
74	0x3d88	0.06640625
75	0x3d80	0.0625
76	0xbda5	-0.080566406
77	0xbd83	-0.063964844
78	0x3d92	0.07128906
79	0xbdb7	-0.08935547
80	0x3d81	0.06298828
81	0xbcb4	-0.021972656
82	0xbda5	-0.080566406
83	0xbd89	-0.06689453
84	0xbdc1	-0.09423828
85	0x3ded	0.115722656
86	0x3d8a	0.06738281
87	0xbded	-0.115722656
88	0xbd8d	-0.068847656
89	0x3bb8	0.0056152344
90	0xbd80	-0.0625
91	0xbd80	-0.0625
92	0xbdd1	-0.10205078
93	0xbd86	-0.06542969
94	0xbd4c	-0.049804688
95	0xbdc3	-0.095214844
96	0x3d80	0.0625
97	0xbd80	-0.0625
98	0x3d86	0.06542969
99	0xbd43	-0.047607422
100	0x3d80	0.0625
101	0x3d80	0.0625
102	0x3d80	0.0625
103	0xbd35	-0.044189453
104	0x3dc3	0.095214844
105	0x3dfa	0.12207031
106	0x3d80	0.0625
107	0xbd86	-0.06542969
108	0xbde1	-0.10986328
109	0xbdfd	-0.123535156
110	0xbd80	-0.0625
111	0xbd60	-0.0546875
112	0xbd13	-0.035888672
113	0xbd80	-0.0625
114	0x3df1	0.11767578
115	0x3df5	0.119628906
116	0xbca1	-0.01965332
117	0x3d80	0.0625
118	0xbd13	-0.035888672
119	0x3d80	0.0625
120	0xbdf4	-0.119140625
121	0xbd80	-0.0625
122	0x3df4	0.119140625
123	0xbdcb	-0.099121094
124	0x3cda	0.026611328
125	0x3d80	0.0625
126	0xbdd0	-0.1015625
127	0xbddb	-0.106933594
128	0x3dbf	0.09326172
129	0xbd1f	-0.03881836
130	0x3d95	0.072753906
131	0x3d35	0.044189453
132	0xbd4a	-0.049316406
133	0xbdab	-0.083496094
134	0xbcf3	-0.029663086
135	0x3da9	0.08251953
136	0x3d27	0.040771484
137	0xbd3d	-0.046142578
138	0xbcb7	-0.022338867
139	0x3dc3	0.095214844
140	0xbde0	-0.109375
141	0x3da4	0.080078125
142	0xbd11	-0.03540039
143	0xbd6c	-0.057617188
144	0x3d79	0.060791016
145	0xbdd5	-0.104003906
146	0x3d06	0.032714844
147	0x3df5	0.119628906
148	0x3d13	0.035888672
149	0xbd70	-0.05859375
150	0xbcf3	-0.029663086
151	0x3dca	0.09863281
152	0xbd01	-0.03149414
153	0x3dae	0.08496094
154	0xbda5	-0.080566406
155	0x3d27	0.040771484
156	0x3cb6	0.022216797
157	0x3cc2	0.02368164
158	0x3dee	0.11621094
159	0x3d8e	0.06933594
160	0x3db0	0.0859375
161	0x3d4f	0.05053711
162	0xbcd7	-0.026245117
163	0x3cba	0.022705078
164	0xbde2	-0.11035156
165	0xbdd8	-0.10546875
166	0xbda0	-0.078125
167	0xbda6	-0.08105469
168	0x3d80	0.0625
169	0x3d1c	0.038085938
170	0xbd18	-0.037109375
171	0xbdc3	-0.095214844
172	0x3dfc	0.123046875
173	0x3dc0	0.09375
174	0x3d7c	0.061523438
175	0x3dfd	0.123535156
176	0xbd88	-0.06640625
177	0xbd92	-0.07128906
178	0xbd96	-0.07324219
179	0x3d03	0.031982422
180	0xbde2	-0.11035156
181	0x3dcb	0.099121094
182	0xbcb4	-0.021972656
183	0xbd02	-0.03173828
184	0xbd8d	-0.068847656
185	0x3d1a	0.037597656
186	0x3d80	0.0625
187	0x3d04	0.032226562
188	0x3df1	0.11767578
189	0xbd80	-0.0625
190	0x3d34	0.043945312
191	0xbdae	-0.08496094
192	0xbd00	-0.03125
193	0xbd13	-0.035888672
194	0x3d7b	0.061279297
195	0x3db3	0.087402344
196	0xbd01	-0.03149414
197	0xbd21	-0.03930664
198	0x3d7e	0.06201172
199	0x3dc9	0.09814453
200	0xbd44	-0.047851562
201	0x3db9	0.09033203
202	0x3ce4	0.027832031
203	0x3dd3	0.103027344
204	0x3dff	0.12451172
205	0x3daf	0.08544922
206	0x3d93	0.071777344
207	0xbcae	-0.021240234
208	0xbd75	-0.059814453
209	0x3cac	0.020996094
210	0x3d4d	0.050048828
211	0xbd05	-0.032470703
212	0x3ca1	0.01965332
213	0x3d96	0.07324219
214	0xbded	-0.115722656
215	0xbde9	-0.11376953
216	0xbd99	-0.07470703
217	0xbc96	-0.018310547
218	0xbcbd	-0.023071289
219	0x3c73	0.014831543
220	0xbd13	-0.035888672
221	0xbda8	-0.08203125
222	0x3d80	0.0625
223	0x3dad	0.084472656
224	0xbd9a	-0.07519531
225	0x3de0	0.109375
226	0xbd3d	-0.046142578
227	0x3dfc	0.123046875
228	0xbdeb	-0.114746094
229	0xbdf5	-0.119628906
230	0x3d05	0.032470703
231	0xbdef	-0.11669922
232	0xbdd2	-0.10253906
233	0x3d82	0.06347656
234	0x3d2f	0.04272461
235	0xbde9	-0.11376953
236	0x3db8	0.08984375
237	0x3cdb	0.026733398
238	0x3dbe	0.09277344
239	0xbd96	-0.07324219
240	0xbdf3	-0.118652344
241	0xbdaa	-0.08300781
242	0x3d19	0.037353516
243	0xbe00	-0.125
244	0xbd06	-0.032714844
245	0xbd7b	-0.061279297
246	0xbd80	-0.0625
247	0xbd64	-0.055664062
248	0xbd10	-0.03515625
249	0xbdfa	-0.12207031
250	0x3d84	0.064453125
251	0xbd9d	-0.076660156
252	0x3d9c	0.076171875
253	0x3deb	0.114746094
254	0xbd2d	-0.042236328
255	0xbd59	-0.052978516

layer_8.gate_k.net.0.bias bf16 [8]
0	0x3dd5	0.104003906
1	0x3da2	0.07910156
2	0xbdba	-0.09082031
3	0xbd80	-0.0625
4	0x3d88	0.06640625
5	0xbd80	-0.0625
6	0xbd81	-0.06298828
7	0x3df9	0.12158203

layer_8.gate_k.net.2.weight bf16 [8, 8]
0	0xbe7e	-0.24804688
1	0xbe93	-0.28710938
2	0x3deb	0.114746094
3	0x3e19	0.14941406
4	0xbc9c	-0.019042969
5	0xbce9	-0.028442383
6	0x3e18	0.1484375
7	0x3e80	0.25
8	0xbe2f	-0.17089844
9	0x3dc6	0.09667969
10	0xbe05	-0.12988281
11	0xbe3b	-0.18261719
12	0xbe3c	-0.18359375
13	0xbe87	-0.26367188
14	0x3e99	0.29882812
15	0xbe00	-0.125
16	0xbddf	-0.10888672
17	0xbd9f	-0.07763672
18	0xbe6c	-0.23046875
19	0x3e6b	0.22949219
20	0xbde2	-0.11035156
21	0x3e40	0.1875
22	0x3dd2	0.10253906
23	0xbeb4	-0.3515625
24	0xbea6	-0.32421875
25	0xbeb0	-0.34375
26	0x3ea2	0.31640625
27	0x3ea5	0.32226562
28	0x3df8	0.12109375
29	0xbe16	-0.14648438
30	0x3dee	0.11621094
31	0xbe89	-0.26757812
32	0xbd80	-0.0625
33	0xbd97	-0.07373047
34	0x3e78	0.2421875
35	0x3d12	0.03564453
36	0xbd28	-0.041015625
37	0xbd6f	-0.05834961
38	0x3eae	0.33984375
39	0xbe7d	-0.24707031
40	0x3e24	0.16015625
41	0xbea3	-0.31835938
42	0x3d85	0.064941406
43	0xbe98	-0.296875
44	0x3e30	0.171875
45	0x3ea2	0.31640625
46	0xbe2e	-0.16992188
47	0x3ea2	0.31640625
48	0xbea2	-0.31640625
49	0x3e2d	0.16894531
50	0x3d80	0.0625
51	0xbda6	-0.08105469
52	0xbd56	-0.052246094
53	0x3e11	0.14160156
54	0xbd84	-0.064453125
55	0xbeaf	-0.34179688
56	0xbe03	-0.12792969
57	0x3e9a	0.30078125
58	0xbe9c	-0.3046875
59	0xbdf4	-0.119140625
60	0x3e15	0.14550781
61	0x3e84	0.2578125
62	0xbe88	-0.265625
63	0xbe7b	-0.24511719

layer_8.gate_k.net.2.bias bf16 [8]
0	0x3e5a	0.21289062
1	0x3e76	0.24023438
2	0x3e6b	0.22949219
3	0x3e50	0.203125
4	0xbe9a	-0.30078125
5	0x3dee	0.11621094
6	0xbd80	-0.0625
7	0xbd80	-0.0625

layer_8.gate_v.net.0.weight bf16 [8, 64]
0	0xbd66	-0.056152344
1	0x3df6	0.12011719
2	0x3d3a	0.045410156
3	0xbdaf	-0.08544922
4	0x3d84	0.064453125
5	0x3d78	0.060546875
6	0xbda0	-0.078125
7	0xbd5e	-0.05419922
8	0xbda1	-0.07861328
9	0xbb28	-0.0025634766
10	0xbd16	-0.036621094
11	0xbd60	-0.0546875
12	0xbcc8	-0.024414062
13	0xbd8b	-0.067871094
14	0xbdfe	-0.12402344
15	0xbd01	-0.03149414
16	0x3df3	0.118652344
17	0xbdbf	-0.09326172
18	0x3d0e	0.03466797
19	0xbd81	-0.06298828
20	0x3d37	0.044677734
21	0x3d80	0.0625
22	0xbd80	-0.0625
23	0xbddb	-0.106933594
24	0xbcc5	-0.024047852
25	0xbc26	-0.010131836
26	0x3db9	0.09033203
27	0x3d80	0.0625
28	0x3d93	0.071777344
29	0xbda1	-0.07861328
30	0xbdf0	-0.1171875
31	0xbd9b	-0.075683594
32	0xbdce	-0.10058594
33	0x3d00	0.03125
34	0xbd80	-0.0625
35	0xbd02	-0.03173828
36	0xbd70	-0.05859375
37	0xbd3b	-0.045654297
38	0xbd30	-0.04296875
39	0x3dfb	0.122558594
40	0xbd1b	-0.037841797
41	0x3dd2	0.10253906
42	0x3de6	0.11230469
43	0x3d80	0.0625
44	0x3c87	0.016479492
45	0x3d17	0.036865234
46	0xbda8	-0.08203125
47	0x3ce8	0.028320312
48	0xbd65	-0.055908203
49	0xbdc4	-0.095703125
50	0xbdd8	-0.10546875
51	0xbd80	-0.0625
52	0x3cdf	0.02722168
53	0x3d0b	0.033935547
54	0x3ce6	0.028076172
55	0xbd49	-0.049072266
56	0x3d22	0.03955078
57	0x3dac	0.083984375
58	0x3d0d	0.034423828
59	0x3d80	0.0625
60	0x3d23	0.039794922
61	0xbd80	-0.0625
62	0xbdac	-0.083984375
63	0xbd1f	-0.03881836
64	0xbdf2	-0.11816406
65	0x3d02	0.03173828
66	0xbdcb	-0.099121094
67	0xbd0a	-0.033691406
68	0xbd36	-0.044433594
69	0x3ddc	0.107421875
70	0xbdd1	-0.10205078
71	0xbd35	-0.044189453
72	0x3d47	0.048583984
73	0x3cce	0.025146484
74	0x3dd2	0.10253906
75	0xbd00	-0.03125
76	0x3d96	0.07324219
77	0xbd9a	-0.07519531
78	0x3d9f	0.07763672
79	0x3d05	0.032470703
80	0xbd70	-0.05859375
81	0xbd5a	-0.053222656
82	0x3d3f	0.04663086
83	0x3d86	0.06542969
84	0xbdbb	-0.091308594
85	0xbdc6	-0.09667969
86	0x3d4b	0.049560547
87	0xbde3	-0.110839844
88	0xbdf1	-0.11767578
89	0x3db9	0.09033203
90	0x3d80	0.0625
91	0x3d0a	0.033691406
92	0x3c4a	0.012329102
93	0x3d3f	0.04663086
94	0xbdb7	-0.08935547
95	0x3dd5	0.104003906
96	0xbd05	-0.032470703
97	0x3d26	0.040527344
98	0xbdf2	-0.11816406
99	0xbc4e	-0.012573242
100	0xbd9c	-0.076171875
101	0x3d90	0.0703125
102	0xbdf3	-0.118652344
103	0x3de7	0.11279297
104	0x3c74	0.014892578
105	0xbd28	-0.041015625
106	0xbd60	-0.0546875
107	0xbdd1	-0.10205078
108	0xbc83	-0.015991211
109	0x3dd1	0.10205078
110	0x3d69	0.056884766
111	0x3d01	0.03149414
112	0xbdd5	-0.104003906
113	0x3d16	0.036621094
114	0x3dbd	0.092285156
115	0x3dd0	0.1015625
116	0x3d43	0.047607422
117	0x3d80	0.0625
118	0xbdbc	-0.091796875
119	0xbd80	-0.0625
120	0x3dfa	0.12207031
121	0x3d14	0.036132812
122	0x3d80	0.0625
123	0xbdbe	-0.09277344
124	0xbdd3	-0.103027344
125	0x3dc9	0.09814453
126	0xbd80	-0.0625
127	0xbd8a	-0.06738281
128	0xbd0b	-0.033935547
129	0xbcb0	-0.021484375
130	0x3d4d	0.050048828
131	0x3da0	0.078125
132	0x3de3	0.110839844
133	0x3bf3	0.0074157715
134	0x3c24	0.010009766
135	0xbdc9	-0.09814453
136	0xbd82	-0.06347656
137	0xbc8a	-0.016845703
138	0xbd81	-0.06298828
139	0xbcfb	-0.030639648
140	0xbd19	-0.037353516
141	0x3d93	0.071777344
142	0xbddf	-0.10888672
143	0xbd2e	-0.04248047
144	0xbd5b	-0.053466797
145	0x3c91	0.017700195
146	0xbd8a	-0.06738281
147	0xbdfb	-0.122558594
148	0xbd06	-0.032714844
149	0x3d2c	0.041992188
150	0x3dde	0.10839844
151	0xbdae	-0.08496094
152	0xbc86	-0.016357422
153	0x3dcf	0.10107422
154	0x3df7	0.12060547
155	0x3d0d	0.034423828
156	0xbd5c	-0.053710938
157	0x3d97	0.07373047
158	0xbdb9	-0.09033203
159	0xbdd6	-0.10449219
160	0xbcc1	-0.02355957
161	0xbd95	-0.072753906
162	0xbd6b	-0.057373047
163	0xbd41	-0.04711914
164	0xbdb9	-0.09033203
165	0xbd48	-0.048828125
166	0xbda7	-0.08154297
167	0xbdb3	-0.087402344
168	0x3d86	0.06542969
169	0xbd24	-0.040039062
170	0xbd69	-0.056884766
171	0xbdfb	-0.122558594
172	0x3dc4	0.095703125
173	0xbd96	-0.07324219
174	0x3dd0	0.1015625
175	0xbdd9	-0.10595703
176	0xbd4b	-0.049560547
177	0x3df6	0.12011719
178	0x3d79	0.060791016
179	0xbda4	-0.080078125
180	0xbda8	-0.08203125
181	0xbd81	-0.06298828
182	0x3d27	0.040771484
183	0x3d86	0.06542969
184	0xbd3b	-0.045654297
185	0xbdd7	-0.10498047
186	0xbdab	-0.083496094
187	0x3da0	0.078125
188	0x3d2d	0.042236328
189	0x3d2b	0.041748047
190	0x3d84	0.064453125
191	0xbda5	-0.080566406
192	0xbdc1	-0.09423828
193	0xbdb6	-0.08886719
194	0x3dfc	0.123046875
195	0x3d7d	0.061767578
196	0xbd0c	-0.034179688
197	0xbdf8	-0.12109375
198	0xbd04	-0.032226562
199	0xbdee	-0.11621094
200	0xbda8	-0.08203125
201	0x3d11	0.03540039
202	0xbde2	-0.11035156
203	0x3d61	0.05493164
204	0x3db9	0.09033203
205	0xbd7f	-0.06225586
206	0x3dba	0.09082031
207	0x3dc7	0.09716797
208	0xbdec	-0.115234375
209	0xbb83	-0.0039978027
210	0xbc8f	-0.017456055
211	0xbb8b	-0.0042419434
212	0x3d8f	0.06982422
213	0xbd86	-0.06542969
214	0xbdaa	-0.08300781
215	0x3cf7	0.030151367
216	0x3ba5	0.0050354004
217	0xbd8a	-0.06738281
218	0xbd6c	-0.057617188
219	0xbde6	-0.11230469
220	0x3d91	0.07080078
221	0xbd83	-0.063964844
222	0xbd24	-0.040039062
223	0xbdd3	-0.103027344
224	0xbdab	-0.083496094
225	0xbd15	-0.036376953
226	0x3dfe	0.12402344
227	0x3d11	0.03540039
228	0xbb03	-0.0019989014
229	0xbd56	-0.052246094
230	0xbd02	-0.03173828
231	0x3c93	0.017944336
232	0x3dc6	0.09667969
233	0xbd01	-0.03149414
234	0x3d84	0.064453125
235	0xbbbb	-0.005706787
236	0x3dc1	0.09423828
237	0xbda2	-0.07910156
238	0xbd83	-0.063964844
239	0xbd61	-0.05493164
240	0xbd3c	-0.045898438
241	0xbd31	-0.04321289
242	0x3d62	0.05517578
243	0xbdbd	-0.092285156
244	0xbdb4	-0.087890625
245	0x3d9b	0.075683594
246	0x3d80	0.0625
247	0x3cb0	0.021484375
248	0x3d06	0.032714844
249	0xbd05	-0.032470703
250	0xbd56	-0.052246094
251	0xbd2b	-0.041748047
252	0x3c8c	0.017089844
253	0xbd2e	-0.04248047
254	0xbd9c	-0.076171875
255	0x3d80	0.0625

layer_8.gate_v.net.0.bias bf16 [8]
0	0x3dff	0.12451172
1	0x3db1	0.08642578
2	0xbd80	-0.0625
3	0x3d97	0.07373047
4	0xbdc8	-0.09765625
5	0x3d93	0.071777344
6	0x3d85	0.064941406
7	0x3dfe	0.12402344

layer_8.gate_v.net.2.weight bf16 [8, 8]
0	0xbdce	-0.10058594
1	0xbe70	-0.234375
2	0x3e97	0.29492188
3	0x3eb1	0.34570312
4	0xbd06	-0.032714844
5	0x3d9f	0.07763672
6	0x3eb0	0.34375
7	0xbe99	-0.29882812
8	0xbddf	-0.10888672
9	0xbe85	-0.25976562
10	0x3e2d	0.16894531
11	0x3e72	0.23632812
12	0xbe9c	-0.3046875
13	0xbd83	-0.063964844
14	0xbea4	-0.3203125
15	0x3e86	0.26171875
16	0x3e90	0.28125
17	0x3dec	0.115234375
18	0xbd1f	-0.03881836
19	0xbd82	-0.06347656
20	0x3e72	0.23632812
21	0x3df8	0.12109375
22	0xbe8a	-0.26953125
23	0xbd80	-0.0625
24	0x3e90	0.28125
25	0x3e6b	0.22949219
26	0xbe80	-0.25
27	0xbe8d	-0.27539062
28	0x3e63	0.22167969
29	0x3e93	0.28710938
30	0xbe36	-0.17773438
31	0xbe62	-0.22070312
32	0x3da8	0.08203125
33	0xbe37	-0.17871094
34	0x3e3b	0.18261719
35	0x3e08	0.1328125
36	0x3e8f	0.27929688
37	0xbd92	-0.07128906
38	0xbdd5	-0.104003906
39	0xbe8e	-0.27734375
40	0x3ea1	0.31445312
41	0x3e39	0.18066406
42	0xbcb5	-0.022094727
43	0xbe5d	-0.21582031
44	0x3e97	0.29492188
45	0x3ea6	0.32421875
46	0xbdb3	-0.087402344
47	0xbe52	-0.20507812
48	0xbe1d	-0.15332031
49	0x3e6d	0.23144531
50	0xbe9c	-0.3046875
51	0xbe24	-0.16015625
52	0xbd0a	-0.033691406
53	0x3e6b	0.22949219
54	0xbd80	-0.0625
55	0xbe85	-0.25976562
56	0xbe75	-0.23925781
57	0x3deb	0.114746094
58	0xbd11	-0.03540039
59	0xbdbd	-0.092285156
60	0x3e64	0.22265625
61	0x3e0a	0.13476562
62	0xbd80	-0.0625
63	0xbdeb	-0.114746094

layer_8.gate_v.net.2.bias bf16 [8]
0	0xbe6e	-0.23242188
1	0xbeb3	-0.34960938
2	0x3e2e	0.16992188
3	0xbd80	-0.0625
4	0x3e96	0.29296875
5	0xbe02	-0.12695312
6	0xbeaf	-0.34179688
7	0xbe46	-0.19335938

layer_9.Wk bf16 [64, 8]
0	0xbe0f	-0.13964844
1	0x3e17	0.14746094
2	0xbe90	-0.28125
3	0xbe5f	-0.21777344
4	0xbcfd	-0.030883789
5	0x3d2d	0.042236328
6	0xbdc6	-0.09667969
7	0xbe27	-0.16308594
8	0xbe61	-0.21972656
9	0x3d3e	0.04638672
10	0xbe56	-0.20898438
11	0xbe7e	-0.24804688
12	0xbe25	-0.16113281
13	0xbe37	-0.17871094
14	0x3d80	0.0625
15	0x3e3f	0.18652344
16	0x3de6	0.11230469
17	0x3e06	0.13085938
18	0x3e86	0.26171875
19	0xbd80	-0.0625
20	0xbda3	-0.079589844
21	0xbd80	-0.0625
22	0x3d9c	0.076171875
23	0xbe1d	-0.15332031
24	0x3d80	0.0625
25	0xbe40	-0.1875
26	0x3e37	0.17871094
27	0xbe8f	-0.27929688
28	0x3dfe	0.12402344
29	0x3d80	0.0625
30	0xbda0	-0.078125
31	0xbe08	-0.1328125
32	0x3e57	0.20996094
33	0x3da8	0.08203125
34	0xbd83	-0.063964844
35	0xbd8d	-0.068847656
36	0x3d80	0.0625
37	0xbdbd	-0.092285156
38	0x3d04	0.032226562
39	0xbe18	-0.1484375
40	0x3d7a	0.061035156
41	0xbe7f	-0.24902344
42	0xbdaa	-0.08300781
43	0x3d80	0.0625
44	0xbe33	-0.17480469
45	0x3d9b	0.075683594
46	0x3d6d	0.057861328
47	0x3e19	0.14941406
48	0xbe2e	-0.16992188
49	0x3dda	0.10644531
50	0x3e6e	0.23242188
51	0xbe91	-0.28320312
52	0x3cc6	0.024169922
53	0x3e1b	0.15136719
54	0x3e45	0.19238281
55	0x3e2a	0.16601562
56	0x3d74	0.059570312
57	0xbe36	-0.17773438
58	0x3e2f	0.17089844
59	0xbe6f	-0.23339844
60	0x3d80	0.0625
61	0x3d80	0.0625
62	0x3e76	0.24023438
63	0xbde8	-0.11328125
64	0xbdfd	-0.123535156
65	0x3dc3	0.095214844
66	0xbe51	-0.20410156
67	0x3e22	0.15820312
68	0x3e3c	0.18359375
69	0x3d80	0.0625
70	0x3e14	0.14453125
71	0x3e32	0.17382812
72	0x3d80	0.0625
73	0x3e85	0.25976562
74	0xbe63	-0.22167969
75	0x3e24	0.16015625
76	0xbdd3	-0.103027344
77	0xbe53	-0.20605469
78	0xbd16	-0.036621094
79	0xbe58	-0.2109375
80	0x3e20	0.15625
81	0x3da1	0.07861328
82	0xbd80	-0.0625
83	0x3d82	0.06347656
84	0xbe42	-0.18945312
85	0x3e5d	0.21582031
86	0xbe50	-0.203125
87	0xbe19	-0.14941406
88	0x3e6f	0.23339844
89	0xbdcc	-0.099609375
90	0x3d20	0.0390625
91	0xbe85	-0.25976562
92	0xbe4f	-0.20214844
93	0xbd80	-0.0625
94	0xbe3f	-0.18652344
95	0xbd55	-0.052001953
96	0x3e8e	0.27734375
97	0x3d80	0.0625
98	0x3d3e	0.04638672
99	0x3ded	0.115722656
100	0x3e82	0.25390625
101	0xbd82	-0.06347656
102	0xbe7d	-0.24707031
103	0xbe81	-0.25195312
104	0xbe65	-0.22363281
105	0x3dbd	0.092285156
106	0x3e36	0.17773438
107	0x3e31	0.17285156
108	0xbde5	-0.111816406
109	0xbd80	-0.0625
110	0x3d8c	0.068359375
111	0xbdcf	-0.10107422
112	0xbd20	-0.0390625
113	0x3d94	0.072265625
114	0xbe65	-0.22363281
115	0x3de0	0.109375
116	0xbd80	-0.0625
117	0xbdc4	-0.095703125
118	0xbe18	-0.1484375
119	0xbe36	-0.17773438
120	0xbe74	-0.23828125
121	0x3e14	0.14453125
122	0xbd80	-0.0625
123	0x3e57	0.20996094
124	0xbe74	-0.23828125
125	0xbe47	-0.19433594
126	0x3da3	0.079589844
127	0xbe39	-0.18066406
128	0x3e5c	0.21484375
129	0x3e47	0.19433594
130	0xbe92	-0.28515625
131	0x3e49	0.19628906
132	0xbe20	-0.15625
133	0x3e5f	0.21777344
134	0xbd80	-0.0625
135	0x3dfe	0.12402344
136	0x3d80	0.0625
137	0x3e6b	0.22949219
138	0x3d28	0.041015625
139	0xbe68	-0.2265625
140	0x3e93	0.28710938
141	0xbd80	-0.0625
142	0xbdc1	-0.09423828
143	0x3d82	0.06347656
144	0xbe57	-0.20996094
145	0x3d3e	0.04638672
146	0x3d3d	0.046142578
147	0x3d68	0.056640625
148	0x3e78	0.2421875
149	0xbdad	-0.084472656
150	0x3d1e	0.03857422
151	0x3dcd	0.100097656
152	0x3e25	0.16113281
153	0xbdfb	-0.122558594
154	0x3e79	0.24316406
155	0x3d80	0.0625
156	0xbe84	-0.2578125
157	0x3df8	0.12109375
158	0xbe36	-0.17773438
159	0x3d80	0.0625
160	0x3e0b	0.13574219
161	0xbd80	-0.0625
162	0xbd54	-0.051757812
163	0xbd18	-0.037109375
164	0x3e89	0.26757812
165	0xbe30	-0.171875
166	0xbd2b	-0.041748047
167	0xbe3d	-0.18457031
168	0xbc64	-0.013916016
169	0xbe1e	-0.15429688
170	0xbde4	-0.111328125
171	0x3e56	0.20898438
172	0x3e6f	0.23339844
173	0x3e57	0.20996094
174	0xbd9e	-0.07714844
175	0xbcc9	-0.024536133
176	0xbe6c	-0.23046875
177	0x3e25	0.16113281
178	0x3e84	0.2578125
179	0xbdcf	-0.10107422
180	0x3d80	0.0625
181	0xbcb2	-0.021728516
182	0xbe93	-0.28710938
183	0xbe43	-0.19042969
184	0xbe70	-0.234375
185	0x3e1c	0.15234375
186	0xbe3a	-0.18164062
187	0x3daf	0.08544922
188	0xbe03	-0.12792969
189	0xbe1e	-0.15429688
190	0xbdbe	-0.09277344
191	0xbd80	-0.0625
192	0x3e8f	0.27929688
193	0xbe6f	-0.23339844
194	0x3e3a	0.18164062
195	0x3e8f	0.27929688
196	0xbe12	-0.14257812
197	0xbe4d	-0.20019531
198	0x3dd2	0.10253906
199	0xbe46	-0.19335938
200	0xbdbf	-0.09326172
201	0x3d90	0.0703125
202	0xbdd0	-0.1015625
203	0x3e60	0.21875
204	0x3e93	0.28710938
205	0xbde3	-0.110839844
206	0x3e8b	0.27148438
207	0xbd80	-0.0625
208	0xbe24	-0.16015625
209	0xbe3c	-0.18359375
210	0x3e86	0.26171875
211	0x3d80	0.0625
212	0xbe2e	-0.16992188
213	0x3d37	0.044677734
214	0x3d4f	0.05053711
215	0xbe57	-0.20996094
216	0xbe03	-0.12792969
217	0x3e6a	0.22851562
218	0x3de2	0.11035156
219	0x3e55	0.20800781
220	0xbe29	-0.16503906
221	0x3e2f	0.17089844
222	0xbe91	-0.28320312
223	0x3db8	0.08984375
224	0x3e67	0.22558594
225	0xbc89	-0.016723633
226	0xbdfb	-0.122558594
227	0x3d80	0.0625
228	0x3df9	0.12158203
229	0xbd7e	-0.06201172
230	0xbe14	-0.14453125
231	0x3df8	0.12109375
232	0x3e89	0.26757812
233	0x3e82	0.25390625
234	0x3da1	0.07861328
235	0xbd3f	-0.04663086
236	0x3cde	0.02709961
237	0x3d60	0.0546875
238	0xbe8e	-0.27734375
239	0xbdef	-0.11669922
240	0x3e3b	0.18261719
241	0x3d7e	0.06201172
242	0x3dce	0.10058594
243	0x3e27	0.16308594
244	0xbe6f	-0.23339844
245	0xbe7a	-0.24414062
246	0x3db6	0.08886719
247	0xbd16	-0.036621094
248	0x3e65	0.22363281
249	0xbe79	-0.24316406
250	0x3e46	0.19335938
251	0x3e90	0.28125
252	0x3d02	0.03173828
253	0x3de5	0.111816406
254	0xbe82	-0.25390625
255	0x3c85	0.016235352

layer_9.Uk bf16 [64, 8]
0	0x3df3	0.118652344
1	0xbc72	-0.014770508
2	0xbe3c	-0.18359375
3	0xbd86	-0.06542969
4	0xbd60	-0.0546875
5	0x3dec	0.115234375
6	0x3d67	0.056396484
7	0xbe02	-0.12695312
8	0xbe0e	-0.13867188
9	0xbd23	-0.039794922
10	0x3e3b	0.18261719
11	0x3df4	0.119140625
12	0x3da3	0.079589844
13	0xbc8e	-0.017333984
14	0xbe76	-0.24023438
15	0xbe13	-0.14355469
16	0xbe10	-0.140625
17	0xbe83	-0.25585938
18	0x3da4	0.080078125
19	0x3d99	0.07470703
20	0xbe91	-0.28320312
21	0x3d98	0.07421875
22	0xbdea	-0.11425781
23	0xbe4c	-0.19921875
24	0xbe1e	-0.15429688
25	0xbdc8	-0.09765625
26	0x3e8c	0.2734375
27	0xbe87	-0.26367188
28	0x3d80	0.0625
29	0xbe72	-0.23632812
30	0xbd9f	-0.07763672
31	0x3df9	0.12158203
32	0x3e5c	0.21484375
33	0x3e2c	0.16796875
34	0xbe57	-0.20996094
35	0xbd80	-0.0625
36	0x3d84	0.064453125
37	0xbe0f	-0.13964844
38	0x3e82	0.25390625
39	0x3e89	0.26757812
40	0xbe40	-0.1875
41	0xbd7c	-0.061523438
42	0x3d40	0.046875
43	0x3e20	0.15625
44	0x3cf2	0.029541016
45	0x3e92	0.28515625
46	0xbd86	-0.06542969
47	0xbe2c	-0.16796875
48	0xbe47	-0.19433594
49	0x3e81	0.25195312
50	0x3d42	0.04736328
51	0x3d89	0.06689453
52	0xbe43	-0.19042969
53	0x3e5f	0.21777344
54	0x3e13	0.14355469
55	0x3e1d	0.15332031
56	0x3dbd	0.092285156
57	0xbe57	-0.20996094
58	0xbdcc	-0.099609375
59	0x3da0	0.078125
60	0xbe39	-0.18066406
61	0xbe21	-0.15722656
62	0x3e0e	0.13867188
63	0xbe2c	-0.16796875
64	0x3e90	0.28125
65	0x3d02	0.03173828
66	0x3dd5	0.104003906
67	0xbd0c	-0.034179688
68	0xbe38	-0.1796875
69	0x3d99	0.07470703
70	0xbe34	-0.17578125
71	0xbe8a	-0.26953125
72	0x3d77	0.060302734
73	0xbe06	-0.13085938
74	0xbe17	-0.14746094
75	0xbe18	-0.1484375
76	0xbe53	-0.20605469
77	0x3c47	0.012145996
78	0x3e10	0.140625
79	0x3da8	0.08203125
80	0x3da7	0.08154297
81	0x3e93	0.28710938
82	0x3cd3	0.025756836
83	0xbe73	-0.23730469
84	0x3e84	0.2578125
85	0xbe40	-0.1875
86	0x3deb	0.114746094
87	0x3e36	0.17773438
88	0x3e6c	0.23046875
89	0x3e37	0.17871094
90	0xbe5a	-0.21289062
91	0xbe0e	-0.13867188
92	0x3e26	0.16210938
93	0x3e8a	0.26953125
94	0x3d8d	0.068847656
95	0x3dd7	0.10498047
96	0xbe56	-0.20898438
97	0x3e32	0.17382812
98	0xbe1f	-0.15527344
99	0x3e88	0.265625
100	0xbe8a	-0.26953125
101	0xbe58	-0.2109375
102	0xbd27	-0.040771484
103	0xbccf	-0.025268555
104	0x3ddd	0.107910156
105	0xbe73	-0.23730469
106	0x3d97	0.07373047
107	0x3e53	0.20605469
108	0xbe23	-0.15917969
109	0xbd86	-0.06542969
110	0x3e78	0.2421875
111	0x3e6c	0.23046875
112	0x3e85	0.25976562
113	0x3d80	0.0625
114	0x3e8a	0.26953125
115	0x3dba	0.09082031
116	0x3d39	0.045166016
117	0x3e85	0.25976562
118	0x3e93	0.28710938
119	0xbdb5	-0.088378906
120	0xbda2	-0.07910156
121	0xbe5d	-0.21582031
122	0x3e71	0.23535156
123	0xbde3	-0.110839844
124	0xbda5	-0.080566406
125	0xbe0a	-0.13476562
126	0xbe1c	-0.15234375
127	0xbb05	-0.002029419
128	0x3e74	0.23828125
129	0x3d13	0.035888672
130	0xbd84	-0.064453125
131	0xbe28	-0.1640625
132	0xbe50	-0.203125
133	0xbd80	-0.0625
134	0xbe4b	-0.19824219
135	0x3e90	0.28125
136	0xbe1b	-0.15136719
137	0x3e3f	0.18652344
138	0x3e41	0.18847656
139	0x3d80	0.0625
140	0x3d82	0.06347656
141	0x3c9b	0.018920898
142	0xbdc9	-0.09814453
143	0x3d03	0.031982422
144	0x3c26	0.010131836
145	0xbe03	-0.12792969
146	0xbe3d	-0.18457031
147	0xbe52	-0.20507812
148	0x3e70	0.234375
149	0x3e0e	0.13867188
150	0x3cb4	0.021972656
151	0xbd01	-0.03149414
152	0xbe66	-0.22460938
153	0xbe8c	-0.2734375
154	0xbe93	-0.28710938
155	0xbd04	-0.032226562
156	0xbcd2	-0.025634766
157	0xbde5	-0.111816406
158	0xbe24	-0.16015625
159	0xbd7f	-0.06225586
160	0xbd00	-0.03125
161	0x3d27	0.040771484
162	0x3d4a	0.049316406
163	0x3e7d	0.24707031
164	0xbdee	-0.11621094
165	0x3e46	0.19335938
166	0x3dce	0.10058594
167	0x3d8a	0.06738281
168	0xbc86	-0.016357422
169	0x3d9a	0.07519531
170	0x3e7e	0.24804688
171	0xbd8c	-0.068359375
172	0x3d80	0.0625
173	0x3d82	0.06347656
174	0xbe87	-0.26367188
175	0x3dca	0.09863281
176	0x3dd2	0.10253906
177	0xbe51	-0.20410156
178	0xbe8b	-0.27148438
179	0xbe46	-0.19335938
180	0x3e54	0.20703125
181	0x3e23	0.15917969
182	0xbe40	-0.1875
183	0x3e46	0.19335938
184	0x3d3a	0.045410156
185	0x3df5	0.119628906
186	0xbe78	-0.2421875
187	0xbe1d	-0.15332031
188	0xbe0f	-0.13964844
189	0x3db9	0.09033203
190	0x3da5	0.080566406
191	0xbe06	-0.13085938
192	0xbe56	-0.20898438
193	0xbe91	-0.28320312
194	0xbe8d	-0.27539062
195	0x3e67	0.22558594
196	0xbe27	-0.16308594
197	0xbe68	-0.2265625
198	0xbe50	-0.203125
199	0xbd8a	-0.06738281
200	0xbe28	-0.1640625
201	0x3e4b	0.19824219
202	0xbe46	-0.19335938
203	0x3dd7	0.10498047
204	0x3e8b	0.27148438
205	0xbe79	-0.24316406
206	0xbe4f	-0.20214844
207	0x3e2c	0.16796875
208	0xbe51	-0.20410156
209	0xbd80	-0.0625
210	0xbe4f	-0.20214844
211	0xbe6d	-0.23144531
212	0x3e69	0.22753906
213	0xbe7b	-0.24511719
214	0xbd7a	-0.061035156
215	0x3dca	0.09863281
216	0xbe8a	-0.26953125
217	0xbd80	-0.0625
218	0x3cff	0.03112793
219	0xbdaa	-0.08300781
220	0x3e54	0.20703125
221	0x3d7d	0.061767578
222	0xbd07	-0.032958984
223	0xbd1d	-0.038330078
224	0xbd80	-0.0625
225	0xbe09	-0.13378906
226	0x3e90	0.28125
227	0x3d80	0.0625
228	0x3e45	0.19238281
229	0xbddb	-0.106933594
230	0xbe5a	-0.21289062
231	0x3e06	0.13085938
232	0x3d1d	0.038330078
233	0x3e94	0.2890625
234	0xbe87	-0.26367188
235	0x3de8	0.11328125
236	0x3e75	0.23925781
237	0xbe56	-0.20898438
238	0xbe0f	-0.13964844
239	0x3e56	0.20898438
240	0xbe6a	-0.22851562
241	0x3e86	0.26171875
242	0xbdfb	-0.122558594
243	0xbe7f	-0.24902344
244	0x3e34	0.17578125
245	0x3e44	0.19140625
246	0xbdbf	-0.09326172
247	0x3d9b	0.075683594
248	0x3e90	0.28125
249	0x3d80	0.0625
250	0x3d84	0.064453125
251	0x3e08	0.1328125
252	0xbcb4	-0.021972656
253	0x3dd5	0.104003906
254	0xbe18	-0.1484375
255	0xbe3c	-0.18359375
