empty_dirs_for_codex/outputs/runs_recovery/recovery_optionb_sweep_v1/ablation_no_contr_optionb_loto_overwrite/checkpoints/repair_step_2500.pt (torch, 12241 bytes, 20 tensors)

layer_10.Bk bf16 [64, 4]
0.13476562 -0.26757812 0.05444336 -0.24902344 0.14453125 0.265625 -0.14257812 0.265625
-0.265625 0.14160156 0.05053711 -0.067871094 -0.041015625 0.118652344 -0.05419922 -0.28710938
-0.107421875 0.25195312 -0.25585938 -0.100097656 0.122558594 0.21679688 -0.22363281 -0.20507812
0.1796875 0.20214844 0.19335938 0.17089844 -0.25390625 0.09814453 -0.0107421875 0.045654297
-0.11376953 0.28710938 -0.016113281 -0.203125 0.15429688 -0.006225586 -0.18554688 -0.13085938
-0.1875 0.05834961 0.063964844 -0.08203125 0.024414062 -0.16113281 -0.29492188 -0.007171631
0.28125 -0.22167969 0.05883789 -0.14941406 -0.04663086 0.06933594 -0.14648438 -0.25390625
-0.0046081543 -0.022094727 0.21484375 0.118652344 0.17089844 -0.18652344 -0.27929688 -0.1796875
-0.23828125 -0.010375977 -0.088378906 -0.02722168 -0.083984375 -0.049072266 0.06591797 0.29101562
-0.061279297 0.24414062 0.26757812 0.14257812 -0.07861328 0.07910156 -0.19433594 -0.025268555
-0.13867188 -0.22753906 -0.25195312 -0.107421875 0.07421875 -0.0062561035 0.010253906 0.12451172
0.08496094 0.19921875 -0.07128906 0.068359375 -0.002960205 -0.10205078 -0.19921875 -0.08251953
-0.28125 0.03515625 -0.23632812 -0.103515625 -0.11621094 0.25390625 -0.2421875 -0.07080078
0.10644531 0.083984375 0.24414062 0.072265625 0.17480469 -0.17871094 0.18457031 0.006439209
-0.032958984 -0.13378906 0.10986328 0.15332031 -0.21777344 -0.22949219 0.118652344 -0.26367188
-0.27929688 0.21484375 0.09472656 0.022827148 -0.0017166138 0.123535156 -0.21191406 0.24707031
-0.041503906 0.029174805 -0.28125 0.018066406 -0.18164062 0.16699219 -0.28125 0.26757812
-0.06982422 -0.1015625 -0.0019073486 -0.24316406 0.095703125 0.2421875 -0.125 -0.09667969
-0.24707031 0.072265625 0.21875 0.2421875 0.095214844 0.1328125 -0.21777344 -0.119628906
0.2890625 0.0043945312 0.12060547 -0.21972656 -0.24511719 0.234375 -0.13183594 -0.16015625
-0.012878418 -0.021606445 0.12988281 0.18554688 0.26367188 -0.087890625 -0.07714844 -0.23242188
-0.15039062 -0.055419922 -0.15234375 0.007293701 -0.063964844 0.17089844 -0.25976562 -0.006011963
-0.11230469 0.020019531 -0.16015625 -0.29296875 -0.0069274902 0.026611328 0.2578125 -0.20214844
-0.044189453 0.24023438 0.28515625 0.045410156 -0.14453125 0.17480469 -0.21484375 -0.24902344
0.025512695 -0.17382812 0.09472656 -0.12890625 -0.21484375 -0.10839844 -0.19335938 -0.20898438
0.15625 -0.029785156 -0.12695312 -0.29101562 0.22753906 -0.17578125 0.2421875 -0.25195312
-0.13671875 0.28515625 0.12451172 -0.19042969 -0.19433594 -0.14941406 0.11328125 0.15527344
-0.11035156 -0.24902344 -0.19824219 0.18554688 0.051757812 0.12158203 0.15332031 -0.19140625
-0.22363281 -0.21191406 0.29296875 0.0087890625 0.016967773 -0.2890625 0.048828125 -0.27539062
-0.19433594 0.019042969 -0.265625 0.1328125 0.2109375 -0.12451172 0.21582031 0.23144531
-0.2734375 0.015136719 -0.07861328 -0.046142578 0.16699219 -0.15234375 -0.19726562 0.033935547
0.06201172 -0.16015625 -0.12988281 -0.26757812 0.16796875 -0.15136719 0.14355469 -0.24609375
00000000: 0a3e 89be 5f3d 7fbe 143e 883e 12be 883e
00000010: 88be 113e 4f3d 8bbd 28bd f33d 5ebd 93be
00000020: dcbd 813e 83be cdbd fb3d 5e3e 65be 52be
00000030: 383e 4f3e 463e 2f3e 82be c93d 30bc 3b3d
00000040: e9bd 933e 84bc 50be 1e3e ccbb 3ebe 06be
00000050: 40be 6f3d 833d a8bd c83c 25be 97be ebbb
00000060: 903e 63be 713d 19be 3fbd 8e3d 16be 82be
00000070: 97bb b5bc 5c3e f33d 2f3e 3fbe 8fbe 38be
00000080: 74be 2abc b5bd dfbc acbd 49bd 873d 953e
00000090: 7bbd 7a3e 893e 123e a1bd a23d 47be cfbc
000000a0: 0ebe 69be 81be dcbd 983d cdbb 283c ff3d
000000b0: ae3d 4c3e 92bd 8c3d 42bb d1bd 4cbe a9bd
000000c0: 90be 103d 72be d4bd eebd 823e 78be 91bd
000000d0: da3d ac3d 7a3e 943d 333e 37be 3d3e d33b
000000e0: 07bd 09be e13d 1d3e 5fbe 6bbe f33d 87be
000000f0: 8fbe 5c3e c23d bb3c e1ba fd3d 59be 7d3e
00000100: 2abd ef3c 90be 943c 3abe 2b3e 90be 893e
00000110: 8fbd d0bd faba 79be c43d 783e 00be c6bd
00000120: 7dbe 943d 603e 783e c33d 083e 5fbe f5bd
00000130: 943e 903b f73d 61be 7bbe 703e 07be 24be
00000140: 53bc b1bc 053e 3e3e 873e b4bd 9ebd 6ebe
00000150: 1abe 63bd 1cbe ef3b 83bd 2f3e 85be c5bb
00000160: e6bd a43c 24be 96be e3bb da3c 843e 4fbe
00000170: 35bd 763e 923e 3a3d 14be 333e 5cbe 7fbe
00000180: d13c 32be c23d 04be 5cbe debd 46be 56be
00000190: 203e f4bc 02be 95be 693e 34be 783e 81be
000001a0: 0cbe 923e ff3d 43be 47be 19be e83d 1f3e
000001b0: e2bd 7fbe 4bbe 3e3e 543d f93d 1d3e 44be
000001c0: 65be 59be 963e 103c 8b3c 94be 483d 8dbe
000001d0: 47be 9c3c 88be 083e 583e ffbd 5d3e 6d3e
000001e0: 8cbe 783c a1bd 3dbd 2b3e 1cbe 4abe 0b3d
000001f0: 7e3d 24be 05be 89be 2c3e 1bbe 133e 7cbe

layer_10.Bv bf16 [64, 4]
-0.19824219 -0.012451172 0.29492188 -0.040039062 0.018554688 -0.06542969 0.000957489 -0.08935547
0.22949219 -0.007751465 0.15332031 0.022949219 0.22265625 -0.1875 -0.15136719 -0.11767578
-0.123535156 0.018676758 0.13769531 -0.21875 -0.20898438 0.1796875 0.13671875 0.045654297
0.12597656 -0.0054626465 -0.1015625 0.022094727 -0.075683594 -0.12158203 -0.18066406 0.02355957
-0.19140625 -0.171875 -0.18554688 0.27539062 0.29296875 0.16308594 0.03125 0.07714844
0.123046875 -0.01586914 0.15332031 0.111816406 0.096191406 0.28320312 -0.24707031 0.024658203
0.23828125 0.24316406 -0.083984375 0.19824219 -0.17675781 -0.008483887 0.26953125 -0.03515625
0.15429688 0.296875 -0.12695312 0.12695312 -0.11669922 -0.08105469 0.22070312 0.09423828
-0.2578125 0.27929688 0.20996094 0.16503906 -0.031982422 0.13671875 -0.09277344 -0.099609375
0.15625 0.020996094 0.28515625 0.007659912 -0.03540039 0.17285156 -0.14453125 -0.26367188
-0.029663086 0.29296875 -0.2265625 -7.0035458e-06 -0.19433594 -0.25585938 -0.025024414 -0.10546875
-0.07080078 0.095214844 -0.06738281 0.036621094 0.024902344 0.2265625 0.099609375 -0.10449219
-0.22363281 0.19726562 -0.0625 0.11669922 -0.12890625 0.2109375 0.20117188 -0.040283203
0.076660156 -0.016723633 0.111328125 -0.0021209717 -0.25585938 -0.20800781 -0.03125 -0.29492188
-0.28320312 -0.1640625 0.15332031 -0.020874023 -0.2109375 -0.19824219 -0.114746094 -0.21875
0.27734375 -0.19042969 -0.15722656 -0.20898438 -0.107421875 0.23632812 0.10888672 -0.020385742
-0.29296875 0.12011719 0.27734375 -0.037597656 0.20214844 -0.091796875 -0.27929688 0.029296875
0.118652344 -0.13085938 0.03540039 -0.022583008 0.28515625 -0.15527344 -0.2578125 -0.13867188
0.21386719 -0.13769531 0.038085938 -0.21386719 -0.15332031 -0.25585938 0.08886719 0.20019531
0.027832031 0.0025787354 0.076171875 -0.0050964355 0.041503906 0.12207031 0.22851562 0.15136719
0.0703125 0.25390625 -0.265625 -0.1953125 0.24121094 0.27539062 -0.13867188 0.23339844
-0.01953125 -0.080078125 0.006225586 -0.07519531 0.08203125 0.028808594 0.036865234 -0.123535156
0.18066406 -0.18359375 0.032226562 0.1953125 -0.15820312 -0.19824219 0.07910156 -0.24609375
-0.12402344 0.25976562 0.17089844 0.26953125 -0.28320312 -0.27929688 0.072753906 0.10498047
-0.171875 0.106933594 -0.03112793 -0.12597656 0.27734375 0.22851562 0.24609375 -0.09667969
0.033447266 -0.14160156 0.24316406 0.26953125 -0.14746094 0.08544922 0.25195312 -0.032226562
-0.10058594 0.008728027 -0.1953125 0.29101562 -0.1484375 0.060302734 -0.25976562 0.013000488
0.20996094 -0.24414062 0.10546875 0.012329102 0.16113281 -0.13964844 -0.17773438 -0.1328125
-0.044189453 0.25 -0.020751953 -0.21777344 -0.16894531 -0.067871094 -0.08691406 -0.0019683838
-0.119628906 -0.14160156 0.08154297 0.08886719 -0.122558594 0.109375 -0.1171875 -0.01940918
0.010620117 -0.016967773 0.2421875 -0.11669922 0.26757812 -0.022460938 -0.20214844 0.10498047
0.020751953 0.29101562 0.22753906 -0.27539062 0.25585938 0.27148438 0.15527344 -0.0546875
00000000: 4bbe 4cbc 973e 24bd 983c 86bd 7b3a b7bd
00000010: 6b3e febb 1d3e bc3c 643e 40be 1bbe f1bd
00000020: fdbd 993c 0d3e 60be 56be 383e 0c3e 3b3d
00000030: 013e b3bb d0bd b53c 9bbd f9bd 39be c13c
00000040: 44be 30be 3ebe 8d3e 963e 273e 003d 9e3d
00000050: fc3d 82bc 1d3e e53d c53d 913e 7dbe ca3c
00000060: 743e 793e acbd 4b3e 35be 0bbc 8a3e 10bd
00000070: 1e3e 983e 02be 023e efbd a6bd 623e c13d
00000080: 84be 8f3e 573e 293e 03bd 0c3e bebd ccbd
00000090: 203e ac3c 923e fb3b 11bd 313e 14be 87be
000000a0: f3bc 963e 68be ebb6 47be 83be cdbc d8bd
000000b0: 91bd c33d 8abd 163d cc3c 683e cc3d d6bd
000000c0: 65be 4a3e 80bd ef3d 04be 583e 4e3e 25bd
000000d0: 9d3d 89bc e43d 0bbb 83be 55be 00bd 97be
000000e0: 91be 28be 1d3e abbc 58be 4bbe ebbd 60be
000000f0: 8e3e 43be 21be 56be dcbd 723e df3d a7bc
00000100: 96be f63d 8e3e 1abd 4f3e bcbd 8fbe f03c
00000110: f33d 06be 113d b9bc 923e 1fbe 84be 0ebe
00000120: 5b3e 0dbe 1c3d 5bbe 1dbe 83be b63d 4d3e
00000130: e43c 293b 9c3d a7bb 2a3d fa3d 6a3e 1b3e
00000140: 903d 823e 88be 48be 773e 8d3e 0ebe 6f3e
00000150: a0bc a4bd cc3b 9abd a83d ec3c 173d fdbd
00000160: 393e 3cbe 043d 483e 22be 4bbe a23d 7cbe
00000170: febd 853e 2f3e 8a3e 91be 8fbe 953d d73d
00000180: 30be db3d ffbc 01be 8e3e 6a3e 7c3e c6bd
00000190: 093d 11be 793e 8a3e 17be af3d 813e 04bd
000001a0: cebd 0f3c 48be 953e 18be 773d 85be 553c
000001b0: 573e 7abe d83d 4a3c 253e 0fbe 36be 08be
000001c0: 35bd 803e aabc 5fbe 2dbe 8bbd b2bd 01bb
000001d0: f5bd 11be a73d b63d fbbd e03d f0bd 9fbc
000001e0: 2e3c 8bbc 783e efbd 893e b8bc 4fbe d73d
000001f0: aa3c 953e 693e 8dbe 833e 8b3e 1f3e 60bd

layer_10.gate_k.net.0.weight bf16 [4, 64]
-0.11767578 -0.024536133 -0.060058594 -0.033447266 -0.11035156 0.050048828 -0.111816406 -0.0079956055
0.04345703 -0.042236328 0.07080078 0.01574707 0.068847656 0.080078125 -0.05517578 0.045410156
-0.05419922 0.0390625 -0.06542969 0.057861328 0.025268555 -0.048828125 -0.061279297 0.032226562
0.11669922 0.060058594 -0.012084961 -0.006072998 0.07128906 -0.08691406 0.041503906 -0.041503906
0.072265625 -0.044677734 0.0061950684 0.042236328 0.0859375 -0.018432617 0.11425781 -0.10595703
-0.022338867 -0.12451172 0.010375977 0.03540039 -0.05053711 0.052001953 -0.020263672 -0.10839844
0.096191406 0.07714844 0.06298828 0.099609375 0.045898438 0.06640625 0.103515625 -0.025146484
-0.09765625 -0.061523438 -0.016723633 -0.01373291 -0.0008468628 0.071777344 0.040039062 -0.092285156
-0.037597656 -0.029418945 0.076171875 -0.045410156 -0.052246094 -0.020141602 -0.03173828 -0.030761719
-0.12207031 0.111328125 0.06640625 -0.05908203 -0.078125 0.004333496 0.07128906 -0.08984375
-0.04711914 0.052246094 -0.080566406 -0.013916016 -0.09423828 0.115722656 0.06738281 -0.115722656
-0.068847656 0.044189453 0.0068359375 0.033203125 -0.10205078 -0.06689453 0.056640625 -0.095214844
-0.026245117 0.05493164 0.064941406 0.0077819824 0.036132812 0.055664062 -0.014587402 -0.034179688
0.095214844 0.12207031 0.057861328 -0.0546875 -0.10888672 -0.123535156 0.0008659363 -0.047851562
-0.03149414 -0.017578125 0.11816406 0.118652344 -0.011657715 -0.037597656 0.060791016 -0.0099487305
-0.119140625 0.040771484 0.119628906 -0.099121094 -0.026977539 0.02709961 -0.1015625 -0.106933594
0.09326172 -0.044189453 0.072753906 0.011169434 0.030517578 -0.083496094 -0.026733398 0.08251953
0.057373047 -0.036132812 0.015380859 0.095703125 -0.109375 0.080078125 -0.037597656 -0.025390625
0.059570312 -0.104003906 -0.018920898 0.119628906 0.044921875 -0.046142578 -0.02722168 0.09863281
0.04711914 0.08496094 -0.080566406 0.036132812 0.022338867 0.021728516 0.11621094 0.06933594
0.0859375 0.05493164 0.052490234 -0.021728516 -0.11035156 -0.10546875 -0.07763672 -0.08105469
0.05883789 0.03857422 -0.03564453 -0.095214844 0.123046875 0.09375 0.059326172 0.123535156
-0.06640625 -0.07128906 -0.07324219 -0.0060424805 -0.11035156 0.099121094 0.0032196045 0.06225586
-0.068847656 -0.012878418 0.016479492 -0.034179688 0.11816406 -0.057128906 0.03881836 -0.08496094
-0.014770508 -0.033203125 0.053955078 0.087402344 0.030395508 -0.011352539 -0.031982422 0.09814453
-0.029541016 0.09033203 -0.055664062 0.103027344 0.12451172 0.08544922 0.071777344 0.04663086
-0.061523438 0.0014953613 0.04296875 -0.032714844 0.022460938 0.07324219 -0.115722656 -0.11376953
-0.07470703 0.015258789 -0.02319336 0.026977539 -0.029785156 -0.08203125 0.016601562 0.084472656
-0.07519531 0.109375 0.030761719 0.123046875 -0.114746094 -0.119628906 0.04248047 -0.11669922
-0.10253906 0.06347656 0.060791016 -0.11376953 0.08984375 -0.024291992 0.09277344 -0.07324219
-0.118652344 -0.08300781 -0.01940918 -0.125 -0.008544922 -0.0625 -0.029052734 -1.7762184e-05
0.007019043 -0.12207031 0.064453125 -0.076660156 0.076171875 0.114746094 -0.041748047 0.014038086
00000000: f1bd c9bc 76bd 09bd e2bd 4d3d e5bd 03bc
00000010: 323d 2dbd 913d 813c 8d3d a43d 62bd 3a3d
00000020: 5ebd 203d 86bd 6d3d cf3c 48bd 7bbd 043d
00000030: ef3d 763d 46bc c7bb 923d b2bd 2a3d 2abd
00000040: 943d 37bd cb3b 2d3d b03d 97bc ea3d d9bd
00000050: b7bc ffbd 2a3c 113d 4fbd 553d a6bc debd
00000060: c53d 9e3d 813d cc3d 3c3d 883d d43d cebc
00000070: c8bd 7cbd 89bc 61bc 5eba 933d 243d bdbd
00000080: 1abd f1bc 9c3d 3abd 56bd a5bc 02bd fcbc
00000090: fabd e43d 883d 72bd a0bd 8e3b 923d b8bd
000000a0: 41bd 563d a5bd 64bc c1bd ed3d 8a3d edbd
000000b0: 8dbd 353d e03b 083d d1bd 89bd 683d c3bd
000000c0: d7bc 613d 853d ff3b 143d 643d 6fbc 0cbd
000000d0: c33d fa3d 6d3d 60bd dfbd fdbd 633a 44bd
000000e0: 01bd 90bc f23d f33d 3fbc 1abd 793d 23bc
000000f0: f4bd 273d f53d cbbd ddbc de3c d0bd dbbd
00000100: bf3d 35bd 953d 373c fa3c abbd dbbc a93d
00000110: 6b3d 14bd 7c3c c43d e0bd a43d 1abd d0bc
00000120: 743d d5bd 9bbc f53d 383d 3dbd dfbc ca3d
00000130: 413d ae3d a5bd 143d b73c b23c ee3d 8e3d
00000140: b03d 613d 573d b2bc e2bd d8bd 9fbd a6bd
00000150: 713d 1e3d 12bd c3bd fc3d c03d 733d fd3d
00000160: 88bd 92bd 96bd c6bb e2bd cb3d 533b 7f3d
00000170: 8dbd 53bc 873c 0cbd f23d 6abd 1f3d aebd
00000180: 72bc 08bd 5d3d b33d f93c 3abc 03bd c93d
00000190: f2bc b93d 64bd d33d ff3d af3d 933d 3f3d
000001a0: 7cbd c43a 303d 06bd b83c 963d edbd e9bd
000001b0: 99bd 7a3c bebc dd3c f4bc a8bd 883c ad3d
000001c0: 9abd e03d fc3c fc3d ebbd f5bd 2e3d efbd
000001d0: d2bd 823d 793d e9bd b83d c7bc be3d 96bd
000001e0: f3bd aabd 9fbc 00be 0cbc 80bd eebc 95b7
000001f0: e63b fabd 843d 9dbd 9c3d eb3d 2bbd 663c

layer_10.gate_k.net.0.bias bf16 [4]
0.068847656 -0.009887695 -0.10449219 0.056152344
00000000: 8d3d 22bc d6bd 663d

layer_10.gate_k.net.2.weight bf16 [4, 4]
0.23828125 -0.2734375 -0.3359375 -0.087402344 0.09814453 -0.25195312 -0.012023926 -0.21582031
-0.19433594 -0.068359375 -0.19042969 0.38476562 0.13183594 0.44726562 0.45117188 0.08154297
00000000: 743e 8cbe acbe b3bd c93d 81be 45bc 5dbe
00000010: 47be 8cbd 43be c53e 073e e53e e73e a73d

layer_10.gate_k.net.2.bias bf16 [4]
-0.20800781 0.3046875 -0.017456055 0.37109375
00000000: 55be 9c3e 8fbc be3e

layer_10.gate_v.net.0.weight bf16 [4, 64]
-0.0625 0.10986328 0.033447266 -0.024414062 -0.08154297 0.09082031 -0.021606445 0.048583984
0.049560547 0.03125 -0.06298828 -0.022583008 -0.0138549805 0.078125 -0.04296875 0.026977539
0.034179688 0.031982422 0.10107422 0.09423828 0.017944336 0.040771484 0.11328125 0.050048828
0.0075683594 0.07421875 0.03540039 -0.028686523 0.061279297 -0.0029449463 -0.061523438 -0.0014266968
0.11767578 -0.03173828 -0.099121094 0.08154297 0.021240234 0.0625 -0.030639648 0.03149414
-0.032226562 0.110839844 0.06591797 0.03125 0.06542969 -0.0074157715 0.08251953 -0.032226562
-0.05102539 0.115722656 -0.037597656 -0.02319336 -0.040039062 0.033691406 -0.0030822754 -0.107421875
0.12060547 0.119140625 -0.0859375 0.029907227 0.103515625 -0.039794922 0.03540039 0.09326172
-0.017822266 0.03125 -0.104003906 -0.05444336 -0.07421875 0.024047852 -0.088378906 0.079589844
0.02722168 -0.04272461 -0.072265625 0.049072266 -0.027832031 -0.018676758 -0.052246094 -0.03125
0.03173828 0.0008010864 -0.024291992 0.03857422 -0.080566406 0.033691406 -0.048095703 -0.118652344
0.035888672 0.041259766 0.111328125 0.08203125 0.123535156 -0.09716797 -0.10888672 0.036865234
0.040039062 -0.03125 -0.079589844 0.09765625 -0.10986328 0.02709961 -0.049316406 -0.049560547
0.09667969 0.107910156 0.035888672 0.0625 -0.03149414 -0.076660156 -0.03125 0.10546875
-0.017578125 -0.11328125 -0.05517578 0.0010986328 -0.044433594 -0.03149414 -0.109375 -0.035888672
0.029541016 -0.11425781 0.03564453 0.041015625 0.045654297 0.08154297 -0.07373047 -0.020263672
0.0625 -0.049804688 -0.0625 0.123535156 0.0625 -0.037353516 0.060546875 -0.0625
-0.072753906 -0.042236328 0.064941406 -0.041503906 -0.03466797 0.0625 0.06933594 -0.06298828
-0.05493164 -0.052246094 -0.067871094 0.092285156 -0.038330078 -0.0625 0.11425781 -0.09667969
-0.0625 0.11328125 -0.05419922 0.034423828 0.119628906 0.034179688 0.0625 0.0625
0.06298828 -0.10595703 -0.08105469 -0.099609375 -0.123046875 -0.032714844 0.03149414 -0.10888672
-0.11328125 0.046142578 0.044677734 -0.060546875 0.0625 0.12451172 0.051757812 -0.10107422
-0.08251953 -0.115234375 0.0625 0.036132812 0.0625 0.017578125 0.03564453 0.0625
-0.021606445 -0.04736328 -0.03125 0.022705078 -0.0625 0.091308594 -0.12158203 0.0625
-0.07080078 0.06591797 0.09765625 0.088378906 0.04345703 -0.048095703 -0.049316406 0.032470703
0.031982422 -0.0625 0.05126953 0.072753906 -0.044677734 -0.040283203 -0.087890625 -0.06933594
-0.05517578 0.08691406 -0.106933594 0.03466797 0.11230469 -0.08300781 -0.10986328 0.067871094
0.076660156 0.05126953 0.09863281 0.07861328 0.016601562 0.092285156 -0.06298828 0.049316406
-0.07519531 -0.03125 0.06591797 0.05102539 0.067871094 -0.016601562 0.037597656 0.0061035156
0.104003906 0.072753906 -0.09082031 0.05859375 0.06591797 0.028320312 -0.06298828 0.12158203
-0.087402344 -0.1015625 -0.033447266 0.048583984 -0.032714844 0.03540039 0.052978516 0.088378906
-0.05810547 -0.032958984 -0.043945312 -0.064453125 -0.064941406 -0.09326172 0.10546875 -0.044921875
00000000: 80bd e13d 093d c8bc a7bd ba3d b1bc 473d
00000010: 4b3d 003d 81bd b9bc 63bc a03d 30bd dd3c
00000020: 0c3d 033d cf3d c13d 933c 273d e83d 4d3d
00000030: f83b 983d 113d ebbc 7b3d 41bb 7cbd bbba
00000040: f13d 02bd cbbd a73d ae3c 803d fbbc 013d
00000050: 04bd e33d 873d 003d 863d f3bb a93d 04bd
00000060: 51bd ed3d 1abd bebc 24bd 0a3d 4abb dcbd
00000070: f73d f43d b0bd f53c d43d 23bd 113d bf3d
00000080: 92bc 003d d5bd 5fbd 98bd c53c b5bd a33d
00000090: df3c 2fbd 94bd 493d e4bc 99bc 56bd 00bd
000000a0: 023d 523a c7bc 1e3d a5bd 0a3d 45bd f3bd
000000b0: 133d 293d e43d a83d fd3d c7bd dfbd 173d
000000c0: 243d 00bd a3bd c83d e1bd de3c 4abd 4bbd
000000d0: c63d dd3d 133d 803d 01bd 9dbd 00bd d83d
000000e0: 90bc e8bd 62bd 903a 36bd 01bd e0bd 13bd
000000f0: f23c eabd 123d 283d 3b3d a73d 97bd a6bc
00000100: 803d 4cbd 80bd fd3d 803d 19bd 783d 80bd
00000110: 95bd 2dbd 853d 2abd 0ebd 803d 8e3d 81bd
00000120: 61bd 56bd 8bbd bd3d 1dbd 80bd ea3d c6bd
00000130: 80bd e83d 5ebd 0d3d f53d 0c3d 803d 803d
00000140: 813d d9bd a6bd ccbd fcbd 06bd 013d dfbd
00000150: e8bd 3d3d 373d 78bd 803d ff3d 543d cfbd
00000160: a9bd ecbd 803d 143d 803d 903c 123d 803d
00000170: b1bc 42bd 00bd ba3c 80bd bb3d f9bd 803d
00000180: 91bd 873d c83d b53d 323d 45bd 4abd 053d
00000190: 033d 80bd 523d 953d 37bd 25bd b4bd 8ebd
000001a0: 62bd b23d dbbd 0e3d e63d aabd e1bd 8b3d
000001b0: 9d3d 523d ca3d a13d 883c bd3d 81bd 4a3d
000001c0: 9abd 00bd 873d 513d 8b3d 88bc 1a3d c83b
000001d0: d53d 953d babd 703d 873d e83c 81bd f93d
000001e0: b3bd d0bd 09bd 473d 06bd 113d 593d b53d
000001f0: 6ebd 07bd 34bd 84bd 85bd bfbd d83d 38bd

layer_10.gate_v.net.0.bias bf16 [4]
-0.0625 -0.0625 -0.08154297 0.08105469
00000000: 80bd 80bd a7bd a63d

layer_10.gate_v.net.2.weight bf16 [4, 4]
-0.15527344 0.265625 0.14550781 -0.49609375 -0.45898438 -0.48828125 0.44921875 0.45703125
0.17089844 -0.20800781 0.1640625 -0.37695312 0.08105469 -0.068359375 0.34179688 0.053466797
00000000: 1fbe 883e 153e febe ebbe fabe e63e ea3e
00000010: 2f3e 55be 283e c1be a63d 8cbd af3e 5b3d

layer_10.gate_v.net.2.bias bf16 [4]
0.0625 0.0625 0.48046875 -0.34960938
00000000: 803d 803d f63e b3be

layer_11.Bk bf16 [64, 4]
-0.05102539 0.056396484 -0.00043678284 -0.15722656 -0.10644531 0.23339844 0.20703125 -0.043945312
-0.21777344 0.23828125 -0.17382812 0.013061523 0.095214844 -0.005554199 -0.08496094 0.24316406
0.171875 -0.28710938 -0.16210938 0.008239746 0.12158203 0.12109375 -0.076660156 -0.21484375
0.27929688 -0.21972656 -0.22167969 0.29101562 0.111328125 0.13183594 -0.17675781 -0.18457031
0.08642578 -0.050048828 0.23339844 -0.099609375 0.2890625 0.11230469 -0.13085938 -0.23632812
0.1796875 -0.14160156 -0.23828125 0.041748047 0.15136719 -0.06591797 0.030639648 -0.13085938
0.22851562 0.27148438 0.19433594 -0.28710938 -0.27148438 0.16503906 0.2578125 0.15820312
0.029663086 -0.05908203 -0.22265625 -0.041503906 0.28125 -0.030883789 -0.28515625 0.04296875
-0.26953125 0.2109375 -0.017211914 0.036132812 0.053955078 -0.040527344 0.06201172 -0.21777344
0.04663086 0.11376953 -0.2109375 -0.28320312 0.005340576 0.080078125 -0.083496094 -0.1875
-0.019042969 0.14453125 -0.17285156 -0.27734375 0.28710938 -0.27929688 -0.045898438 0.13964844
-0.18457031 -0.026489258 -0.01171875 0.041259766 0.06982422 -0.14257812 0.20214844 0.037353516
0.29296875 0.020263672 -0.14648438 0.0099487305 0.28125 -0.1953125 -0.025756836 -0.17089844
-0.15039062 0.22363281 0.26171875 0.16992188 -0.19921875 -0.15429688 -0.25 -0.099609375
0.08886719 0.20800781 -0.13085938 -0.16894531 0.099121094 0.24121094 0.024902344 0.21484375
0.25195312 -0.051757812 0.27539062 0.21679688 0.079589844 -0.2578125 -0.091796875 -0.06347656
0.00025749207 -0.25976562 0.22558594 0.203125 0.043945312 -0.24121094 -0.19433594 -0.29492188
-0.10498047 0.18164062 -0.2265625 0.19921875 -0.052246094 -0.028686523 -0.10107422 0.064453125
-0.10546875 -0.14746094 0.04663086 -0.24121094 0.10546875 -0.21875 0.22753906 0.20703125
-0.020751953 0.014770508 0.025756836 0.1015625 -0.045898438 0.04711914 -0.02709961 -0.19335938
0.11425781 -0.24023438 -0.05126953 0.27929688 -0.004180908 -0.01928711 0.13671875 0.2734375
0.11767578 -0.09082031 0.20019531 -0.019165039 0.036865234 0.17578125 -0.04272461 0.114746094
-0.017700195 0.15234375 0.21289062 0.06347656 -0.021972656 -0.23632812 -0.16210938 -0.063964844
0.26367188 0.012084961 0.10449219 -0.16699219 0.067871094 -0.20507812 -0.1484375 -0.27148438
0.20019531 -0.19628906 -0.171875 0.19042969 0.22167969 0.15820312 0.25390625 -0.19335938
0.075683594 -0.14746094 -0.26757812 -0.16503906 -0.111816406 -0.041015625 -0.060058594 -0.013305664
-0.27148438 0.2265625 0.28125 0.16308594 0.29101562 -0.08105469 -0.02746582 -0.25390625
0.032958984 -0.21679688 -0.27539062 -0.010620117 -0.13671875 -0.23535156 0.012390137 -0.037597656
0.26953125 -0.016479492 0.067871094 0.24121094 -0.07373047 0.20996094 0.27734375 -0.125
-0.24121094 0.1640625 -0.14550781 -0.25 -0.26953125 0.27929688 0.28320312 -0.2265625
-0.13085938 0.07910156 0.028808594 -0.01965332 -0.044677734 -0.07128906 -0.21191406 0.000166893
0.032714844 0.27539062 -0.05834961 0.125 0.19824219 -0.28515625 -0.028076172 0.29492188
00000000: 51bd 673d e5b9 21be dabd 6f3e 543e 34bd
00000010: 5fbe 743e 32be 563c c33d b6bb aebd 793e
00000020: 303e 93be 26be 073c f93d f83d 9dbd 5cbe
00000030: 8f3e 61be 63be 953e e43d 073e 35be 3dbe
00000040: b13d 4dbd 6f3e ccbd 943e e63d 06be 72be
00000050: 383e 11be 74be 2b3d 1b3e 87bd fb3c 06be
00000060: 6a3e 8b3e 473e 93be 8bbe 293e 843e 223e
00000070: f33c 72bd 64be 2abd 903e fdbc 92be 303d
00000080: 8abe 583e 8dbc 143d 5d3d 26bd 7e3d 5fbe
00000090: 3f3d e93d 58be 91be af3b a43d abbd 40be
000000a0: 9cbc 143e 31be 8ebe 933e 8fbe 3cbd 0f3e
000000b0: 3dbe d9bc 40bc 293d 8f3d 12be 4f3e 193d
000000c0: 963e a63c 16be 233c 903e 48be d3bc 2fbe
000000d0: 1abe 653e 863e 2e3e 4cbe 1ebe 80be ccbd
000000e0: b63d 553e 06be 2dbe cb3d 773e cc3c 5c3e
000000f0: 813e 54bd 8d3e 5e3e a33d 84be bcbd 82bd
00000100: 8739 85be 673e 503e 343d 77be 47be 97be
00000110: d7bd 3a3e 68be 4c3e 56bd ebbc cfbd 843d
00000120: d8bd 17be 3f3d 77be d83d 60be 693e 543e
00000130: aabc 723c d33c d03d 3cbd 413d debc 46be
00000140: ea3d 76be 52bd 8f3e 89bb 9ebc 0c3e 8c3e
00000150: f13d babd 4d3e 9dbc 173d 343e 2fbd eb3d
00000160: 91bc 1c3e 5a3e 823d b4bc 72be 26be 83bd
00000170: 873e 463c d63d 2bbe 8b3d 52be 18be 8bbe
00000180: 4d3e 49be 30be 433e 633e 223e 823e 46be
00000190: 9b3d 17be 89be 29be e5bd 28bd 76bd 5abc
000001a0: 8bbe 683e 903e 273e 953e a6bd e1bc 82be
000001b0: 073d 5ebe 8dbe 2ebc 0cbe 71be 4b3c 1abd
000001c0: 8a3e 87bc 8b3d 773e 97bd 573e 8e3e 00be
000001d0: 77be 283e 15be 80be 8abe 8f3e 913e 68be
000001e0: 06be a23d ec3c a1bc 37bd 92bd 59be 2f39
000001f0: 063d 8d3e 6fbd 003e 4b3e 92be e6bc 973e

layer_11.Bv bf16 [64, 4]
-0.10498047 0.08300781 0.026123047 0.020874023 0.18457031 0.016845703 -0.19335938 0.14355469
-0.096191406 -0.015563965 0.14550781 -0.10449219 -0.22851562 -0.19628906 0.27734375 -0.09814453
0.171875 -0.19824219 0.20996094 0.24804688 -0.028930664 -0.09765625 0.19238281 0.11425781
-0.104003906 -0.24414062 0.18457031 -0.13671875 0.118652344 -0.28320312 -0.27148438 0.17382812
-0.091796875 0.2578125 0.025268555 0.20507812 -0.063964844 0.265625 -0.23339844 -0.103027344
-0.017700195 -0.25 -0.025390625 -0.21484375 0.071777344 -0.00982666 -0.27539062 -0.265625
-0.29101562 -0.026733398 0.057128906 0.028686523 0.21289062 -0.27148438 0.10986328 0.21972656
-0.26367188 -0.0061950684 0.24316406 0.1328125 -0.02722168 0.015625 0.20214844 -0.027832031
-0.25585938 -0.083984375 0.18066406 0.13574219 0.002105713 0.09277344 -0.12695312 -0.17382812
0.18652344 -0.22753906 -0.22070312 0.19824219 -0.18261719 -0.19433594 0.24414062 0.18164062
-0.26171875 -0.0625 -0.29101562 -0.16015625 -0.1953125 -0.06201172 -0.106933594 -0.15722656
0.17773438 -0.18847656 -0.123046875 -0.001373291 0.07763672 0.24804688 -0.08105469 -0.079589844
0.036865234 0.0059509277 0.099609375 0.01928711 0.2890625 -0.1796875 0.2578125 -0.17675781
0.12890625 0.15136719 0.032958984 -0.13574219 0.114746094 0.20410156 -0.19335938 -0.079589844
0.10595703 -0.11376953 -0.15625 0.12207031 0.25390625 0.15917969 -0.14648438 -0.027832031
0.13867188 -0.005645752 -0.15234375 0.08642578 0.23242188 0.09033203 0.25195312 -0.052246094
0.03491211 0.21484375 -0.091308594 0.01586914 -0.046142578 0.23046875 0.02355957 0.17871094
0.10888672 0.13574219 0.016235352 -0.2890625 0.28515625 -0.0703125 0.08496094 -0.27734375
-0.0058288574 0.030517578 0.25 0.19726562 -0.20019531 0.080078125 0.22460938 0.18945312
-0.23046875 0.28515625 0.047851562 0.18652344 0.0016479492 0.07714844 0.22070312 0.016601562
0.17773438 0.20800781 0.17480469 0.15527344 0.009887695 0.03491211 0.07128906 0.01574707
-0.23925781 0.10839844 0.087890625 0.0234375 -0.27929688 0.25390625 0.09326172 -0.14648438
0.27734375 -0.18164062 -0.024414062 -0.008483887 -0.059326172 -0.111816406 -0.14160156 0.17089844
0.0049743652 0.041015625 0.25195312 -0.20410156 -0.026123047 -0.21582031 -0.07421875 -0.16992188
0.06738281 0.037597656 0.14941406 0.18457031 -0.19042969 0.2265625 0.064941406 0.115234375
0.14648438 0.18945312 0.19726562 -0.26953125 -0.29296875 0.2265625 -0.06298828 -0.23828125
0.203125 -0.21484375 0.25 -0.032714844 -0.19921875 0.084472656 0.021118164 -0.20800781
-0.24414062 -0.19335938 -0.15722656 0.0013427734 0.2421875 0.09863281 0.033691406 -0.16796875
-0.28515625 0.07519531 -0.28125 0.2265625 -0.14746094 0.07080078 -0.00016117096 -0.24804688
-0.1796875 0.057617188 0.04711914 -0.14453125 -0.024291992 -0.23046875 0.15722656 -0.15527344
0.14746094 -0.22460938 0.15332031 0.21875 0.15136719 0.22851562 0.26367188 0.20800781
0.025634766 0.22558594 0.016357422 0.060058594 0.095214844 0.1171875 -0.18945312 0.03466797
00000000: d7bd aa3d d63c ab3c 3d3e 8a3c 46be 133e
00000010: c5bd 7fbc 153e d6bd 6abe 49be 8e3e c9bd
00000020: 303e 4bbe 573e 7e3e edbc c8bd 453e ea3d
00000030: d5bd 7abe 3d3e 0cbe f33d 91be 8bbe 323e
00000040: bcbd 843e cf3c 523e 83bd 883e 6fbe d3bd
00000050: 91bc 80be d0bc 5cbe 933d 21bc 8dbe 88be
00000060: 95be dbbc 6a3d eb3c 5a3e 8bbe e13d 613e
00000070: 87be cbbb 793e 083e dfbc 803c 4f3e e4bc
00000080: 83be acbd 393e 0b3e 0a3b be3d 02be 32be
00000090: 3f3e 69be 62be 4b3e 3bbe 47be 7a3e 3a3e
000000a0: 86be 80bd 95be 24be 48be 7ebd dbbd 21be
000000b0: 363e 41be fcbd b4ba 9f3d 7e3e a6bd a3bd
000000c0: 173d c33b cc3d 9e3c 943e 38be 843e 35be
000000d0: 043e 1b3e 073d 0bbe eb3d 513e 46be a3bd
000000e0: d93d e9bd 20be fa3d 823e 233e 16be e4bc
000000f0: 0e3e b9bb 1cbe b13d 6e3e b93d 813e 56bd
00000100: 0f3d 5c3e bbbd 823c 3dbd 6c3e c13c 373e
00000110: df3d 0b3e 853c 94be 923e 90bd ae3d 8ebe
00000120: bfbb fa3c 803e 4a3e 4dbe a43d 663e 423e
00000130: 6cbe 923e 443d 3f3e d83a 9e3d 623e 883c
00000140: 363e 553e 333e 1f3e 223c 0f3d 923d 813c
00000150: 75be de3d b43d c03c 8fbe 823e bf3d 16be
00000160: 8e3e 3abe c8bc 0bbc 73bd e5bd 11be 2f3e
00000170: a33b 283d 813e 51be d6bc 5dbe 98bd 2ebe
00000180: 8a3d 1a3d 193e 3d3e 43be 683e 853d ec3d
00000190: 163e 423e 4a3e 8abe 96be 683e 81bd 74be
000001a0: 503e 5cbe 803e 06bd 4cbe ad3d ad3c 55be
000001b0: 7abe 46be 21be b03a 783e ca3d 0a3d 2cbe
000001c0: 92be 9a3d 90be 683e 17be 913d 29b9 7ebe
000001d0: 38be 6c3d 413d 14be c7bc 6cbe 213e 1fbe
000001e0: 173e 66be 1d3e 603e 1b3e 6a3e 873e 553e
000001f0: d23c 673e 863c 763d c33d f03d 42be 0e3d

layer_11.gate_k.net.0.weight bf16 [4, 64]
0.12109375 0.008056641 0.007293701 -0.005859375 0.06738281 -0.010864258 0.012207031 -0.048828125
0.01586914 0.063964844 0.06640625 0.1171875 0.011230469 -0.115722656 -0.076171875 -0.060058594
-0.009765625 -0.104003906 0.100097656 0.10449219 -0.09033203 -0.032470703 -0.076171875 -0.068359375
0.114746094 -0.059570312 0.056396484 0.06689453 0.016723633 -0.07861328 -0.008972168 -0.024658203
0.12451172 0.08642578 0.014221191 0.06689453 -0.09765625 0.071777344 0.05859375 0.123535156
-0.03540039 -0.08300781 0.104003906 0.12207031 0.00982666 0.02746582 0.12158203 -0.10595703
-0.038330078 -0.092285156 0.059570312 0.083496094 -0.107421875 -0.020141602 -0.11328125 0.092285156
0.099609375 0.040771484 -0.000957489 -0.001335144 0.083496094 0.04296875 -0.095214844 0.024902344
0.099609375 0.08154297 -0.088378906 -0.09765625 0.07861328 0.10107422 -0.06298828 -0.078125
0.028930664 -0.06298828 0.064453125 0.046875 0.09863281 -0.025146484 -0.036865234 -0.09765625
0.111328125 0.063964844 0.013916016 -0.076171875 0.10449219 0.114746094 -0.03100586 -0.072265625
-0.05419922 0.08203125 -0.107910156 -0.056640625 -0.0033111572 0.08105469 -0.016845703 -0.092285156
-0.084472656 0.040527344 -0.0011138916 -0.03100586 0.07861328 0.047607422 0.008483887 -0.036865234
-0.08203125 -0.123535156 0.060058594 0.0017471313 0.103027344 -0.044677734 -0.12060547 -0.068359375
-0.08544922 -0.024902344 -0.11035156 0.05029297 0.08984375 0.0035705566 -0.12451172 0.04345703
-0.026489258 0.032714844 -0.037353516 -0.095214844 -0.10107422 0.036865234 -0.03955078 0.11230469
-0.016113281 0.016357422 0.08251953 0.11669922 0.045410156 0.10546875 0.100097656 0.12402344
-0.104003906 0.05078125 -0.057128906 -0.09033203 0.014404297 0.091308594 0.10839844 -0.001914978
0.051757812 -0.009033203 0.018188477 -0.03149414 -0.057617188 -0.07861328 -0.11425781 -0.0146484375
0.11767578 0.045410156 0.0064697266 -0.10595703 -0.014465332 -0.11669922 0.020019531 -0.045654297
0.099609375 0.07910156 -0.106933594 0.0703125 -0.032226562 -0.12207031 -0.04296875 0.015319824
0.068847656 0.007171631 0.09472656 -0.111816406 -0.05444336 -0.12402344 -0.014038086 -0.08935547
0.072265625 0.075683594 -0.052001953 0.115722656 -0.08642578 -0.09472656 -0.024414062 0.02746582
0.11230469 -0.08496094 0.09765625 0.05029297 -0.061035156 -0.08203125 0.041503906 -0.0099487305
0.100097656 0.015014648 -0.115234375 -0.03930664 -0.048339844 -0.071777344 -0.016723633 0.052978516
-0.078125 -0.02319336 -0.05419922 0.078125 0.096191406 0.103027344 0.122558594 -0.059570312
-0.087402344 0.08984375 0.05419922 0.020507812 -0.06982422 -0.099609375 -0.041503906 0.103027344
-0.06298828 -0.079589844 0.046142578 0.10644531 0.008850098 0.032958984 0.08105469 -0.036621094
-0.11230469 0.010498047 -0.0703125 0.049804688 -0.06591797 0.1171875 -0.012145996 0.099121094
-0.08886719 -0.106933594 -0.059326172 -0.03100586 0.095214844 -0.09716797 -0.048339844 0.037353516
0.00982666 -0.0546875 0.08251953 -0.07080078 0.059326172 0.030029297 -0.0703125 0.018310547
0.0390625 -0.012451172 -0.03857422 0.060791016 -0.053710938 -0.028198242 -0.017211914 0.009033203
00000000: f83d 043c ef3b c0bb 8a3d 32bc 483c 48bd
00000010: 823c 833d 883d f03d 383c edbd 9cbd 76bd
00000020: 20bc d5bd cd3d d63d b9bd 05bd 9cbd 8cbd
00000030: eb3d 74bd 673d 893d 893c a1bd 13bc cabc
00000040: ff3d b13d 693c 893d c8bd 933d 703d fd3d
00000050: 11bd aabd d53d fa3d 213c e13c f93d d9bd
00000060: 1dbd bdbd 743d ab3d dcbd a5bc e8bd bd3d
00000070: cc3d 273d 7bba afba ab3d 303d c3bd cc3c
00000080: cc3d a73d b5bd c8bd a13d cf3d 81bd a0bd
00000090: ed3c 81bd 843d 403d ca3d cebc 17bd c8bd
000000a0: e43d 833d 643c 9cbd d63d eb3d febc 94bd
000000b0: 5ebd a83d ddbd 68bd 59bb a63d 8abc bdbd
000000c0: adbd 263d 92ba febc a13d 433d 0b3c 17bd
000000d0: a8bd fdbd 763d e53a d33d 37bd f7bd 8cbd
000000e0: afbd ccbc e2bd 4e3d b83d 6a3b ffbd 323d
000000f0: d9bc 063d 19bd c3bd cfbd 173d 22bd e63d
00000100: 84bc 863c a93d ef3d 3a3d d83d cd3d fe3d
00000110: d5bd 503d 6abd b9bd 6c3c bb3d de3d fbba
00000120: 543d 14bc 953c 01bd 6cbd a1bd eabd 70bc
00000130: f13d 3a3d d43b d9bd 6dbc efbd a43c 3bbd
00000140: cc3d a23d dbbd 903d 04bd fabd 30bd 7b3c
00000150: 8d3d eb3b c23d e5bd 5fbd febd 66bc b7bd
00000160: 943d 9b3d 55bd ed3d b1bd c2bd c8bc e13c
00000170: e63d aebd c83d 4e3d 7abd a8bd 2a3d 23bc
00000180: cd3d 763c ecbd 21bd 46bd 93bd 89bc 593d
00000190: a0bd bebc 5ebd a03d c53d d33d fb3d 74bd
000001a0: b3bd b83d 5e3d a83c 8fbd ccbd 2abd d33d
000001b0: 81bd a3bd 3d3d da3d 113c 073d a63d 16bd
000001c0: e6bd 2c3c 90bd 4c3d 87bd f03d 47bc cb3d
000001d0: b6bd dbbd 73bd febc c33d c7bd 46bd 193d
000001e0: 213c 60bd a93d 91bd 733d f63c 90bd 963c
000001f0: 203d 4cbc 1ebd 793d 5cbd e7bc 8dbc 143c

layer_11.gate_k.net.0.bias bf16 [4]
0.018920898 0.025390625 -0.10595703 -0.07861328
00000000: 9b3c d03c d9bd a1bd

layer_11.gate_k.net.2.weight bf16 [4, 4]
0.12890625 0.4140625 -0.32617188 -0.14257812 -0.31835938 -0.390625 -0.44140625 0.14746094
-0.036865234 -0.2578125 0.48828125 -0.059814453 0.06982422 0.5 -0.35546875 -0.16699219
00000000: 043e d43e a7be 12be a3be c8be e2be 173e
00000010: 17bd 84be fa3e 75bd 8f3d 003f b6be 2bbe

layer_11.gate_k.net.2.bias bf16 [4]
-0.3984375 0.16015625 -0.115234375 -0.4921875
00000000: ccbe 243e ecbd fcbe

layer_11.gate_v.net.0.weight bf16 [4, 64]
-0.0625 -0.03125 0.11621094 -0.052978516 -0.091308594 0.071777344 0.072265625 0.0625
0.0625 0.07421875 0.0625 -0.056396484 0.053222656 -0.048095703 0.11035156 0.111816406
-0.034179688 -0.0625 -0.06640625 0.08544922 -0.04272461 0.10839844 0.05444336 0.09863281
0.063964844 0.09082031 -0.041259766 0.06298828 -0.110839844 0.07421875 -0.024902344 -0.08300781
-0.055664062 -0.10986328 0.10107422 0.0625 0.0625 -0.0625 0.064941406 0.07763672
-0.07324219 0.100097656 -0.06347656 0.0625 -0.040527344 0.045410156 -0.05053711 -0.049316406
-0.07470703 -0.076660156 0.080566406 -0.10205078 0.09375 -0.12158203 0.028686523 -0.00680542
0.064453125 -0.0625 -0.06542969 0.12011719 -0.09765625 -0.03149414 0.078125 0.114746094
-0.014709473 0.11230469 0.045654297 0.037841797 0.09423828 0.068847656 -0.109375 -0.008728027
-0.115722656 -0.08203125 -0.03930664 0.00289917 0.12207031 -0.017944336 0.09814453 0.11767578
-0.009155273 0.12011719 0.02758789 0.018554688 0.01953125 0.07324219 0.034179688 -0.015197754
-0.09326172 0.076171875 -0.0016098022 0.12011719 -0.083984375 -0.0859375 -0.037109375 0.08886719
-0.038085938 0.028808594 0.00390625 -0.049072266 -0.03564453 -0.08642578 -0.061523438 0.059814453
-0.083496094 0.095703125 0.12011719 -0.03125 -0.11279297 0.036376953 0.026367188 -0.091308594
-0.055664062 0.12158203 0.05810547 0.09667969 -0.041748047 0.040039062 -0.06542969 0.03515625
0.11279297 0.123046875 0.083496094 -0.08154297 0.03149414 0.023071289 0.036865234 -0.017578125
0.03173828 -0.091796875 0.018554688 -0.095214844 -0.03955078 -0.11279297 0.096191406 -0.09667969
-0.037353516 0.12402344 0.08544922 0.12451172 -0.041992188 -0.100097656 -0.106933594 -0.026733398
-0.087890625 0.045166016 -0.048095703 0.12207031 0.0031433105 -0.03149414 -0.056640625 -0.032470703
0.11230469 0.038330078 0.056152344 -0.043945312 -0.119140625 -0.018310547 0.096191406 0.08935547
0.036865234 -0.096191406 0.055664062 -0.08203125 0.09667969 0.07470703 0.092285156 -0.095703125
-0.018188477 -0.063964844 0.09716797 0.076171875 0.122558594 0.022338867 -0.036376953 0.1015625
0.08642578 -0.032958984 -0.03149414 -0.040771484 0.071777344 0.08105469 0.08154297 -0.06591797
0.014526367 0.033935547 0.12158203 0.019042969 -0.076660156 -0.10644531 0.111328125 -0.114746094
-0.04345703 -0.0625 -0.07128906 -0.0625 0.010864258 -0.107910156 -0.04296875 0.056152344
0.0625 0.111816406 0.0625 -0.10595703 0.06689453 -0.040771484 -0.0625 0.0625
0.12451172 0.106933594 -0.0625 0.05444336 -0.026123047 -0.038085938 0.08886719 0.041748047
0.079589844 0.057128906 0.012878418 0.083496094 0.0625 0.10986328 -0.072753906 0.09326172
-0.083496094 -0.1015625 -0.103515625 0.0625 0.0625 -0.060546875 -0.091308594 -0.040527344
-0.084472656 0.04345703 0.030517578 0.0625 0.103027344 -0.03881836 -0.080566406 -0.08154297
-0.063964844 0.09033203 0.095703125 -0.04638672 0.0625 -0.06640625 -0.037109375 -0.111816406
0.0625 0.04663086 -0.09033203 -0.033691406 -0.0625 0.06689453 0.088378906 -0.053710938
00000000: 80bd 00bd ee3d 59bd bbbd 933d 943d 803d
00000010: 803d 983d 803d 67bd 5a3d 45bd e23d e53d
00000020: 0cbd 80bd 88bd af3d 2fbd de3d 5f3d ca3d
00000030: 833d ba3d 29bd 813d e3bd 983d ccbc aabd
00000040: 64bd e1bd cf3d 803d 803d 80bd 853d 9f3d
00000050: 96bd cd3d 82bd 803d 26bd 3a3d 4fbd 4abd
00000060: 99bd 9dbd a53d d1bd c03d f9bd eb3c dfbb
00000070: 843d 80bd 86bd f63d c8bd 01bd a03d eb3d
00000080: 71bc e63d 3b3d 1b3d c13d 8d3d e0bd 0fbc
00000090: edbd a8bd 21bd 3e3b fa3d 93bc c93d f13d
000000a0: 16bc f63d e23c 983c a03c 963d 0c3d 79bc
000000b0: bfbd 9c3d d3ba f63d acbd b0bd 18bd b63d
000000c0: 1cbd ec3c 803b 49bd 12bd b1bd 7cbd 753d
000000d0: abbd c43d f63d 00bd e7bd 153d d83c bbbd
000000e0: 64bd f93d 6e3d c63d 2bbd 243d 86bd 103d
000000f0: e73d fc3d ab3d a7bd 013d bd3c 173d 90bc
00000100: 023d bcbd 983c c3bd 22bd e7bd c53d c6bd
00000110: 19bd fe3d af3d ff3d 2cbd cdbd dbbd dbbc
00000120: b4bd 393d 45bd fa3d 4e3b 01bd 68bd 05bd
00000130: e63d 1d3d 663d 34bd f4bd 96bc c53d b73d
00000140: 173d c5bd 643d a8bd c63d 993d bd3d c4bd
00000150: 95bc 83bd c73d 9c3d fb3d b73c 15bd d03d
00000160: b13d 07bd 01bd 27bd 933d a63d a73d 87bd
00000170: 6e3c 0b3d f93d 9c3c 9dbd dabd e43d ebbd
00000180: 32bd 80bd 92bd 80bd 323c ddbd 30bd 663d
00000190: 803d e53d 803d d9bd 893d 27bd 80bd 803d
000001a0: ff3d db3d 80bd 5f3d d6bc 1cbd b63d 2b3d
000001b0: a33d 6a3d 533c ab3d 803d e13d 95bd bf3d
000001c0: abbd d0bd d4bd 803d 803d 78bd bbbd 26bd
000001d0: adbd 323d fa3c 803d d33d 1fbd a5bd a7bd
000001e0: 83bd b93d c43d 3ebd 803d 88bd 18bd e5bd
000001f0: 803d 3f3d b9bd 0abd 80bd 893d b53d 5cbd

layer_11.gate_v.net.0.bias bf16 [4]
-0.103027344 -0.1015625 0.11328125 0.0625
00000000: d3bd d0bd e83d 803d

layer_11.gate_v.net.2.weight bf16 [4, 4]
0.0625 -0.22460938 -0.27929688 0.24902344 0.0625 0.08544922 -0.40820312 0.40625
0.32617188 0.49609375 0.38671875 0.21484375 0.06347656 -0.421875 -0.36328125 0.06347656
00000000: 803d 66be 8fbe 7f3e 803d af3d d1be d03e
00000010: a73e fe3e c63e 5c3e 823d d8be babe 823d

layer_11.gate_v.net.2.bias bf16 [4]
0.29492188 0.0625 0.24804688 0.0625
00000000: 973e 803d 7e3e 803d
