empty_dirs_for_codex/outputs/runs_fast_paper_core/fast_paper_sweep_core_v1/main_contr_loto_holdout_overwrite/checkpoints/repair_step_1500.pt (torch, 43513 bytes, 48 tensors)

layer_8.Wk bf16 [64, 8]
00000000: 4abe 81bd 82be ee3d 553e 80bd 93be ce3d
00000010: 063d 9b3d adbd 61be 6fbe ae3d bbbd 853e
00000020: 013d 463d 433e 8a3e d73d 793e 6d3e 923e
00000030: 76be f03d 07be 55be 6c3d 583e 803e e93c
00000040: f53d 803d 54bd 95bd 09be 3abe 87be 0d3d
00000050: 8b3e d23d 4a3d 7bbe 80bd 8abe 80bd cfbd
00000060: 6b3e 3b3e 7cbe 273e 98bd 91be ccbd 0e3d
00000070: 223e 1cbd 603e 84be 01be 93be 3fbd 53be
00000080: 2b3e 333e f6bd 893e 4dbe 60be 80bd 823d
00000090: 853e 49be 673e ee3d 10be 42be c53d 2d3c
000000a0: 6d3e 153d 88be b8bd e4bd 2abe 803d fb3d
000000b0: 38be fdbb 00be 393e 643e 743e 913e 0dbe
000000c0: 4fbe 543e ff3d 803d 26be 6cbe c4bd 743e
000000d0: 15be 3cbe da3d 7b3e 253d 9c3d 403e abbd
000000e0: 85be 80bd 26be e93d 1bbe 8a3e 6d3c 6b3e
000000f0: 52be 7dbe 0dbe 92bd 613e 66be e3bd b03d
00000100: 80bd 02be 433e 27be 0c3e 8d3d 26be 803d
00000110: b83d c03b b7bd 103e febd 88bd 80bd 803d
00000120: 803d 833d 7bbe 3abe 993d 753e 41be a8bd
00000130: 3cbe 66be 83be af3d 5e3d 18be 903e 9f3c
00000140: 00bd 943e 53be c5bd 6cbe bd3d 88bd 91be
00000150: 803d 803d 873e 48bd 58be 293e 293e ef3d
00000160: f2bd 2f3e c3bd 453b cb3d f8bd 833e 843e
00000170: 0bbd 403d 1dbe 4a3e e5bd 803e 803d 693e
00000180: 183e 573e 9ebd 77bd 84be 2c3e 18bd 44be
00000190: afbd 82be 6f3e 263d 82bd 543c 80bd 373e
000001a0: 2dbe 6d3e 16be 803d 80bd 063d 0bbd f13d
000001b0: 30be 36be 3e3e 72be 5e3e 90be 80bd f03d
000001c0: 043e 00bd 803d 8e3e 67be 80bd 3a3e 893e
000001d0: 81bd 853e ea3d 803d 5f3e 223e 84be d4bc
000001e0: 89be 40be 803d 1c3d 903e a0bd 6d3e 8b3e
000001f0: 583d 893e 10bd d73d 803d 303e db3d 21bd
-0.19726562 -0.06298828 -0.25390625 0.11621094 0.20800781 -0.0625 -0.28710938 0.10058594
0.032714844 0.075683594 -0.084472656 -0.21972656 -0.23339844 0.08496094 -0.091308594 0.25976562
0.03149414 0.048339844 0.19042969 0.26953125 0.10498047 0.24316406 0.23144531 0.28515625
-0.24023438 0.1171875 -0.13183594 -0.20800781 0.057617188 0.2109375 0.25 0.028442383
0.119628906 0.0625 -0.051757812 -0.072753906 -0.13378906 -0.18164062 -0.26367188 0.034423828
0.27148438 0.10253906 0.049316406 -0.24511719 -0.0625 -0.26953125 -0.0625 -0.10107422
0.22949219 0.18261719 -0.24609375 0.16308594 -0.07421875 -0.28320312 -0.099609375 0.03466797
0.15820312 -0.038085938 0.21875 -0.2578125 -0.12597656 -0.28710938 -0.04663086 -0.20605469
0.16699219 0.17480469 -0.12011719 0.26757812 -0.20019531 -0.21875 -0.0625 0.06347656
0.25976562 -0.19628906 0.22558594 0.11621094 -0.140625 -0.18945312 0.096191406 0.010559082
0.23144531 0.036376953 -0.265625 -0.08984375 -0.111328125 -0.16601562 0.0625 0.122558594
-0.1796875 -0.0077209473 -0.125 0.18066406 0.22265625 0.23828125 0.28320312 -0.13769531
-0.20214844 0.20703125 0.12451172 0.0625 -0.16210938 -0.23046875 -0.095703125 0.23828125
-0.14550781 -0.18359375 0.10644531 0.24511719 0.040283203 0.076171875 0.1875 -0.083496094
-0.25976562 -0.0625 -0.16210938 0.11376953 -0.15136719 0.26953125 0.014465332 0.22949219
-0.20507812 -0.24707031 -0.13769531 -0.07128906 0.21972656 -0.22460938 -0.110839844 0.0859375
-0.0625 -0.12695312 0.19042969 -0.16308594 0.13671875 0.068847656 -0.16210938 0.0625
0.08984375 0.005859375 -0.08935547 0.140625 -0.12402344 -0.06640625 -0.0625 0.0625
0.0625 0.063964844 -0.24511719 -0.18164062 0.07470703 0.23925781 -0.18847656 -0.08203125
-0.18359375 -0.22460938 -0.25585938 0.08544922 0.05419922 -0.1484375 0.28125 0.01940918
-0.03125 0.2890625 -0.20605469 -0.096191406 -0.23046875 0.092285156 -0.06640625 -0.28320312
0.0625 0.0625 0.26367188 -0.048828125 -0.2109375 0.16503906 0.16503906 0.11669922
-0.11816406 0.17089844 -0.095214844 0.0030059814 0.099121094 -0.12109375 0.25585938 0.2578125
-0.033935547 0.046875 -0.15332031 0.19726562 -0.111816406 0.25 0.0625 0.22753906
0.1484375 0.20996094 -0.07714844 -0.060302734 -0.2578125 0.16796875 -0.037109375 -0.19140625
-0.08544922 -0.25390625 0.23339844 0.040527344 -0.06347656 0.012939453 -0.0625 0.17871094
-0.16894531 0.23144531 -0.14648438 0.0625 -0.0625 0.032714844 -0.033935547 0.11767578
-0.171875 -0.17773438 0.18554688 -0.23632812 0.21679688 -0.28125 -0.0625 0.1171875
0.12890625 -0.03125 0.0625 0.27734375 -0.22558594 -0.0625 0.18164062 0.26757812
-0.06298828 0.25976562 0.11425781 0.0625 0.21777344 0.15820312 -0.2578125 -0.025878906
-0.26757812 -0.1875 0.0625 0.038085938 0.28125 -0.078125 0.23144531 0.27148438
0.052734375 0.26757812 -0.03515625 0.10498047 0.0625 0.171875 0.106933594 -0.03930664

layer_8.Uk bf16 [64, 8]
00000000: 86be 523e 1ebd debb 4bbd 2cbd 7fbc 59be
00000010: bfbc e33d 52be 8dbe 173d 9e3d a6bd 3abe
00000020: eb3c 103e 2cbe 8abe 8f3e 8bbe 3ebc 0b3e
00000030: 38be 183d 08bd 373c 8b3d 0ebe 4a3e 213d
00000040: 923e 803d 12be 0cbd 8c3e 43be 033d 2abe
00000050: 16be 5f3e 823e 293e 47be 19be 79be c6bd
00000060: b13d 4f3e 02be 28be c53d 703e 01bd 553e
00000070: 7b3e 003d 893e 583e 9f3d 80be b7bd 0c3d
00000080: 05bd 81be 613e 4a3e 80bd 70be 41be 93be
00000090: d1bd 353e 61be 463e 59bd 62bd c9bd b1bc
000000a0: d1bd 13be 06bd 70be d23d 59be 623e 4e3e
000000b0: d5bc 0b3d a1bb ca3d 80bd 3e3d 7e3c 40be
000000c0: e13d 6fbe 003d 8b3e a4bc 003d 083e 883e
000000d0: ea3d b5bd 483e e43c 803d 2f3e a6bc e53d
000000e0: 1fbd 183e 543e 12bc fb3c 6bbe 21be e33c
000000f0: 833e 803d d03d 26be 873d 4cbe 13be 87be
00000100: 483e 43be 2bbe 3e3e 5d3e 1d3e 7d3e 41be
00000110: 973d 13be 85be 24be ddbd c03b 043b 0abd
00000120: 87be 623e 8c3e 223e 913e a2bd 283a 7cbe
00000130: 07bd 58be 89be 39bd 08be 6abe 173d 1d3d
00000140: 863e 4ebd 873d 703e 92bd 513e 8a3e f9bd
00000150: 70be 233e 11be 79be 86be 8b3e 8d3e 62be
00000160: 02be 9d3d feba 20bd 59bd 8ebd 53be e6bc
00000170: 083d 893e 37b9 f83d 463e 8ebe 0a3d 933e
00000180: cfbd a93d c73c 32bd 373e 12bd 40be 0f3e
00000190: bfbd 45bc 113e d6bd 63be 43be 8a3e c8bd
000001a0: 2c3e 45be 513e 773e a4bb c2bd 3f3e e43d
000001b0: d0bd 73be 383e 08be ed3d 8dbe 88be 2d3e
000001c0: b7bd 803e 143d 4c3e d1bb 853e 69be cdbd
000001d0: db3b 79be 2e3c 56be 943d 823d 89be 84be
000001e0: 91be 803d bebc 1ebd 533e 87be dd3d 5b3e
000001f0: 83be d53a 723e 043e 80bd 58bc 493e 903a
-0.26171875 0.20507812 -0.03857422 -0.0067749023 -0.049560547 -0.041992188 -0.015563965 -0.21191406
-0.02331543 0.110839844 -0.20507812 -0.27539062 0.036865234 0.07714844 -0.08105469 -0.18164062
0.028686523 0.140625 -0.16796875 -0.26953125 0.27929688 -0.27148438 -0.01159668 0.13574219
-0.1796875 0.037109375 -0.033203125 0.011169434 0.067871094 -0.13867188 0.19726562 0.03930664
0.28515625 0.0625 -0.14257812 -0.034179688 0.2734375 -0.19042969 0.031982422 -0.16601562
-0.14648438 0.21777344 0.25390625 0.16503906 -0.19433594 -0.14941406 -0.24316406 -0.09667969
0.08642578 0.20214844 -0.12695312 -0.1640625 0.096191406 0.234375 -0.03149414 0.20800781
0.24511719 0.03125 0.26757812 0.2109375 0.07763672 -0.25 -0.08935547 0.034179688
-0.032470703 -0.25195312 0.21972656 0.19726562 -0.0625 -0.234375 -0.18847656 -0.28710938
-0.10205078 0.17675781 -0.21972656 0.19335938 -0.052978516 -0.05517578 -0.09814453 -0.021606445
-0.10205078 -0.14355469 -0.032714844 -0.234375 0.10253906 -0.21191406 0.22070312 0.20117188
-0.026000977 0.033935547 -0.00491333 0.09863281 -0.0625 0.04638672 0.01550293 -0.1875
0.10986328 -0.23339844 0.03125 0.27148438 -0.020019531 0.03125 0.1328125 0.265625
0.11425781 -0.088378906 0.1953125 0.027832031 0.0625 0.17089844 -0.020263672 0.111816406
-0.03881836 0.1484375 0.20703125 -0.008911133 0.030639648 -0.22949219 -0.15722656 0.027709961
0.25585938 0.0625 0.1015625 -0.16210938 0.06591797 -0.19921875 -0.14355469 -0.26367188
0.1953125 -0.19042969 -0.16699219 0.18554688 0.21582031 0.15332031 0.24707031 -0.18847656
0.07373047 -0.14355469 -0.25976562 -0.16015625 -0.107910156 0.005859375 0.0020141602 -0.033691406
-0.26367188 0.22070312 0.2734375 0.15820312 0.28320312 -0.07910156 0.00064086914 -0.24609375
-0.032958984 -0.2109375 -0.26757812 -0.045166016 -0.1328125 -0.22851562 0.036865234 0.038330078
0.26171875 -0.05029297 0.06591797 0.234375 -0.07128906 0.20410156 0.26953125 -0.12158203
-0.234375 0.15917969 -0.14160156 -0.24316406 -0.26171875 0.27148438 0.27539062 -0.22070312
-0.12695312 0.076660156 -0.0019378662 -0.0390625 -0.052978516 -0.06933594 -0.20605469 -0.028076172
0.033203125 0.26757812 -0.0001745224 0.12109375 0.19335938 -0.27734375 0.033691406 0.28710938
-0.10107422 0.08251953 0.024291992 -0.04345703 0.17871094 -0.03564453 -0.1875 0.13964844
-0.09326172 -0.012023926 0.14160156 -0.10449219 -0.22167969 -0.19042969 0.26953125 -0.09765625
0.16796875 -0.19238281 0.20410156 0.24121094 -0.005004883 -0.09472656 0.18652344 0.111328125
-0.1015625 -0.23730469 0.1796875 -0.1328125 0.115722656 -0.27539062 -0.265625 0.16894531
-0.08935547 0.25 0.036132812 0.19921875 -0.006378174 0.25976562 -0.22753906 -0.100097656
0.0066833496 -0.24316406 0.010620117 -0.20898438 0.072265625 0.06347656 -0.26757812 -0.2578125
-0.28320312 0.0625 -0.02319336 -0.03857422 0.20605469 -0.26367188 0.107910156 0.21386719
-0.25585938 0.001625061 0.23632812 0.12890625 -0.0625 -0.013183594 0.19628906 0.0010986328

layer_8.Wv bf16 [64, 8]
00000000: 19bd 893e d5bd 7ebe a2bd d73d 0e3e 853e
00000010: 8f3d 293e 90bb aabd 8f3b 823e 833d bf3d
00000020: 02bd 22be f13c c9bd 8e3e 313c 0abd 813e
00000030: bbbd 173e 14be 16be 123e 86ba 4d3e 803d
00000040: a93c 573e 00bd 2cbe 7a3e d2bd 7fbe 863e
00000050: 71be 9dbd 6b3e 46be 5e3e 893e 1a3e 3a3d
00000060: 96bd 4f3e 55be e73c 81be e5bd 2f3d a7bd
00000070: e63d e1bd 63be 6e3e a93d a53b 80bd 52be
00000080: 88bc 6a3e 19be 75be fb3d 33be 09be 903e
00000090: 86be 2cbe 223e 04bd bb3d 803e 793b 60be
000000a0: 7abc 8bbe 00bd 553c 37be 2f3e ab3d 0d3c
000000b0: 353e 2e3e d53d 843d d6bc 80bc 223e 45be
000000c0: a23d 7f3e 953d c4bd 293e 63ba 05be 56be
000000d0: cf3d d5ba 91be 353e 723e fcbd 5ebe 53bd
000000e0: b8bd 7c3d 70be 76be 08be 63be b63d 713e
000000f0: 783d 0c3e 923d c7bd 3cbe b83d d33c 85be
00000100: 903e 54be 133e 86bc 7f3e e9bd 9f3d 60be
00000110: 64be 08bc 893e 1abd fb3b 243e dabc 133d
00000120: 18be 2abe 903e 34be 7bbe c23d a03c 9e3d
00000130: 55be 263e 1d3e b6bd 17be e53d b33d 1cbe
00000140: 26bd 9bb9 12be 8b3c 853d 273e 62be 5d3e
00000150: 8a3b 023d ea3d dc3c 84be 82be 003d 8f3e
00000160: 66be 8b3e 05be 253e 11bd 76be 603e 55be
00000170: 8fbd 8dbd 703e 6dbe 89be 93bb aabd 36be
00000180: 3fbe 86be 753e 68be be3d 213e 66bc b43d
00000190: f53d 87be 543e 8c3d 8b3e 18be 13be 843e
000001a0: 93be 31be 4c3e f33d 57be 2ebe 583e de3d
000001b0: 8bbd 6ebe 85be 613e 07bd 1b3e 80bd 8e3e
000001c0: c03d 8d3d 283e 1ebe 93be 4d3e 993d 07bd
000001d0: 0d3d 003d a1bd 60be 953c 223d 5e3e 29be
000001e0: e33d 8fbe 8abe 223e 3c3e 2ebc 0cbd 8d3e
000001f0: 6ebe be3c 5ebe b53c 0fbe d73d dc3d 5f3c
-0.037353516 0.26757812 -0.104003906 -0.24804688 -0.07910156 0.10498047 0.13867188 0.25976562
0.06982422 0.16503906 -0.0043945312 -0.08300781 0.0043640137 0.25390625 0.063964844 0.09326172
-0.03173828 -0.15820312 0.029418945 -0.09814453 0.27734375 0.010803223 -0.033691406 0.25195312
-0.091308594 0.14746094 -0.14453125 -0.14648438 0.14257812 -0.0010223389 0.20019531 0.0625
0.020629883 0.20996094 -0.03125 -0.16796875 0.24414062 -0.10253906 -0.24902344 0.26171875
-0.23535156 -0.076660156 0.22949219 -0.19335938 0.21679688 0.26757812 0.15039062 0.045410156
-0.07324219 0.20214844 -0.20800781 0.028198242 -0.25195312 -0.111816406 0.04272461 -0.08154297
0.11230469 -0.10986328 -0.22167969 0.23242188 0.08251953 0.0050354004 -0.0625 -0.20507812
-0.016601562 0.22851562 -0.14941406 -0.23925781 0.122558594 -0.17480469 -0.13378906 0.28125
-0.26171875 -0.16796875 0.15820312 -0.032226562 0.091308594 0.25 0.0037994385 -0.21875
-0.015258789 -0.27148438 -0.03125 0.013000488 -0.17871094 0.17089844 0.083496094 0.008605957
0.17675781 0.16992188 0.104003906 0.064453125 -0.026123047 -0.015625 0.15820312 -0.19238281
0.07910156 0.24902344 0.072753906 -0.095703125 0.16503906 -0.0008659363 -0.12988281 -0.20898438
0.10107422 -0.001625061 -0.28320312 0.17675781 0.23632812 -0.123046875 -0.21679688 -0.051513672
-0.08984375 0.061523438 -0.234375 -0.24023438 -0.1328125 -0.22167969 0.08886719 0.23535156
0.060546875 0.13671875 0.07128906 -0.09716797 -0.18359375 0.08984375 0.025756836 -0.25976562
0.28125 -0.20703125 0.14355469 -0.016357422 0.24902344 -0.11376953 0.07763672 -0.21875
-0.22265625 -0.008300781 0.26757812 -0.037597656 0.007659912 0.16015625 -0.026611328 0.035888672
-0.1484375 -0.16601562 0.28125 -0.17578125 -0.24511719 0.09472656 0.01953125 0.07714844
-0.20800781 0.16210938 0.15332031 -0.08886719 -0.14746094 0.111816406 0.087402344 -0.15234375
-0.040527344 -0.00029563904 -0.14257812 0.016967773 0.064941406 0.16308594 -0.22070312 0.21582031
0.004211426 0.03173828 0.11425781 0.026855469 -0.2578125 -0.25390625 0.03125 0.27929688
-0.22460938 0.27148438 -0.12988281 0.16113281 -0.03540039 -0.24023438 0.21875 -0.20800781
-0.06982422 -0.068847656 0.234375 -0.23144531 -0.26757812 -0.004486084 -0.08300781 -0.17773438
-0.18652344 -0.26171875 0.23925781 -0.2265625 0.09277344 0.15722656 -0.014038086 0.087890625
0.119628906 -0.26367188 0.20703125 0.068359375 0.27148438 -0.1484375 -0.14355469 0.2578125
-0.28710938 -0.17285156 0.19921875 0.118652344 -0.20996094 -0.16992188 0.2109375 0.10839844
-0.067871094 -0.23242188 -0.25976562 0.21972656 -0.032958984 0.15136719 -0.0625 0.27734375
0.09375 0.068847656 0.1640625 -0.15429688 -0.28710938 0.20019531 0.07470703 -0.032958984
0.034423828 0.03125 -0.07861328 -0.21875 0.018188477 0.03955078 0.21679688 -0.16503906
0.110839844 -0.27929688 -0.26953125 0.15820312 0.18359375 -0.010620117 -0.034179688 0.27539062
-0.23242188 0.02319336 -0.21679688 0.022094727 -0.13964844 0.10498047 0.107421875 0.01361084

layer_8.Uv bf16 [64, 8]
00000000: bdbd d83d e8bd 6ebe 94bd 90be 91be 07bd
00000010: fa3c 033e 803e e2bd 373e 553e 65be 663e
00000020: 853e 523d efbd 1b3e 463e 1a3e 303d 9f3c
00000030: 003d 203e 8e3c 13be 5bbe 893d 113d 8a3e
00000040: 9c3c 943e eabd 50be 8f3c d8bd 58bd b6bd
00000050: 873e 033e acbc f63c 8d3e 033e 94bd 8dbe
00000060: 8dbe dfbd d5bc 353d 0c3e 063e fdbd 0f3e
00000070: 213e 9d3d 6e3e 55be fe3b 7dbd 853e 67be
00000080: c23d 54be 47be 86be 05bd 873e 15be 38bd
00000090: 71be 55be e93d 47bd e73c 27be 383e 62be
000000a0: 08be 403e 023e 88be 90be 2bbe 8ebe 4f3e
000000b0: 10be eb3d 70be 8e3d 8a3e 3f3e 843e c03c
000000c0: 7cbd 75be f9bd 34be 9fbc fdbc 93bd f4bd
000000d0: 903e caba 86be d2bd 233e 8bbe 8a3e 4e3c
000000e0: e33d 8cbd 40be 1f3e b33d 1fbe f33d 1bbe
000000f0: 59be 92be 5a3e 6f3e 4c3e 4c3e 873e 1d3d
00000100: 89be 3bbe 303e 6abe 46bc 80bd 80bd 86be
00000110: 753e 473d c33c d6bd 3bbd 523b 26be 753e
00000120: ed39 523c 51be 923e b7bd 3d3e 22be 5ebc
00000130: 9e3c 013d 003d 85bd 2bbe b8bd 62be 663e
00000140: e0bd 16bd 78be 5bbe 41be df3d 8a3e d83c
00000150: 643e 89be 93be e33d 22be 18be 6a3e 5a3b
00000160: 3d3e d7bd 8d3c 8e3e 123b 293e 853e 6d3e
00000170: 773e 16be d93d 803b 07be 25be 013e 143e
00000180: 2a3d 783e bf3d 703e 183e 803c d6bd 76be
00000190: 943e a4bd ec3d 273e 4dbe 0f3e 353e 19be
000001a0: e0bd 00bd 7b3e 883e f33c 0ebe 0c3e 003d
000001b0: 8ebc 70be abbc 963d d1bd 0fbc 703e 88be
000001c0: 843e 3dbe 83be 273d 8d3e 4ebe 88be 703e
000001d0: 0abe 80be 84be a6bd 8fbe 81be f73d 18bd
000001e0: b53d 1b3e 1d3d 783e 26be 3e3e 723c 673e
000001f0: 353e 5cbe 24be b9bd f1bc 293e f43d 3e3e
-0.092285156 0.10546875 -0.11328125 -0.23242188 -0.072265625 -0.28125 -0.28320312 -0.032958984
0.030517578 0.12792969 0.25 -0.11035156 0.17871094 0.20800781 -0.22363281 0.22460938
0.25976562 0.05126953 -0.11669922 0.15136719 0.19335938 0.15039062 0.04296875 0.01940918
0.03125 0.15625 0.017333984 -0.14355469 -0.21386719 0.06689453 0.03540039 0.26953125
0.019042969 0.2890625 -0.11425781 -0.203125 0.017456055 -0.10546875 -0.052734375 -0.08886719
0.26367188 0.12792969 -0.020996094 0.030029297 0.27539062 0.12792969 -0.072265625 -0.27539062
-0.27539062 -0.10888672 -0.026000977 0.044189453 0.13671875 0.13085938 -0.123535156 0.13964844
0.15722656 0.076660156 0.23242188 -0.20800781 0.007751465 -0.061767578 0.25976562 -0.22558594
0.09472656 -0.20703125 -0.19433594 -0.26171875 -0.032470703 0.26367188 -0.14550781 -0.044921875
-0.23535156 -0.20800781 0.11376953 -0.048583984 0.028198242 -0.16308594 0.1796875 -0.22070312
-0.1328125 0.1875 0.12695312 -0.265625 -0.28125 -0.16699219 -0.27734375 0.20214844
-0.140625 0.114746094 -0.234375 0.06933594 0.26953125 0.18652344 0.2578125 0.0234375
-0.061523438 -0.23925781 -0.12158203 -0.17578125 -0.01940918 -0.030883789 -0.071777344 -0.119140625
0.28125 -0.0015411377 -0.26171875 -0.10253906 0.15917969 -0.27148438 0.26953125 0.012573242
0.110839844 -0.068359375 -0.1875 0.15527344 0.087402344 -0.15527344 0.118652344 -0.15136719
-0.21191406 -0.28515625 0.21289062 0.23339844 0.19921875 0.19921875 0.26367188 0.038330078
-0.26757812 -0.18261719 0.171875 -0.22851562 -0.012084961 -0.0625 -0.0625 -0.26171875
0.23925781 0.048583984 0.023803711 -0.10449219 -0.045654297 0.0032043457 -0.16210938 0.23925781
0.00045204163 0.012817383 -0.20410156 0.28515625 -0.08935547 0.18457031 -0.15820312 -0.013549805
0.01928711 0.03149414 0.03125 -0.064941406 -0.16699219 -0.08984375 -0.22070312 0.22460938
-0.109375 -0.036621094 -0.2421875 -0.21386719 -0.18847656 0.10888672 0.26953125 0.026367188
0.22265625 -0.26757812 -0.28710938 0.110839844 -0.15820312 -0.1484375 0.22851562 0.003326416
0.18457031 -0.10498047 0.017211914 0.27734375 0.0022277832 0.16503906 0.25976562 0.23144531
0.24121094 -0.14648438 0.10595703 0.00390625 -0.13183594 -0.16113281 0.12597656 0.14453125
0.041503906 0.2421875 0.09326172 0.234375 0.1484375 0.015625 -0.10449219 -0.24023438
0.2890625 -0.080078125 0.115234375 0.16308594 -0.20019531 0.13964844 0.17675781 -0.14941406
-0.109375 -0.03125 0.24511719 0.265625 0.029663086 -0.13867188 0.13671875 0.03125
-0.017333984 -0.234375 -0.020874023 0.07324219 -0.10205078 -0.008728027 0.234375 -0.265625
0.2578125 -0.18457031 -0.25585938 0.040771484 0.27539062 -0.20117188 -0.265625 0.234375
-0.13476562 -0.25 -0.2578125 -0.08105469 -0.27929688 -0.25195312 0.12060547 -0.037109375
0.088378906 0.15136719 0.038330078 0.2421875 -0.16210938 0.18554688 0.014770508 0.22558594
0.17675781 -0.21484375 -0.16015625 -0.09033203 -0.029418945 0.16503906 0.119140625 0.18554688

layer_8.gate_k.net.0.weight bf16 [8, 64]
00000000: f1bd 6f3c 80bd 80bd e2bd 3c3d e8bd 2bbd
00000010: 803d 3a3d 913d 803d 873d a43d 80bd 423d
00000020: 613d c33c 88bd cc3b 80bd 5bbd 80bd c63c
00000030: f33d 363d 80bd 80bd 923d b2bd 80bd 2ebd
00000040: 943d 82bd 803d 463d b03d 18bd ea3d d9bd
00000050: 80bd ffbd 363d 81bd 80bd 803d 80bd debd
00000060: c53d 9e3d 813d cc3d 803d 883d d73d 803d
00000070: c8bd 81bd 80bd 18bd 0f3d 933d 803d bdbd
00000080: 6d3d 353d 9a3d 81bd 4f3d 81bd 7cbd 4cbd
00000090: f9bd e43d 8b3d 803d a2bd 80bd 923d b8bd
000000a0: 823d 10bd a8bd 83bd c1bd ed3d 893d edbd
000000b0: 8dbd 233d 80bd 80bd d1bd 89bd 013d c3bd
000000c0: 563d 61bd 863d 1dbd 803d 813d 813d 24bd
000000d0: c33d fa3d 803d 80bd dfbd fdbd 5dbd 49bd
000000e0: 02bd 78bd f23d f63d 36bb 743d 1ebd 803d
000000f0: f4bd 80bd f23d cbbd 733c 803d d0bd dbbd
00000100: bf3d 10bd 953d 803d 06bd abbd 06bd a93d
00000110: 433d 4cbd 9c3c c43d e0bd a43d 11bd 36bd
00000120: 483d d5bd 013d f53d 423d 63bd 17bd ca3d
00000130: ccbc ae3d a5bd 483d cf3c 3b3c ee3d 8e3d
00000140: b03d 783d 423c c93c e2bd d8bd 9fbd a6bd
00000150: 803d 233d 16bd c3bd fc3d c03d 763d fd3d
00000160: 88bd 92bd 95bd 0b3d e2bd cb3d 79bb 223d
00000170: 8dbd 113d 5a3d 0e3c f23d 79bd 2e3d aebd
00000180: c4bc 0dbd 663d b33d 00bd e8bc 423d c93d
00000190: 34bd b93d 023d d33d ff3d af3d 933d 123d
000001a0: 80bd f13c 5c3d 14bd aa3c 963d edbd e9bd
000001b0: 99bd d5bc 4bbb 303d 3abd a9bd 803d ad3d
000001c0: 9abd e03d 17bd fc3d ebbd f5bd 033d efbd
000001d0: d2bd 823d 553d e9bd b83d 7fbb be3d 96bd
000001e0: f3bd aabd 233d 00be dcbc 7fbd 7dbd 45bd
000001f0: 99bc fabd 843d 9dbd 9c3d eb3d 39bd 13bd
-0.11767578 0.014587402 -0.0625 -0.0625 -0.11035156 0.045898438 -0.11328125 -0.041748047
0.0625 0.045410156 0.07080078 0.0625 0.06591797 0.080078125 -0.0625 0.04736328
0.05493164 0.023803711 -0.06640625 0.006225586 -0.0625 -0.053466797 -0.0625 0.024169922
0.118652344 0.044433594 -0.0625 -0.0625 0.07128906 -0.08691406 -0.0625 -0.04248047
0.072265625 -0.06347656 0.0625 0.048339844 0.0859375 -0.037109375 0.11425781 -0.10595703
-0.0625 -0.12451172 0.044433594 -0.06298828 -0.0625 0.0625 -0.0625 -0.10839844
0.096191406 0.07714844 0.06298828 0.099609375 0.0625 0.06640625 0.10498047 0.0625
-0.09765625 -0.06298828 -0.0625 -0.037109375 0.03491211 0.071777344 0.0625 -0.092285156
0.057861328 0.044189453 0.07519531 -0.06298828 0.05053711 -0.06298828 -0.061523438 -0.049804688
-0.12158203 0.111328125 0.067871094 0.0625 -0.07910156 -0.0625 0.07128906 -0.08984375
0.06347656 -0.03515625 -0.08203125 -0.063964844 -0.09423828 0.115722656 0.06689453 -0.115722656
-0.068847656 0.039794922 -0.0625 -0.0625 -0.10205078 -0.06689453 0.03149414 -0.095214844
0.052246094 -0.05493164 0.06542969 -0.038330078 0.0625 0.06298828 0.06298828 -0.040039062
0.095214844 0.12207031 0.0625 -0.0625 -0.10888672 -0.123535156 -0.053955078 -0.049072266
-0.03173828 -0.060546875 0.11816406 0.12011719 -0.0027770996 0.059570312 -0.03857422 0.0625
-0.119140625 -0.0625 0.11816406 -0.099121094 0.014831543 0.0625 -0.1015625 -0.106933594
0.09326172 -0.03515625 0.072753906 0.0625 -0.032714844 -0.083496094 -0.032714844 0.08251953
0.047607422 -0.049804688 0.019042969 0.095703125 -0.109375 0.080078125 -0.03540039 -0.044433594
0.048828125 -0.104003906 0.03149414 0.119628906 0.04736328 -0.055419922 -0.036865234 0.09863281
-0.024902344 0.08496094 -0.080566406 0.048828125 0.025268555 0.011413574 0.11621094 0.06933594
0.0859375 0.060546875 0.01184082 0.024536133 -0.11035156 -0.10546875 -0.07763672 -0.08105469
0.0625 0.039794922 -0.036621094 -0.095214844 0.123046875 0.09375 0.060058594 0.123535156
-0.06640625 -0.07128906 -0.072753906 0.033935547 -0.11035156 0.099121094 -0.0037994385 0.03955078
-0.068847656 0.03540039 0.053222656 0.008666992 0.11816406 -0.060791016 0.04248047 -0.08496094
-0.023925781 -0.034423828 0.056152344 0.087402344 -0.03125 -0.028320312 0.04736328 0.09814453
-0.043945312 0.09033203 0.03173828 0.103027344 0.12451172 0.08544922 0.071777344 0.03564453
-0.0625 0.029418945 0.053710938 -0.036132812 0.020751953 0.07324219 -0.115722656 -0.11376953
-0.07470703 -0.026000977 -0.0030975342 0.04296875 -0.045410156 -0.08251953 0.0625 0.084472656
-0.07519531 0.109375 -0.036865234 0.123046875 -0.114746094 -0.119628906 0.031982422 -0.11669922
-0.10253906 0.06347656 0.052001953 -0.11376953 0.08984375 -0.0038909912 0.09277344 -0.07324219
-0.118652344 -0.08300781 0.039794922 -0.125 -0.026855469 -0.06225586 -0.061767578 -0.048095703
-0.018676758 -0.12207031 0.064453125 -0.076660156 0.076171875 0.114746094 -0.045166016 -0.035888672

layer_8.gate_k.net.0.bias bf16 [8]
00000000: d53d 973d babd 45bd 883d 80bd 81bd f93d
0.104003906 0.07373047 -0.09082031 -0.048095703 0.06640625 -0.0625 -0.06298828 0.12158203

layer_8.gate_k.net.2.weight bf16 [8, 8]
00000000: 7ebe 93be eb3d 193e 16bd 07bd 183e 803e
00000010: 2fbe c13d 05be 3bbe 3cbe 87be 993e 00be
00000020: dcbd a0bd 6cbe 6b3e e2bd 403e d23d b4be
00000030: a6be b0be a23e a53e f83d 16be ee3d 89be
00000040: 80bd 97bd 783e 003d 36bd 79bd ae3e 7dbe
00000050: 243e a3be 853d 98be 303e a23e 2ebe a23e
00000060: a2be 2d3e 803d a6bd 80bd 113e 84bd afbe
00000070: 03be 9a3e 9cbe f4bd 153e 843e 88be 7bbe
-0.24804688 -0.28710938 0.114746094 0.14941406 -0.036621094 -0.032958984 0.1484375 0.25
-0.17089844 0.09423828 -0.12988281 -0.18261719 -0.18359375 -0.26367188 0.29882812 -0.125
-0.107421875 -0.078125 -0.23046875 0.22949219 -0.11035156 0.1875 0.10253906 -0.3515625
-0.32421875 -0.34375 0.31640625 0.32226562 0.12109375 -0.14648438 0.11621094 -0.26757812
-0.0625 -0.07373047 0.2421875 0.03125 -0.044433594 -0.060791016 0.33984375 -0.24707031
0.16015625 -0.31835938 0.064941406 -0.296875 0.171875 0.31640625 -0.16992188 0.31640625
-0.31640625 0.16894531 0.0625 -0.08105469 -0.0625 0.14160156 -0.064453125 -0.34179688
-0.12792969 0.30078125 -0.3046875 -0.119140625 0.14550781 0.2578125 -0.265625 -0.24511719

layer_8.gate_k.net.2.bias bf16 [8]
00000000: 5a3e 763e 6b3e 503e 9abe ef3d 80bd 80bd
0.21289062 0.24023438 0.22949219 0.203125 -0.30078125 0.11669922 -0.0625 -0.0625

layer_8.gate_v.net.0.weight bf16 [8, 64]
00000000: 65bd f83d 273d afbd 853d 7e3d a0bd 4fbd
00000010: a1bd 84bb 10bd 29bd 44bc 8bbd febd d3bc
00000020: f33d bfbd 033d 81bd 293d 803d 80bd d9bd
00000030: 59bc ca3a b93d 803d 933d a0bd efbd 9bbd
00000040: cebd f63c 80bd 01bd 5ebd 53bd 0dbd fb3d
00000050: 33bd d23d e63d 803d 213c 0f3d a8bd a43c
00000060: 75bd c4bd d9bd 80bd 913c 023d ed3c 2abd
00000070: 143d ac3d 003d 803d 053d 80bd acbd 33bd
00000080: f2bd f03c cbbd 06bd 46bd db3d d0bd 46bd
00000090: 383d 0a3d d13d a2b9 963d 9abd 9f3d 0d3d
000000a0: 7ebd 51bd 353d 853d bbbd c6bd 4c3d e3bd
000000b0: f1bd b93d 803d 043d db3b 473d b7bd d43d
000000c0: 07bd 183d f2bd 89bc 9cbd 903d f3bd e73d
000000d0: 91bc 27bd 27bd d1bd 033d d13d 0c3d b03c
000000e0: d5bd 193d bd3d d03d 373d 803d bbbd 80bd
000000f0: fa3d 0c3d 773d bebd d2bd ca3d 7dbd 8abd
00000100: 09bd a8bc 573d a03d e33d a93a 02bd c9bd
00000110: 82bd 84bc 83bd 0cbc f1bc 933d e0bd 07bd
00000120: 65bd 823c 8abd fcbd c6bc 033d de3d adbd
00000130: 26bb cf3d f73d 043d 73bd 973d b9bd d7bd
00000140: 9dbc 95bd 0fbd 58bd b9bd 43bd a7bd b4bd
00000150: 873d 00bd 61bd fbbd c43d 97bd d03d d9bd
00000160: 5ebd f63d 803d a4bd a8bd 81bd 443d 863d
00000170: 3cbd d7bd abbd a03d 0e3d 253d 843d a5bd
00000180: c1bd b6bd fc3d 313d 00bd fabd c6bc eebd
00000190: a8bd 093d e3bd 623d b63d 7fbd ba3d c73d
000001a0: ecbd 67bc 06bd f8bc 8f3d 83bd aabd f33c
000001b0: 0d3c 8bbd 7bbd e6bd 913d 83bd c5bc d4bd
000001c0: abbd 02bd fe3d 013d a3bb 31bd ccbc 673b
000001d0: c63d d8bc 843d 3ebc c03d 9fbd 83bd 70bd
000001e0: 20bd 19bd 723d bcbd b4bd 9b3d 803d 033d
000001f0: 493d 07bd 38bd 05bd ae39 38bd 9cbd 723d
-0.055908203 0.12109375 0.040771484 -0.08544922 0.064941406 0.06201172 -0.078125 -0.05053711
-0.07861328 -0.0040283203 -0.03515625 -0.041259766 -0.011962891 -0.067871094 -0.12402344 -0.025756836
0.118652344 -0.09326172 0.031982422 -0.06298828 0.041259766 0.0625 -0.0625 -0.10595703
-0.013244629 0.0015411377 0.09033203 0.0625 0.071777344 -0.078125 -0.11669922 -0.075683594
-0.10058594 0.030029297 -0.0625 -0.03149414 -0.05419922 -0.051513672 -0.034423828 0.122558594
-0.043701172 0.10253906 0.11230469 0.0625 0.00982666 0.03491211 -0.08203125 0.020019531
-0.059814453 -0.095703125 -0.10595703 -0.0625 0.017700195 0.03173828 0.028930664 -0.041503906
0.036132812 0.083984375 0.03125 0.0625 0.032470703 -0.0625 -0.083984375 -0.043701172
-0.11816406 0.029296875 -0.099121094 -0.032714844 -0.048339844 0.106933594 -0.1015625 -0.048339844
0.044921875 0.033691406 0.10205078 -0.00030899048 0.07324219 -0.07519531 0.07763672 0.034423828
-0.06201172 -0.05102539 0.044189453 0.064941406 -0.091308594 -0.09667969 0.049804688 -0.110839844
-0.11767578 0.09033203 0.0625 0.032226562 0.0066833496 0.048583984 -0.08935547 0.103515625
-0.032958984 0.037109375 -0.11816406 -0.016723633 -0.076171875 0.0703125 -0.118652344 0.11279297
-0.017700195 -0.040771484 -0.040771484 -0.10205078 0.031982422 0.10205078 0.034179688 0.021484375
-0.104003906 0.037353516 0.092285156 0.1015625 0.044677734 0.0625 -0.091308594 -0.0625
0.12207031 0.034179688 0.060302734 -0.09277344 -0.10253906 0.09863281 -0.061767578 -0.06738281
-0.033447266 -0.020507812 0.052490234 0.078125 0.110839844 0.0012893677 -0.03173828 -0.09814453
-0.06347656 -0.016113281 -0.063964844 -0.008544922 -0.029418945 0.071777344 -0.109375 -0.032958984
-0.055908203 0.01586914 -0.06738281 -0.123046875 -0.024169922 0.031982422 0.10839844 -0.084472656
-0.002532959 0.10107422 0.12060547 0.032226562 -0.059326172 0.07373047 -0.09033203 -0.10498047
-0.019165039 -0.072753906 -0.03491211 -0.052734375 -0.09033203 -0.047607422 -0.08154297 -0.087890625
0.06591797 -0.03125 -0.05493164 -0.122558594 0.095703125 -0.07373047 0.1015625 -0.10595703
-0.05419922 0.12011719 0.0625 -0.080078125 -0.08203125 -0.06298828 0.047851562 0.06542969
-0.045898438 -0.10498047 -0.083496094 0.078125 0.03466797 0.040283203 0.064453125 -0.080566406
-0.09423828 -0.08886719 0.123046875 0.04321289 -0.03125 -0.12207031 -0.024169922 -0.11621094
-0.08203125 0.033447266 -0.110839844 0.05517578 0.08886719 -0.06225586 0.09082031 0.09716797
-0.115234375 -0.014099121 -0.032714844 -0.030273438 0.06982422 -0.063964844 -0.08300781 0.029663086
0.008605957 -0.067871094 -0.061279297 -0.11230469 0.07080078 -0.063964844 -0.024047852 -0.103515625
-0.083496094 -0.03173828 0.12402344 0.03149414 -0.0049743652 -0.04321289 -0.024902344 0.0035247803
0.09667969 -0.026367188 0.064453125 -0.01159668 0.09375 -0.07763672 -0.063964844 -0.05859375
-0.0390625 -0.037353516 0.05908203 -0.091796875 -0.087890625 0.075683594 0.0625 0.031982422
0.049072266 -0.032958984 -0.044921875 -0.032470703 0.00033187866 -0.044921875 -0.076171875 0.05908203

layer_8.gate_v.net.0.bias bf16 [8]
00000000: ff3d b13d 80bd 8a3d c8bd 933d 823d fe3d
0.12451172 0.08642578 -0.0625 0.06738281 -0.09765625 0.071777344 0.06347656 0.12402344

layer_8.gate_v.net.2.weight bf16 [8, 8]
00000000: cebd 70be 973e b13e 01bd 9f3d b03e 99be
00000010: debd 85be 2d3e 723e 9cbe 80bd a4be 863e
00000020: 903e ec3d 18bd 80bd 723e f93d 8abe 80bd
00000030: 903e 6b3e 80be 8dbe 633e 933e 36be 62be
00000040: a83d 37be 3b3e 083e 8f3e 92bd d8bd 8ebe
00000050: a13e 393e 93bc 5dbe 973e a63e b5bd 52be
00000060: 1dbe 6d3e 9cbe 24be 19bd 6b3e 84bd 85be
00000070: 75be eb3d 04bd b6bd 643e 0a3e 81bd f6bd
-0.10058594 -0.234375 0.29492188 0.34570312 -0.03149414 0.07763672 0.34375 -0.29882812
-0.10839844 -0.25976562 0.16894531 0.23632812 -0.3046875 -0.0625 -0.3203125 0.26171875
0.28125 0.115234375 -0.037109375 -0.0625 0.23632812 0.12158203 -0.26953125 -0.0625
0.28125 0.22949219 -0.25 -0.27539062 0.22167969 0.28710938 -0.17773438 -0.22070312
0.08203125 -0.17871094 0.18261719 0.1328125 0.27929688 -0.07128906 -0.10546875 -0.27734375
0.31445312 0.18066406 -0.017944336 -0.21582031 0.29492188 0.32421875 -0.088378906 -0.20507812
-0.15332031 0.23144531 -0.3046875 -0.16015625 -0.037353516 0.22949219 -0.064453125 -0.25976562
-0.23925781 0.114746094 -0.032226562 -0.08886719 0.22265625 0.13476562 -0.06298828 -0.12011719

layer_8.gate_v.net.2.bias bf16 [8]
00000000: 6ebe b3be 2e3e 80bd 963e 02be afbe 46be
-0.23242188 -0.34960938 0.16992188 -0.0625 0.29296875 -0.12695312 -0.34179688 -0.19335938

layer_9.Wk bf16 [64, 8]
00000000: 0fbe 173e 90be 5fbe 33bd 153d c5bd 27be
00000010: 61be 393d 56be 7ebe 25be 37be 803d 3f3e
00000020: e53d 063e 863e 82bd a3bd 80bd 9b3d 1dbe
00000030: 803d 40be 373e 8fbe fb3d 803d a0bd 08be
00000040: 573e ab3d 83bd 8bbd 493d bdbd 013d 18be
00000050: 523d 7fbe aabd 6a3d 33be 993d 753d 193e
00000060: 2ebe da3d 6e3e 91be 353d 1b3e 453e 2a3e
00000070: 593d 36be 2f3e 6fbe 533d 5a3d 763e e8bd
00000080: f9bd c33d 51be 223e 3c3e 803d 143e 323e
00000090: 803d 853e 63be 243e d3bd 53be 13bd 58be
000000a0: 203e a13d 60bd 803d 42be 5d3e 50be 19be
000000b0: 6f3e ccbd 123d 85be 4fbe 81bd 3fbe 76bd
000000c0: 8e3e 453d 133d ed3d 823e 81bd 7dbe 81be
000000d0: 65be bd3d 363e 313e e4bd 80bd 873d cfbd
000000e0: 35bd 963d 65be e03d 39bd c2bd 18be 36be
000000f0: 74be 143e 80bd 573e 74be 47be a33d 39be
00000100: 5c3e 473e 92be 493e 20be 5f3e 80bd fe3d
00000110: 713d 6b3e 0e3d 68be 933e 80bd c1bd 823d
00000120: 57be 143d 393d 403d 783e b0bd 303d cd3d
00000130: 253e fbbd 793e 813d 84be f33d 36be 803d
00000140: 0b3e 80bd 52bd f3bc 893e 30be 04bd 3dbe
00000150: 8abb 1ebe e4bd 563e 6f3e 573e 9abd 72bc
00000160: 6cbe 253e 843e cebd 803d dcbc 93be 43be
00000170: 70be 1c3e 3abe af3d 03be 1ebe bbbd 6abd
00000180: 8f3e 6fbe 3a3e 8f3e 12be 4dbe b73d 46be
00000190: bfbd 903d d0bd 603e 933e e3bd 8b3e 78bd
000001a0: 24be 3cbe 863e 803d 2ebe 3c3d 2d3d 57be
000001b0: 03be 6a3e e23d 553e 29be 2f3e 91be b83d
000001c0: 673e 8cbc fbbd 733d f93d 80bd 14be ee3d
000001d0: 893e 823e a13d 5dbd 193d 743d 8ebe efbd
000001e0: 3b3e 4f3d ce3d 273e 6fbe 7abe b63d 2abd
000001f0: 653e 79be 463e 903e cf3c e53d 82be 023d
-0.13964844 0.14746094 -0.28125 -0.21777344 -0.043701172 0.036376953 -0.096191406 -0.16308594
-0.21972656 0.045166016 -0.20898438 -0.24804688 -0.16113281 -0.17871094 0.0625 0.18652344
0.111816406 0.13085938 0.26171875 -0.06347656 -0.079589844 -0.0625 0.075683594 -0.15332031
0.0625 -0.1875 0.17871094 -0.27929688 0.122558594 0.0625 -0.078125 -0.1328125
0.20996094 0.083496094 -0.063964844 -0.067871094 0.049072266 -0.092285156 0.03149414 -0.1484375
0.05126953 -0.24902344 -0.08300781 0.057128906 -0.17480469 0.07470703 0.059814453 0.14941406
-0.16992188 0.10644531 0.23242188 -0.28320312 0.044189453 0.15136719 0.19238281 0.16601562
0.052978516 -0.17773438 0.17089844 -0.23339844 0.051513672 0.053222656 0.24023438 -0.11328125
-0.12158203 0.095214844 -0.20410156 0.15820312 0.18359375 0.0625 0.14453125 0.17382812
0.0625 0.25976562 -0.22167969 0.16015625 -0.103027344 -0.20605469 -0.035888672 -0.2109375
0.15625 0.07861328 -0.0546875 0.0625 -0.18945312 0.21582031 -0.203125 -0.14941406
0.23339844 -0.099609375 0.03564453 -0.25976562 -0.20214844 -0.06298828 -0.18652344 -0.060058594
0.27734375 0.048095703 0.035888672 0.115722656 0.25390625 -0.06298828 -0.24707031 -0.25195312
-0.22363281 0.092285156 0.17773438 0.17285156 -0.111328125 -0.0625 0.06591797 -0.10107422
-0.044189453 0.07324219 -0.22363281 0.109375 -0.045166016 -0.09472656 -0.1484375 -0.17773438
-0.23828125 0.14453125 -0.0625 0.20996094 -0.23828125 -0.19433594 0.079589844 -0.18066406
0.21484375 0.19433594 -0.28515625 0.19628906 -0.15625 0.21777344 -0.0625 0.12402344
0.05883789 0.22949219 0.03466797 -0.2265625 0.28710938 -0.0625 -0.09423828 0.06347656
-0.20996094 0.036132812 0.045166016 0.046875 0.2421875 -0.0859375 0.04296875 0.100097656
0.16113281 -0.122558594 0.24316406 0.06298828 -0.2578125 0.118652344 -0.17773438 0.0625
0.13574219 -0.0625 -0.05126953 -0.029663086 0.26757812 -0.171875 -0.032226562 -0.18457031
-0.004211426 -0.15429688 -0.111328125 0.20898438 0.23339844 0.20996094 -0.07519531 -0.014770508
-0.23046875 0.16113281 0.2578125 -0.10058594 0.0625 -0.026855469 -0.28710938 -0.19042969
-0.234375 0.15234375 -0.18164062 0.08544922 -0.12792969 -0.15429688 -0.091308594 -0.057128906
0.27929688 -0.23339844 0.18164062 0.27929688 -0.14257812 -0.20019531 0.08935547 -0.19335938
-0.09326172 0.0703125 -0.1015625 0.21875 0.28710938 -0.110839844 0.27148438 -0.060546875
-0.16015625 -0.18359375 0.26171875 0.0625 -0.16992188 0.045898438 0.042236328 -0.20996094
-0.12792969 0.22851562 0.11035156 0.20800781 -0.16503906 0.17089844 -0.28320312 0.08984375
0.22558594 -0.017089844 -0.122558594 0.059326172 0.12158203 -0.0625 -0.14453125 0.11621094
0.26757812 0.25390625 0.07861328 -0.053955078 0.037353516 0.059570312 -0.27734375 -0.11669922
0.18261719 0.05053711 0.10058594 0.16308594 -0.23339844 -0.24414062 0.08886719 -0.041503906
0.22363281 -0.24316406 0.19335938 0.28125 0.025268555 0.111816406 -0.25390625 0.03173828

layer_9.Uk bf16 [64, 8]
00000000: f33d a7bc 3cbe 86bd 62bd ee3d 563d 02be
00000010: 0ebe 3dbd 3b3e f63d a03d 55bc 76be 13be
00000020: 10be 83be a43d 993d 91be 943d ebbd 4cbe
00000030: 1ebe c8bd 8c3e 87be 803d 72be 9cbd f93d
00000040: 5c3e 2c3e 57be 80bd 843d 0fbe 823e 893e
00000050: 40be 5fbd 2f3d 203e b93c 923e 86bd 2cbe
00000060: 47be 813e 303d 893d 43be 5f3e 133e 1d3e
00000070: bd3d 57be cabd a03d 39be 21be 0e3e 2cbe
00000080: 903e f33c d53d 00bd 38be 993d 34be 8abe
00000090: 783d 06be 17be 18be 53be 9d3c 103e a83d
000000a0: a73d 933e 033d 73be 843e 40be ec3d 363e
000000b0: 6c3e 373e 5abe 0ebe 263e 8a3e 813d d73d
000000c0: 56be 323e 1fbe 883e 8abe 58be 09bd 03bd
000000d0: dc3d 73be 9d3d 533e 23be 86bd 783e 6c3e
000000e0: 853e 803d 8a3e ba3d 363d 853e 933e b5bd
000000f0: a5bd 5dbe 713e e3bd a5bd 0abe 1cbe 043b
00000100: 743e 053d 80bd 28be 50be 81bd 4bbe 903e
00000110: 1bbe 3f3e 413e 803d 803d b53c cabd 003d
00000120: d03b 03be 3dbe 52be 703e 0e3e ac3c 01bd
00000130: 66be 8cbe 93be 0bbd b3bc e6bd 24be 7abd
00000140: 00bd 0c3d 1b3d 7d3e eebd 463e d13d 8b3d
00000150: bdbc 9a3d 7e3e 8cbd 663d 823d 87be cf3d
00000160: d63d 51be 8bbe 46be 543e 233e 40be 463e
00000170: 1f3d f53d 78be 1dbe 0fbe ae3d a03d 06be
00000180: 56be 91be 8dbe 673e 27be 68be 50be 88bd
00000190: 28be 4b3e 46be d73d 8b3e 79be 4fbe 2c3e
000001a0: 51be 80bd 4fbe 6dbe 693e 7bbe 80bd ca3d
000001b0: 8abe 80bd ff3c aabd 543e 783d 19bd 17bd
000001c0: 80bd 09be 903e 803d 453e debd 5abe 063e
000001d0: 1b3d 943e 87be e83d 753e 56be 0fbe 563e
000001e0: 6abe 863e f6bd 7fbe 343e 443e bdbd 9b3d
000001f0: 903e 763d 833d 083e c3bc d53d 18be 3cbe
0.118652344 -0.020385742 -0.18359375 -0.06542969 -0.05517578 0.11621094 0.052246094 -0.12695312
-0.13867188 -0.046142578 0.18261719 0.12011719 0.078125 -0.013000488 -0.24023438 -0.14355469
-0.140625 -0.25585938 0.080078125 0.07470703 -0.28320312 0.072265625 -0.114746094 -0.19921875
-0.15429688 -0.09765625 0.2734375 -0.26367188 0.0625 -0.23632812 -0.076171875 0.12158203
0.21484375 0.16796875 -0.20996094 -0.0625 0.064453125 -0.13964844 0.25390625 0.26757812
-0.1875 -0.05444336 0.04272461 0.15625 0.022583008 0.28515625 -0.06542969 -0.16796875
-0.19433594 0.25195312 0.04296875 0.06689453 -0.19042969 0.21777344 0.14355469 0.15332031
0.092285156 -0.20996094 -0.09863281 0.078125 -0.18066406 -0.15722656 0.13867188 -0.16796875
0.28125 0.029663086 0.104003906 -0.03125 -0.1796875 0.07470703 -0.17578125 -0.26953125
0.060546875 -0.13085938 -0.14746094 -0.1484375 -0.20605469 0.019165039 0.140625 0.08203125
0.08154297 0.28710938 0.031982422 -0.23730469 0.2578125 -0.1875 0.115234375 0.17773438
0.23046875 0.17871094 -0.21289062 -0.13867188 0.16210938 0.26953125 0.06298828 0.10498047
-0.20898438 0.17382812 -0.15527344 0.265625 -0.26953125 -0.2109375 -0.033447266 -0.031982422
0.107421875 -0.23730469 0.076660156 0.20605469 -0.15917969 -0.06542969 0.2421875 0.23046875
0.25976562 0.0625 0.26953125 0.09082031 0.044433594 0.25976562 0.28710938 -0.088378906
-0.080566406 -0.21582031 0.23535156 -0.110839844 -0.080566406 -0.13476562 -0.15234375 0.0020141602
0.23828125 0.032470703 -0.0625 -0.1640625 -0.203125 -0.06298828 -0.19824219 0.28125
-0.15136719 0.18652344 0.18847656 0.0625 0.0625 0.022094727 -0.09863281 0.03125
0.0063476562 -0.12792969 -0.18457031 -0.20507812 0.234375 0.13867188 0.020996094 -0.03149414
-0.22460938 -0.2734375 -0.28710938 -0.033935547 -0.021850586 -0.11230469 -0.16015625 -0.061035156
-0.03125 0.034179688 0.037841797 0.24707031 -0.11621094 0.19335938 0.10205078 0.067871094
-0.023071289 0.07519531 0.24804688 -0.068359375 0.056152344 0.06347656 -0.26367188 0.10107422
0.10449219 -0.20410156 -0.27148438 -0.19335938 0.20703125 0.15917969 -0.1875 0.19335938
0.03881836 0.119628906 -0.2421875 -0.15332031 -0.13964844 0.08496094 0.078125 -0.13085938
-0.20898438 -0.28320312 -0.27539062 0.22558594 -0.16308594 -0.2265625 -0.203125 -0.06640625
-0.1640625 0.19824219 -0.19335938 0.10498047 0.27148438 -0.24316406 -0.20214844 0.16796875
-0.20410156 -0.0625 -0.20214844 -0.23144531 0.22753906 -0.24511719 -0.0625 0.09863281
-0.26953125 -0.0625 0.03112793 -0.08300781 0.20703125 0.060546875 -0.037353516 -0.036865234
-0.0625 -0.13378906 0.28125 0.0625 0.19238281 -0.10839844 -0.21289062 0.13085938
0.037841797 0.2890625 -0.26367188 0.11328125 0.23925781 -0.20898438 -0.13964844 0.20898438
-0.22851562 0.26171875 -0.12011719 -0.24902344 0.17578125 0.19140625 -0.092285156 0.075683594
0.28125 0.060058594 0.063964844 0.1328125 -0.023803711 0.104003906 -0.1484375 -0.18359375

layer_9.Wv bf16 [64, 8]
00000000: c4bd b3bc 3dbe 8dbd 38be 7cbd ae3d 2ebe
00000010: 06be 613e b63d 24be 02be 83be 803d e4bd
00000020: 0abe d1bd 8bbe 013e 673e 173e 4abe e53d
00000030: 073e 01be ff3d da3d d0bd 643e 93be 283e
00000040: 2a3d 23be 003d 84be 17be a83d 0a3d 6cbe
00000050: 113d 54be 08bd 16be 3f3e 453e 05be 543d
00000060: d23d 0fbe 02bd 97bd 87be 1bbd 1fbe 7dbe
00000070: 87be 2bbd 803d f93d 4ebe dabc 853e 58be
00000080: 43be 58be 67be 4a3e 45be 513e 42be 653e
00000090: 7a3e 8bbe 8c3e 813d 80bd 94be c4bd dfbd
000000a0: 01bd 24be 4fbe 913d 4e3e eebd 3a3e bf3c
000000b0: 57be 7cbe 33be 8abe db3d 313e 333d 163e
000000c0: 5a3e 6fbe d33d 1bbe bbbc 58bd 5abe 683d
000000d0: 3e3d cc3d f53d 6fbe 653c e63d 1abe 273e
000000e0: db3d 833e 8fbd 88be 7a3e 0ebe 483e 84be
000000f0: 8fbe f53d a83b 7c3e 163e 7c3e e13d 263e
00000100: 0bbe 35be 86be 613e 8fbe 7c3d 24be 6e3e
00000110: c13d 813c 93bc 81be 70be 533d c63d 883e
00000120: 78be c73d 6c3e 6fbe 48be 793e b53d bbbd
00000130: 7ebc 52bd 8b3e abbd 47be 42be 1e3d 3f3e
00000140: 40be 58be 6cbe 46bd 4abe d8bd 093d 25be
00000150: 44bd 693e 60bd 88be e13d a33d e9bd 5dbe
00000160: 82be e53d 213e 5c3d 30be 5d3e 70be e03d
00000170: 68be 8abe 88be 303e 913e c93d 53be 7ebe
00000180: 703e b63c 3abe 40be 83bc 12be 4a3e bc3d
00000190: 293e edbc 833d 2c3e f33d 993d 603e 693e
000001a0: 5bbe 1abe 343e 833e adbd d0bd f23d f8bd
000001b0: 3abe 1f3e a53d 80bd 723e 73be e93d c0bd
000001c0: 33be 0cbd 78be 163e 9dbd 83be 94bd 0cbe
000001d0: d13d 673e 8c3e 5e3e 8abe 17be d6bd 52be
000001e0: 823d 393e db3d 9cbd eb3b 9cbd 783e 133d
000001f0: 6dbd acbc 87be 4f3e 9f3d 4fbe 5d3e 19be
-0.095703125 -0.021850586 -0.18457031 -0.068847656 -0.1796875 -0.061523438 0.08496094 -0.16992188
-0.13085938 0.21972656 0.08886719 -0.16015625 -0.12695312 -0.25585938 0.0625 -0.111328125
-0.13476562 -0.10205078 -0.27148438 0.12597656 0.22558594 0.14746094 -0.19726562 0.111816406
0.13183594 -0.12597656 0.12451172 0.10644531 -0.1015625 0.22265625 -0.28710938 0.1640625
0.041503906 -0.15917969 0.03125 -0.2578125 -0.14746094 0.08203125 0.033691406 -0.23046875
0.03540039 -0.20703125 -0.033203125 -0.14648438 0.18652344 0.19238281 -0.12988281 0.051757812
0.10253906 -0.13964844 -0.03173828 -0.07373047 -0.26367188 -0.037841797 -0.15527344 -0.24707031
-0.26367188 -0.041748047 0.0625 0.12158203 -0.20117188 -0.026611328 0.25976562 -0.2109375
-0.19042969 -0.2109375 -0.22558594 0.19726562 -0.19238281 0.20410156 -0.18945312 0.22363281
0.24414062 -0.27148438 0.2734375 0.06298828 -0.0625 -0.2890625 -0.095703125 -0.10888672
-0.03149414 -0.16015625 -0.20214844 0.07080078 0.20117188 -0.11621094 0.18164062 0.02331543
-0.20996094 -0.24609375 -0.17480469 -0.26953125 0.106933594 0.17285156 0.043701172 0.14648438
0.21289062 -0.23339844 0.103027344 -0.15136719 -0.022827148 -0.052734375 -0.21289062 0.056640625
0.04638672 0.099609375 0.119628906 -0.23339844 0.013977051 0.11230469 -0.15039062 0.16308594
0.106933594 0.25585938 -0.06982422 -0.265625 0.24414062 -0.13867188 0.1953125 -0.2578125
-0.27929688 0.119628906 0.005126953 0.24609375 0.14648438 0.24609375 0.10986328 0.16210938
-0.13574219 -0.17675781 -0.26171875 0.21972656 -0.27929688 0.061523438 -0.16015625 0.23242188
0.09423828 0.01574707 -0.017944336 -0.25195312 -0.234375 0.051513672 0.09667969 0.265625
-0.2421875 0.09716797 0.23046875 -0.23339844 -0.1953125 0.24316406 0.088378906 -0.091308594
-0.01550293 -0.05126953 0.27148438 -0.083496094 -0.19433594 -0.18945312 0.03857422 0.18652344
-0.1875 -0.2109375 -0.23046875 -0.048339844 -0.19726562 -0.10546875 0.033447266 -0.16113281
-0.047851562 0.22753906 -0.0546875 -0.265625 0.10986328 0.079589844 -0.11376953 -0.21582031
-0.25390625 0.111816406 0.15722656 0.053710938 -0.171875 0.21582031 -0.234375 0.109375
-0.2265625 -0.26953125 -0.265625 0.171875 0.28320312 0.09814453 -0.20605469 -0.24804688
0.234375 0.022216797 -0.18164062 -0.1875 -0.015991211 -0.14257812 0.19726562 0.091796875
0.16503906 -0.028930664 0.063964844 0.16796875 0.118652344 0.07470703 0.21875 0.22753906
-0.21386719 -0.15039062 0.17578125 0.25585938 -0.084472656 -0.1015625 0.11816406 -0.12109375
-0.18164062 0.15527344 0.080566406 -0.0625 0.23632812 -0.23730469 0.11376953 -0.09375
-0.17480469 -0.034179688 -0.2421875 0.14648438 -0.076660156 -0.25585938 -0.072265625 -0.13671875
0.10205078 0.22558594 0.2734375 0.21679688 -0.26953125 -0.14746094 -0.10449219 -0.20507812
0.06347656 0.18066406 0.106933594 -0.076171875 0.007171631 -0.076171875 0.2421875 0.035888672
-0.057861328 -0.020996094 -0.26367188 0.20214844 0.07763672 -0.20214844 0.21582031 -0.14941406

layer_9.Uv bf16 [64, 8]
00000000: bb3d 2f3e a5bd 7b3e 25be c23d bc3c 843c
00000010: 483e 1a3e 61be 4dbe 8a3e 7a3e 793e 893e
00000020: 81bd 88be 3d3e 12be 603d 2dbe f1bd 8e3e
00000030: 1f3d 4c3e 9abd 143e 783e 94bc 81bd aabd
00000040: 6cbe 3e3e 6a3e febc 683e 28be a1bc 403e
00000050: b13c 0ebe 1dbe f93b 4f3e 1cbe 053e 57be
00000060: bbbd 033d 44be 90bd b5bd 333e a63d d63d
00000070: 833d 2bbe f8bd fabd e0bd 103d 7e3e 0fbd
00000080: 3bbe 26be 663d 6dbe 00be 90bc 8bbd 1e3e
00000090: 86be b73d e1bd 953d ccbd 29be 3b3e 103d
000000a0: f7bd babd 6b3e 0ebd 74be 7a3e da3d 3cbe
000000b0: 87be 8b3e 813e 3cbe 6abe 2a3e 30be f3bd
000000c0: ddbd fe3c ddbd 25be c33d 533e 3ebe 90bc
000000d0: 8fbd bbbd eabd 64bc 1f3e 00bd debd 933d
000000e0: 5c3e e63d 8bbe 843e 6bbe e43d a93d ddbd
000000f0: 89be c0bd 883e a33d 26be 673e 49be 4e3e
00000100: aebd e5bd 40be 193e fabd 8c3e 483e e53d
00000110: 1f3e 88be 6b3e 2cbe 3f3e 343e 97bc 30bd
00000120: 6c3e 3dbe 70be 88be e03d cc3c 90bd 7cbd
00000130: a7bc 433e 5dbd 513a 2dbe 2abe 4ebe 053e
00000140: 6cbe 7e3b 943d 3bbe 30be 4f3e 81bc 28be
00000150: 33be 633e 2abe 203e 06bd 103e 923e 8dbd
00000160: bd3d 65bc c93c b33d 873e 5ebe 11be 403e
00000170: 34be 333e 07be 073e 00bd 12bd 5dbe 9d3d
00000180: 86be 903e f1bd d23d 6fbe b3bc 2b3e 843e
00000190: 3abe f93c 7bbe e83d 36be cdbd 4dbe 57be
000001a0: 84bd 0fbe 8c3e 2fbe 7b3e ffbc 8bbe 0a3e
000001b0: 803e 483e 2e3e 073d e3bd fabd 99bd cabd
000001c0: 003d c9bb f13b fc3c 263e 5f3e 833e a33a
000001d0: 87bd 14be 10be 86bd 883e 8dbd c03d 7bbe
000001e0: 24be 74be d4bd 7c3e cd3d 463e 79be 67be
000001f0: 0f3d 953c 0fbd 883e c9bd d4bd 46be 833e
0.091308594 0.17089844 -0.080566406 0.24511719 -0.16113281 0.09472656 0.022949219 0.016113281
0.1953125 0.15039062 -0.21972656 -0.20019531 0.26953125 0.24414062 0.24316406 0.26757812
-0.06298828 -0.265625 0.18457031 -0.14257812 0.0546875 -0.16894531 -0.11767578 0.27734375
0.03881836 0.19921875 -0.07519531 0.14453125 0.2421875 -0.018066406 -0.06298828 -0.08300781
-0.23046875 0.18554688 0.22851562 -0.03100586 0.2265625 -0.1640625 -0.01965332 0.1875
0.021606445 -0.13867188 -0.15332031 0.007598877 0.20214844 -0.15234375 0.12988281 -0.20996094
-0.091308594 0.031982422 -0.19140625 -0.0703125 -0.088378906 0.17480469 0.08105469 0.10449219
0.063964844 -0.16699219 -0.12109375 -0.12207031 -0.109375 0.03515625 0.24804688 -0.03491211
-0.18261719 -0.16210938 0.056152344 -0.23144531 -0.125 -0.017578125 -0.067871094 0.15429688
-0.26171875 0.08935547 -0.10986328 0.072753906 -0.099609375 -0.16503906 0.18261719 0.03515625
-0.12060547 -0.09082031 0.22949219 -0.03466797 -0.23828125 0.24414062 0.10644531 -0.18359375
-0.26367188 0.27148438 0.25195312 -0.18359375 -0.22851562 0.16601562 -0.171875 -0.118652344
-0.107910156 0.03100586 -0.107910156 -0.16113281 0.095214844 0.20605469 -0.18554688 -0.017578125
-0.06982422 -0.091308594 -0.11425781 -0.013916016 0.15527344 -0.03125 -0.10839844 0.071777344
0.21484375 0.11230469 -0.27148438 0.2578125 -0.22949219 0.111328125 0.08251953 -0.107910156
-0.26757812 -0.09375 0.265625 0.079589844 -0.16210938 0.22558594 -0.19628906 0.20117188
-0.08496094 -0.111816406 -0.1875 0.14941406 -0.12207031 0.2734375 0.1953125 0.111816406
0.15527344 -0.265625 0.22949219 -0.16796875 0.18652344 0.17578125 -0.018432617 -0.04296875
0.23046875 -0.18457031 -0.234375 -0.265625 0.109375 0.024902344 -0.0703125 -0.061523438
-0.020385742 0.19042969 -0.053955078 0.0007972717 -0.16894531 -0.16601562 -0.20117188 0.12988281
-0.23046875 0.0038757324 0.072265625 -0.18261719 -0.171875 0.20214844 -0.01574707 -0.1640625
-0.17480469 0.22167969 -0.16601562 0.15625 -0.032714844 0.140625 0.28515625 -0.068847656
0.092285156 -0.013977051 0.024536133 0.087402344 0.26367188 -0.21679688 -0.14160156 0.1875
-0.17578125 0.17480469 -0.13183594 0.13183594 -0.03125 -0.03564453 -0.21582031 0.076660156
-0.26171875 0.28125 -0.11767578 0.10253906 -0.23339844 -0.021850586 0.16699219 0.2578125
-0.18164062 0.030395508 -0.24511719 0.11328125 -0.17773438 -0.100097656 -0.20019531 -0.20996094
-0.064453125 -0.13964844 0.2734375 -0.17089844 0.24511719 -0.03112793 -0.27148438 0.13476562
0.25 0.1953125 0.16992188 0.032958984 -0.110839844 -0.12207031 -0.07470703 -0.09863281
0.03125 -0.006134033 0.0073547363 0.030761719 0.16210938 0.21777344 0.25585938 0.0012435913
-0.06591797 -0.14453125 -0.140625 -0.06542969 0.265625 -0.068847656 0.09375 -0.24511719
-0.16015625 -0.23828125 -0.103515625 0.24609375 0.100097656 0.19335938 -0.24316406 -0.22558594
0.03491211 0.018188477 -0.03491211 0.265625 -0.09814453 -0.103515625 -0.19335938 0.25585938
