empty_dirs_for_codex/outputs/runs_fast_paper_core/fast_paper_sweep_core_v1/main_contr_loto_holdout_overwrite/checkpoints/train_state_step_4500.pt (torch, 148983 bytes, 144 tensors)

layer_8.Wk bf16 [64, 8]
000000 4a be 83 bd 82 be ee 3d 55 3e 80 bd 93 be ce 3d
       -0.19726562 -0.063964844 -0.25390625 0.11621094 0.20800781 -0.0625 -0.28710938 0.10058594
000010 33 3d 9b 3d ad bd 61 be 6f be ae 3d bb bd 85 3e
       0.043701172 0.075683594 -0.084472656 -0.21972656 -0.23339844 0.08496094 -0.091308594 0.25976562
000020 0f 3d 54 3d 43 3e 8a 3e d7 3d 79 3e 6d 3e 92 3e
       0.03491211 0.051757812 0.19042969 0.26953125 0.10498047 0.24316406 0.23144531 0.28515625
000030 76 be f0 3d 07 be 55 be 6a 3d 58 3e 80 3e 0c 3d
       -0.24023438 0.1171875 -0.13183594 -0.20800781 0.057128906 0.2109375 0.25 0.034179688
000040 f5 3d 80 3d 80 bd 95 bd 09 be 3a be 87 be 1b 3d
       0.119628906 0.0625 -0.0625 -0.072753906 -0.13378906 -0.18164062 -0.26367188 0.037841797
000050 8b 3e d2 3d 67 3d 7b be 80 bd 8a be 80 bd ce bd
       0.27148438 0.10253906 0.056396484 -0.24511719 -0.0625 -0.26953125 -0.0625 -0.10058594
000060 6b 3e 3b 3e 7c be 27 3e 98 bd 91 be cc bd 18 3d
       0.22949219 0.18261719 -0.24609375 0.16308594 -0.07421875 -0.28320312 -0.099609375 0.037109375
000070 22 3e 52 bd 60 3e 84 be 01 be 93 be 4e bd 53 be
       0.15820312 -0.05126953 0.21875 -0.2578125 -0.12597656 -0.28710938 -0.05029297 -0.20605469
000080 2b 3e 33 3e f6 bd 89 3e 4d be 60 be 80 bd 82 3d
       0.16699219 0.17480469 -0.12011719 0.26757812 -0.20019531 -0.21875 -0.0625 0.06347656
000090 85 3e 49 be 67 3e ee 3d 10 be 42 be c5 3d 80 3c
       0.25976562 -0.19628906 0.22558594 0.11621094 -0.140625 -0.18945312 0.096191406 0.015625
0000a0 6d 3e 28 3d 88 be b8 bd e4 bd 2a be 80 3d fb 3d
       0.23144531 0.041015625 -0.265625 -0.08984375 -0.111328125 -0.16601562 0.0625 0.122558594
0000b0 38 be 66 bc 00 be 39 3e 64 3e 74 3e 91 3e 0d be
       -0.1796875 -0.014038086 -0.125 0.18066406 0.22265625 0.23828125 0.28320312 -0.13769531
0000c0 4f be 54 3e ff 3d 80 3d 26 be 6c be c4 bd 74 3e
       -0.20214844 0.20703125 0.12451172 0.0625 -0.16210938 -0.23046875 -0.095703125 0.23828125
0000d0 15 be 3c be da 3d 7b 3e 2e 3d 9c 3d 40 3e ab bd
       -0.14550781 -0.18359375 0.10644531 0.24511719 0.04248047 0.076171875 0.1875 -0.083496094
0000e0 85 be 80 bd 26 be e9 3d 1b be 8a 3e e7 3c 6b 3e
       -0.25976562 -0.0625 -0.16210938 0.11376953 -0.15136719 0.26953125 0.028198242 0.22949219
0000f0 52 be 7d be 0d be 92 bd 61 3e 66 be e3 bd b0 3d
       -0.20507812 -0.24707031 -0.13769531 -0.07128906 0.21972656 -0.22460938 -0.110839844 0.0859375
000100 80 bd 02 be 43 3e 27 be 0c 3e 8c 3d 26 be 80 3d
       -0.0625 -0.12695312 0.19042969 -0.16308594 0.13671875 0.068359375 -0.16210938 0.0625
000110 ba 3d 4d 3b b7 bd 10 3e fe bd 88 bd 81 bd 80 3d
       0.09082031 0.0031280518 -0.08935547 0.140625 -0.12402344 -0.06640625 -0.06298828 0.0625
000120 80 3d 85 3d 7b be 3a be 99 3d 75 3e 41 be a8 bd
       0.0625 0.064941406 -0.24511719 -0.18164062 0.07470703 0.23925781 -0.18847656 -0.08203125
000130 3c be 66 be 83 be af 3d 80 3d 18 be 90 3e f0 3c
       -0.18359375 -0.22460938 -0.25585938 0.08544922 0.0625 -0.1484375 0.28125 0.029296875
000140 05 bd 94 3e 53 be c5 bd 6c be bd 3d 88 bd 91 be
       -0.032470703 0.2890625 -0.20605469 -0.096191406 -0.23046875 0.092285156 -0.06640625 -0.28320312
000150 84 3d 80 3d 87 3e 80 bd 58 be 29 3e 29 3e ef 3d
       0.064453125 0.0625 0.26367188 -0.0625 -0.2109375 0.16503906 0.16503906 0.11669922
000160 f2 bd 2f 3e c3 bd b0 ba cb 3d f6 bd 83 3e 84 3e
       -0.11816406 0.17089844 -0.095214844 -0.0013427734 0.099121094 -0.12011719 0.25585938 0.2578125
000170 0b bd 64 3d 1d be 4a 3e e5 bd 80 3e 80 3d 69 3e
       -0.033935547 0.055664062 -0.15332031 0.19726562 -0.111816406 0.25 0.0625 0.22753906
000180 18 3e 57 3e 9c bd 77 bd 84 be 2c 3e 0a bd 44 be
       0.1484375 0.20996094 -0.076171875 -0.060302734 -0.2578125 0.16796875 -0.033691406 -0.19140625
000190 af bd 82 be 6f 3e 51 3d 82 bd 71 3c 87 bd 37 3e
       -0.08544922 -0.25390625 0.23339844 0.05102539 -0.06347656 0.014709473 -0.06591797 0.17871094
0001a0 2d be 6d 3e 16 be 80 3d 80 bd 93 3c 1c bd f1 3d
       -0.16894531 0.23144531 -0.14648438 0.0625 -0.0625 0.017944336 -0.038085938 0.11767578
0001b0 30 be 36 be 3e 3e 72 be 5e 3e 90 be 80 bd f0 3d
       -0.171875 -0.17773438 0.18554688 -0.23632812 0.21679688 -0.28125 -0.0625 0.1171875
0001c0 04 3e 04 bd 80 3d 8e 3e 67 be 84 bd 3a 3e 89 3e
       0.12890625 -0.032226562 0.0625 0.27734375 -0.22558594 -0.064453125 0.18164062 0.26757812
0001d0 81 bd 85 3e ea 3d 80 3d 5f 3e 22 3e 84 be bd bc
       -0.06298828 0.25976562 0.11425781 0.0625 0.21777344 0.15820312 -0.2578125 -0.023071289
0001e0 89 be 40 be 84 3d 1c 3d 90 3e a0 bd 6d 3e 8b 3e
       -0.26757812 -0.1875 0.064453125 0.038085938 0.28125 -0.078125 0.23144531 0.27148438
0001f0 80 3d 89 3e 23 bd d7 3d 80 3d 30 3e d8 3d 21 bd
       0.0625 0.26757812 -0.039794922 0.10498047 0.0625 0.171875 0.10546875 -0.03930664

layer_8.Uk bf16 [64, 8]
000000 86 be 52 3e 2c bd 68 bb 81 bd 29 bd 77 bc 59 be
       -0.26171875 0.20507812 -0.041992188 -0.003540039 -0.06298828 -0.041259766 -0.015075684 -0.21191406
000010 01 bd e3 3d 52 be 8d be 19 3d 9e 3d a4 bd 3a be
       -0.03149414 0.110839844 -0.20507812 -0.27539062 0.037353516 0.07714844 -0.080078125 -0.18164062
000020 0a 3d 10 3e 2c be 8a be 8f 3e 8b be 34 3a 0b 3e
       0.033691406 0.140625 -0.16796875 -0.26953125 0.27929688 -0.27148438 0.0006866455 0.13574219
000030 38 be 47 3d 05 bd 3e 3c 8b 3d 0e be 4a 3e 18 3d
       -0.1796875 0.048583984 -0.032470703 0.01159668 0.067871094 -0.13867188 0.19726562 0.037109375
000040 92 3e 80 3d 12 be 14 bd 8c 3e 43 be 0f 3d 2a be
       0.28515625 0.0625 -0.14257812 -0.036132812 0.2734375 -0.19042969 0.03491211 -0.16601562
000050 16 be 5f 3e 82 3e 29 3e 47 be 19 be 79 be c6 bd
       -0.14648438 0.21777344 0.25390625 0.16503906 -0.19433594 -0.14941406 -0.24316406 -0.09667969
000060 b1 3d 4f 3e 02 be 28 be c5 3d 70 3e 16 bd 55 3e
       0.08642578 0.20214844 -0.12695312 -0.1640625 0.096191406 0.234375 -0.036621094 0.20800781
000070 7b 3e 0a 3d 89 3e 58 3e 9f 3d 80 be b7 bd 36 3d
       0.24511719 0.033691406 0.26757812 0.2109375 0.07763672 -0.25 -0.08935547 0.044433594
000080 ec bc 81 be 61 3e 4a 3e 80 bd 70 be 41 be 93 be
       -0.028808594 -0.25195312 0.21972656 0.19726562 -0.0625 -0.234375 -0.18847656 -0.28710938
000090 d1 bd 35 3e 61 be 46 3e 7d bd 65 bd c9 bd 09 bd
       -0.10205078 0.17675781 -0.21972656 0.19335938 -0.061767578 -0.055908203 -0.09814453 -0.033447266
0000a0 d1 bd 13 be 1b bd 70 be d2 3d 59 be 62 3e 4e 3e
       -0.10205078 -0.14355469 -0.037841797 -0.234375 0.10253906 -0.21191406 0.22070312 0.20117188
0000b0 ec bc 0f 3d 15 bb ca 3d 80 bd 2d 3d 5c 3c 40 be
       -0.028808594 0.03491211 -0.0022735596 0.09863281 -0.0625 0.042236328 0.013427734 -0.1875
0000c0 e1 3d 6f be 1e 3d 8b 3e f9 bb 00 3d 08 3e 88 3e
       0.10986328 -0.23339844 0.03857422 0.27148438 -0.007598877 0.03125 0.1328125 0.265625
0000d0 ea 3d b5 bd 48 3e ec 3c 7e 3d 2f 3e db bc e3 3d
       0.11425781 -0.088378906 0.1953125 0.028808594 0.06201172 0.17089844 -0.026733398 0.110839844
0000e0 17 bd 18 3e 54 3e 88 bc 16 3d 6b be 21 be 00 3d
       -0.036865234 0.1484375 0.20703125 -0.016601562 0.036621094 -0.22949219 -0.15722656 0.03125
0000f0 83 3e 80 3d d0 3d 26 be 88 3d 4c be 13 be 87 be
       0.25585938 0.0625 0.1015625 -0.16210938 0.06640625 -0.19921875 -0.14355469 -0.26367188
000100 48 3e 43 be 2b be 3e 3e 5d 3e 1d 3e 7d 3e 41 be
       0.1953125 -0.19042969 -0.16699219 0.18554688 0.21582031 0.15332031 0.24707031 -0.18847656
000110 97 3d 13 be 85 be 24 be db bd 91 3b 78 3b bb bc
       0.07373047 -0.14355469 -0.25976562 -0.16015625 -0.106933594 0.004425049 0.0037841797 -0.022827148
000120 87 be 62 3e 8c 3e 22 3e 91 3e a2 bd d9 3b 7c be
       -0.26367188 0.22070312 0.2734375 0.15820312 0.28320312 -0.07910156 0.0066223145 -0.24609375
000130 1e bd 58 be 89 be 3d bd 08 be 6a be 1d 3d 39 3d
       -0.03857422 -0.2109375 -0.26757812 -0.046142578 -0.1328125 -0.22851562 0.038330078 0.045166016
000140 86 3e 71 bd 87 3d 70 3e 8e bd 51 3e 8a 3e f9 bd
       0.26171875 -0.05883789 0.06591797 0.234375 -0.06933594 0.20410156 0.26953125 -0.12158203
000150 70 be 23 3e 11 be 79 be 86 be 8b 3e 8d 3e 62 be
       -0.234375 0.15917969 -0.14160156 -0.24316406 -0.26171875 0.27148438 0.27539062 -0.22070312
000160 02 be 9c 3d 8f bb 28 bd 7c bd 8c bd 53 be cf bc
       -0.12695312 0.076171875 -0.0043640137 -0.041015625 -0.061523438 -0.068359375 -0.20605469 -0.025268555
000170 15 3d 89 3e 34 bb f8 3d 46 3e 8e be 2a 3d 93 3e
       0.036376953 0.26757812 -0.002746582 0.12109375 0.19335938 -0.27734375 0.041503906 0.28710938
000180 ce bd a9 3d b7 3c 4a bd 37 3e 22 bd 40 be 0f 3e
       -0.10058594 0.08251953 0.022338867 -0.049316406 0.17871094 -0.03955078 -0.1875 0.13964844
000190 be bd 19 bc 11 3e d6 bd 63 be 43 be 8a 3e c8 bd
       -0.09277344 -0.009338379 0.14160156 -0.10449219 -0.22167969 -0.19042969 0.26953125 -0.09765625
0001a0 2c 3e 45 be 51 3e 77 3e 8d 3b c1 bd 3f 3e e4 3d
       0.16796875 -0.19238281 0.20410156 0.24121094 0.0043029785 -0.09423828 0.18652344 0.111328125
0001b0 ce bd 73 be 38 3e 08 be ec 3d 8d be 88 be 2d 3e
       -0.10058594 -0.23730469 0.1796875 -0.1328125 0.115234375 -0.27539062 -0.265625 0.16894531
0001c0 b7 bd 80 3e 2a 3d 4c 3e b0 bb 85 3e 69 be cd bd
       -0.08935547 0.25 0.041503906 0.19921875 -0.0053710938 0.25976562 -0.22753906 -0.100097656
0001d0 5e 3c 79 be 6a 3c 56 be 90 3d 82 3d 89 be 84 be
       0.013549805 -0.24316406 0.014282227 -0.20898438 0.0703125 0.06347656 -0.26757812 -0.2578125
0001e0 91 be 80 3d 16 bd 28 bd 53 3e 87 be dd 3d 5b 3e
       -0.28320312 0.0625 -0.036621094 -0.041015625 0.20605469 -0.26367188 0.107910156 0.21386719
0001f0 83 be 71 3b 72 3e 04 3e 80 bd 16 bc 49 3e a0 bb
       -0.25585938 0.0036773682 0.23632812 0.12890625 -0.0625 -0.009155273 0.19628906 -0.0048828125

layer_8.Wv bf16 [64, 8]
000000 10 bd 89 3e d5 bd 7e be a2 bd d7 3d 0e 3e 85 3e
       -0.03515625 0.26757812 -0.104003906 -0.24804688 -0.07910156 0.10498047 0.13867188 0.25976562
000010 8d 3d 29 3e aa 3a aa bd d2 3b 82 3e 83 3d bf 3d
       0.068847656 0.16503906 0.0012969971 -0.08300781 0.0064086914 0.25390625 0.063964844 0.09326172
000020 07 bd 22 be 02 3d c9 bd 8e 3e 49 3c 48 bd 81 3e
       -0.032958984 -0.15820312 0.03173828 -0.09814453 0.27734375 0.012268066 -0.048828125 0.25195312
000030 bb bd 17 3e 14 be 16 be 12 3e cb bb 4d 3e 80 3d
       -0.091308594 0.14746094 -0.14453125 -0.14648438 0.14257812 -0.0061950684 0.20019531 0.0625
000040 76 3c 57 3e 0c bd 2c be 7a 3e d1 bd 7f be 86 3e
       0.015014648 0.20996094 -0.034179688 -0.16796875 0.24414062 -0.10205078 -0.24902344 0.26171875
000050 71 be 9e bd 6b 3e 46 be 5e 3e 89 3e 1a 3e 6b 3d
       -0.23535156 -0.07714844 0.22949219 -0.19335938 0.21679688 0.26757812 0.15039062 0.057373047
000060 94 bd 4f 3e 55 be 02 3d 81 be e5 bd 41 3d a7 bd
       -0.072265625 0.20214844 -0.20800781 0.03173828 -0.25195312 -0.111816406 0.04711914 -0.08154297
000070 e6 3d e1 bd 63 be 6e 3e a9 3d 9f 3c 80 bd 52 be
       0.11230469 -0.10986328 -0.22167969 0.23242188 0.08251953 0.01940918 -0.0625 -0.20507812
000080 7f bc 6a 3e 19 be 75 be f9 3d 33 be 09 be 90 3e
       -0.015563965 0.22851562 -0.14941406 -0.23925781 0.12158203 -0.17480469 -0.13378906 0.28125
000090 86 be 2c be 22 3e 09 bd b7 3d 80 3e 88 b9 60 be
       -0.26171875 -0.16796875 0.15820312 -0.033447266 0.08935547 0.25 -0.0002593994 -0.21875
0000a0 94 bc 8b be 04 bd 1a 3c 37 be 2f 3e a6 3d 8c 3c
       -0.018066406 -0.27148438 -0.032226562 0.009399414 -0.17871094 0.17089844 0.08105469 0.017089844
0000b0 35 3e 2e 3e d5 3d 84 3d 15 bd c3 bc 22 3e 45 be
       0.17675781 0.16992188 0.104003906 0.064453125 -0.036376953 -0.023803711 0.15820312 -0.19238281
0000c0 a2 3d 7f 3e 95 3d c4 bd 29 3e 9c 3a 05 be 56 be
       0.07910156 0.24902344 0.072753906 -0.095703125 0.16503906 0.0011901855 -0.12988281 -0.20898438
0000d0 cf 3d 93 bc 91 be 35 3e 72 3e fc bd 5e be 69 bd
       0.10107422 -0.017944336 -0.28320312 0.17675781 0.23632812 -0.123046875 -0.21679688 -0.056884766
0000e0 b8 bd 75 3d 70 be 76 be 08 be 63 be b6 3d 71 3e
       -0.08984375 0.059814453 -0.234375 -0.24023438 -0.1328125 -0.22167969 0.08886719 0.23535156
0000f0 80 3d 0c 3e 92 3d c7 bd 3c be b8 3d 07 3d 85 be
       0.0625 0.13671875 0.07128906 -0.09716797 -0.18359375 0.08984375 0.032958984 -0.25976562
000100 90 3e 54 be 13 3e 00 bd 7f 3e e9 bd 96 3d 60 be
       0.28125 -0.20703125 0.14355469 -0.03125 0.24902344 -0.11376953 0.07324219 -0.21875
000110 64 be b7 bb 89 3e 2c bd 0f 3c 24 3e a3 bc 36 3d
       -0.22265625 -0.005584717 0.26757812 -0.041992188 0.008728027 0.16015625 -0.019897461 0.044433594
000120 18 be 2a be 90 3e 34 be 7b be c2 3d a3 3c 9e 3d
       -0.1484375 -0.16601562 0.28125 -0.17578125 -0.24511719 0.09472656 0.019897461 0.07714844
000130 55 be 26 3e 1d 3e b6 bd 17 be e5 3d b3 3d 1c be
       -0.20800781 0.16210938 0.15332031 -0.08886719 -0.14746094 0.111816406 0.087402344 -0.15234375
000140 1a bd e4 bc 12 be 36 3c 85 3d 27 3e 62 be 5d 3e
       -0.037597656 -0.027832031 -0.14257812 0.011108398 0.064941406 0.16308594 -0.22070312 0.21582031
000150 92 bb 13 3d ea 3d ed 3c 84 be 82 be 0b 3d 8f 3e
       -0.0044555664 0.035888672 0.11425781 0.028930664 -0.2578125 -0.25390625 0.033935547 0.27929688
000160 66 be 8b 3e 05 be 25 3e 21 bd 76 be 60 3e 55 be
       -0.22460938 0.27148438 -0.12988281 0.16113281 -0.03930664 -0.24023438 0.21875 -0.20800781
000170 8f bd 8d bd 70 3e 6d be 89 be 0f bb aa bd 36 be
       -0.06982422 -0.068847656 0.234375 -0.23144531 -0.26757812 -0.0021820068 -0.08300781 -0.17773438
000180 3f be 86 be 75 3e 68 be be 3d 21 3e c6 bc b4 3d
       -0.18652344 -0.26171875 0.23925781 -0.2265625 0.09277344 0.15722656 -0.024169922 0.087890625
000190 f4 3d 87 be 54 3e 8c 3d 8b 3e 18 be 13 be 84 3e
       0.119140625 -0.26367188 0.20703125 0.068359375 0.27148438 -0.1484375 -0.14355469 0.2578125
0001a0 93 be 31 be 4c 3e f3 3d 57 be 2e be 58 3e de 3d
       -0.28710938 -0.17285156 0.19921875 0.118652344 -0.20996094 -0.16992188 0.2109375 0.10839844
0001b0 8b bd 6e be 85 be 61 3e 1f bd 1b 3e 80 bd 8e 3e
       -0.067871094 -0.23242188 -0.25976562 0.21972656 -0.03881836 0.15136719 -0.0625 0.27734375
0001c0 c0 3d 8d 3d 28 3e 1e be 93 be 4d 3e 99 3d 15 bd
       0.09375 0.068847656 0.1640625 -0.15429688 -0.28710938 0.20019531 0.07470703 -0.036376953
0001d0 0f 3d 0f 3d a1 bd 60 be 8b bc 54 3d 5e 3e 29 be
       0.03491211 0.03491211 -0.07861328 -0.21875 -0.016967773 0.051757812 0.21679688 -0.16503906
0001e0 e3 3d 8f be 8a be 22 3e 3c 3e f3 3a 39 bd 8d 3e
       0.110839844 -0.27929688 -0.26953125 0.15820312 0.18359375 0.0018539429 -0.045166016 0.27539062
0001f0 6e be 10 3d 5e be 00 3d 0f be d7 3d dc 3d 59 3c
       -0.23242188 0.03515625 -0.21679688 0.03125 -0.13964844 0.10498047 0.107421875 0.013244629

layer_8.Uv bf16 [64, 8]
000000 bd bd d3 3d e8 bd 6e be 94 bd 90 be 91 be 3d bd
       -0.092285156 0.103027344 -0.11328125 -0.23242188 -0.072265625 -0.28125 -0.28320312 -0.046142578
000010 08 3d 03 3e 80 3e e2 bd 37 3e 55 3e 65 be 66 3e
       0.033203125 0.12792969 0.25 -0.11035156 0.17871094 0.20800781 -0.22363281 0.22460938
000020 85 3e 7e 3d ef bd 1b 3e 46 3e 1a 3e 51 3d ba 3c
       0.25976562 0.06201172 -0.11669922 0.15136719 0.19335938 0.15039062 0.05102539 0.022705078
000030 01 3d 20 3e ab 3c 13 be 5b be 87 3d 20 3d 8a 3e
       0.03149414 0.15625 0.020874023 -0.14355469 -0.21386719 0.06591797 0.0390625 0.26953125
000040 35 3c 94 3e ea bd 50 be 92 3c d8 bd 7a bd b6 bd
       0.011047363 0.2890625 -0.11425781 -0.203125 0.017822266 -0.10546875 -0.061035156 -0.08886719
000050 87 3e 03 3e d9 bc 09 3d 8d 3e 03 3e 92 bd 8d be
       0.26367188 0.12792969 -0.026489258 0.033447266 0.27539062 0.12792969 -0.07128906 -0.27539062
000060 8d be dc bd 02 bd 1a 3d 0c 3e 06 3e fa bd 0f 3e
       -0.27539062 -0.107421875 -0.03173828 0.037597656 0.13671875 0.13085938 -0.12207031 0.13964844
000070 21 3e 9d 3d 6e 3e 55 be 53 3c 80 bd 85 3e 67 be
       0.15722656 0.076660156 0.23242188 -0.20800781 0.012878418 -0.0625 0.25976562 -0.22558594
000080 c2 3d 54 be 47 be 86 be 1d bd 87 3e 15 be 5a bd
       0.09472656 -0.20703125 -0.19433594 -0.26171875 -0.038330078 0.26367188 -0.14550781 -0.053222656
000090 71 be 55 be e9 3d 41 bd 1c 3d 27 be 38 3e 62 be
       -0.23535156 -0.20800781 0.11376953 -0.04711914 0.038085938 -0.16308594 0.1796875 -0.22070312
0000a0 08 be 40 3e 02 3e 88 be 90 be 2b be 8e be 4f 3e
       -0.1328125 0.1875 0.12695312 -0.265625 -0.28125 -0.16699219 -0.27734375 0.20214844
0000b0 10 be ea 3d 70 be 8e 3d 8a 3e 3f 3e 84 3e 00 3d
       -0.140625 0.11425781 -0.234375 0.06933594 0.26953125 0.18652344 0.2578125 0.03125
0000c0 7e bd 75 be f9 bd 34 be c9 bc 30 bd 91 bd f0 bd
       -0.06201172 -0.23925781 -0.12158203 -0.17578125 -0.024536133 -0.04296875 -0.07080078 -0.1171875
0000d0 90 3e 31 bb 86 be cf bd 23 3e 8b be 8a 3e 97 3c
       0.28125 -0.0027008057 -0.26171875 -0.10107422 0.15917969 -0.27148438 0.26953125 0.018432617
0000e0 e0 3d 8c bd 40 be 1f 3e b3 3d 1f be f3 3d 1b be
       0.109375 -0.068359375 -0.1875 0.15527344 0.087402344 -0.15527344 0.118652344 -0.15136719
0000f0 59 be 92 be 5a 3e 6f 3e 4c 3e 4c 3e 87 3e 32 3d
       -0.21191406 -0.28515625 0.21289062 0.23339844 0.19921875 0.19921875 0.26367188 0.04345703
000100 89 be 3b be 30 3e 6a be 54 bc 82 bd 82 bd 86 be
       -0.26757812 -0.18261719 0.171875 -0.22851562 -0.012939453 -0.06347656 -0.06347656 -0.26171875
000110 75 3e 80 3d 05 3d d6 bd 51 bd 9f 3b 26 be 75 3e
       0.23925781 0.0625 0.032470703 -0.10449219 -0.05102539 0.004852295 -0.16210938 0.23925781
000120 09 3b 81 3c 51 be 92 3e b7 bd 3d 3e 22 be 56 bc
       0.002090454 0.01574707 -0.20410156 0.28515625 -0.08935547 0.18457031 -0.15820312 -0.013061523
000130 cb 3c 18 3d 18 3d 85 bd 2b be b8 bd 62 be 66 3e
       0.024780273 0.037109375 0.037109375 -0.064941406 -0.16699219 -0.08984375 -0.22070312 0.22460938
000140 dd bd 3a bd 78 be 5b be 41 be df 3d 8a 3e 05 3d
       -0.107910156 -0.045410156 -0.2421875 -0.21386719 -0.18847656 0.10888672 0.26953125 0.032470703
000150 64 3e 89 be 93 be e3 3d 22 be 18 be 6a 3e 54 3c
       0.22265625 -0.26757812 -0.28710938 0.110839844 -0.15820312 -0.1484375 0.22851562 0.012939453
000160 3d 3e d7 bd b6 3c 8e 3e 25 ba 29 3e 85 3e 6d 3e
       0.18457031 -0.10498047 0.022216797 0.27734375 -0.00062942505 0.16503906 0.25976562 0.23144531
000170 77 3e 16 be d9 3d b8 3b 07 be 25 be 01 3e 14 3e
       0.24121094 -0.14648438 0.10595703 0.0056152344 -0.13183594 -0.16113281 0.12597656 0.14453125
000180 3e 3d 78 3e bf 3d 70 3e 18 3e a6 3c da bd 76 be
       0.04638672 0.2421875 0.09326172 0.234375 0.1484375 0.020263672 -0.10644531 -0.24023438
000190 94 3e a2 bd ec 3d 27 3e 4d be 0f 3e 35 3e 19 be
       0.2890625 -0.07910156 0.115234375 0.16308594 -0.20019531 0.13964844 0.17675781 -0.14941406
0001a0 e0 bd 03 bd 7b 3e 88 3e 11 3d 0e be 0c 3e 07 3d
       -0.109375 -0.031982422 0.24511719 0.265625 0.03540039 -0.13867188 0.13671875 0.032958984
0001b0 de bc 70 be b4 bc 96 3d d0 bd 32 bc 70 3e 88 be
       -0.02709961 -0.234375 -0.021972656 0.07324219 -0.1015625 -0.010864258 0.234375 -0.265625
0001c0 84 3e 3d be 83 be 13 3d 8d 3e 4e be 88 be 70 3e
       0.2578125 -0.18457031 -0.25585938 0.035888672 0.27539062 -0.20117188 -0.265625 0.234375
0001d0 0a be 80 be 84 be aa bd 8f be 81 be f7 3d 32 bd
       -0.13476562 -0.25 -0.2578125 -0.08300781 -0.27929688 -0.25195312 0.12060547 -0.04345703
0001e0 b7 3d 1b 3e 1c 3d 78 3e 26 be 3e 3e 11 3c 67 3e
       0.08935547 0.15136719 0.038085938 0.2421875 -0.16210938 0.18554688 0.008850098 0.22558594
0001f0 35 3e 5c be 24 be b9 bd 10 bd 29 3e f4 3d 3e 3e
       0.17675781 -0.21484375 -0.16015625 -0.09033203 -0.03515625 0.16503906 0.119140625 0.18554688

layer_8.gate_k.net.0.weight bf16 [8, 64]
000000 f1 bd 0a 3d 80 bd 80 bd e2 bd 25 3d e8 bd 46 bd
       -0.11767578 0.033691406 -0.0625 -0.0625 -0.11035156 0.040283203 -0.11328125 -0.048339844
000010 80 3d 80 3d 91 3d 83 3d 87 3d a4 3d 80 bd 40 3d
       0.0625 0.0625 0.07080078 0.063964844 0.06591797 0.080078125 -0.0625 0.046875
000020 80 3d a7 bc 88 bd 51 bd 80 bd 5e bd 80 bd fd 3c
       0.0625 -0.020385742 -0.06640625 -0.05102539 -0.0625 -0.05419922 -0.0625 0.030883789
000030 f3 3d 19 3d 80 bd 80 bd 92 3d b2 bd 86 bd 2e bd
       0.118652344 0.037353516 -0.0625 -0.0625 0.07128906 -0.08691406 -0.06542969 -0.04248047
000040 94 3d 82 bd 80 3d 5e 3d b0 3d 09 bd ea 3d d9 bd
       0.072265625 -0.06347656 0.0625 0.05419922 0.0859375 -0.033447266 0.11425781 -0.10595703
000050 80 bd ff bd 64 3d 81 bd 80 bd 80 3d 81 bd de bd
       -0.0625 -0.12451172 0.055664062 -0.06298828 -0.0625 0.0625 -0.06298828 -0.10839844
000060 c5 3d 9e 3d 81 3d cc 3d 80 3d 88 3d d7 3d 81 3d
       0.096191406 0.07714844 0.06298828 0.099609375 0.0625 0.06640625 0.10498047 0.06298828
000070 c8 bd 81 bd 80 bd 49 bd 17 3d 93 3d 80 3d bd bd
       -0.09765625 -0.06298828 -0.0625 -0.049072266 0.036865234 0.071777344 0.0625 -0.092285156
000080 80 3d 80 3d 99 3d 81 bd 80 3d 82 bd 80 bd 62 bd
       0.0625 0.0625 0.07470703 -0.06298828 0.0625 -0.06347656 -0.0625 -0.05517578
000090 f9 bd e4 3d 8b 3d 82 3d a2 bd 80 bd 92 3d b8 bd
       -0.12158203 0.111328125 0.067871094 0.06347656 -0.07910156 -0.0625 0.07128906 -0.08984375
0000a0 87 3d 50 bd a8 bd 87 bd c1 bd ed 3d 89 3d ed bd
       0.06591797 -0.05078125 -0.08203125 -0.06591797 -0.09423828 0.115722656 0.06689453 -0.115722656
0000b0 8d bd 01 3d 80 bd 82 bd d1 bd 89 bd 2c bd c4 bd
       -0.068847656 0.03149414 -0.0625 -0.06347656 -0.10205078 -0.06689453 -0.041992188 -0.095703125
0000c0 80 3d 80 bd 86 3d 35 bd 80 3d 81 3d 81 3d 3a bd
       0.0625 -0.0625 0.06542969 -0.044189453 0.0625 0.06298828 0.06298828 -0.045410156
0000d0 c3 3d fc 3d 80 3d 80 bd df bd fd bd 80 bd 4f bd
       0.095214844 0.123046875 0.0625 -0.0625 -0.10888672 -0.123535156 -0.0625 -0.05053711
0000e0 02 bd 80 bd f2 3d f6 3d 8e 3c 80 3d 80 bd 80 3d
       -0.03173828 -0.0625 0.11816406 0.12011719 0.017333984 0.0625 -0.0625 0.0625
0000f0 f4 bd 80 bd f2 3d cb bd 02 3d 80 3d d0 bd d6 bd
       -0.119140625 -0.0625 0.11816406 -0.099121094 0.03173828 0.0625 -0.1015625 -0.10449219
000100 bf 3d 10 bd 95 3d 80 3d 1c bd ab bd 05 bd a9 3d
       0.09326172 -0.03515625 0.072753906 0.0625 -0.038085938 -0.083496094 -0.032470703 0.08251953
000110 39 3d 50 bd c3 3c c4 3d e0 bd a4 3d 11 bd 44 bd
       0.045166016 -0.05078125 0.023803711 0.095703125 -0.109375 0.080078125 -0.03540039 -0.047851562
000120 48 3d d5 bd 03 3d f5 3d 33 3d 71 bd 17 bd ca 3d
       0.048828125 -0.104003906 0.031982422 0.119628906 0.043701172 -0.05883789 -0.036865234 0.09863281
000130 00 bd ae 3d a5 bd 49 3d 00 3d 84 3c ee 3d 8e 3d
       -0.03125 0.08496094 -0.080566406 0.049072266 0.03125 0.016113281 0.11621094 0.06933594
000140 b0 3d 76 3d 00 bd 00 3d e2 bd d8 bd 9f bd a6 bd
       0.0859375 0.060058594 -0.03125 0.03125 -0.11035156 -0.10546875 -0.07763672 -0.08105469
000150 80 3d 23 3d 16 bd c3 bd fc 3d c0 3d 71 3d fd 3d
       0.0625 0.039794922 -0.036621094 -0.095214844 0.123046875 0.09375 0.05883789 0.123535156
000160 88 bd 92 bd 95 bd 31 3d e2 bd cb 3d c0 bc 08 3d
       -0.06640625 -0.07128906 -0.072753906 0.04321289 -0.11035156 0.099121094 -0.0234375 0.033203125
000170 8d bd 1a 3d 69 3d 02 3d f2 3d 7c bd 2e 3d ae bd
       -0.068847656 0.037597656 0.056884766 0.03173828 0.11816406 -0.061523438 0.04248047 -0.08496094
000180 f1 bc 0d bd 66 3d b3 3d 00 bd 03 bd 80 3d c9 3d
       -0.029418945 -0.034423828 0.056152344 0.087402344 -0.03125 -0.031982422 0.0625 0.09814453
000190 37 bd b9 3d 0a 3d d3 3d ff 3d af 3d 93 3d 12 3d
       -0.044677734 0.09033203 0.033691406 0.103027344 0.12451172 0.08544922 0.071777344 0.03564453
0001a0 7d bd db 3c 5d 3d 2f bd 9e 3c 96 3d ed bd e9 bd
       -0.061767578 0.026733398 0.053955078 -0.04272461 0.01928711 0.07324219 -0.115722656 -0.11376953
0001b0 99 bd fe bc 2b 3b 2f 3d 3b bd a9 bd 81 3d ad 3d
       -0.07470703 -0.03100586 0.002609253 0.04272461 -0.045654297 -0.08251953 0.06298828 0.084472656
0001c0 9a bd e0 3d 2d bd fc 3d eb bd f5 bd 02 3d ef bd
       -0.07519531 0.109375 -0.042236328 0.123046875 -0.114746094 -0.119628906 0.03173828 -0.11669922
0001d0 d2 bd 82 3d 51 3d e9 bd b8 3d f3 3c be 3d 96 bd
       -0.10253906 0.06347656 0.05102539 -0.11376953 0.08984375 0.029663086 0.09277344 -0.07324219
0001e0 f3 bd aa bd 36 3d 00 be 9b bc 7f bd 80 bd 4d bd
       -0.118652344 -0.08300781 0.044433594 -0.125 -0.018920898 -0.06225586 -0.0625 -0.050048828
0001f0 f0 bc fa bd 84 3d 9d bd 9c 3d eb 3d 45 bd 19 bd
       -0.029296875 -0.12207031 0.064453125 -0.076660156 0.076171875 0.114746094 -0.048095703 -0.037353516

layer_8.gate_k.net.0.bias bf16 [8]
000000 d6 3d 99 3d ba bd 80 bd 88 3d 80 bd 81 bd fa 3d
       0.10449219 0.07470703 -0.09082031 -0.0625 0.06640625 -0.0625 -0.06298828 0.12207031

layer_8.gate_k.net.2.weight bf16 [8, 8]
000000 7e be 93 be eb 3d 19 3e 50 bd 03 bd 18 3e 80 3e
       -0.24804688 -0.28710938 0.114746094 0.14941406 -0.05078125 -0.031982422 0.1484375 0.25
000010 2f be b9 3d 05 be 3b be 3c be 87 be 99 3e 00 be
       -0.17089844 0.09033203 -0.12988281 -0.18261719 -0.18359375 -0.26367188 0.29882812 -0.125
000020 e2 bd a9 bd 6c be 6b 3e e2 bd 40 3e d2 3d b4 be
       -0.11035156 -0.08251953 -0.23046875 0.22949219 -0.11035156 0.1875 0.10253906 -0.3515625
000030 a6 be b0 be a2 3e a5 3e f8 3d 16 be ee 3d 89 be
       -0.32421875 -0.34375 0.31640625 0.32226562 0.12109375 -0.14648438 0.11621094 -0.26757812
000040 84 bd 99 bd 78 3e 00 3d 66 bd 79 bd ae 3e 7d be
       -0.064453125 -0.07470703 0.2421875 0.03125 -0.056152344 -0.060791016 0.33984375 -0.24707031
000050 24 3e a3 be 86 3d 98 be 30 3e a2 3e 2e be a2 3e
       0.16015625 -0.31835938 0.06542969 -0.296875 0.171875 0.31640625 -0.16992188 0.31640625
000060 a2 be 2d 3e 80 3d a6 bd 80 bd 11 3e 84 bd af be
       -0.31640625 0.16894531 0.0625 -0.08105469 -0.0625 0.14160156 -0.064453125 -0.34179688
000070 03 be 9a 3e 9c be f4 bd 15 3e 84 3e 88 be 7b be
       -0.12792969 0.30078125 -0.3046875 -0.119140625 0.14550781 0.2578125 -0.265625 -0.24511719

layer_8.gate_k.net.2.bias bf16 [8]
000000 5a 3e 76 3e 6b 3e 50 3e 9a be ec 3d 80 bd 80 bd
       0.21289062 0.24023438 0.22949219 0.203125 -0.30078125 0.115234375 -0.0625 -0.0625

layer_8.gate_v.net.0.weight bf16 [8, 64]
000000 6b bd f8 3d 50 3d af bd 85 3d 80 3d a0 bd 48 bd
       -0.057373047 0.12109375 0.05078125 -0.08544922 0.064941406 0.0625 -0.078125 -0.048828125
000010 a1 bd 6a bc 1d bd 31 bd 8c bc 8b bd fe bd 05 bd
       -0.07861328 -0.014282227 -0.038330078 -0.04321289 -0.017089844 -0.067871094 -0.12402344 -0.032470703
000020 f3 3d bf bd 07 3d 81 bd 47 3d 80 3d 80 bd d9 bd
       0.118652344 -0.09326172 0.032958984 -0.06298828 0.048583984 0.0625 -0.0625 -0.10595703
000030 6a bb 30 3b b9 3d 80 3d 93 3d a0 bd ef bd 9b bd
       -0.0035705566 0.0026855469 0.09033203 0.0625 0.071777344 -0.078125 -0.11669922 -0.075683594
000040 ce bd 04 3d 80 bd 06 bd 60 bd 56 bd 2f bd fb 3d
       -0.10058594 0.032226562 -0.0625 -0.032714844 -0.0546875 -0.052246094 -0.04272461 0.122558594
000050 46 bd d2 3d e6 3d 80 3d 8c 3c 1d 3d a8 bd ac 3c
       -0.048339844 0.10253906 0.11230469 0.0625 0.017089844 0.038330078 -0.08203125 0.020996094
000060 71 bd c4 bd d9 bd 80 bd b2 3b 1a 3d f4 3c 50 bd
       -0.05883789 -0.095703125 -0.10595703 -0.0625 0.005432129 0.037597656 0.029785156 -0.05078125
000070 1a 3d ac 3d 0d 3d 80 3d 0f 3d 80 bd ac bd 40 bd
       0.037597656 0.083984375 0.034423828 0.0625 0.03491211 -0.0625 -0.083984375 -0.046875
000080 f1 bd 09 3d cb bd b3 ba 48 bd db 3d d0 bd 4b bd
       -0.11767578 0.033447266 -0.099121094 -0.0013656616 -0.048828125 0.106933594 -0.1015625 -0.049560547
000090 3e 3d 09 3d d1 3d a8 bc 96 3d 9a bd 9f 3d 1d 3d
       0.04638672 0.033447266 0.10205078 -0.020507812 0.07324219 -0.07519531 0.07763672 0.038330078
0000a0 80 bd 45 bd 39 3d 85 3d b8 bd c6 bd 4e 3d e3 bd
       -0.0625 -0.048095703 0.045166016 0.064941406 -0.08984375 -0.09667969 0.05029297 -0.110839844
0000b0 f1 bd b9 3d 80 3d 0c 3d 8f 3c 42 3d b7 bd d4 3d
       -0.11767578 0.09033203 0.0625 0.034179688 0.017456055 0.04736328 -0.08935547 0.103515625
0000c0 0f bd 49 3d f2 bd bb bc 9c bd 90 3d f3 bd e7 3d
       -0.03491211 0.049072266 -0.11816406 -0.022827148 -0.076171875 0.0703125 -0.118652344 0.11279297
0000d0 e6 37 24 bd 59 bd d1 bd f8 bc d1 3d 2c 3d 07 3d
       2.7418137e-05 -0.040039062 -0.052978516 -0.10205078 -0.030273438 0.10205078 0.041992188 0.032958984
0000e0 d5 bd 1e 3d bd 3d d0 3d 3f 3d 80 3d bb bd 80 bd
       -0.104003906 0.03857422 0.092285156 0.1015625 0.04663086 0.0625 -0.091308594 -0.0625
0000f0 fa 3d 1a 3d 7c 3d be bd d2 bd ca 3d 7b bd 8a bd
       0.12207031 0.037597656 0.061523438 -0.09277344 -0.10253906 0.09863281 -0.061279297 -0.06738281
000100 1b bd 02 bd 57 3d a0 3d e3 3d eb 3c 48 3b c9 bd
       -0.037841797 -0.03173828 0.052490234 0.078125 0.110839844 0.028686523 0.0030517578 -0.09814453
000110 82 bd a1 bc 83 bd 94 bc fe bc 93 3d e0 bd 12 bd
       -0.06347656 -0.01965332 -0.063964844 -0.018066406 -0.03100586 0.071777344 -0.109375 -0.03564453
000120 69 bd 98 3c 8a bd fc bd 00 bd 08 3d de 3d ad bd
       -0.056884766 0.018554688 -0.06738281 -0.123046875 -0.03125 0.033203125 0.10839844 -0.084472656
000130 fd b9 cf 3d f7 3d 0b 3d 69 bd 97 3d b9 bd d5 bd
       -0.0004825592 0.10107422 0.12060547 0.033935547 -0.056884766 0.07373047 -0.09033203 -0.104003906
000140 ce bc 95 bd 37 bd 59 bd b9 bd 44 bd a7 bd b4 bd
       -0.025146484 -0.072753906 -0.044677734 -0.052978516 -0.09033203 -0.047851562 -0.08154297 -0.087890625
000150 87 3d 01 bd 77 bd fb bd c4 3d 97 bd d0 3d d9 bd
       0.06591797 -0.03149414 -0.060302734 -0.122558594 0.095703125 -0.07373047 0.1015625 -0.10595703
000160 56 bd f6 3d 80 3d a4 bd a8 bd 81 bd 42 3d 86 3d
       -0.052246094 0.12011719 0.0625 -0.080078125 -0.08203125 -0.06298828 0.04736328 0.06542969
000170 3e bd d7 bd a9 bd a0 3d 18 3d 0c 3d 84 3d a5 bd
       -0.04638672 -0.10498047 -0.08251953 0.078125 0.037109375 0.034179688 0.064453125 -0.080566406
000180 c1 bd b6 bd fc 3d 52 3d 11 bd fa bd 01 bd ee bd
       -0.09423828 -0.08886719 0.123046875 0.05126953 -0.03540039 -0.12207031 -0.03149414 -0.11621094
000190 a8 bd 00 3d de bd 59 3d b6 3d 80 bd ba 3d c7 3d
       -0.08203125 0.03125 -0.10839844 0.052978516 0.08886719 -0.0625 0.09082031 0.09716797
0001a0 ec bd e2 bc e6 bc 02 bd 8d 3d 83 bd aa bd dc 3c
       -0.115234375 -0.02758789 -0.028076172 -0.03173828 0.068847656 -0.063964844 -0.08300781 0.026855469
0001b0 8a bc 8b bd 80 bd e6 bd 91 3d 83 bd 28 bd d4 bd
       -0.016845703 -0.067871094 -0.0625 -0.11230469 0.07080078 -0.063964844 -0.041015625 -0.103515625
0001c0 ab bd ff bc fe 3d 09 3d 8e 3b 45 bd 00 bd 01 3d
       -0.083496094 -0.03112793 0.12402344 0.033447266 0.004333496 -0.048095703 -0.03125 0.03149414
0001d0 c6 3d 04 bd 84 3d e5 3b c0 3d 9f bd 83 bd 6c bd
       0.09667969 -0.032226562 0.064453125 0.0069885254 0.09375 -0.07763672 -0.063964844 -0.057617188
0001e0 0e bd 28 bd 67 3d bc bd b4 bd 9b 3d 80 3d ef 3c
       -0.03466797 -0.041015625 0.056396484 -0.091796875 -0.087890625 0.075683594 0.0625 0.029174805
0001f0 39 3d 13 bd 33 bd 0d bd ed 3c 2f bd 9c bd 80 3d
       0.045166016 -0.035888672 -0.043701172 -0.034423828 0.028930664 -0.04272461 -0.076171875 0.0625

layer_8.gate_v.net.0.bias bf16 [8]
000000 ff 3d b1 3d 80 bd 8a 3d c8 bd 93 3d 83 3d 00 3e
       0.12451172 0.08642578 -0.0625 0.06738281 -0.09765625 0.071777344 0.063964844 0.125

layer_8.gate_v.net.2.weight bf16 [8, 8]
000000 ce bd 70 be 97 3e b1 3e 01 bd 9f 3d b0 3e 99 be
       -0.10058594 -0.234375 0.29492188 0.34570312 -0.03149414 0.07763672 0.34375 -0.29882812
000010 df bd 85 be 2d 3e 72 3e 9c be 80 bd a4 be 86 3e
       -0.10888672 -0.25976562 0.16894531 0.23632812 -0.3046875 -0.0625 -0.3203125 0.26171875
000020 90 3e ec 3d 2a bd 86 bd 72 3e f9 3d 8a be 83 bd
       0.28125 0.115234375 -0.041503906 -0.06542969 0.23632812 0.12158203 -0.26953125 -0.063964844
000030 90 3e 6b 3e 80 be 8d be 63 3e 93 3e 36 be 62 be
       0.28125 0.22949219 -0.25 -0.27539062 0.22167969 0.28710938 -0.17773438 -0.22070312
000040 a8 3d 37 be 3b 3e 08 3e 8f 3e 92 bd da bd 8e be
       0.08203125 -0.17871094 0.18261719 0.1328125 0.27929688 -0.07128906 -0.10644531 -0.27734375
000050 a1 3e 39 3e 00 bd 5d be 97 3e a6 3e ba bd 52 be
       0.31445312 0.18066406 -0.03125 -0.21582031 0.29492188 0.32421875 -0.09082031 -0.20507812
000060 1d be 6d 3e 9c be 24 be 19 bd 6b 3e 86 bd 85 be
       -0.15332031 0.23144531 -0.3046875 -0.16015625 -0.037353516 0.22949219 -0.06542969 -0.25976562
000070 75 be eb 3d 06 bd bc bd 64 3e 0a 3e 88 bd fe bd
       -0.23925781 0.114746094 -0.032714844 -0.091796875 0.22265625 0.13476562 -0.06640625 -0.12402344

layer_8.gate_v.net.2.bias bf16 [8]
000000 6e be b3 be 2e 3e 80 bd 96 3e 02 be af be 46 be
       -0.23242188 -0.34960938 0.16992188 -0.0625 0.29296875 -0.12695312 -0.34179688 -0.19335938

layer_9.Wk bf16 [64, 8]
000000 0f be 17 3e 90 be 5f be 33 bd 1c 3d c5 bd 27 be
       -0.13964844 0.14746094 -0.28125 -0.21777344 -0.043701172 0.038085938 -0.096191406 -0.16308594
000010 61 be 50 3d 56 be 7e be 25 be 37 be 80 3d 3f 3e
       -0.21972656 0.05078125 -0.20898438 -0.24804688 -0.16113281 -0.17871094 0.0625 0.18652344
000020 e5 3d 06 3e 86 3e 82 bd a3 bd 80 bd 9b 3d 1d be
       0.111816406 0.13085938 0.26171875 -0.06347656 -0.079589844 -0.0625 0.075683594 -0.15332031
000030 80 3d 40 be 37 3e 8f be fb 3d 80 3d a0 bd 08 be
       0.0625 -0.1875 0.17871094 -0.27929688 0.122558594 0.0625 -0.078125 -0.1328125
000040 57 3e ab 3d 83 bd 8b bd 7e 3d bd bd 10 3d 18 be
       0.20996094 0.083496094 -0.063964844 -0.067871094 0.06201172 -0.092285156 0.03515625 -0.1484375
000050 5c 3d 7f be aa bd 80 3d 33 be 99 3d 78 3d 19 3e
       0.053710938 -0.24902344 -0.08300781 0.0625 -0.17480469 0.07470703 0.060546875 0.14941406
000060 2e be da 3d 6e 3e 91 be 3f 3d 1b 3e 45 3e 2a 3e
       -0.16992188 0.10644531 0.23242188 -0.28320312 0.04663086 0.15136719 0.19238281 0.16601562
000070 59 3d 36 be 2f 3e 6f be 80 3d 6f 3d 76 3e e8 bd
       0.052978516 -0.17773438 0.17089844 -0.23339844 0.0625 0.05834961 0.24023438 -0.11328125
000080 f9 bd c3 3d 51 be 22 3e 3c 3e 80 3d 14 3e 32 3e
       -0.12158203 0.095214844 -0.20410156 0.15820312 0.18359375 0.0625 0.14453125 0.17382812
000090 80 3d 85 3e 63 be 24 3e d3 bd 53 be 18 bd 58 be
       0.0625 0.25976562 -0.22167969 0.16015625 -0.103027344 -0.20605469 -0.037109375 -0.2109375
0000a0 20 3e a1 3d 80 bd 80 3d 42 be 5d 3e 50 be 19 be
       0.15625 0.07861328 -0.0625 0.0625 -0.18945312 0.21582031 -0.203125 -0.14941406
0000b0 6f 3e cc bd 43 3d 85 be 4f be 81 bd 3f be 80 bd
       0.23339844 -0.099609375 0.047607422 -0.25976562 -0.20214844 -0.06298828 -0.18652344 -0.0625
0000c0 8e 3e 7e 3d 05 3d ed 3d 82 3e 81 bd 7d be 81 be
       0.27734375 0.06201172 0.032470703 0.115722656 0.25390625 -0.06298828 -0.24707031 -0.25195312
0000d0 65 be bd 3d 36 3e 31 3e e4 bd 80 bd 87 3d cf bd
       -0.22363281 0.092285156 0.17773438 0.17285156 -0.111328125 -0.0625 0.06591797 -0.10107422
0000e0 5f bd 96 3d 65 be e0 3d 53 bd c2 bd 18 be 36 be
       -0.05444336 0.07324219 -0.22363281 0.109375 -0.051513672 -0.09472656 -0.1484375 -0.17773438
0000f0 74 be 14 3e 80 bd 57 3e 74 be 47 be a3 3d 39 be
       -0.23828125 0.14453125 -0.0625 0.20996094 -0.23828125 -0.19433594 0.079589844 -0.18066406
000100 5c 3e 47 3e 92 be 49 3e 20 be 5f 3e 80 bd fe 3d
       0.21484375 0.19433594 -0.28515625 0.19628906 -0.15625 0.21777344 -0.0625 0.12402344
000110 7d 3d 6b 3e 0f 3d 68 be 93 3e 80 bd c1 bd 82 3d
       0.061767578 0.22949219 0.03491211 -0.2265625 0.28710938 -0.0625 -0.09423828 0.06347656
000120 57 be 0f 3d 38 3d 6b 3d 78 3e b0 bd 50 3d cd 3d
       -0.20996094 0.03491211 0.044921875 0.057373047 0.2421875 -0.0859375 0.05078125 0.100097656
000130 25 3e fb bd 79 3e 81 3d 84 be f3 3d 36 be 80 3d
       0.16113281 -0.122558594 0.24316406 0.06298828 -0.2578125 0.118652344 -0.17773438 0.0625
000140 0b 3e 80 bd 77 bd 08 bd 89 3e 30 be 12 bd 3d be
       0.13574219 -0.0625 -0.060302734 -0.033203125 0.26757812 -0.171875 -0.03564453 -0.18457031
000150 06 3c 1e be e4 bd 56 3e 6f 3e 57 3e 9a bd 00 bd
       0.008178711 -0.15429688 -0.111328125 0.20898438 0.23339844 0.20996094 -0.07519531 -0.03125
000160 6c be 25 3e 84 3e ce bd 80 3d ff bc 93 be 43 be
       -0.23046875 0.16113281 0.2578125 -0.10058594 0.0625 -0.03112793 -0.28710938 -0.19042969
000170 70 be 1c 3e 3a be af 3d 03 be 1e be b6 bd 80 bd
       -0.234375 0.15234375 -0.18164062 0.08544922 -0.12792969 -0.15429688 -0.08886719 -0.0625
000180 8f 3e 6f be 3a 3e 8f 3e 12 be 4d be b7 3d 46 be
       0.27929688 -0.23339844 0.18164062 0.27929688 -0.14257812 -0.20019531 0.08935547 -0.19335938
000190 bf bd 90 3d d0 bd 60 3e 93 3e e3 bd 8b 3e 80 bd
       -0.09326172 0.0703125 -0.1015625 0.21875 0.28710938 -0.110839844 0.27148438 -0.0625
0001a0 24 be 3c be 86 3e 80 3d 2e be 40 3d 47 3d 57 be
       -0.16015625 -0.18359375 0.26171875 0.0625 -0.16992188 0.046875 0.048583984 -0.20996094
0001b0 03 be 6a 3e e2 3d 55 3e 29 be 2f 3e 91 be b8 3d
       -0.12792969 0.22851562 0.11035156 0.20800781 -0.16503906 0.17089844 -0.28320312 0.08984375
0001c0 67 3e e5 bc fb bd 80 3d f9 3d 80 bd 14 be ec 3d
       0.22558594 -0.027954102 -0.122558594 0.0625 0.12158203 -0.0625 -0.14453125 0.115234375
0001d0 89 3e 82 3e a1 3d 73 bd 2e 3d 80 3d 8e be ef bd
       0.26757812 0.25390625 0.07861328 -0.059326172 0.04248047 0.0625 -0.27734375 -0.11669922
0001e0 3b 3e 4f 3d ce 3d 27 3e 6f be 7a be b6 3d 35 bd
       0.18261719 0.05053711 0.10058594 0.16308594 -0.23339844 -0.24414062 0.08886719 -0.044189453
0001f0 65 3e 79 be 46 3e 90 3e 05 3d e5 3d 82 be c0 3c
       0.22363281 -0.24316406 0.19335938 0.28125 0.032470703 0.111816406 -0.25390625 0.0234375

layer_9.Uk bf16 [64, 8]
000000 f3 3d ce bc 3c be 86 bd 73 bd ee 3d 6c 3d 02 be
       0.118652344 -0.025146484 -0.18359375 -0.06542969 -0.059326172 0.11621094 0.057617188 -0.12695312
000010 0e be 54 bd 3b 3e f6 3d a0 3d 7d bc 76 be 13 be
       -0.13867188 -0.051757812 0.18261719 0.12011719 0.078125 -0.0154418945 -0.24023438 -0.14355469
000020 10 be 83 be a4 3d 99 3d 91 be 94 3d eb bd 4c be
       -0.140625 -0.25585938 0.080078125 0.07470703 -0.28320312 0.072265625 -0.114746094 -0.19921875
000030 1e be c8 bd 8c 3e 87 be 80 3d 72 be 9b bd f9 3d
       -0.15429688 -0.09765625 0.2734375 -0.26367188 0.0625 -0.23632812 -0.075683594 0.12158203
000040 5c 3e 2c 3e 57 be 80 bd 84 3d 0f be 82 3e 89 3e
       0.21484375 0.16796875 -0.20996094 -0.0625 0.064453125 -0.13964844 0.25390625 0.26757812
000050 40 be 6e bd 42 3d 20 3e 00 3d 92 3e 86 bd 2c be
       -0.1875 -0.05810547 0.04736328 0.15625 0.03125 0.28515625 -0.06542969 -0.16796875
000060 47 be 81 3e 5f 3d 89 3d 43 be 5f 3e 13 3e 1d 3e
       -0.19433594 0.25195312 0.05444336 0.06689453 -0.19042969 0.21777344 0.14355469 0.15332031
000070 bd 3d 57 be ca bd a0 3d 39 be 21 be 0e 3e 2c be
       0.092285156 -0.20996094 -0.09863281 0.078125 -0.18066406 -0.15722656 0.13867188 -0.16796875
000080 90 3e 02 3d d5 3d 03 bd 38 be 99 3d 34 be 8a be
       0.28125 0.03173828 0.104003906 -0.031982422 -0.1796875 0.07470703 -0.17578125 -0.26953125
000090 80 3d 06 be 17 be 18 be 53 be a8 3c 10 3e a8 3d
       0.0625 -0.13085938 -0.14746094 -0.1484375 -0.20605469 0.020507812 0.140625 0.08203125
0000a0 a7 3d 93 3e b3 3c 73 be 84 3e 40 be ea 3d 36 3e
       0.08154297 0.28710938 0.021850586 -0.23730469 0.2578125 -0.1875 0.11425781 0.17773438
0000b0 6c 3e 37 3e 5a be 0e be 26 3e 8a 3e 89 3d d7 3d
       0.23046875 0.17871094 -0.21289062 -0.13867188 0.16210938 0.26953125 0.06689453 0.10498047
0000c0 56 be 32 3e 1f be 88 3e 8a be 58 be 19 bd da bc
       -0.20898438 0.17382812 -0.15527344 0.265625 -0.26953125 -0.2109375 -0.037353516 -0.026611328
0000d0 dc 3d 73 be 9d 3d 53 3e 23 be 86 bd 78 3e 6c 3e
       0.107421875 -0.23730469 0.076660156 0.20605469 -0.15917969 -0.06542969 0.2421875 0.23046875
0000e0 85 3e 80 3d 8a 3e ba 3d 19 3d 85 3e 93 3e b5 bd
       0.25976562 0.0625 0.26953125 0.09082031 0.037353516 0.25976562 0.28710938 -0.088378906
0000f0 a5 bd 5d be 71 3e e3 bd a5 bd 0a be 1c be 1c 3a
       -0.080566406 -0.21582031 0.23535156 -0.110839844 -0.080566406 -0.13476562 -0.15234375 0.0005950928
000100 74 3e 0e 3d 80 bd 28 be 50 be 81 bd 4b be 90 3e
       0.23828125 0.03466797 -0.0625 -0.1640625 -0.203125 -0.06298828 -0.19824219 0.28125
000110 1b be 3f 3e 41 3e 80 3d 83 3d de 3c ca bd 0a 3d
       -0.15136719 0.18652344 0.18847656 0.0625 0.063964844 0.02709961 -0.09863281 0.033691406
000120 a0 ba 03 be 3d be 52 be 70 3e 0e 3e 63 3c 09 bd
       -0.0012207031 -0.12792969 -0.18457031 -0.20507812 0.234375 0.13867188 0.0138549805 -0.033447266
000130 66 be 8c be 93 be 10 bd d0 bc e2 bd 24 be 80 bd
       -0.22460938 -0.2734375 -0.28710938 -0.03515625 -0.025390625 -0.11035156 -0.16015625 -0.0625
000140 f4 bc 45 3d 50 3d 7d 3e ee bd 46 3e d1 3d 8b 3d
       -0.029785156 0.048095703 0.05078125 0.24707031 -0.11621094 0.19335938 0.10205078 0.067871094
000150 d0 bc 97 3d 7e 3e 8c bd 7f 3d 82 3d 87 be cf 3d
       -0.025390625 0.07373047 0.24804688 -0.068359375 0.06225586 0.06347656 -0.26367188 0.10107422
000160 d6 3d 51 be 8b be 46 be 54 3e 23 3e 40 be 46 3e
       0.10449219 -0.20410156 -0.27148438 -0.19335938 0.20703125 0.15917969 -0.1875 0.19335938
000170 36 3d f5 3d 78 be 1d be 0f be ae 3d 9c 3d 06 be
       0.044433594 0.119628906 -0.2421875 -0.15332031 -0.13964844 0.08496094 0.076171875 -0.13085938
000180 56 be 91 be 8d be 67 3e 27 be 68 be 50 be 88 bd
       -0.20898438 -0.28320312 -0.27539062 0.22558594 -0.16308594 -0.2265625 -0.203125 -0.06640625
000190 28 be 4b 3e 46 be d7 3d 8b 3e 79 be 4f be 2c 3e
       -0.1640625 0.19824219 -0.19335938 0.10498047 0.27148438 -0.24316406 -0.20214844 0.16796875
0001a0 51 be 80 bd 4f be 6d be 69 3e 7b be 87 bd ca 3d
       -0.20410156 -0.0625 -0.20214844 -0.23144531 0.22753906 -0.24511719 -0.06591797 0.09863281
0001b0 8a be 80 bd fe 3c aa bd 54 3e 80 3d 30 bd 27 bd
       -0.26953125 -0.0625 0.03100586 -0.08300781 0.20703125 0.0625 -0.04296875 -0.040771484
0001c0 80 bd 09 be 90 3e 80 3d 45 3e de bd 5a be 06 3e
       -0.0625 -0.13378906 0.28125 0.0625 0.19238281 -0.10839844 -0.21289062 0.13085938
0001d0 1e 3d 94 3e 87 be e8 3d 75 3e 56 be 0f be 56 3e
       0.03857422 0.2890625 -0.26367188 0.11328125 0.23925781 -0.20898438 -0.13964844 0.20898438
0001e0 6a be 86 3e f6 bd 7f be 34 3e 44 3e bd bd 9b 3d
       -0.22851562 0.26171875 -0.12011719 -0.24902344 0.17578125 0.19140625 -0.092285156 0.075683594
0001f0 90 3e 80 3d 83 3d 08 3e 01 bd d5 3d 18 be 3c be
       0.28125 0.0625 0.063964844 0.1328125 -0.03149414 0.104003906 -0.1484375 -0.18359375

layer_9.Wv bf16 [64, 8]
000000 c4 bd e3 bc 3d be 8d bd 38 be 80 bd ae 3d 2e be
       -0.095703125 -0.027709961 -0.18457031 -0.068847656 -0.1796875 -0.0625 0.08496094 -0.16992188
000010 06 be 61 3e b6 3d 24 be 02 be 83 be 80 3d e4 bd
       -0.13085938 0.21972656 0.08886719 -0.16015625 -0.12695312 -0.25585938 0.0625 -0.111328125
000020 0a be d1 bd 8b be 01 3e 67 3e 17 3e 4a be e5 3d
       -0.13476562 -0.10205078 -0.27148438 0.12597656 0.22558594 0.14746094 -0.19726562 0.111816406
000030 07 3e 01 be fc 3d d8 3d cf bd 64 3e 93 be 28 3e
       0.13183594 -0.12597656 0.123046875 0.10546875 -0.10107422 0.22265625 -0.28710938 0.1640625
000040 2e 3d 23 be 17 3d 84 be 17 be a8 3d 26 3d 6c be
       0.04248047 -0.15917969 0.036865234 -0.2578125 -0.14746094 0.08203125 0.040527344 -0.23046875
000050 08 3d 54 be 1c bd 16 be 3f 3e 45 3e 05 be 53 3d
       0.033203125 -0.20703125 -0.038085938 -0.14648438 0.18652344 0.19238281 -0.12988281 0.051513672
000060 d2 3d 0f be 18 bd 97 bd 87 be 26 bd 1f be 7d be
       0.10253906 -0.13964844 -0.037109375 -0.07373047 -0.26367188 -0.040527344 -0.15527344 -0.24707031
000070 87 be 38 bd 80 3d f9 3d 4e be 00 bd 85 3e 58 be
       -0.26367188 -0.044921875 0.0625 0.12158203 -0.20117188 -0.03125 0.25976562 -0.2109375
000080 43 be 58 be 67 be 4a 3e 45 be 51 3e 42 be 65 3e
       -0.19042969 -0.2109375 -0.22558594 0.19726562 -0.19238281 0.20410156 -0.18945312 0.22363281
000090 7a 3e 8b be 8c 3e 81 3d 81 bd 94 be c4 bd df bd
       0.24414062 -0.27148438 0.2734375 0.06298828 -0.06298828 -0.2890625 -0.095703125 -0.10888672
0000a0 0f bd 24 be 4f be 91 3d 4e 3e ee bd 3a 3e ef 3c
       -0.03491211 -0.16015625 -0.20214844 0.07080078 0.20117188 -0.11621094 0.18164062 0.029174805
0000b0 57 be 7c be 33 be 8a be db 3d 31 3e 4c 3d 16 3e
       -0.20996094 -0.24609375 -0.17480469 -0.26953125 0.106933594 0.17285156 0.049804688 0.14648438
0000c0 5a 3e 6f be d3 3d 1b be 0a bd 5d bd 5a be 80 3d
       0.21289062 -0.23339844 0.103027344 -0.15136719 -0.033691406 -0.053955078 -0.21289062 0.0625
0000d0 37 3d cc 3d f5 3d 6f be 81 bc e3 3d 1a be 27 3e
       0.044677734 0.099609375 0.119628906 -0.23339844 -0.01574707 0.110839844 -0.15039062 0.16308594
0000e0 db 3d 83 3e 8f bd 88 be 7a 3e 0e be 48 3e 84 be
       0.106933594 0.25585938 -0.06982422 -0.265625 0.24414062 -0.13867188 0.1953125 -0.2578125
0000f0 8f be f3 3d 75 3c 7c 3e 16 3e 7c 3e e1 3d 26 3e
       -0.27929688 0.118652344 0.014953613 0.24609375 0.14648438 0.24609375 0.10986328 0.16210938
000100 0b be 35 be 86 be 61 3e 8f be 80 3d 24 be 6e 3e
       -0.13574219 -0.17675781 -0.26171875 0.21972656 -0.27929688 0.0625 -0.16015625 0.23242188
000110 c1 3d d0 bb 74 bb 81 be 70 be 53 3d c6 3d 88 3e
       0.09423828 -0.0063476562 -0.0037231445 -0.25195312 -0.234375 0.051513672 0.09667969 0.265625
000120 78 be c7 3d 6c 3e 6f be 48 be 79 3e b5 3d b8 bd
       -0.2421875 0.09716797 0.23046875 -0.23339844 -0.1953125 0.24316406 0.088378906 -0.08984375
000130 19 3a 58 bd 8b 3e ab bd 47 be 42 be 2e 3d 3f 3e
       0.0005836487 -0.052734375 0.27148438 -0.083496094 -0.19433594 -0.18945312 0.04248047 0.18652344
000140 40 be 58 be 6c be 55 bd 4a be d8 bd 41 3d 25 be
       -0.1875 -0.2109375 -0.23046875 -0.052001953 -0.19726562 -0.10546875 0.04711914 -0.16113281
000150 5b bd 69 3e 66 bd 88 be e1 3d a3 3d e9 bd 5d be
       -0.053466797 0.22753906 -0.056152344 -0.265625 0.10986328 0.079589844 -0.11376953 -0.21582031
000160 82 be e5 3d 21 3e 80 3d 30 be 5d 3e 70 be e0 3d
       -0.25390625 0.111816406 0.15722656 0.0625 -0.171875 0.21582031 -0.234375 0.109375
000170 68 be 8a be 88 be 30 3e 91 3e c9 3d 53 be 7e be
       -0.2265625 -0.26953125 -0.265625 0.171875 0.28320312 0.09814453 -0.20605469 -0.24804688
000180 70 3e e3 3c 3a be 40 be 00 bd 12 be 4a 3e bc 3d
       0.234375 0.027709961 -0.18164062 -0.1875 -0.03125 -0.14257812 0.19726562 0.091796875
000190 29 3e 0d bd 83 3d 2c 3e f3 3d 99 3d 60 3e 69 3e
       0.16503906 -0.034423828 0.063964844 0.16796875 0.118652344 0.07470703 0.21875 0.22753906
0001a0 5b be 1a be 34 3e 83 3e ad bd d0 bd f2 3d f8 bd
       -0.21386719 -0.15039062 0.17578125 0.25585938 -0.084472656 -0.1015625 0.11816406 -0.12109375
0001b0 3a be 1f 3e a5 3d 80 bd 72 3e 73 be e9 3d c0 bd
       -0.18164062 0.15527344 0.080566406 -0.0625 0.23632812 -0.23730469 0.11376953 -0.09375
0001c0 33 be 0f bd 78 be 16 3e 9d bd 83 be 94 bd 0c be
       -0.17480469 -0.03491211 -0.2421875 0.14648438 -0.076660156 -0.25585938 -0.072265625 -0.13671875
0001d0 d1 3d 67 3e 8c 3e 5e 3e 8a be 17 be d6 bd 52 be
       0.10205078 0.22558594 0.2734375 0.21679688 -0.26953125 -0.14746094 -0.10449219 -0.20507812
0001e0 82 3d 39 3e db 3d 9c bd b6 3c a0 bd 78 3e 25 3d
       0.06347656 0.18066406 0.106933594 -0.076171875 0.022216797 -0.078125 0.2421875 0.040283203
0001f0 7c bd ae 3c 87 be 4f 3e 9f 3d 4f be 5d 3e 19 be
       -0.061523438 0.021240234 -0.26367188 0.20214844 0.07763672 -0.20214844 0.21582031 -0.14941406
