empty_dirs_for_codex/outputs/runs_recovery/recovery_optionb_sweep_v1/main_contr_optionb_loto_overwrite/checkpoints/train_state_step_1500.pt (torch, 36990 bytes, 40 tensors)

layer_10.Bk bf16 [64, 4]
000000 0a 3e 89 be 5f 3d 7f be 14 3e 88 3e 12 be 88 3e
       0.13476562 -0.26757812 0.05444336 -0.24902344 0.14453125 0.265625 -0.14257812 0.265625
000010 88 be 11 3e 4f 3d 8b bd 28 bd f3 3d 5e bd 93 be
       -0.265625 0.14160156 0.05053711 -0.067871094 -0.041015625 0.118652344 -0.05419922 -0.28710938
000020 dc bd 81 3e 83 be cd bd fb 3d 5e 3e 65 be 52 be
       -0.107421875 0.25195312 -0.25585938 -0.100097656 0.122558594 0.21679688 -0.22363281 -0.20507812
000030 38 3e 4f 3e 46 3e 2f 3e 82 be c9 3d 30 bc 3b 3d
       0.1796875 0.20214844 0.19335938 0.17089844 -0.25390625 0.09814453 -0.0107421875 0.045654297
000040 e9 bd 93 3e 84 bc 50 be 1e 3e cc bb 3e be 06 be
       -0.11376953 0.28710938 -0.016113281 -0.203125 0.15429688 -0.006225586 -0.18554688 -0.13085938
000050 40 be 6f 3d 83 3d a8 bd c8 3c 25 be 97 be eb bb
       -0.1875 0.05834961 0.063964844 -0.08203125 0.024414062 -0.16113281 -0.29492188 -0.007171631
000060 90 3e 63 be 71 3d 19 be 3f bd 8e 3d 16 be 82 be
       0.28125 -0.22167969 0.05883789 -0.14941406 -0.04663086 0.06933594 -0.14648438 -0.25390625
000070 97 bb b5 bc 5c 3e f3 3d 2f 3e 3f be 8f be 38 be
       -0.0046081543 -0.022094727 0.21484375 0.118652344 0.17089844 -0.18652344 -0.27929688 -0.1796875
000080 74 be 2a bc b5 bd df bc ac bd 49 bd 87 3d 95 3e
       -0.23828125 -0.010375977 -0.088378906 -0.02722168 -0.083984375 -0.049072266 0.06591797 0.29101562
000090 7b bd 7a 3e 89 3e 12 3e a1 bd a2 3d 47 be cf bc
       -0.061279297 0.24414062 0.26757812 0.14257812 -0.07861328 0.07910156 -0.19433594 -0.025268555
0000a0 0e be 69 be 81 be dc bd 98 3d cd bb 28 3c ff 3d
       -0.13867188 -0.22753906 -0.25195312 -0.107421875 0.07421875 -0.0062561035 0.010253906 0.12451172
0000b0 ae 3d 4c 3e 92 bd 8c 3d 42 bb d1 bd 4c be a9 bd
       0.08496094 0.19921875 -0.07128906 0.068359375 -0.002960205 -0.10205078 -0.19921875 -0.08251953
0000c0 90 be 10 3d 72 be d4 bd ee bd 82 3e 78 be 91 bd
       -0.28125 0.03515625 -0.23632812 -0.103515625 -0.11621094 0.25390625 -0.2421875 -0.07080078
0000d0 da 3d ac 3d 7a 3e 94 3d 33 3e 37 be 3d 3e d3 3b
       0.10644531 0.083984375 0.24414062 0.072265625 0.17480469 -0.17871094 0.18457031 0.006439209
0000e0 07 bd 09 be e1 3d 1d 3e 5f be 6b be f3 3d 87 be
       -0.032958984 -0.13378906 0.10986328 0.15332031 -0.21777344 -0.22949219 0.118652344 -0.26367188
0000f0 8f be 5c 3e c2 3d bb 3c e1 ba fd 3d 59 be 7d 3e
       -0.27929688 0.21484375 0.09472656 0.022827148 -0.0017166138 0.123535156 -0.21191406 0.24707031
000100 2a bd ef 3c 90 be 94 3c 3a be 2b 3e 90 be 89 3e
       -0.041503906 0.029174805 -0.28125 0.018066406 -0.18164062 0.16699219 -0.28125 0.26757812
000110 8f bd d0 bd fa ba 79 be c4 3d 78 3e 00 be c6 bd
       -0.06982422 -0.1015625 -0.0019073486 -0.24316406 0.095703125 0.2421875 -0.125 -0.09667969
000120 7d be 94 3d 60 3e 78 3e c3 3d 08 3e 5f be f5 bd
       -0.24707031 0.072265625 0.21875 0.2421875 0.095214844 0.1328125 -0.21777344 -0.119628906
000130 94 3e 90 3b f7 3d 61 be 7b be 70 3e 07 be 24 be
       0.2890625 0.0043945312 0.12060547 -0.21972656 -0.24511719 0.234375 -0.13183594 -0.16015625
000140 53 bc b1 bc 05 3e 3e 3e 87 3e b4 bd 9e bd 6e be
       -0.012878418 -0.021606445 0.12988281 0.18554688 0.26367188 -0.087890625 -0.07714844 -0.23242188
000150 1a be 63 bd 1c be ef 3b 83 bd 2f 3e 85 be c5 bb
       -0.15039062 -0.055419922 -0.15234375 0.007293701 -0.063964844 0.17089844 -0.25976562 -0.006011963
000160 e6 bd a4 3c 24 be 96 be e3 bb da 3c 84 3e 4f be
       -0.11230469 0.020019531 -0.16015625 -0.29296875 -0.0069274902 0.026611328 0.2578125 -0.20214844
000170 35 bd 76 3e 92 3e 3a 3d 14 be 33 3e 5c be 7f be
       -0.044189453 0.24023438 0.28515625 0.045410156 -0.14453125 0.17480469 -0.21484375 -0.24902344
000180 d1 3c 32 be c2 3d 04 be 5c be de bd 46 be 56 be
       0.025512695 -0.17382812 0.09472656 -0.12890625 -0.21484375 -0.10839844 -0.19335938 -0.20898438
000190 20 3e f4 bc 02 be 95 be 69 3e 34 be 78 3e 81 be
       0.15625 -0.029785156 -0.12695312 -0.29101562 0.22753906 -0.17578125 0.2421875 -0.25195312
0001a0 0c be 92 3e ff 3d 43 be 47 be 19 be e8 3d 1f 3e
       -0.13671875 0.28515625 0.12451172 -0.19042969 -0.19433594 -0.14941406 0.11328125 0.15527344
0001b0 e2 bd 7f be 4b be 3e 3e 54 3d f9 3d 1d 3e 44 be
       -0.11035156 -0.24902344 -0.19824219 0.18554688 0.051757812 0.12158203 0.15332031 -0.19140625
0001c0 65 be 59 be 96 3e 10 3c 8b 3c 94 be 48 3d 8d be
       -0.22363281 -0.21191406 0.29296875 0.0087890625 0.016967773 -0.2890625 0.048828125 -0.27539062
0001d0 47 be 9c 3c 88 be 08 3e 58 3e ff bd 5d 3e 6d 3e
       -0.19433594 0.019042969 -0.265625 0.1328125 0.2109375 -0.12451172 0.21582031 0.23144531
0001e0 8c be 78 3c a1 bd 3d bd 2b 3e 1c be 4a be 0b 3d
       -0.2734375 0.015136719 -0.07861328 -0.046142578 0.16699219 -0.15234375 -0.19726562 0.033935547
0001f0 7e 3d 24 be 05 be 89 be 2c 3e 1b be 13 3e 7c be
       0.06201172 -0.16015625 -0.12988281 -0.26757812 0.16796875 -0.15136719 0.14355469 -0.24609375

layer_10.Bv bf16 [64, 4]
000000 4b be a8 bc 97 3e 23 bd a4 3c 86 bd 4c bb bc bd
       -0.19824219 -0.020507812 0.29492188 -0.039794922 0.020019531 -0.06542969 -0.003112793 -0.091796875
000010 6b 3e 59 bc 1d 3e f6 3c 64 3e 40 be 1b be f1 bd
       0.22949219 -0.013244629 0.15332031 0.030029297 0.22265625 -0.1875 -0.15136719 -0.11767578
000020 fd bd a5 3b 0d 3e 60 be 56 be 38 3e 0c 3e 4f 3d
       -0.123535156 0.0050354004 0.13769531 -0.21875 -0.20898438 0.1796875 0.13671875 0.05053711
000030 01 3e 45 bb d0 bd eb 3c a0 bd 00 be 39 be 91 3c
       0.12597656 -0.0030059814 -0.1015625 0.028686523 -0.078125 -0.125 -0.18066406 0.017700195
000040 44 be 30 be 3e be 8d 3e 96 3e 27 3e 02 3d 9f 3d
       -0.19140625 -0.171875 -0.18554688 0.27539062 0.29296875 0.16308594 0.03173828 0.07763672
000050 fc 3d 8c bc 1d 3e e5 3d c5 3d 91 3e 7d be a1 3c
       0.123046875 -0.017089844 0.15332031 0.111816406 0.096191406 0.28320312 -0.24707031 0.01965332
000060 74 3e 79 3e ac bd 4b 3e 35 be 18 bc 8a 3e 13 bd
       0.23828125 0.24316406 -0.083984375 0.19824219 -0.17675781 -0.009277344 0.26953125 -0.035888672
000070 1e 3e 98 3e 02 be 02 3e ef bd a6 bd 62 3e c1 3d
       0.15429688 0.296875 -0.12695312 0.12695312 -0.11669922 -0.08105469 0.22070312 0.09423828
000080 84 be 8f 3e 57 3e 29 3e 00 bd 0c 3e be bd d4 bd
       -0.2578125 0.27929688 0.20996094 0.16503906 -0.03125 0.13671875 -0.09277344 -0.103515625
000090 20 3e 1c 3c 92 3e d0 3b 22 bd 31 3e 14 be 87 be
       0.15625 0.009521484 0.28515625 0.0063476562 -0.03955078 0.17285156 -0.14453125 -0.26367188
0000a0 fa bc 96 3e 68 be 83 3a 47 be 83 be 8e bc d8 bd
       -0.030517578 0.29296875 -0.2265625 0.0009994507 -0.19433594 -0.25585938 -0.017333984 -0.10546875
0000b0 91 bd c9 3d 8f bd 2c 3d ca 3c 68 3e d2 3d dc bd
       -0.07080078 0.09814453 -0.06982422 0.041992188 0.024658203 0.2265625 0.10253906 -0.107421875
0000c0 65 be 4a 3e 79 bd f5 3d 04 be 58 3e 4e 3e 05 bd
       -0.22363281 0.19726562 -0.060791016 0.119628906 -0.12890625 0.2109375 0.20117188 -0.032470703
0000d0 9e 3d 9f bc e7 3d 7e bb 83 be 55 be 09 bd 97 be
       0.07714844 -0.01940918 0.11279297 -0.0038757324 -0.25585938 -0.20800781 -0.033447266 -0.29492188
0000e0 91 be 28 be 1d 3e d2 bc 58 be 4b be ec bd 60 be
       -0.28320312 -0.1640625 0.15332031 -0.025634766 -0.2109375 -0.19824219 -0.115234375 -0.21875
0000f0 8e 3e 43 be 21 be 56 be dc bd 72 3e df 3d cf bc
       0.27734375 -0.19042969 -0.15722656 -0.20898438 -0.107421875 0.23632812 0.10888672 -0.025268555
000100 96 be f6 3d 8e 3e f8 bc 4f 3e c4 bd 8f be 04 3d
       -0.29296875 0.12011719 0.27734375 -0.030273438 0.20214844 -0.095703125 -0.27929688 0.032226562
000110 f3 3d 06 be 49 3d cd bc 92 3e 1f be 84 be 0e be
       0.118652344 -0.13085938 0.049072266 -0.025024414 0.28515625 -0.15527344 -0.2578125 -0.13867188
000120 5b 3e 0d be 0b 3d 5b be 1d be 83 be b6 3d 4d 3e
       0.21386719 -0.13769531 0.033935547 -0.21386719 -0.15332031 -0.25585938 0.08886719 0.20019531
000130 00 3d 65 3b 9c 3d 91 bb 02 3d fa 3d 6a 3e 1b 3e
       0.03125 0.0034942627 0.076171875 -0.004425049 0.03173828 0.12207031 0.22851562 0.15136719
000140 95 3d 82 3e 88 be 48 be 77 3e 8d 3e 0e be 6f 3e
       0.072753906 0.25390625 -0.265625 -0.1953125 0.24121094 0.27539062 -0.13867188 0.23339844
000150 36 bc aa bd 0d 3c 9e bd a8 3d 02 3d 09 3d 00 be
       -0.011108398 -0.08300781 0.008605957 -0.07714844 0.08203125 0.03173828 0.033447266 -0.125
000160 39 3e 3c be fa 3c 48 3e 22 be 4b be a2 3d 7c be
       0.18066406 -0.18359375 0.030517578 0.1953125 -0.15820312 -0.19824219 0.07910156 -0.24609375
000170 fe bd 85 3e 2f 3e 8a 3e 91 be 8f be 97 3d d8 3d
       -0.12402344 0.25976562 0.17089844 0.26953125 -0.28320312 -0.27929688 0.07373047 0.10546875
000180 30 be db 3d 00 bd 01 be 8e 3e 6a 3e 7c 3e c6 bd
       -0.171875 0.106933594 -0.03125 -0.12597656 0.27734375 0.22851562 0.24609375 -0.09667969
000190 28 3d 11 be 79 3e 8a 3e 17 be b1 3d 81 3e 01 bd
       0.041015625 -0.14160156 0.24316406 0.26953125 -0.14746094 0.08642578 0.25195312 -0.03149414
0001a0 cd bd 05 3c 48 be 95 3e 18 be 85 3d 85 be 59 3c
       -0.100097656 0.008117676 -0.1953125 0.29101562 -0.1484375 0.064941406 -0.25976562 0.013244629
0001b0 57 3e 7a be d8 3d 96 3c 25 3e 0f be 36 be 08 be
       0.20996094 -0.24414062 0.10546875 0.018310547 0.16113281 -0.13964844 -0.17773438 -0.1328125
0001c0 07 bd 80 3e c2 bc 5f be 2d be 90 bd b1 bd a8 b9
       -0.032958984 0.25 -0.02368164 -0.21777344 -0.16894531 -0.0703125 -0.08642578 -0.00032043457
0001d0 f5 bd 11 be aa 3d b6 3d fc bd e6 3d f1 bd 4c bc
       -0.119628906 -0.14160156 0.08300781 0.08886719 -0.123046875 0.11230469 -0.11767578 -0.012451172
0001e0 42 3c d1 bc 78 3e f6 bd 89 3e 85 bc 4f be d5 3d
       0.01184082 -0.025512695 0.2421875 -0.12011719 0.26757812 -0.016235352 -0.20214844 0.104003906
0001f0 cd 3c 95 3e 69 3e 8d be 83 3e 8b 3e 1f 3e 42 bd
       0.025024414 0.29101562 0.22753906 -0.27539062 0.25585938 0.27148438 0.15527344 -0.04736328

layer_10.gate_k.net.0.weight bf16 [4, 64]
000000 f1 bd c9 bc 76 bd 09 bd e2 bd 4d 3d e5 bd 03 bc
       -0.11767578 -0.024536133 -0.060058594 -0.033447266 -0.11035156 0.050048828 -0.111816406 -0.0079956055
000010 32 3d 2d bd 91 3d 81 3c 8d 3d a4 3d 62 bd 3a 3d
       0.04345703 -0.042236328 0.07080078 0.01574707 0.068847656 0.080078125 -0.05517578 0.045410156
000020 5e bd 20 3d 86 bd 6d 3d cf 3c 48 bd 7b bd 04 3d
       -0.05419922 0.0390625 -0.06542969 0.057861328 0.025268555 -0.048828125 -0.061279297 0.032226562
000030 ef 3d 76 3d 46 bc c7 bb 92 3d b2 bd 2a 3d 2a bd
       0.11669922 0.060058594 -0.012084961 -0.006072998 0.07128906 -0.08691406 0.041503906 -0.041503906
000040 94 3d 37 bd cb 3b 2d 3d b0 3d 97 bc ea 3d d9 bd
       0.072265625 -0.044677734 0.0061950684 0.042236328 0.0859375 -0.018432617 0.11425781 -0.10595703
000050 b7 bc ff bd 2a 3c 11 3d 4f bd 55 3d a6 bc de bd
       -0.022338867 -0.12451172 0.010375977 0.03540039 -0.05053711 0.052001953 -0.020263672 -0.10839844
000060 c5 3d 9e 3d 81 3d cc 3d 3c 3d 88 3d d4 3d ce bc
       0.096191406 0.07714844 0.06298828 0.099609375 0.045898438 0.06640625 0.103515625 -0.025146484
000070 c8 bd 7c bd 89 bc 61 bc 5e ba 93 3d 24 3d bd bd
       -0.09765625 -0.061523438 -0.016723633 -0.01373291 -0.0008468628 0.071777344 0.040039062 -0.092285156
000080 1a bd f1 bc 9c 3d 3a bd 56 bd a5 bc 02 bd fc bc
       -0.037597656 -0.029418945 0.076171875 -0.045410156 -0.052246094 -0.020141602 -0.03173828 -0.030761719
000090 fa bd e4 3d 88 3d 72 bd a0 bd 8e 3b 92 3d b8 bd
       -0.12207031 0.111328125 0.06640625 -0.05908203 -0.078125 0.004333496 0.07128906 -0.08984375
0000a0 41 bd 56 3d a5 bd 64 bc c1 bd ed 3d 8a 3d ed bd
       -0.04711914 0.052246094 -0.080566406 -0.013916016 -0.09423828 0.115722656 0.06738281 -0.115722656
0000b0 8d bd 35 3d e0 3b 08 3d d1 bd 89 bd 68 3d c3 bd
       -0.068847656 0.044189453 0.0068359375 0.033203125 -0.10205078 -0.06689453 0.056640625 -0.095214844
0000c0 d7 bc 61 3d 85 3d ff 3b 14 3d 64 3d 6f bc 0c bd
       -0.026245117 0.05493164 0.064941406 0.0077819824 0.036132812 0.055664062 -0.014587402 -0.034179688
0000d0 c3 3d fa 3d 6d 3d 60 bd df bd fd bd 63 3a 44 bd
       0.095214844 0.12207031 0.057861328 -0.0546875 -0.10888672 -0.123535156 0.0008659363 -0.047851562
0000e0 01 bd 90 bc f2 3d f3 3d 3f bc 1a bd 79 3d 23 bc
       -0.03149414 -0.017578125 0.11816406 0.118652344 -0.011657715 -0.037597656 0.060791016 -0.0099487305
0000f0 f4 bd 27 3d f5 3d cb bd dd bc de 3c d0 bd db bd
       -0.119140625 0.040771484 0.119628906 -0.099121094 -0.026977539 0.02709961 -0.1015625 -0.106933594
000100 bf 3d 35 bd 95 3d 37 3c fa 3c ab bd db bc a9 3d
       0.09326172 -0.044189453 0.072753906 0.011169434 0.030517578 -0.083496094 -0.026733398 0.08251953
000110 6b 3d 14 bd 7c 3c c4 3d e0 bd a4 3d 1a bd d0 bc
       0.057373047 -0.036132812 0.015380859 0.095703125 -0.109375 0.080078125 -0.037597656 -0.025390625
000120 74 3d d5 bd 9b bc f5 3d 38 3d 3d bd df bc ca 3d
       0.059570312 -0.104003906 -0.018920898 0.119628906 0.044921875 -0.046142578 -0.02722168 0.09863281
000130 41 3d ae 3d a5 bd 14 3d b7 3c b2 3c ee 3d 8e 3d
       0.04711914 0.08496094 -0.080566406 0.036132812 0.022338867 0.021728516 0.11621094 0.06933594
000140 b0 3d 61 3d 57 3d b2 bc e2 bd d8 bd 9f bd a6 bd
       0.0859375 0.05493164 0.052490234 -0.021728516 -0.11035156 -0.10546875 -0.07763672 -0.08105469
000150 71 3d 1e 3d 12 bd c3 bd fc 3d c0 3d 73 3d fd 3d
       0.05883789 0.03857422 -0.03564453 -0.095214844 0.123046875 0.09375 0.059326172 0.123535156
000160 88 bd 92 bd 96 bd c6 bb e2 bd cb 3d 53 3b 7f 3d
       -0.06640625 -0.07128906 -0.07324219 -0.0060424805 -0.11035156 0.099121094 0.0032196045 0.06225586
000170 8d bd 53 bc 87 3c 0c bd f2 3d 6a bd 1f 3d ae bd
       -0.068847656 -0.012878418 0.016479492 -0.034179688 0.11816406 -0.057128906 0.03881836 -0.08496094
000180 72 bc 08 bd 5d 3d b3 3d f9 3c 3a bc 03 bd c9 3d
       -0.014770508 -0.033203125 0.053955078 0.087402344 0.030395508 -0.011352539 -0.031982422 0.09814453
000190 f2 bc b9 3d 64 bd d3 3d ff 3d af 3d 93 3d 3f 3d
       -0.029541016 0.09033203 -0.055664062 0.103027344 0.12451172 0.08544922 0.071777344 0.04663086
0001a0 7c bd c4 3a 30 3d 06 bd b8 3c 96 3d ed bd e9 bd
       -0.061523438 0.0014953613 0.04296875 -0.032714844 0.022460938 0.07324219 -0.115722656 -0.11376953
0001b0 99 bd 7a 3c be bc dd 3c f4 bc a8 bd 88 3c ad 3d
       -0.07470703 0.015258789 -0.02319336 0.026977539 -0.029785156 -0.08203125 0.016601562 0.084472656
0001c0 9a bd e0 3d fc 3c fc 3d eb bd f5 bd 2e 3d ef bd
       -0.07519531 0.109375 0.030761719 0.123046875 -0.114746094 -0.119628906 0.04248047 -0.11669922
0001d0 d2 bd 82 3d 79 3d e9 bd b8 3d c7 bc be 3d 96 bd
       -0.10253906 0.06347656 0.060791016 -0.11376953 0.08984375 -0.024291992 0.09277344 -0.07324219
0001e0 f3 bd aa bd 9f bc 00 be 0c bc 80 bd ee bc 95 b7
       -0.118652344 -0.08300781 -0.01940918 -0.125 -0.008544922 -0.0625 -0.029052734 -1.7762184e-05
0001f0 e6 3b fa bd 84 3d 9d bd 9c 3d eb 3d 2b bd 66 3c
       0.007019043 -0.12207031 0.064453125 -0.076660156 0.076171875 0.114746094 -0.041748047 0.014038086

layer_10.gate_k.net.0.bias bf16 [4]
000000 8d 3d 22 bc d6 bd 66 3d
       0.068847656 -0.009887695 -0.10449219 0.056152344

layer_10.gate_k.net.2.weight bf16 [4, 4]
000000 74 3e 8c be ac be b3 bd c9 3d 81 be 45 bc 5d be
       0.23828125 -0.2734375 -0.3359375 -0.087402344 0.09814453 -0.25195312 -0.012023926 -0.21582031
000010 47 be 8c bd 43 be c5 3e 07 3e e5 3e e7 3e a7 3d
       -0.19433594 -0.068359375 -0.19042969 0.38476562 0.13183594 0.44726562 0.45117188 0.08154297

layer_10.gate_k.net.2.bias bf16 [4]
000000 55 be 9c 3e 8f bc be 3e
       -0.20800781 0.3046875 -0.017456055 0.37109375

layer_10.gate_v.net.0.weight bf16 [4, 64]
000000 70 bd e2 3d 1e 3d 0f bd a7 bd bd 3d 97 bc 4f 3d
       -0.05859375 0.11035156 0.03857422 -0.03491211 -0.08154297 0.092285156 -0.018432617 0.05053711
000010 4b 3d cb 3c 81 bd 04 bd 5f bc 9f 3d 23 bd d7 3c
       0.049560547 0.024780273 -0.06298828 -0.032226562 -0.01361084 0.07763672 -0.039794922 0.026245117
000020 16 3d 2c 3d cc 3d c1 3d a3 3c 2a 3d e8 3d 4c 3d
       0.036621094 0.041992188 0.099609375 0.09423828 0.019897461 0.041503906 0.11328125 0.049804688
000030 6a bb 98 3d 16 3d 09 bd 80 3d 21 bc 80 bd 69 bc
       -0.0035705566 0.07421875 0.036621094 -0.033447266 0.0625 -0.00982666 -0.0625 -0.014221191
000040 f1 3d 00 bd d3 bd a3 3d af 3c 7c 3d fd bc cb 3c
       0.11767578 -0.03125 -0.103027344 0.079589844 0.021362305 0.061523438 -0.030883789 0.024780273
000050 01 bd e1 3d 87 3d 00 3d 86 3d 9c bc a9 3d 7c ba
       -0.03149414 0.10986328 0.06591797 0.03125 0.06542969 -0.019042969 0.08251953 -0.0009613037
000060 80 bd ed 3d 19 bd 83 bc 18 bd d7 3c 75 3a de bd
       -0.0625 0.115722656 -0.037353516 -0.015991211 -0.037109375 0.026245117 0.00093460083 -0.10839844
000070 f6 3d f4 3d b0 bd 0c 3d d4 3d 47 bd f6 3b bf 3d
       0.12011719 0.119140625 -0.0859375 0.034179688 0.103515625 -0.048583984 0.007507324 0.09326172
000080 93 ba 04 3d d5 bd 66 bd 98 bd d8 3c b5 bd a3 3d
       -0.001121521 0.032226562 -0.104003906 -0.056152344 -0.07421875 0.026367188 -0.088378906 0.079589844
000090 ca 3c 13 bd 94 bd 33 3d af bc d4 bc 2d bd de bc
       0.024658203 -0.035888672 -0.072265625 0.043701172 -0.021362305 -0.025878906 -0.042236328 -0.02709961
0000a0 00 3d 87 3b 01 bd 1c 3d a5 bd 15 3d 42 bd f3 bd
       0.03125 0.004119873 -0.03149414 0.038085938 -0.080566406 0.036376953 -0.04736328 -0.118652344
0000b0 0f 3d 47 3d e4 3d a8 3d fb 3d c9 bd df bd 01 3d
       0.03491211 0.048583984 0.111328125 0.08203125 0.122558594 -0.09814453 -0.10888672 0.03149414
0000c0 75 3b bd bc a9 bd c8 3d df bd c9 3c 56 bd 49 bd
       0.0037384033 -0.023071289 -0.08251953 0.09765625 -0.10888672 0.024536133 -0.052246094 -0.049072266
0000d0 ca 3d dd 3d 18 3d 80 3d 0c bd 9d bd 00 bd dc 3d
       0.09863281 0.107910156 0.037109375 0.0625 -0.034179688 -0.076660156 -0.03125 0.107421875
0000e0 5b 3c e6 bd 36 bd 01 3d 36 bd 16 bd e0 bd 0c bd
       0.013366699 -0.11230469 -0.044433594 0.03149414 -0.044433594 -0.036621094 -0.109375 -0.034179688
0000f0 e9 3c e9 bd 44 3d 26 3d 3e 3d a7 3d 97 bd b2 bc
       0.028442383 -0.11376953 0.047851562 0.040527344 0.04638672 0.08154297 -0.07373047 -0.021728516
000100 80 3d 33 bd 80 bd fd 3d 80 3d 11 bd 2d 3d 80 bd
       0.0625 -0.043701172 -0.0625 0.123535156 0.0625 -0.03540039 0.042236328 -0.0625
000110 96 bd 35 bd 85 3d 2f bd 15 bd 80 3d 8e 3d 82 bd
       -0.07324219 -0.044189453 0.064941406 -0.04272461 -0.036376953 0.0625 0.06933594 -0.06347656
000120 60 bd 50 bd 8b bd bd 3d 18 bd 81 bd ea 3d c6 bd
       -0.0546875 -0.05078125 -0.067871094 0.092285156 -0.037109375 -0.06298828 0.11425781 -0.09667969
000130 80 bd da 3d 4a bd 00 3d f5 3d 13 bd 80 3d 80 3d
       -0.0625 0.10644531 -0.049316406 0.03125 0.119628906 -0.035888672 0.0625 0.0625
000140 84 3d d9 bd a6 bd cc bd fc bd 09 bd 00 3d dc bd
       0.064453125 -0.10595703 -0.08105469 -0.099609375 -0.123046875 -0.033447266 0.03125 -0.107421875
000150 e8 bd 26 3d 46 3d 6c bd 81 3d ff 3d 71 3d cf bd
       -0.11328125 0.040527344 0.048339844 -0.057617188 0.06298828 0.12451172 0.05883789 -0.10107422
000160 a9 bd ec bd 7b 3d 3d 3d 80 3d bc 3c 15 3d 80 3d
       -0.08251953 -0.115234375 0.061279297 0.046142578 0.0625 0.022949219 0.036376953 0.0625
000170 d9 bc 2c bd b6 bc 97 3c 80 bd bb 3d f9 bd 81 3d
       -0.026489258 -0.041992188 -0.022216797 0.018432617 -0.0625 0.091308594 -0.12158203 0.06298828
000180 91 bd 87 3d c8 3d b5 3d 29 3d 3d bd 5e bd 13 3d
       -0.07080078 0.06591797 0.09765625 0.088378906 0.041259766 -0.046142578 -0.05419922 0.035888672
000190 0c 3d 80 bd 6a 3d 95 3d 39 bd 20 bd b4 bd 8e bd
       0.034179688 -0.0625 0.057128906 0.072753906 -0.045166016 -0.0390625 -0.087890625 -0.06933594
0001a0 6a bd b2 3d db bd 8b bb e6 3d aa bd e2 bd 8b 3d
       -0.057128906 0.08691406 -0.106933594 -0.0042419434 0.11230469 -0.08300781 -0.11035156 0.067871094
0001b0 9d 3d 56 3d ca 3d a2 3d 8c 3c bd 3d 81 bd 50 3d
       0.076660156 0.052246094 0.09863281 0.07910156 0.017089844 0.092285156 -0.06298828 0.05078125
0001c0 9a bd d1 bc 8a 3d 41 3d 8b 3d 41 bc 18 3d 3e 3c
       -0.07519531 -0.025512695 0.06738281 0.04711914 0.067871094 -0.011779785 0.037109375 0.01159668
0001d0 d5 3d 95 3d ba bd 80 3d 87 3d 06 3d 81 bd f9 3d
       0.104003906 0.072753906 -0.09082031 0.0625 0.06591797 0.032714844 -0.06298828 0.12158203
0001e0 b3 bd d0 bd 10 bd 17 3d 07 bd 10 3d 5a 3d b5 3d
       -0.087402344 -0.1015625 -0.03515625 0.036865234 -0.032958984 0.03515625 0.053222656 0.088378906
0001f0 76 bd dd bc 40 bd 84 bd 85 bd bf bd d8 3d 34 bd
       -0.060058594 -0.026977539 -0.046875 -0.064453125 -0.064941406 -0.09326172 0.10546875 -0.043945312

layer_10.gate_v.net.0.bias bf16 [4]
000000 80 bd 80 bd a7 bd a6 3d
       -0.0625 -0.0625 -0.08154297 0.08105469

layer_10.gate_v.net.2.weight bf16 [4, 4]
000000 1f be 88 3e 15 3e fe be eb be fa be e6 3e ea 3e
       -0.15527344 0.265625 0.14550781 -0.49609375 -0.45898438 -0.48828125 0.44921875 0.45703125
000010 2f 3e 55 be 28 3e c1 be a6 3d 8c bd af 3e 5d 3d
       0.17089844 -0.20800781 0.1640625 -0.37695312 0.08105469 -0.068359375 0.34179688 0.053955078

layer_10.gate_v.net.2.bias bf16 [4]
000000 80 3d 80 3d f6 3e b3 be
       0.0625 0.0625 0.48046875 -0.34960938

layer_11.Bk bf16 [64, 4]
000000 51 bd 67 3d e5 b9 21 be da bd 6f 3e 54 3e 34 bd
       -0.05102539 0.056396484 -0.00043678284 -0.15722656 -0.10644531 0.23339844 0.20703125 -0.043945312
000010 5f be 74 3e 32 be 56 3c c3 3d b6 bb ae bd 79 3e
       -0.21777344 0.23828125 -0.17382812 0.013061523 0.095214844 -0.005554199 -0.08496094 0.24316406
000020 30 3e 93 be 26 be 07 3c f9 3d f8 3d 9d bd 5c be
       0.171875 -0.28710938 -0.16210938 0.008239746 0.12158203 0.12109375 -0.076660156 -0.21484375
000030 8f 3e 61 be 63 be 95 3e e4 3d 07 3e 35 be 3d be
       0.27929688 -0.21972656 -0.22167969 0.29101562 0.111328125 0.13183594 -0.17675781 -0.18457031
000040 b1 3d 4d bd 6f 3e cc bd 94 3e e6 3d 06 be 72 be
       0.08642578 -0.050048828 0.23339844 -0.099609375 0.2890625 0.11230469 -0.13085938 -0.23632812
000050 38 3e 11 be 74 be 2b 3d 1b 3e 87 bd fb 3c 06 be
       0.1796875 -0.14160156 -0.23828125 0.041748047 0.15136719 -0.06591797 0.030639648 -0.13085938
000060 6a 3e 8b 3e 47 3e 93 be 8b be 29 3e 84 3e 22 3e
       0.22851562 0.27148438 0.19433594 -0.28710938 -0.27148438 0.16503906 0.2578125 0.15820312
000070 f3 3c 72 bd 64 be 2a bd 90 3e fd bc 92 be 30 3d
       0.029663086 -0.05908203 -0.22265625 -0.041503906 0.28125 -0.030883789 -0.28515625 0.04296875
000080 8a be 58 3e 8d bc 14 3d 5d 3d 26 bd 7e 3d 5f be
       -0.26953125 0.2109375 -0.017211914 0.036132812 0.053955078 -0.040527344 0.06201172 -0.21777344
000090 3f 3d e9 3d 58 be 91 be af 3b a4 3d ab bd 40 be
       0.04663086 0.11376953 -0.2109375 -0.28320312 0.005340576 0.080078125 -0.083496094 -0.1875
0000a0 9c bc 14 3e 31 be 8e be 93 3e 8f be 3c bd 0f 3e
       -0.019042969 0.14453125 -0.17285156 -0.27734375 0.28710938 -0.27929688 -0.045898438 0.13964844
0000b0 3d be d9 bc 40 bc 29 3d 8f 3d 12 be 4f 3e 19 3d
       -0.18457031 -0.026489258 -0.01171875 0.041259766 0.06982422 -0.14257812 0.20214844 0.037353516
0000c0 96 3e a6 3c 16 be 23 3c 90 3e 48 be d3 bc 2f be
       0.29296875 0.020263672 -0.14648438 0.0099487305 0.28125 -0.1953125 -0.025756836 -0.17089844
0000d0 1a be 65 3e 86 3e 2e 3e 4c be 1e be 80 be cc bd
       -0.15039062 0.22363281 0.26171875 0.16992188 -0.19921875 -0.15429688 -0.25 -0.099609375
0000e0 b6 3d 55 3e 06 be 2d be cb 3d 77 3e cc 3c 5c 3e
       0.08886719 0.20800781 -0.13085938 -0.16894531 0.099121094 0.24121094 0.024902344 0.21484375
0000f0 81 3e 54 bd 8d 3e 5e 3e a3 3d 84 be bc bd 82 bd
       0.25195312 -0.051757812 0.27539062 0.21679688 0.079589844 -0.2578125 -0.091796875 -0.06347656
000100 87 39 85 be 67 3e 50 3e 34 3d 77 be 47 be 97 be
       0.00025749207 -0.25976562 0.22558594 0.203125 0.043945312 -0.24121094 -0.19433594 -0.29492188
000110 d7 bd 3a 3e 68 be 4c 3e 56 bd eb bc cf bd 84 3d
       -0.10498047 0.18164062 -0.2265625 0.19921875 -0.052246094 -0.028686523 -0.10107422 0.064453125
000120 d8 bd 17 be 3f 3d 77 be d8 3d 60 be 69 3e 54 3e
       -0.10546875 -0.14746094 0.04663086 -0.24121094 0.10546875 -0.21875 0.22753906 0.20703125
000130 aa bc 72 3c d3 3c d0 3d 3c bd 41 3d de bc 46 be
       -0.020751953 0.014770508 0.025756836 0.1015625 -0.045898438 0.04711914 -0.02709961 -0.19335938
000140 ea 3d 76 be 52 bd 8f 3e 89 bb 9e bc 0c 3e 8c 3e
       0.11425781 -0.24023438 -0.05126953 0.27929688 -0.004180908 -0.01928711 0.13671875 0.2734375
000150 f1 3d ba bd 4d 3e 9d bc 17 3d 34 3e 2f bd eb 3d
       0.11767578 -0.09082031 0.20019531 -0.019165039 0.036865234 0.17578125 -0.04272461 0.114746094
000160 91 bc 1c 3e 5a 3e 82 3d b4 bc 72 be 26 be 83 bd
       -0.017700195 0.15234375 0.21289062 0.06347656 -0.021972656 -0.23632812 -0.16210938 -0.063964844
000170 87 3e 46 3c d6 3d 2b be 8b 3d 52 be 18 be 8b be
       0.26367188 0.012084961 0.10449219 -0.16699219 0.067871094 -0.20507812 -0.1484375 -0.27148438
000180 4d 3e 49 be 30 be 43 3e 63 3e 22 3e 82 3e 46 be
       0.20019531 -0.19628906 -0.171875 0.19042969 0.22167969 0.15820312 0.25390625 -0.19335938
000190 9b 3d 17 be 89 be 29 be e5 bd 28 bd 76 bd 5a bc
       0.075683594 -0.14746094 -0.26757812 -0.16503906 -0.111816406 -0.041015625 -0.060058594 -0.013305664
0001a0 8b be 68 3e 90 3e 27 3e 95 3e a6 bd e1 bc 82 be
       -0.27148438 0.2265625 0.28125 0.16308594 0.29101562 -0.08105469 -0.02746582 -0.25390625
0001b0 07 3d 5e be 8d be 2e bc 0c be 71 be 4b 3c 1a bd
       0.032958984 -0.21679688 -0.27539062 -0.010620117 -0.13671875 -0.23535156 0.012390137 -0.037597656
0001c0 8a 3e 87 bc 8b 3d 77 3e 97 bd 57 3e 8e 3e 00 be
       0.26953125 -0.016479492 0.067871094 0.24121094 -0.07373047 0.20996094 0.27734375 -0.125
0001d0 77 be 28 3e 15 be 80 be 8a be 8f 3e 91 3e 68 be
       -0.24121094 0.1640625 -0.14550781 -0.25 -0.26953125 0.27929688 0.28320312 -0.2265625
0001e0 06 be a2 3d ec 3c a1 bc 37 bd 92 bd 59 be 2f 39
       -0.13085938 0.07910156 0.028808594 -0.01965332 -0.044677734 -0.07128906 -0.21191406 0.000166893
0001f0 06 3d 8d 3e 6f bd 00 3e 4b 3e 92 be e6 bc 97 3e
       0.032714844 0.27539062 -0.05834961 0.125 0.19824219 -0.28515625 -0.028076172 0.29492188

layer_11.Bv bf16 [64, 4]
000000 d7 bd ae 3d b0 3c 99 3c 3d 3e 45 3c 46 be 13 3e
       -0.10498047 0.08496094 0.021484375 0.018676758 0.18457031 0.012023926 -0.19335938 0.14355469
000010 c5 bd bd bc 15 3e dc bd 6a be 49 be 8e 3e d0 bd
       -0.096191406 -0.023071289 0.14550781 -0.107421875 -0.22851562 -0.19628906 0.27734375 -0.1015625
000020 30 3e 4b be 57 3e 7e 3e e7 bc c9 bd 45 3e ea 3d
       0.171875 -0.19824219 0.20996094 0.24804688 -0.028198242 -0.09814453 0.19238281 0.11425781
000030 d9 bd 7a be 3d 3e 0c be f3 3d 91 be 8b be 32 3e
       -0.10595703 -0.24414062 0.18457031 -0.13671875 0.118652344 -0.28320312 -0.27148438 0.17382812
000040 c3 bd 84 3e d3 3c 52 3e 83 bd 88 3e 6f be d3 bd
       -0.095214844 0.2578125 0.025756836 0.20507812 -0.063964844 0.265625 -0.23339844 -0.103027344
000050 93 bc 80 be ef bb 5c be 96 3d 80 bc 8d be 88 be
       -0.017944336 -0.25 -0.007293701 -0.21484375 0.07324219 -0.015625 -0.27539062 -0.265625
000060 95 be 00 bd 4c 3d ac 3c 5a 3e 8b be e3 3d 61 3e
       -0.29101562 -0.03125 0.049804688 0.020996094 0.21289062 -0.27148438 0.110839844 0.21972656
000070 87 be 31 bc 79 3e 08 3e be bc 96 3c 4f 3e d1 bc
       -0.26367188 -0.010803223 0.24316406 0.1328125 -0.02319336 0.018310547 0.20214844 -0.025512695
000080 83 be a8 bd 39 3e 0b 3e 86 3b c3 3d 02 be 32 be
       -0.25585938 -0.08203125 0.18066406 0.13574219 0.0040893555 0.095214844 -0.12695312 -0.17382812
000090 3f 3e 69 be 62 be 4b 3e 3b be 47 be 7a 3e 3a 3e
       0.18652344 -0.22753906 -0.22070312 0.19824219 -0.18261719 -0.19433594 0.24414062 0.18164062
0000a0 86 be 80 bd 95 be 24 be 48 be 80 bd db bd 21 be
       -0.26171875 -0.0625 -0.29101562 -0.16015625 -0.1953125 -0.0625 -0.106933594 -0.15722656
0000b0 36 3e 41 be fc bd 2a 3b 9e 3d 7e 3e ac bd a6 bd
       0.17773438 -0.18847656 -0.123046875 0.0025939941 0.07714844 0.24804688 -0.083984375 -0.08105469
0000c0 91 3c 61 3b cc 3d a5 3c 94 3e 38 be 84 3e 35 be
       0.017700195 0.0034332275 0.099609375 0.020141602 0.2890625 -0.1796875 0.2578125 -0.17675781
0000d0 04 3e 1b 3e 09 3d 0b be f1 3d 51 3e 46 be a7 bd
       0.12890625 0.15136719 0.033447266 -0.13574219 0.11767578 0.20410156 -0.19335938 -0.08154297
0000e0 df 3d ef bd 20 be fa 3d 82 3e 23 3e 16 be ea bc
       0.10888672 -0.11669922 -0.15625 0.12207031 0.25390625 0.15917969 -0.14648438 -0.028564453
0000f0 0e 3e 3f bc 1c be b6 3d 6e 3e b9 3d 81 3e 3e bd
       0.13867188 -0.011657715 -0.15234375 0.08886719 0.23242188 0.09033203 0.25195312 -0.04638672
000100 08 3d 5c 3e bb bd 82 3c 82 bd 6c 3e 81 3c 37 3e
       0.033203125 0.21484375 -0.091308594 0.01586914 -0.06347656 0.23046875 0.01574707 0.17871094
000110 e2 3d 0b 3e b9 3c 94 be 92 3e 90 bd af 3d 8e be
       0.11035156 0.13574219 0.022583008 -0.2890625 0.28515625 -0.0703125 0.08544922 -0.27734375
000120 e9 ba 02 3d 80 3e 4a 3e 4d be a4 3d 66 3e 42 3e
       -0.0017776489 0.03173828 0.25 0.19726562 -0.20019531 0.080078125 0.22460938 0.18945312
000130 6c be 92 3e 36 3d 3f 3e 6b 3b 9e 3d 62 3e 52 3b
       -0.23046875 0.28515625 0.044433594 0.18652344 0.0035858154 0.07714844 0.22070312 0.0032043457
000140 36 3e 55 3e 33 3e 1f 3e 80 3c 3e 3c 96 3d 91 3c
       0.17773438 0.20800781 0.17480469 0.15527344 0.015625 0.01159668 0.07324219 0.017700195
000150 75 be de 3d b4 3d aa 3c 8f be 82 3e bb 3d 16 be
       -0.23925781 0.10839844 0.087890625 0.020751953 -0.27929688 0.25390625 0.091308594 -0.14648438
000160 8e 3e 3a be bb bc 80 bc 81 bd eb bd 11 be 2f 3e
       0.27734375 -0.18164062 -0.022827148 -0.015625 -0.06298828 -0.114746094 -0.14160156 0.17089844
000170 54 3a b9 3b 81 3e 51 be 2a bc 5d be 97 bd 2e be
       0.0008087158 0.005645752 0.25195312 -0.20410156 -0.010375977 -0.21582031 -0.07373047 -0.16992188
000180 8a 3d 43 3d 19 3e 3d 3e 43 be 68 3e 85 3d f4 3d
       0.06738281 0.047607422 0.14941406 0.18457031 -0.19042969 0.2265625 0.064941406 0.119140625
000190 16 3e 42 3e 4a 3e 8a be 96 be 68 3e 85 bd 74 be
       0.14648438 0.18945312 0.19726562 -0.26953125 -0.29296875 0.2265625 -0.064941406 -0.23828125
0001a0 50 3e 5c be 80 3e 07 bd 4c be ad 3d 75 3c 55 be
       0.203125 -0.21484375 0.25 -0.032958984 -0.19921875 0.084472656 0.014953613 -0.20800781
0001b0 7a be 46 be 21 be a2 bb 78 3e cc 3d c2 3c 2c be
       -0.24414062 -0.19335938 -0.15722656 -0.0049438477 0.2421875 0.099609375 0.02368164 -0.16796875
0001c0 92 be 9b 3d 90 be 68 3e 17 be 8f 3d b0 bb 7e be
       -0.28515625 0.075683594 -0.28125 0.2265625 -0.14746094 0.06982422 -0.0053710938 -0.24804688
0001d0 38 be 83 3d 2d 3d 14 be d3 bc 6c be 21 3e 1f be
       -0.1796875 0.063964844 0.042236328 -0.14453125 -0.025756836 -0.23046875 0.15722656 -0.15527344
0001e0 17 3e 66 be 1d 3e 60 3e 1b 3e 6a 3e 87 3e 55 3e
       0.14746094 -0.22460938 0.15332031 0.21875 0.15136719 0.22851562 0.26367188 0.20800781
0001f0 cb 3c 67 3e 8e 3c 87 3d c7 3d f4 3d 42 be 4e 3c
       0.024780273 0.22558594 0.017333984 0.06591797 0.09716797 0.119140625 -0.18945312 0.012573242

layer_11.gate_k.net.0.weight bf16 [4, 64]
000000 f8 3d 04 3c ef 3b c0 bb 8a 3d 32 bc 48 3c 48 bd
       0.12109375 0.008056641 0.007293701 -0.005859375 0.06738281 -0.010864258 0.012207031 -0.048828125
000010 82 3c 83 3d 88 3d f0 3d 38 3c ed bd 9c bd 76 bd
       0.01586914 0.063964844 0.06640625 0.1171875 0.011230469 -0.115722656 -0.076171875 -0.060058594
000020 20 bc d5 bd cd 3d d6 3d b9 bd 05 bd 9c bd 8c bd
       -0.009765625 -0.104003906 0.100097656 0.10449219 -0.09033203 -0.032470703 -0.076171875 -0.068359375
000030 eb 3d 74 bd 67 3d 89 3d 89 3c a1 bd 13 bc ca bc
       0.114746094 -0.059570312 0.056396484 0.06689453 0.016723633 -0.07861328 -0.008972168 -0.024658203
000040 ff 3d b1 3d 69 3c 89 3d c8 bd 93 3d 70 3d fd 3d
       0.12451172 0.08642578 0.014221191 0.06689453 -0.09765625 0.071777344 0.05859375 0.123535156
000050 11 bd aa bd d5 3d fa 3d 21 3c e1 3c f9 3d d9 bd
       -0.03540039 -0.08300781 0.104003906 0.12207031 0.00982666 0.02746582 0.12158203 -0.10595703
000060 1d bd bd bd 74 3d ab 3d dc bd a5 bc e8 bd bd 3d
       -0.038330078 -0.092285156 0.059570312 0.083496094 -0.107421875 -0.020141602 -0.11328125 0.092285156
000070 cc 3d 27 3d 7b ba af ba ab 3d 30 3d c3 bd cc 3c
       0.099609375 0.040771484 -0.000957489 -0.001335144 0.083496094 0.04296875 -0.095214844 0.024902344
000080 cc 3d a7 3d b5 bd c8 bd a1 3d cf 3d 81 bd a0 bd
       0.099609375 0.08154297 -0.088378906 -0.09765625 0.07861328 0.10107422 -0.06298828 -0.078125
000090 ed 3c 81 bd 84 3d 40 3d ca 3d ce bc 17 bd c8 bd
       0.028930664 -0.06298828 0.064453125 0.046875 0.09863281 -0.025146484 -0.036865234 -0.09765625
0000a0 e4 3d 83 3d 64 3c 9c bd d6 3d eb 3d fe bc 94 bd
       0.111328125 0.063964844 0.013916016 -0.076171875 0.10449219 0.114746094 -0.03100586 -0.072265625
0000b0 5e bd a8 3d dd bd 68 bd 59 bb a6 3d 8a bc bd bd
       -0.05419922 0.08203125 -0.107910156 -0.056640625 -0.0033111572 0.08105469 -0.016845703 -0.092285156
0000c0 ad bd 26 3d 92 ba fe bc a1 3d 43 3d 0b 3c 17 bd
       -0.084472656 0.040527344 -0.0011138916 -0.03100586 0.07861328 0.047607422 0.008483887 -0.036865234
0000d0 a8 bd fd bd 76 3d e5 3a d3 3d 37 bd f7 bd 8c bd
       -0.08203125 -0.123535156 0.060058594 0.0017471313 0.103027344 -0.044677734 -0.12060547 -0.068359375
0000e0 af bd cc bc e2 bd 4e 3d b8 3d 6a 3b ff bd 32 3d
       -0.08544922 -0.024902344 -0.11035156 0.05029297 0.08984375 0.0035705566 -0.12451172 0.04345703
0000f0 d9 bc 06 3d 19 bd c3 bd cf bd 17 3d 22 bd e6 3d
       -0.026489258 0.032714844 -0.037353516 -0.095214844 -0.10107422 0.036865234 -0.03955078 0.11230469
000100 84 bc 86 3c a9 3d ef 3d 3a 3d d8 3d cd 3d fe 3d
       -0.016113281 0.016357422 0.08251953 0.11669922 0.045410156 0.10546875 0.100097656 0.12402344
000110 d5 bd 50 3d 6a bd b9 bd 6c 3c bb 3d de 3d fb ba
       -0.104003906 0.05078125 -0.057128906 -0.09033203 0.014404297 0.091308594 0.10839844 -0.001914978
000120 54 3d 14 bc 95 3c 01 bd 6c bd a1 bd ea bd 70 bc
       0.051757812 -0.009033203 0.018188477 -0.03149414 -0.057617188 -0.07861328 -0.11425781 -0.0146484375
000130 f1 3d 3a 3d d4 3b d9 bd 6d bc ef bd a4 3c 3b bd
       0.11767578 0.045410156 0.0064697266 -0.10595703 -0.014465332 -0.11669922 0.020019531 -0.045654297
000140 cc 3d a2 3d db bd 90 3d 04 bd fa bd 30 bd 7b 3c
       0.099609375 0.07910156 -0.106933594 0.0703125 -0.032226562 -0.12207031 -0.04296875 0.015319824
000150 8d 3d eb 3b c2 3d e5 bd 5f bd fe bd 66 bc b7 bd
       0.068847656 0.007171631 0.09472656 -0.111816406 -0.05444336 -0.12402344 -0.014038086 -0.08935547
000160 94 3d 9b 3d 55 bd ed 3d b1 bd c2 bd c8 bc e1 3c
       0.072265625 0.075683594 -0.052001953 0.115722656 -0.08642578 -0.09472656 -0.024414062 0.02746582
000170 e6 3d ae bd c8 3d 4e 3d 7a bd a8 bd 2a 3d 23 bc
       0.11230469 -0.08496094 0.09765625 0.05029297 -0.061035156 -0.08203125 0.041503906 -0.0099487305
000180 cd 3d 76 3c ec bd 21 bd 46 bd 93 bd 89 bc 59 3d
       0.100097656 0.015014648 -0.115234375 -0.03930664 -0.048339844 -0.071777344 -0.016723633 0.052978516
000190 a0 bd be bc 5e bd a0 3d c5 3d d3 3d fb 3d 74 bd
       -0.078125 -0.02319336 -0.05419922 0.078125 0.096191406 0.103027344 0.122558594 -0.059570312
0001a0 b3 bd b8 3d 5e 3d a8 3c 8f bd cc bd 2a bd d3 3d
       -0.087402344 0.08984375 0.05419922 0.020507812 -0.06982422 -0.099609375 -0.041503906 0.103027344
0001b0 81 bd a3 bd 3d 3d da 3d 11 3c 07 3d a6 3d 16 bd
       -0.06298828 -0.079589844 0.046142578 0.10644531 0.008850098 0.032958984 0.08105469 -0.036621094
0001c0 e6 bd 2c 3c 90 bd 4c 3d 87 bd f0 3d 47 bc cb 3d
       -0.11230469 0.010498047 -0.0703125 0.049804688 -0.06591797 0.1171875 -0.012145996 0.099121094
0001d0 b6 bd db bd 73 bd fe bc c3 3d c7 bd 46 bd 19 3d
       -0.08886719 -0.106933594 -0.059326172 -0.03100586 0.095214844 -0.09716797 -0.048339844 0.037353516
0001e0 21 3c 60 bd a9 3d 91 bd 73 3d f6 3c 90 bd 96 3c
       0.00982666 -0.0546875 0.08251953 -0.07080078 0.059326172 0.030029297 -0.0703125 0.018310547
0001f0 20 3d 4c bc 1e bd 79 3d 5c bd e7 bc 8d bc 14 3c
       0.0390625 -0.012451172 -0.03857422 0.060791016 -0.053710938 -0.028198242 -0.017211914 0.009033203

layer_11.gate_k.net.0.bias bf16 [4]
000000 9b 3c d0 3c d9 bd a1 bd
       0.018920898 0.025390625 -0.10595703 -0.07861328

layer_11.gate_k.net.2.weight bf16 [4, 4]
000000 04 3e d4 3e a7 be 12 be a3 be c8 be e2 be 17 3e
       0.12890625 0.4140625 -0.32617188 -0.14257812 -0.31835938 -0.390625 -0.44140625 0.14746094
000010 17 bd 84 be fa 3e 75 bd 8f 3d 00 3f b6 be 2b be
       -0.036865234 -0.2578125 0.48828125 -0.059814453 0.06982422 0.5 -0.35546875 -0.16699219

layer_11.gate_k.net.2.bias bf16 [4]
000000 cc be 24 3e ec bd fc be
       -0.3984375 0.16015625 -0.115234375 -0.4921875

layer_11.gate_v.net.0.weight bf16 [4, 64]
000000 5b bd 23 bc eb 3d 44 bd bb bd 95 3d 94 3d 7a 3d
       -0.053466797 -0.0099487305 0.114746094 -0.047851562 -0.091308594 0.072753906 0.072265625 0.061035156
000010 6d 3d a1 3d 80 3d 15 bd 36 3d 28 bd e2 3d e6 3d
       0.057861328 0.07861328 0.0625 -0.036376953 0.044433594 -0.041015625 0.11035156 0.11230469
000020 e1 bc 87 bd 89 bd b1 3d 3a bd e1 3d 4c 3d cc 3d
       -0.02746582 -0.06591797 -0.06689453 0.08642578 -0.045410156 0.10986328 0.049804688 0.099609375
000030 84 3d bb 3d 33 bd 80 3d e4 bd 98 3d 85 bc ad bd
       0.064453125 0.091308594 -0.043701172 0.0625 -0.111328125 0.07421875 -0.016235352 -0.084472656
000040 73 bd e1 bd cf 3d 80 3d 80 3d 80 bd 81 3d a1 3d
       -0.059326172 -0.10986328 0.10107422 0.0625 0.0625 -0.0625 0.06298828 0.07861328
000050 96 bd cd 3d 82 bd 80 3d 36 bd 0c 3d 4d bd b4 bc
       -0.07324219 0.100097656 -0.06347656 0.0625 -0.044433594 0.034179688 -0.050048828 -0.021972656
000060 99 bd 9d bd a5 3d d1 bd c1 3d fb bd ab 3c b2 3c
       -0.07470703 -0.076660156 0.080566406 -0.10205078 0.09423828 -0.122558594 0.020874023 0.021728516
000070 85 3d 59 bd 81 bd f6 3d c8 bd ff bc 9e 3d ed 3d
       0.064941406 -0.052978516 -0.06298828 0.12011719 -0.09765625 -0.03112793 0.07714844 0.115722656
000080 86 bc e6 3d 48 3d 10 3d c1 3d 8d 3d e5 bd 08 bc
       -0.016357422 0.11230469 0.048828125 0.03515625 0.09423828 0.068847656 -0.111816406 -0.008300781
000090 ed bd a6 bd 09 bd 6c 3c fa 3d 3b bc cd 3d f1 3d
       -0.115722656 -0.08105469 -0.033447266 0.014404297 0.12207031 -0.011413574 0.100097656 0.11767578
0000a0 d1 bb ee 3d f9 3c 0a 3d 81 3c 98 3d 0a 3d 9a bc
       -0.006378174 0.11621094 0.030395508 0.033691406 0.01574707 0.07421875 0.033691406 -0.018798828
0000b0 b9 bd 9e 3d e4 bb f6 3d ac bd b0 bd 0c bd b6 3d
       -0.09033203 0.07714844 -0.006958008 0.12011719 -0.083984375 -0.0859375 -0.034179688 0.08886719
0000c0 0e bd 00 3d 37 3c 62 bd 17 bd b2 bd 80 bd 61 3d
       -0.03466797 0.03125 0.011169434 -0.05517578 -0.036865234 -0.08691406 -0.0625 0.05493164
0000d0 af bd c4 3d f6 3d 02 bd e7 bd 15 3d 02 3d bb bd
       -0.08544922 0.095703125 0.12011719 -0.03173828 -0.11279297 0.036376953 0.03173828 -0.091308594
0000e0 5c bd f8 3d 82 3d c6 3d 59 bd 09 3d 83 bd 04 3d
       -0.053710938 0.12109375 0.06347656 0.09667969 -0.052978516 0.033447266 -0.063964844 0.032226562
0000f0 e7 3d fc 3d ab 3d a7 bd dc 3c cc 3c 11 3d a7 bc
       0.11279297 0.123046875 0.083496094 -0.08154297 0.026855469 0.024902344 0.03540039 -0.020385742
000100 e9 3c bc bd 4a 3c c3 bd 14 bd e7 bd c5 3d c5 bd
       0.028442383 -0.091796875 0.012329102 -0.095214844 -0.036132812 -0.11279297 0.096191406 -0.096191406
000110 0a bd fe 3d ae 3d ff 3d 16 bd cd bd da bd f0 bc
       -0.033691406 0.12402344 0.08496094 0.12451172 -0.036621094 -0.100097656 -0.10644531 -0.029296875
000120 b4 bd 0e 3d 27 bd fa 3d 96 bb 03 bd 43 bd d0 bc
       -0.087890625 0.03466797 -0.040771484 0.12207031 -0.0045776367 -0.031982422 -0.047607422 -0.025390625
000130 e6 3d 81 3a 63 3d 4c bd f5 bd a3 bb c3 3d b7 3d
       0.11230469 0.0009841919 0.055419922 -0.049804688 -0.119628906 -0.0049743652 0.095214844 0.08935547
000140 03 3d c5 bd 6c 3d a9 bd c6 3d 99 3d bd 3d c4 bd
       0.031982422 -0.096191406 0.057617188 -0.08251953 0.09667969 0.07470703 0.092285156 -0.095703125
000150 62 bc 83 bd c7 3d 9c 3d fb 3d 8e 3c 0c bd d0 3d
       -0.013793945 -0.063964844 0.09716797 0.076171875 0.122558594 0.017333984 -0.034179688 0.1015625
000160 b1 3d 08 bd 9a bc 25 bd 93 3d a6 3d a7 3d 87 bd
       0.08642578 -0.033203125 -0.018798828 -0.040283203 0.071777344 0.08105469 0.08154297 -0.06591797
000170 d6 bc 02 3d f9 3d 2d 3c 9d bd d9 bd e4 3d eb bd
       -0.026123047 0.03173828 0.12158203 0.010559082 -0.076660156 -0.10595703 0.111328125 -0.114746094
000180 52 bd 80 bd 92 bd 80 bd a8 ba dd bd 4d bd 59 3d
       -0.05126953 -0.0625 -0.07128906 -0.0625 -0.0012817383 -0.107910156 -0.050048828 0.052978516
000190 80 3d e5 3d 74 3d d9 bd 89 3d 1c bd 70 bd 80 3d
       0.0625 0.111816406 0.059570312 -0.10595703 0.06689453 -0.038085938 -0.05859375 0.0625
0001a0 00 3e db 3d 80 bd 1b 3d 60 bc 18 bd b6 3d 43 3d
       0.125 0.106933594 -0.0625 0.037841797 -0.013671875 -0.037109375 0.08886719 0.047607422
0001b0 a3 3d 25 3d 83 3c ab 3d d0 3c e1 3d 95 bd bf 3d
       0.079589844 0.040283203 0.015991211 0.083496094 0.025390625 0.10986328 -0.072753906 0.09326172
0001c0 aa bd d0 bd d5 bd 5b 3d 82 3d 36 bd bb bd 2e bd
       -0.08300781 -0.1015625 -0.104003906 0.053466797 0.06347656 -0.044433594 -0.091308594 -0.04248047
0001d0 ad bd 38 3d f8 3c 81 3d d3 3d 32 bd a6 bd a7 bd
       -0.084472656 0.044921875 0.030273438 0.06298828 0.103027344 -0.04345703 -0.08105469 -0.08154297
0001e0 83 bd b9 3d c5 3d 3e bd 4c 3d 88 bd 1e bd e5 bd
       -0.063964844 0.09033203 0.096191406 -0.04638672 0.049804688 -0.06640625 -0.03857422 -0.111816406
0001f0 80 3d 4b 3d b9 bd 29 bd 80 bd 89 3d b4 3d 46 bd
       0.0625 0.049560547 -0.09033203 -0.041259766 -0.0625 0.06689453 0.087890625 -0.048339844

layer_11.gate_v.net.0.bias bf16 [4]
000000 ce bd ca bd e8 3d 80 3d
       -0.10058594 -0.09863281 0.11328125 0.0625

layer_11.gate_v.net.2.weight bf16 [4, 4]
000000 81 3d 66 be 8f be 7f 3e 81 3d af 3d d1 be d0 3e
       0.06298828 -0.22460938 -0.27929688 0.24902344 0.06298828 0.08544922 -0.40820312 0.40625
000010 a7 3e fe 3e c6 3e 5c 3e 86 3d d8 be ba be 84 3d
       0.32617188 0.49609375 0.38671875 0.21484375 0.06542969 -0.421875 -0.36328125 0.064453125

layer_11.gate_v.net.2.bias bf16 [4]
000000 97 3e 80 3d 7e 3e 80 3d
       0.29492188 0.0625 0.24804688 0.0625

exp_avg bf16 [64, 4]
000000 e2 bc 9f 38 db 3c f5 39 10 3b 95 bb 8d ba 65 bc
       -0.02758789 7.581711e-05 0.026733398 0.00046730042 0.0021972656 -0.004547119 -0.0010757446 -0.013977051
000010 c8 3c dc ba 47 3b 82 ba da 3c 9a bc 80 bc 80 bc
       0.024414062 -0.0016784668 0.003036499 -0.0009918213 0.026611328 -0.018798828 -0.015625 -0.015625
000020 77 bc 20 3a 24 3c d4 bc 0c bd 91 3c 76 3c 09 bb
       -0.015075684 0.00061035156 0.010009766 -0.025878906 -0.034179688 0.017700195 0.015014648 -0.002090454
000030 84 3c 9c 39 2e bc b1 ba 16 bc 50 bc 33 bc ca ba
       0.016113281 0.0002975464 -0.010620117 -0.0013504028 -0.009155273 -0.0126953125 -0.010925293 -0.0015411377
000040 b5 bc 81 bc 81 bb e5 3c 24 3d 96 3c eb bb aa 3b
       -0.022094727 -0.01574707 -0.0039367676 0.027954102 0.040039062 0.018310547 -0.007171631 0.0051879883
000050 18 3c 39 b9 23 3c 9f 3c f0 3c c3 3c f2 bc 02 ba
       0.009277344 -0.00017642975 0.0099487305 0.01940918 0.029296875 0.023803711 -0.029541016 -0.00049591064
000060 20 3d f6 3c 72 bc b1 3c 08 bd 69 3a f0 3c 19 3a
       0.0390625 0.030029297 -0.014770508 0.021606445 -0.033203125 0.00088882446 0.029296875 0.0005836487
000070 d7 3c e4 3c 2a bc 88 3c 06 bd 33 bc d7 3c 7b 3c
       0.026245117 0.027832031 -0.010375977 0.016601562 -0.032714844 -0.010925293 0.026245117 0.015319824
000080 16 bd e1 3c ee 3c b6 3c 86 3b 43 3c 2a bc 66 bc
       -0.036621094 0.02746582 0.029052734 0.022216797 0.0040893555 0.0119018555 -0.010375977 -0.014038086
000090 02 3c db b9 92 3c c5 3a d3 3a 3b 3c 47 bc e9 bc
       0.00793457 -0.00041770935 0.017822266 0.0015029907 0.0016098022 0.011413574 -0.012145996 -0.028442383
0000a0 2d ba f2 3c 54 bc e1 ba cf bc f2 bc 8d b4 60 bc
       -0.0006599426 0.029541016 -0.012939453 -0.0017166138 -0.025268555 -0.029541016 -2.6263297e-07 -0.013671875
0000b0 8f bc 24 3c 4f bb 90 bb c0 39 bf 3c bd 3b 37 bc
       -0.017456055 0.010009766 -0.0031585693 -0.0043945312 0.00036621094 0.02331543 0.0057678223 -0.011169434
0000c0 cc bc a0 3c 87 3b 48 3c 96 bc c0 3c aa 3c 8f 3b
       -0.024902344 0.01953125 0.004119873 0.012207031 -0.018310547 0.0234375 0.020751953 0.0043640137
0000d0 a7 3b 1e 3b b8 3b b4 b9 f6 bc ac bc 0e 3a 13 bd
       0.0050964355 0.0024108887 0.0056152344 -0.00034332275 -0.030029297 -0.020996094 0.000541687 -0.035888672
0000e0 2f bd a1 bc b8 3c b4 3a e9 bc c2 bc c5 bb ee bc
       -0.04272461 -0.01965332 0.022460938 0.001373291 -0.028442383 -0.02368164 -0.006011963 -0.029052734
0000f0 21 3d 7f bc c3 bc ef bc 80 bc a5 3c 58 3c f1 39
       0.03930664 -0.015563965 -0.023803711 -0.029174805 -0.015625 0.020141602 0.013183594 0.00045967102
000100 26 bd f6 3b eb 3c 02 3b e2 3c 09 bc c8 bc 45 bb
       -0.040527344 0.007507324 0.028686523 0.0019836426 0.02758789 -0.008361816 -0.024414062 -0.0030059814
000110 56 3c 2e bc d9 ba 9c 3a 2c 3d 3a bc f7 bc a9 bc
       0.013061523 -0.010620117 -0.0016555786 0.0011901855 0.041992188 -0.011352539 -0.030151367 -0.020629883
000120 d3 3c 42 bc af bb a1 bc d5 bc c3 bc 40 3c db 3c
       0.025756836 -0.01184082 -0.005340576 -0.01965332 -0.026000977 -0.023803711 0.01171875 0.026733398
000130 90 bb 3e ba bb 3b d8 3a 8f 39 62 3c 8a 3c 8c 3c
       -0.0043945312 -0.0007247925 0.005706787 0.0016479492 0.00027275085 0.013793945 0.016845703 0.017089844
000140 96 3c db 3c b8 bc 86 bc e7 3c 04 3d 08 bc fd 3c
       0.018310547 0.026733398 -0.022460938 -0.016357422 0.028198242 0.032226562 -0.008300781 0.030883789
000150 96 ba 1f bc 7a 3a d3 bb eb 3b f6 b8 5a bb 74 bc
       -0.0011444092 -0.00970459 0.0009536743 -0.006439209 0.007171631 -0.00011730194 -0.003326416 -0.014892578
000160 79 3c 74 bc 49 3a a3 3c c4 bc cd bc f1 3b e3 bc
       0.015197754 -0.014892578 0.00076675415 0.019897461 -0.023925781 -0.025024414 0.0073547363 -0.027709961
000170 aa bc df 3c bb 3c 13 3d 1d bd f0 bc 60 3c 65 3c
       -0.020751953 0.02722168 0.022827148 0.035888672 -0.038330078 -0.029296875 0.013671875 0.013977051
000180 a1 bc cd 3b ac 3a 30 bc ee 3c c1 3c 1b 3c f4 bb
       -0.01965332 0.0062561035 0.0013122559 -0.0107421875 0.029052734 0.02355957 0.009460449 -0.007446289
000190 67 bb 31 bc 94 3c ef 3c f9 bc d4 3b d4 3c 86 3b
       -0.0035247803 -0.010803223 0.018066406 0.029174805 -0.030395508 0.0064697266 0.025878906 0.0040893555
0001a0 df bb d1 39 ed bb 0a 3d 48 bc 1f 3b 7b bc 17 bb
       -0.00680542 0.00039863586 -0.007232666 0.033691406 -0.012207031 0.0024261475 -0.015319824 -0.0023040771
0001b0 83 3c 89 bc a8 3b a2 b7 ca 3c 3d bc a4 bc 6e bc
       0.015991211 -0.016723633 0.005126953 -1.9311905e-05 0.024658203 -0.0115356445 -0.020019531 -0.014526367
0001c0 78 bb af 3c 44 ba a8 bc 88 bc fb bb 95 bb 1a 3b
       -0.0037841797 0.021362305 -0.00074768066 -0.020507812 -0.016601562 -0.007659912 -0.004547119 0.0023498535
0001d0 9a bc 41 bc 2a 3c 12 3c d8 bb 26 3c 0d bc e0 ba
       -0.018798828 -0.011779785 0.010375977 0.008911133 -0.006591797 0.010131836 -0.008605957 -0.0017089844
0001e0 cc ba 92 b8 84 3c c9 bb 11 3d b0 38 b9 bc a7 3b
       -0.0015563965 -6.9618225e-05 0.016113281 -0.006134033 0.03540039 8.392334e-05 -0.022583008 0.0050964355
0001f0 34 bb d2 3c 6e 3c f8 bc ca 3c ef 3c 53 3c 2d 3b
       -0.002746582 0.025634766 0.014526367 -0.030273438 0.024658203 0.029174805 0.012878418 0.0026397705
