empty_dirs_for_codex/outputs/runs_recovery/recovery_vonly_seedrep_t1/ablation_no_contr_vonly_tuned_loto_overwrite_seed2027/checkpoints/train_state_latest.pt (torch, 43997 bytes, 48 tensors)

layer_10.Wk bf16 [64, 4]
-0.265625 0.080566406 0.17773438 -0.15625 0.23925781 -0.12988281 -0.10058594 0.024047852
0.012939453 0.037841797 0.27148438 -0.008178711 -0.111328125 -0.15625 -0.19824219 -0.19921875
-0.10107422 -0.08251953 0.13183594 0.2734375 -0.26953125 0.1796875 0.08691406 -0.07470703
0.07128906 -0.15527344 -0.07324219 -0.06591797 -0.09326172 -0.24316406 0.08544922 -0.203125
0.009338379 0.10986328 0.19335938 -0.27539062 -0.12988281 -0.27929688 -0.296875 0.16601562
-0.079589844 0.07763672 -0.22167969 -0.265625 0.12695312 -0.28125 -0.24707031 0.22460938
0.19140625 0.021484375 -0.27539062 0.111328125 -0.020629883 0.16210938 -0.25976562 0.140625
-0.009887695 -0.05883789 -0.27148438 -0.19726562 0.0055236816 0.27148438 0.21777344 -0.29492188
-0.2734375 -0.078125 0.091308594 0.037109375 0.05126953 -0.26367188 0.09277344 -0.2578125
0.20703125 -0.11035156 0.1875 0.019165039 -0.16113281 -0.18847656 0.15039062 0.07324219
0.0023345947 0.076171875 0.15917969 0.17773438 -0.087890625 -0.05517578 0.24902344 0.088378906
-0.11035156 -0.026000977 -0.19628906 -0.22753906 0.029052734 0.013793945 0.21386719 0.036621094
0.171875 -0.23730469 -0.23925781 0.23144531 -0.16894531 0.03540039 0.22558594 0.0011291504
-0.072265625 -0.09326172 -0.09863281 -0.25 0.1796875 0.26171875 -0.27539062 -0.083984375
0.118652344 0.08984375 -0.016113281 -0.23730469 -0.26757812 -0.18066406 0.076660156 0.017578125
0.2578125 0.11279297 -0.018554688 0.14746094 0.06689453 -0.24121094 0.036132812 0.21484375
-0.00062942505 0.05444336 -0.12158203 -0.22460938 0.2734375 -0.006652832 -0.09814453 0.057861328
0.13574219 -0.22851562 0.111328125 0.09814453 -0.24609375 0.22753906 0.033203125 -0.07470703
-0.10205078 -0.091308594 0.076660156 -0.12890625 0.12451172 0.017944336 0.036865234 0.17871094
-0.27734375 0.22265625 0.040039062 -0.24121094 0.03515625 -0.10205078 -0.091308594 0.19335938
0.032226562 0.23925781 0.111328125 0.115234375 0.24609375 -0.004211426 -0.26171875 -0.03540039
-0.11621094 -0.23144531 -0.22949219 -0.16601562 0.25195312 -0.15234375 -0.2734375 0.012145996
-0.068847656 -0.21972656 0.010559082 -0.15820312 -0.0039367676 -0.10986328 0.087890625 0.016601562
0.12207031 -0.03173828 0.025024414 0.018310547 -0.053710938 -0.24707031 0.026123047 -0.29296875
0.27148438 0.24121094 0.049560547 0.2734375 0.26171875 0.045410156 0.061035156 0.15332031
-0.05517578 -0.20898438 0.10644531 -0.18359375 -0.111328125 0.09277344 0.1953125 -0.19433594
-0.16796875 -0.21679688 0.26757812 0.26757812 0.25390625 0.061279297 0.11425781 0.29296875
-0.01940918 -0.20410156 -0.29101562 -0.17382812 0.18847656 -0.026977539 0.088378906 -0.2890625
0.17871094 0.26171875 -0.28125 -0.095703125 0.26757812 0.15136719 -0.29492188 0.032226562
-0.17382812 -0.10839844 0.11376953 0.07910156 0.27539062 -0.032470703 -0.27929688 -0.049316406
-0.109375 0.07714844 0.19140625 0.123046875 -0.23730469 0.16894531 -0.234375 0.15625
-0.21191406 -0.014160156 -0.049316406 0.29101562 0.109375 -0.08544922 0.27929688 0.27734375
00000000: 88be a53d 363e 20be 753e 05be cebd c53c
00000010: 543c 1b3d 8b3e 06bc e4bd 20be 4bbe 4cbe
00000020: cfbd a9bd 073e 8c3e 8abe 383e b23d 99bd
00000030: 923d 1fbe 96bd 87bd bfbd 79be af3d 50be
00000040: 193c e13d 463e 8dbe 05be 8fbe 98be 2a3e
00000050: a3bd 9f3d 63be 88be 023e 90be 7dbe 663e
00000060: 443e b03c 8dbe e43d a9bc 263e 85be 103e
00000070: 22bc 71bd 8bbe 4abe b53b 8b3e 5f3e 97be
00000080: 8cbe a0bd bb3d 183d 523d 87be be3d 84be
00000090: 543e e2bd 403e 9d3c 25be 41be 1a3e 963d
000000a0: 193b 9c3d 233e 363e b4bd 62bd 7f3e b53d
000000b0: e2bd d5bc 49be 69be ee3c 623c 5b3e 163d
000000c0: 303e 73be 75be 6d3e 2dbe 113d 673e 943a
000000d0: 94bd bfbd cabd 80be 383e 863e 8dbe acbd
000000e0: f33d b83d 84bc 73be 89be 39be 9d3d 903c
000000f0: 843e e73d 98bc 173e 893d 77be 143d 5c3e
00000100: 25ba 5f3d f9bd 66be 8c3e dabb c9bd 6d3d
00000110: 0b3e 6abe e43d c93d 7cbe 693e 083d 99bd
00000120: d1bd bbbd 9d3d 04be ff3d 933c 173d 373e
00000130: 8ebe 643e 243d 77be 103d d1bd bbbd 463e
00000140: 043d 753e e43d ec3d 7c3e 8abb 86be 11bd
00000150: eebd 6dbe 6bbe 2abe 813e 1cbe 8cbe 473c
00000160: 8dbd 61be 2d3c 22be 81bb e1bd b43d 883c
00000170: fa3d 02bd cd3c 963c 5cbd 7dbe d63c 96be
00000180: 8b3e 773e 4b3d 8c3e 863e 3a3d 7a3d 1d3e
00000190: 62bd 56be da3d 3cbe e4bd be3d 483e 47be
000001a0: 2cbe 5ebe 893e 893e 823e 7b3d ea3d 963e
000001b0: 9fbc 51be 95be 32be 413e ddbc b53d 94be
000001c0: 373e 863e 90be c4bd 893e 1b3e 97be 043d
000001d0: 32be debd e93d a23d 8d3e 05bd 8fbe 4abd
000001e0: e0bd 9e3d 443e fc3d 73be 2d3e 70be 203e
000001f0: 59be 68bc 4abd 953e e03d afbd 8f3e 8e3e

layer_10.Uk bf16 [64, 4]
0.08886719 -0.024047852 0.18847656 0.27148438 0.20898438 0.28125 -0.28710938 -0.203125
-0.044677734 -0.07373047 -0.29492188 0.20800781 -0.033203125 -0.107421875 -0.18847656 0.2109375
0.17382812 0.024780273 -0.018920898 -0.23828125 0.24414062 -0.15429688 -0.10449219 -0.28515625
0.296875 -0.15332031 0.083984375 -0.15136719 0.02746582 0.26171875 0.017822266 -0.07763672
-0.022338867 0.12158203 -0.05029297 0.10888672 -0.0030975342 -0.11621094 0.203125 0.0625
-0.2421875 -0.0005950928 0.0087890625 0.12060547 -0.21289062 0.071777344 0.044677734 0.203125
-0.09814453 -0.03857422 0.11230469 -0.21289062 -0.057373047 0.18652344 -0.028930664 -0.09375
0.16210938 0.15234375 0.24316406 0.29101562 -0.23046875 -0.27734375 -0.0010910034 0.15039062
0.23925781 0.22558594 -0.12792969 -0.15917969 0.16113281 -0.060302734 0.11279297 0.2890625
-0.20800781 0.009521484 -0.17480469 0.22265625 0.15234375 -0.20703125 0.29296875 0.23925781
-0.22070312 0.072265625 -0.11230469 0.16308594 -0.19335938 -0.123046875 0.083984375 0.23242188
-0.24023438 -0.19042969 0.17675781 0.095214844 -0.29296875 -0.0056152344 0.29492188 -0.020996094
0.03930664 -0.20898438 -0.05834961 0.05029297 -0.0056762695 0.14746094 0.24023438 0.27734375
-0.013061523 -0.24023438 0.17480469 -0.09033203 0.23828125 0.16699219 -0.21777344 -0.061035156
-0.16113281 -0.100097656 -0.009521484 0.2421875 -0.13671875 -0.16210938 -0.100097656 -0.27539062
-0.09033203 0.03515625 0.18945312 0.19726562 0.12890625 0.030151367 0.13183594 0.27539062
0.24707031 0.18847656 0.24121094 0.16210938 -0.140625 0.11328125 0.23730469 -0.042236328
-0.037841797 0.028076172 0.010009766 -0.19433594 0.21191406 0.24121094 0.10888672 -0.026367188
-0.10986328 -0.16015625 0.0703125 0.060546875 0.20214844 0.22167969 0.25390625 0.09033203
-0.25390625 -0.24902344 0.26953125 -0.092285156 0.03857422 0.24121094 0.05078125 0.15625
0.2578125 -0.23242188 0.23339844 0.12988281 0.07861328 0.26953125 0.09082031 0.024536133
-0.171875 -0.2578125 -0.023071289 0.29296875 0.26367188 0.22167969 -0.11279297 0.029174805
0.19628906 -0.06933594 -0.22851562 0.068359375 0.18359375 0.21582031 -0.23144531 0.12988281
0.23144531 0.24316406 -0.05883789 0.09863281 0.29101562 0.10986328 -0.064453125 -0.07373047
-0.18261719 -0.29101562 -0.107421875 -0.14648438 0.18945312 0.21289062 0.099609375 -0.19921875
0.23925781 -0.15039062 -0.27929688 -0.09033203 -0.11376953 0.296875 -0.18652344 -0.091308594
0.11621094 -0.18066406 -0.111816406 0.14453125 0.19433594 -0.038085938 -0.16699219 -0.1328125
0.17578125 -0.080078125 0.106933594 0.13378906 -0.1796875 0.10839844 -0.25585938 -0.16992188
0.21289062 -0.06298828 -0.0234375 0.034179688 -0.0021514893 -0.057373047 -0.0025939941 -0.015136719
-0.032958984 -0.14550781 0.16113281 -0.25390625 0.08886719 -0.064453125 -0.07128906 -0.1875
0.024780273 0.15234375 -0.11669922 -0.13378906 0.14941406 0.14941406 -0.20214844 0.24121094
0.092285156 -0.008666992 -0.18261719 -0.18945312 -0.20117188 0.22460938 0.05883789 -0.17675781
00000000: b63d c5bc 413e 8b3e 563e 903e 93be 50be
00000010: 37bd 97bd 97be 553e 08bd dcbd 41be 583e
00000020: 323e cb3c 9bbc 74be 7a3e 1ebe d6bd 92be
00000030: 983e 1dbe ac3d 1bbe e13c 863e 923c 9fbd
00000040: b7bc f93d 4ebd df3d 4bbb eebd 503e 803d
00000050: 78be 1cba 103c f73d 5abe 933d 373d 503e
00000060: c9bd 1ebd e63d 5abe 6bbd 3f3e edbc c0bd
00000070: 263e 1c3e 793e 953e 6cbe 8ebe 8fba 1a3e
00000080: 753e 673e 03be 23be 253e 77bd e73d 943e
00000090: 55be 1c3c 33be 643e 1c3e 54be 963e 753e
000000a0: 62be 943d e6bd 273e 46be fcbd ac3d 6e3e
000000b0: 76be 43be 353e c33d 96be b8bb 973e acbc
000000c0: 213d 56be 6fbd 4e3d babb 173e 763e 8e3e
000000d0: 56bc 76be 333e b9bd 743e 2b3e 5fbe 7abd
000000e0: 25be cdbd 1cbc 783e 0cbe 26be cdbd 8dbe
000000f0: b9bd 103d 423e 4a3e 043e f73c 073e 8d3e
00000100: 7d3e 413e 773e 263e 10be e83d 733e 2dbd
00000110: 1bbd e63c 243c 47be 593e 773e df3d d8bc
00000120: e1bd 24be 903d 783d 4f3e 633e 823e b93d
00000130: 82be 7fbe 8a3e bdbd 1e3d 773e 503d 203e
00000140: 843e 6ebe 6f3e 053e a13d 8a3e ba3d c93c
00000150: 30be 84be bdbc 963e 873e 633e e7bd ef3c
00000160: 493e 8ebd 6abe 8c3d 3c3e 5d3e 6dbe 053e
00000170: 6d3e 793e 71bd ca3d 953e e13d 84bd 97bd
00000180: 3bbe 95be dcbd 16be 423e 5a3e cc3d 4cbe
00000190: 753e 1abe 8fbe b9bd e9bd 983e 3fbe bbbd
000001a0: ee3d 39be e5bd 143e 473e 1cbd 2bbe 08be
000001b0: 343e a4bd db3d 093e 38be de3d 83be 2ebe
000001c0: 5a3e 81bd c0bc 0c3d 0dbb 6bbd 2abb 78bc
000001d0: 07bd 15be 253e 82be b63d 84bd 92bd 40be
000001e0: cb3c 1c3e efbd 09be 193e 193e 4fbe 773e
000001f0: bd3d 0ebc 3bbe 42be 4ebe 663e 713d 35be

layer_10.Wv bf16 [64, 4]
0.12695312 -0.15527344 0.24023438 -0.037597656 0.27539062 0.09423828 0.15234375 -0.018066406
0.24316406 0.016113281 -0.011169434 0.08544922 0.13476562 -0.10107422 0.22558594 -0.084472656
0.055908203 0.06542969 -0.07470703 -0.25976562 0.27734375 0.23046875 -0.29492188 -0.22558594
-0.17480469 -0.18359375 0.02355957 -0.15917969 -0.15332031 -0.16503906 -0.171875 0.16992188
-0.140625 -0.0390625 0.21386719 0.0033111572 0.16699219 -0.21777344 0.0625 0.26757812
-0.23046875 0.26367188 -0.296875 -0.045410156 -0.15039062 -0.115722656 -0.047607422 -0.16601562
-0.09082031 0.14355469 -0.033691406 -0.2421875 -0.15625 -0.26953125 -0.12207031 0.21777344
0.14453125 0.033203125 -0.14941406 -0.13671875 0.17773438 0.01586914 0.16210938 0.2421875
0.24902344 -0.08203125 -0.23339844 0.083496094 -0.29296875 0.14550781 0.27929688 -0.22070312
0.27929688 0.03955078 -0.21386719 -0.16015625 -0.13378906 0.19140625 -0.03149414 0.08496094
-0.21386719 0.10205078 -0.13574219 -0.107421875 -0.076171875 0.06640625 0.024414062 0.29296875
-0.16210938 0.12207031 -0.13378906 0.20605469 -0.08203125 -0.068847656 0.0234375 0.23828125
-0.040283203 0.030151367 -0.12597656 0.10888672 -0.13964844 -0.20410156 0.26757812 -0.009277344
0.10498047 -0.017700195 -0.15527344 0.18847656 -0.04272461 -0.020263672 0.016601562 -0.12988281
0.21289062 -0.23535156 0.15820312 0.017211914 0.028442383 0.28515625 -0.032958984 -0.056152344
0.104003906 -0.15429688 -0.064453125 -0.018676758 0.21191406 0.24023438 -0.010314941 0.2734375
0.099121094 -0.032958984 0.11816406 -0.076171875 -0.034423828 -0.18359375 -0.118652344 0.21484375
0.25195312 -0.076660156 0.036376953 0.24902344 -0.23828125 -0.032958984 0.12792969 0.07910156
-0.18847656 -0.0703125 -0.15625 0.088378906 0.083984375 -0.23535156 -0.08154297 -0.17871094
0.29101562 0.22265625 0.26171875 0.08105469 -0.2578125 0.27929688 -0.03515625 -0.14550781
0.18652344 0.13867188 -0.20410156 -0.19921875 -0.15234375 -0.00390625 0.036865234 0.12011719
0.024902344 0.29492188 -0.10888672 0.18261719 0.15234375 -0.17773438 0.11328125 -0.07470703
-0.0546875 -0.099609375 0.051513672 0.123535156 0.25585938 0.0625 -0.2890625 -0.2578125
0.09863281 0.19628906 -0.072753906 -0.27148438 0.034423828 -0.04345703 0.11425781 0.21972656
-0.028198242 0.051513672 -0.13671875 -0.265625 0.20703125 0.20507812 -0.03930664 0.107910156
0.21679688 0.06542969 0.08642578 0.0115356445 -0.17285156 0.17382812 0.23535156 -0.055664062
-0.21191406 -0.20800781 -0.15527344 -0.23144531 -0.021240234 -0.12158203 0.041503906 0.2890625
0.26953125 -0.05078125 0.078125 0.03125 -0.1953125 0.040527344 -0.28710938 -0.025268555
-0.010375977 0.09765625 -0.025024414 -0.0057373047 -0.087890625 -0.02368164 -0.041748047 0.171875
0.08105469 0.171875 -0.28320312 0.27539062 -0.21777344 0.18261719 0.10449219 0.10546875
0.18164062 0.021240234 0.16015625 0.07080078 -0.017578125 -0.21386719 -0.09277344 0.067871094
0.16992188 0.2109375 0.076171875 0.2890625 -0.12988281 -0.068847656 -0.23730469 0.25195312
00000000: 023e 1fbe 763e 1abd 8d3e c13d 1c3e 94bc
00000010: 793e 843c 37bc af3d 0a3e cfbd 673e adbd
00000020: 653d 863d 99bd 85be 8e3e 6c3e 97be 67be
00000030: 33be 3cbe c13c 23be 1dbe 29be 30be 2e3e
00000040: 10be 20bd 5b3e 593b 2b3e 5fbe 803d 893e
00000050: 6cbe 873e 98be 3abd 1abe edbd 43bd 2abe
00000060: babd 133e 0abd 78be 20be 8abe fabd 5f3e
00000070: 143e 083d 19be 0cbe 363e 823c 263e 783e
00000080: 7f3e a8bd 6fbe ab3d 96be 153e 8f3e 62be
00000090: 8f3e 223d 5bbe 24be 09be 443e 01bd ae3d
000000a0: 5bbe d13d 0bbe dcbd 9cbd 883d c83c 963e
000000b0: 26be fa3d 09be 533e a8bd 8dbd c03c 743e
000000c0: 25bd f73c 01be df3d 0fbe 51be 893e 18bc
000000d0: d73d 91bc 1fbe 413e 2fbd a6bc 883c 05be
000000e0: 5a3e 71be 223e 8d3c e93c 923e 07bd 66bd
000000f0: d53d 1ebe 84bd 99bc 593e 763e 29bc 8c3e
00000100: cb3d 07bd f23d 9cbd 0dbd 3cbe f3bd 5c3e
00000110: 813e 9dbd 153d 7f3e 74be 07bd 033e a23d
00000120: 41be 90bd 20be b53d ac3d 71be a7bd 37be
00000130: 953e 643e 863e a63d 84be 8f3e 10bd 15be
00000140: 3f3e 0e3e 51be 4cbe 1cbe 80bb 173d f63d
00000150: cc3c 973e dfbd 3b3e 1c3e 36be e83d 99bd
00000160: 60bd ccbd 533d fd3d 833e 803d 94be 84be
00000170: ca3d 493e 95bd 8bbe 0d3d 32bd ea3d 613e
00000180: e7bc 533d 0cbe 88be 543e 523e 21bd dd3d
00000190: 5e3e 863d b13d 3d3c 31be 323e 713e 64bd
000001a0: 59be 55be 1fbe 6dbe aebc f9bd 2a3d 943e
000001b0: 8a3e 50bd a03d 003d 48be 263d 93be cfbc
000001c0: 2abc c83d cdbc bcbb b4bd c2bc 2bbd 303e
000001d0: a63d 303e 91be 8d3e 5fbe 3b3e d63d d83d
000001e0: 3a3e ae3c 243e 913d 90bc 5bbe bebd 8b3d
000001f0: 2e3e 583e 9c3d 943e 05be 8dbd 73be 813e

layer_10.Uv bf16 [64, 4]
-0.16992188 -0.0019989014 0.022216797 0.0025024414 0.22363281 0.027832031 0.27929688 -0.17871094
0.17871094 0.12695312 0.095214844 -0.09277344 -0.033935547 -0.12597656 0.083984375 -0.16699219
0.13769531 -0.10839844 -0.16015625 -0.22753906 -0.18554688 -0.21191406 -0.032226562 -0.021240234
-0.036865234 0.033935547 0.22851562 -0.03466797 0.23828125 0.22558594 -0.08886719 0.20214844
-0.21289062 -0.28125 0.18261719 -0.015625 0.29101562 -0.28515625 -0.21679688 0.13574219
0.08496094 0.013671875 -0.03466797 0.16699219 0.20019531 -0.28125 -0.091308594 0.23144531
-0.004180908 0.087890625 0.14648438 -0.005065918 -0.18457031 -0.17871094 -0.016113281 -0.005065918
0.12158203 0.20117188 -0.1953125 -0.18945312 0.06933594 -0.13378906 0.13867188 -0.015014648
0.010253906 -0.08105469 -0.17480469 -0.06591797 -0.18652344 0.123535156 -0.03930664 0.26757812
0.23828125 0.27929688 0.15625 -0.115722656 0.1171875 -0.06640625 -0.23828125 -0.27539062
0.20996094 0.028808594 0.10546875 0.23828125 0.091308594 -0.27539062 -0.017089844 -0.16796875
0.22460938 0.12060547 0.19140625 -0.23632812 0.08105469 0.008728027 -0.036621094 0.15429688
0.2421875 0.23730469 -0.1640625 0.265625 -0.20703125 -0.21582031 0.29101562 -0.018798828
0.10449219 -0.09375 -0.24511719 -0.18457031 -0.25 0.29492188 0.25195312 -0.10058594
-0.23828125 -0.024169922 -0.03881836 -0.2421875 -0.28515625 0.032958984 -0.19433594 0.17773438
0.17089844 -0.15625 -0.11279297 0.09472656 0.11767578 0.12207031 0.12792969 -0.13769531
-0.21777344 0.08496094 -0.23242188 0.21875 -0.09814453 -0.13964844 -0.0859375 0.28515625
-0.031982422 0.103515625 0.19140625 -0.18066406 0.26171875 -0.21582031 -0.014343262 -0.11279297
0.23632812 -0.21875 -0.19433594 -0.13085938 -0.24707031 -0.1328125 -0.07128906 -0.22460938
-0.009277344 0.03881836 0.091308594 0.25585938 -0.06933594 0.234375 -0.21191406 -0.06689453
0.08300781 -0.16308594 -0.017944336 0.13964844 0.087402344 -0.017700195 -0.15429688 -0.106933594
0.26953125 0.033203125 0.12890625 0.17871094 -0.2890625 0.22949219 -0.24902344 -0.23339844
-0.19238281 -0.16601562 -0.28710938 0.22363281 0.038085938 0.15039062 0.087402344 0.0066223145
0.28710938 -0.23535156 0.22753906 -0.01586914 0.04736328 -0.11816406 -0.26171875 0.16699219
0.13085938 -0.25390625 -0.19335938 -0.07861328 -0.1484375 0.041259766 0.036376953 0.104003906
-0.072753906 -0.01928711 -0.11035156 -0.08984375 0.0037994385 -0.22363281 -0.084472656 -0.0087890625
0.1640625 -0.030883789 -0.17285156 -0.2734375 -0.041748047 -0.18945312 -0.29296875 0.25390625
-0.17871094 0.20410156 0.15527344 0.1796875 0.14160156 -0.20410156 -0.09326172 -0.15429688
-0.17089844 -0.21386719 -0.16894531 -0.08154297 0.20605469 0.014892578 -0.0067443848 0.19140625
-0.15429688 0.22558594 0.020751953 0.15136719 0.18847656 -0.24707031 -0.020019531 -0.19824219
0.021850586 -0.14941406 -0.016601562 -0.010559082 -0.25585938 -0.1171875 -0.006439209 -0.110839844
0.18945312 0.17675781 0.10205078 0.20800781 -0.28710938 -0.0079956055 -0.26953125 0.24902344
00000000: 2ebe 03bb b63c 243b 653e e43c 8f3e 37be
00000010: 373e 023e c33d bebd 0bbd 01be ac3d 2bbe
00000020: 0d3e debd 24be 69be 3ebe 59be 04bd aebc
00000030: 17bd 0b3d 6a3e 0ebd 743e 673e b6bd 4f3e
00000040: 5abe 90be 3b3e 80bc 953e 92be 5ebe 0b3e
00000050: ae3d 603c 0ebd 2b3e 4d3e 90be bbbd 6d3e
00000060: 89bb b43d 163e a6bb 3dbe 37be 84bc a6bb
00000070: f93d 4e3e 48be 42be 8e3d 09be 0e3e 76bc
00000080: 283c a6bd 33be 87bd 3fbe fd3d 21bd 893e
00000090: 743e 8f3e 203e edbd f03d 88bd 74be 8dbe
000000a0: 573e ec3c d83d 743e bb3d 8dbe 8cbc 2cbe
000000b0: 663e f73d 443e 72be a63d 0f3c 16bd 1e3e
000000c0: 783e 733e 28be 883e 54be 5dbe 953e 9abc
000000d0: d63d c0bd 7bbe 3dbe 80be 973e 813e cebd
000000e0: 74be c6bc 1fbd 78be 92be 073d 47be 363e
000000f0: 2f3e 20be e7bd c23d f13d fa3d 033e 0dbe
00000100: 5fbe ae3d 6ebe 603e c9bd 0fbe b0bd 923e
00000110: 03bd d43d 443e 39be 863e 5dbe 6bbc e7bd
00000120: 723e 60be 47be 06be 7dbe 08be 92bd 66be
00000130: 18bc 1f3d bb3d 833e 8ebd 703e 59be 89bd
00000140: aa3d 27be 93bc 0f3e b33d 91bc 1ebe dbbd
00000150: 8a3e 083d 043e 373e 94be 6b3e 7fbe 6fbe
00000160: 45be 2abe 93be 653e 1c3d 1a3e b33d d93b
00000170: 933e 71be 693e 82bc 423d f2bd 86be 2b3e
00000180: 063e 82be 46be a1bd 18be 293d 153d d53d
00000190: 95bd 9ebc e2bd b8bd 793b 65be adbd 10bc
000001a0: 283e fdbc 31be 8cbe 2bbd 42be 96be 823e
000001b0: 37be 513e 1f3e 383e 113e 51be bfbd 1ebe
000001c0: 2fbe 5bbe 2dbe a7bd 533e 743c ddbb 443e
000001d0: 1ebe 673e aa3c 1b3e 413e 7dbe a4bc 4bbe
000001e0: b33c 19be 88bc 2dbc 83be f0bd d3bb e3bd
000001f0: 423e 353e d13d 553e 93be 03bc 8abe 7f3e

layer_10.gate_k.net.0.weight bf16 [4, 64]
-0.07470703 0.021606445 -0.022216797 0.10498047 0.087890625 0.09423828 0.123535156 -0.049804688
0.040771484 0.028808594 -0.087402344 0.010803223 -0.0017089844 0.08642578 -0.06738281 0.01965332
0.022583008 -0.078125 0.037597656 0.025756836 -0.088378906 0.07373047 -0.07373047 -0.099121094
-0.0859375 -0.103027344 -0.12451172 0.0019683838 0.03564453 -0.0020751953 0.00075149536 0.06738281
0.09814453 -0.064941406 0.028686523 0.10986328 -0.03173828 0.0703125 0.067871094 0.09667969
-0.0023651123 0.03930664 0.04736328 -0.0019683838 -0.09033203 0.016967773 0.06738281 0.05517578
-0.03857422 0.03955078 0.11816406 0.049072266 -0.017333984 0.0005607605 -0.08984375 -0.048828125
0.08154297 0.04736328 -0.053710938 -0.010498047 0.076660156 0.0015869141 0.123046875 0.03149414
0.080566406 0.055664062 0.02709961 -0.119140625 0.028930664 -0.103027344 0.05444336 0.048583984
-0.079589844 0.023071289 -0.057128906 -0.007659912 -0.017822266 -0.103027344 -0.10888672 0.07128906
-0.025024414 0.05078125 0.091796875 -0.109375 -0.122558594 -0.048339844 0.029052734 0.10839844
0.048828125 -0.008056641 -0.029785156 0.10107422 0.04736328 -0.103515625 0.087890625 0.06298828
-0.017211914 0.106933594 0.104003906 0.051513672 0.03564453 -0.100097656 -0.0859375 0.11279297
-0.03100586 -0.028930664 -0.115234375 0.013000488 0.0048828125 0.05053711 0.08886719 0.104003906
0.08886719 -0.111328125 0.099609375 0.087890625 -0.017822266 0.0046081543 0.083984375 -0.11328125
0.056640625 -0.088378906 0.05444336 -0.115722656 -0.078125 0.06225586 -0.103027344 0.0012664795
-0.06689453 0.10205078 -0.042236328 0.0234375 -0.014404297 -0.021972656 0.044921875 0.009460449
0.037841797 0.08251953 0.015625 0.02709961 0.03112793 0.107421875 -0.076171875 -0.05029297
-0.09765625 0.078125 0.09765625 0.036376953 0.005554199 0.107910156 0.0011138916 -0.079589844
0.02355957 0.028808594 0.018310547 -0.12109375 0.072753906 0.0011901855 0.091796875 -0.01586914
0.043701172 -0.0234375 0.04248047 0.080566406 -0.017700195 -0.043701172 0.091796875 0.099121094
0.07861328 -0.057373047 -0.080566406 -0.064453125 0.059326172 -0.0071105957 0.014160156 -0.057373047
0.00044631958 -0.022094727 -0.033203125 -0.10205078 -0.055664062 0.06738281 -0.07910156 0.037597656
0.10546875 0.09472656 -0.048828125 -0.08154297 0.004211426 -0.09326172 0.052490234 0.103515625
0.12207031 0.021972656 -0.080566406 0.12402344 0.07714844 0.03881836 0.0021972656 -0.099121094
-0.05419922 -0.031982422 -0.115234375 -0.06347656 0.10839844 -0.052490234 -0.05493164 0.012145996
-0.017578125 0.0625 0.10205078 0.0069885254 -0.0045776367 0.06347656 -0.0859375 0.06982422
-0.060791016 0.107910156 0.03881836 -0.016113281 0.0024414062 -0.080078125 0.0146484375 0.0043945312
0.091308594 0.00491333 -0.104003906 0.10058594 0.076660156 0.064453125 0.07421875 -0.12402344
-0.034179688 0.004638672 0.08544922 -0.04248047 0.030273438 -0.103027344 -0.059814453 0.028442383
0.08935547 0.104003906 0.119628906 -0.07519531 0.095703125 -0.096191406 -0.11279297 -0.025756836
-0.018310547 -0.118652344 0.036865234 0.048095703 -0.06298828 0.047607422 -0.01373291 -0.08544922
00000000: 99bd b13c b6bc d73d b43d c13d fd3d 4cbd
00000010: 273d ec3c b3bd 313c e0ba b13d 8abd a13c
00000020: b93c a0bd 1a3d d33c b5bd 973d 97bd cbbd
00000030: b0bd d3bd ffbd 013b 123d 08bb 453a 8a3d
00000040: c93d 85bd eb3c e13d 02bd 903d 8b3d c63d
00000050: 1bbb 213d 423d 01bb b9bd 8b3c 8a3d 623d
00000060: 1ebd 223d f23d 493d 8ebc 133a b8bd 48bd
00000070: a73d 423d 5cbd 2cbc 9d3d d03a fc3d 013d
00000080: a53d 643d de3c f4bd ed3c d3bd 5f3d 473d
00000090: a3bd bd3c 6abd fbbb 92bc d3bd dfbd 923d
000000a0: cdbc 503d bc3d e0bd fbbd 46bd ee3c de3d
000000b0: 483d 04bc f4bc cf3d 423d d4bd b43d 813d
000000c0: 8dbc db3d d53d 533d 123d cdbd b0bd e73d
000000d0: febc edbc ecbd 553c a03b 4f3d b63d d53d
000000e0: b63d e4bd cc3d b43d 92bc 973b ac3d e8bd
000000f0: 683d b5bd 5f3d edbd a0bd 7f3d d3bd a63a
00000100: 89bd d13d 2dbd c03c 6cbc b4bc 383d 1b3c
00000110: 1b3d a93d 803c de3c ff3c dc3d 9cbd 4ebd
00000120: c8bd a03d c83d 153d b63b dd3d 923a a3bd
00000130: c13c ec3c 963c f8bd 953d 9c3a bc3d 82bc
00000140: 333d c0bc 2e3d a53d 91bc 33bd bc3d cb3d
00000150: a13d 6bbd a5bd 84bd 733d e9bb 683c 6bbd
00000160: ea39 b5bc 08bd d1bd 64bd 8a3d a2bd 1a3d
00000170: d83d c23d 48bd a7bd 8a3b bfbd 573d d43d
00000180: fa3d b43c a5bd fe3d 9e3d 1f3d 103b cbbd
00000190: 5ebd 03bd ecbd 82bd de3d 57bd 61bd 473c
000001a0: 90bc 803d d13d e53b 96bb 823d b0bd 8f3d
000001b0: 79bd dd3d 1f3d 84bc 203b a4bd 703c 903b
000001c0: bb3d a13b d5bd ce3d 9d3d 843d 983d febd
000001d0: 0cbd 983b af3d 2ebd f83c d3bd 75bd e93c
000001e0: b73d d53d f53d 9abd c43d c5bd e7bd d3bc
000001f0: 96bc f3bd 173d 453d 81bd 433d 61bc afbd

layer_10.gate_k.net.0.bias bf16 [4]
-0.033935547 -0.12451172 0.1015625 -0.04638672
00000000: 0bbd ffbd d03d 3ebd

layer_10.gate_k.net.2.weight bf16 [4, 4]
-0.375 -0.44921875 -0.029418945 0.048095703 0.15136719 -0.26953125 -0.25585938 -0.29101562
0.110839844 0.328125 -0.17285156 0.09863281 0.12597656 -0.103515625 -0.13476562 0.35742188
00000000: c0be e6be f1bc 453d 1b3e 8abe 83be 95be
00000010: e33d a83e 31be ca3d 013e d4bd 0abe b73e

layer_10.gate_k.net.2.bias bf16 [4]
0.41210938 -0.18261719 0.25390625 -0.30078125
00000000: d33e 3bbe 823e 9abe

layer_10.gate_v.net.0.weight bf16 [4, 64]
0.0625 0.099121094 -0.0625 -0.061035156 0.0625 -0.072753906 0.09667969 0.037841797
-0.0625 0.11669922 0.026977539 -0.06689453 0.04248047 0.032714844 0.0625 -0.09326172
-0.038330078 0.107910156 -0.048339844 0.056640625 -0.08154297 -0.06542969 0.055664062 -0.083496094
-0.0625 0.06689453 0.060546875 0.05493164 0.107910156 0.0625 -0.111816406 0.03125
0.0625 -0.07128906 0.08203125 0.031982422 -0.016479492 0.038085938 0.03125 0.107421875
-0.042236328 0.03955078 0.099121094 -0.0625 0.0625 0.07470703 -0.033691406 -0.0625
0.07324219 -0.03125 0.05859375 0.06542969 0.0625 -0.03466797 0.099609375 0.0625
0.11376953 -0.0859375 0.10253906 0.07324219 -0.0625 0.06347656 0.11328125 0.0625
0.0625 0.008666992 0.125 0.059814453 -0.056640625 0.041748047 0.12060547 0.052001953
-0.07470703 0.041992188 0.056396484 0.033447266 -0.056152344 -0.032958984 0.10986328 0.08251953
-0.03125 0.087402344 -0.08984375 0.08300781 0.10449219 -0.09765625 -0.07519531 0.052734375
0.076171875 0.083984375 0.041015625 0.05908203 0.099609375 -0.08935547 0.037353516 0.01928711
-0.110839844 -0.061279297 0.11816406 -0.12011719 0.071777344 0.10205078 -0.00982666 0.0625
0.041503906 0.024658203 0.0546875 0.087402344 0.0625 0.056396484 0.08544922 0.067871094
0.064453125 -0.029785156 0.064453125 0.08105469 0.06542969 -0.015014648 -0.111816406 0.03125
-0.010681152 -0.09472656 -0.125 0.009277344 -0.0625 0.10986328 0.035888672 0.12158203
0.111328125 -0.0625 -0.0625 -0.12109375 0.0625 -0.036621094 -0.092285156 -0.053710938
-0.087890625 -0.07470703 0.0625 -0.08105469 -0.020263672 0.100097656 0.052978516 -0.059814453
-0.07763672 0.106933594 0.05859375 0.04345703 -0.11376953 0.07714844 -0.048828125 0.048583984
-0.0625 -0.072265625 0.05053711 -0.08544922 -0.111816406 0.0625 0.0625 0.036132812
0.0625 0.0625 -0.07080078 0.122558594 -0.032226562 0.076660156 0.099609375 -0.107421875
-0.07324219 0.03857422 0.053466797 0.06298828 -0.07714844 0.083984375 -0.10595703 -0.0625
0.0625 -0.11230469 0.0625 0.038330078 0.08886719 0.016479492 -0.1171875 0.037597656
0.01574707 0.040527344 -0.059326172 -0.06225586 0.079589844 0.0625 0.056396484 0.0625
0.0625 0.008972168 -0.0625 -0.05053711 0.08496094 -0.041748047 0.07470703 -0.056884766
-0.03466797 0.104003906 0.114746094 -0.11035156 0.07373047 -0.045410156 0.103027344 -0.115722656
0.047851562 0.09033203 -0.096191406 -0.11230469 -0.014343262 0.11035156 -0.09667969 0.080078125
0.04272461 0.10595703 0.0625 0.10986328 0.106933594 -0.10839844 0.0625 0.041015625
0.11328125 0.11328125 0.041015625 0.040039062 0.110839844 0.09033203 0.096191406 -0.10253906
-0.10595703 0.064453125 0.06347656 -0.12109375 0.087402344 0.119140625 0.032470703 -0.043701172
0.033203125 -0.09326172 0.0625 0.06542969 -0.12109375 -0.03564453 -0.031982422 0.09033203
0.118652344 0.0625 -0.057373047 -0.0625 0.11669922 -0.06738281 -0.07128906 0.07421875
00000000: 803d cb3d 80bd 7abd 803d 95bd c63d 1b3d
00000010: 80bd ef3d dd3c 89bd 2e3d 063d 803d bfbd
00000020: 1dbd dd3d 46bd 683d a7bd 86bd 643d abbd
00000030: 80bd 893d 783d 613d dd3d 803d e5bd 003d
00000040: 803d 92bd a83d 033d 87bc 1c3d 003d dc3d
00000050: 2dbd 223d cb3d 80bd 803d 993d 0abd 80bd
00000060: 963d 00bd 703d 863d 803d 0ebd cc3d 803d
00000070: e93d b0bd d23d 963d 80bd 823d e83d 803d
00000080: 803d 0e3c 003e 753d 68bd 2b3d f73d 553d
00000090: 99bd 2c3d 673d 093d 66bd 07bd e13d a93d
000000a0: 00bd b33d b8bd aa3d d63d c8bd 9abd 583d
000000b0: 9c3d ac3d 283d 723d cc3d b7bd 193d 9e3c
000000c0: e3bd 7bbd f23d f6bd 933d d13d 21bc 803d
000000d0: 2a3d ca3c 603d b33d 803d 673d af3d 8b3d
000000e0: 843d f4bc 843d a63d 863d 76bc e5bd 003d
000000f0: 2fbc c2bd 00be 183c 80bd e13d 133d f93d
00000100: e43d 80bd 80bd f8bd 803d 16bd bdbd 5cbd
00000110: b4bd 99bd 803d a6bd a6bc cd3d 593d 75bd
00000120: 9fbd db3d 703d 323d e9bd 9e3d 48bd 473d
00000130: 80bd 94bd 4f3d afbd e5bd 803d 803d 143d
00000140: 803d 803d 91bd fb3d 04bd 9d3d cc3d dcbd
00000150: 96bd 1e3d 5b3d 813d 9ebd ac3d d9bd 80bd
00000160: 803d e6bd 803d 1d3d b63d 873c f0bd 1a3d
00000170: 813c 263d 73bd 7fbd a33d 803d 673d 803d
00000180: 803d 133c 80bd 4fbd ae3d 2bbd 993d 69bd
00000190: 0ebd d53d eb3d e2bd 973d 3abd d33d edbd
000001a0: 443d b93d c5bd e6bd 6bbc e23d c6bd a43d
000001b0: 2f3d d93d 803d e13d db3d debd 803d 283d
000001c0: e83d e83d 283d 243d e33d b93d c53d d2bd
000001d0: d9bd 843d 823d f8bd b33d f43d 053d 33bd
000001e0: 083d bfbd 803d 863d f8bd 12bd 03bd b93d
000001f0: f33d 803d 6bbd 80bd ef3d 8abd 92bd 983d

layer_10.gate_v.net.0.bias bf16 [4]
-0.125 0.0625 0.0625 0.0625
00000000: 00be 803d 803d 803d

layer_10.gate_v.net.2.weight bf16 [4, 4]
0.12451172 -0.49414062 -0.37304688 0.091796875 -0.07128906 -0.26367188 -0.115722656 0.080566406
-0.24511719 -0.26757812 -0.12792969 -0.21875 -0.09814453 0.43359375 0.072265625 -0.34765625
00000000: ff3d fdbe bfbe bc3d 92bd 87be edbd a53d
00000010: 7bbe 89be 03be 60be c9bd de3e 943d b2be

layer_10.gate_v.net.2.bias bf16 [4]
-0.35351562 0.32226562 0.39257812 0.39257812
00000000: b5be a53e c93e c93e

layer_11.Wk bf16 [64, 4]
-0.12792969 0.14550781 -0.059570312 -0.26171875 -0.09814453 0.06201172 0.20898438 -0.16210938
0.032226562 -0.13671875 -0.19433594 0.18261719 -0.022705078 0.13671875 0.15527344 -0.2578125
0.011169434 -0.26953125 0.21191406 0.19824219 -0.043701172 0.17675781 0.2421875 -0.02709961
0.05834961 0.0014038086 0.06738281 0.15820312 0.096191406 0.24121094 0.0076904297 -0.12695312
0.125 -0.119140625 0.19140625 -0.17480469 0.28125 -0.13574219 0.17871094 0.125
-0.21777344 -0.04711914 -0.060302734 -0.29492188 0.1328125 -0.16894531 0.20019531 0.20996094
0.15917969 -0.115234375 -0.010375977 0.01965332 -0.1875 0.036132812 0.29101562 -0.060058594
-0.17871094 0.2734375 0.18066406 -0.27929688 -0.09033203 -0.0390625 -0.020629883 -0.08886719
-0.28320312 0.25390625 -0.23730469 0.21289062 -0.07861328 -0.0015258789 0.16601562 -0.044189453
-0.1640625 -0.22558594 -0.09716797 0.29492188 -0.1875 -0.080566406 -0.18457031 -0.29492188
-0.10058594 -0.02355957 0.22949219 -0.06640625 0.06640625 -0.2734375 0.14550781 0.14160156
-0.29101562 -0.21386719 -0.091308594 0.103515625 0.24121094 -0.25 0.24023438 0.2734375
-0.07714844 0.27734375 -0.092285156 0.008972168 -0.265625 -0.24414062 -0.24804688 -0.16699219
-0.1953125 -0.28125 0.2890625 0.23925781 -0.01171875 0.2734375 0.20214844 0.06347656
0.12695312 0.11035156 0.12988281 0.27539062 0.123046875 0.0054626465 -0.103027344 0.15332031
-0.16210938 0.095214844 -0.09375 0.12695312 0.29101562 -0.21484375 0.08300781 0.15234375
-0.034423828 -0.060546875 -0.13671875 0.055908203 0.29101562 0.26953125 -0.20019531 0.2421875
0.20703125 0.2734375 -0.12597656 0.23339844 -0.24023438 0.23925781 -0.044189453 -0.11767578
-0.18847656 0.28125 0.095214844 -0.28125 -0.203125 0.114746094 -0.13769531 -0.23730469
0.11279297 -0.21972656 -0.07080078 -0.24414062 -0.25195312 -0.20996094 0.18847656 -0.26757812
0.15917969 0.16894531 -0.19238281 0.05517578 0.021606445 -0.033691406 -0.19726562 -0.29296875
0.15820312 0.16699219 -0.114746094 -0.24609375 0.06982422 0.013793945 0.25390625 0.19921875
-0.25195312 0.075683594 0.048828125 0.07128906 0.24609375 0.26757812 -0.025146484 0.01159668
-0.17871094 0.25976562 -0.15917969 -0.0026245117 0.15039062 -0.053466797 0.071777344 -0.008605957
-0.12011719 0.15820312 0.20703125 -0.12792969 0.011657715 0.11376953 -0.06982422 -0.17773438
0.23046875 0.15332031 -0.28515625 0.2734375 0.14257812 -0.1640625 -0.12451172 -0.18945312
0.09277344 0.11767578 0.0038909912 0.103027344 -0.20117188 0.2578125 -0.013366699 -0.13476562
0.018554688 -0.15625 -0.041748047 0.115722656 -0.08154297 0.15527344 -0.1796875 0.05859375
-0.26757812 -0.12695312 0.09277344 -0.042236328 -0.118652344 0.114746094 0.22363281 0.14746094
0.25195312 -0.16699219 0.16601562 0.25390625 0.27734375 0.16503906 -0.21777344 0.08251953
0.25195312 -0.28320312 0.29296875 0.03466797 -0.040527344 -0.0859375 -0.26367188 0.034179688
-0.012329102 0.28710938 0.1328125 0.23144531 0.057617188 0.19824219 -0.015991211 -0.09277344
00000000: 03be 153e 74bd 86be c9bd 7e3d 563e 26be
00000010: 043d 0cbe 47be 3b3e babc 0c3e 1f3e 84be
00000020: 373c 8abe 593e 4b3e 33bd 353e 783e debc
00000030: 6f3d b83a 8a3d 223e c53d 773e fc3b 02be
00000040: 003e f4bd 443e 33be 903e 0bbe 373e 003e
00000050: 5fbe 41bd 77bd 97be 083e 2dbe 4d3e 573e
00000060: 233e ecbd 2abc a13c 40be 143d 953e 76bd
00000070: 37be 8c3e 393e 8fbe b9bd 20bd a9bc b6bd
00000080: 91be 823e 73be 5a3e a1bd c8ba 2a3e 35bd
00000090: 28be 67be c7bd 973e 40be a5bd 3dbe 97be
000000a0: cebd c1bc 6b3e 88bd 883d 8cbe 153e 113e
000000b0: 95be 5bbe bbbd d43d 773e 80be 763e 8c3e
000000c0: 9ebd 8e3e bdbd 133c 88be 7abe 7ebe 2bbe
000000d0: 48be 90be 943e 753e 40bc 8c3e 4f3e 823d
000000e0: 023e e23d 053e 8d3e fc3d b33b d3bd 1d3e
000000f0: 26be c33d c0bd 023e 953e 5cbe aa3d 1c3e
00000100: 0dbd 78bd 0cbe 653d 953e 8a3e 4dbe 783e
00000110: 543e 8c3e 01be 6f3e 76be 753e 35bd f1bd
00000120: 41be 903e c33d 90be 50be eb3d 0dbe 73be
00000130: e73d 61be 91bd 7abe 81be 57be 413e 89be
00000140: 233e 2d3e 45be 623d b13c 0abd 4abe 96be
00000150: 223e 2b3e ebbd 7cbe 8f3d 623c 823e 4c3e
00000160: 81be 9b3d 483d 923d 7c3e 893e cebc 3e3c
00000170: 37be 853e 23be 2cbb 1a3e 5bbd 933d 0dbc
00000180: f6bd 223e 543e 03be 3f3c e93d 8fbd 36be
00000190: 6c3e 1d3e 92be 8c3e 123e 28be ffbd 42be
000001a0: be3d f13d 7f3b d33d 4ebe 843e 5bbc 0abe
000001b0: 983c 20be 2bbd ed3d a7bd 1f3e 38be 703d
000001c0: 89be 02be be3d 2dbd f3bd eb3d 653e 173e
000001d0: 813e 2bbe 2a3e 823e 8e3e 293e 5fbe a93d
000001e0: 813e 91be 963e 0e3d 26bd b0bd 87be 0c3d
000001f0: 4abc 933e 083e 6d3e 6c3d 4b3e 83bc bebd

layer_11.Uk bf16 [64, 4]
0.15234375 0.15429688 -0.25976562 0.039794922 0.0061950684 0.123535156 0.08105469 -0.29101562
0.20898438 0.10498047 -0.15429688 -0.15917969 0.19433594 0.0390625 0.21289062 -0.09863281
-0.06298828 -0.103027344 0.27539062 0.07910156 -0.072265625 -0.06542969 0.12890625 0.107421875
0.08984375 0.27734375 -0.087402344 0.030029297 0.21191406 -0.12402344 0.21582031 -0.07373047
0.16796875 0.12597656 -0.29101562 -0.040283203 -0.25390625 0.076171875 0.026977539 0.140625
0.009155273 0.15332031 -0.107421875 0.2421875 0.15625 -0.014953613 0.057128906 0.22558594
-0.21679688 -0.018432617 0.23046875 -0.20117188 -0.06298828 -0.13671875 0.14648438 -0.24414062
0.25976562 0.22265625 0.06591797 -0.19140625 0.119628906 0.15722656 -0.018066406 -0.13867188
0.20019531 0.17382812 0.023071289 0.13867188 -0.080078125 -0.03540039 -0.22167969 -0.0703125
0.1640625 -0.29492188 0.07324219 -0.1640625 0.26757812 0.04345703 -0.22265625 -0.265625
-0.08984375 -0.031982422 0.08544922 0.07519531 -0.29296875 0.068847656 0.1328125 0.19238281
-0.057617188 0.106933594 0.09423828 0.111816406 -0.020019531 -0.123046875 -0.24902344 0.17480469
0.021606445 0.26953125 0.20117188 0.20214844 -0.140625 -0.20214844 0.12695312 0.03149414
0.23632812 0.11425781 0.21972656 0.06347656 -0.26953125 0.15136719 -0.19335938 -0.09765625
0.10107422 -0.25195312 -0.09472656 0.27734375 -0.22753906 -0.16113281 -0.025878906 -0.09375
0.09326172 -0.125 -0.18554688 -0.29492188 0.12402344 0.056396484 -0.16210938 0.13378906
0.19140625 0.0056762695 0.053222656 0.15332031 0.21972656 -0.29492188 -0.25976562 0.23730469
0.28320312 -0.22265625 -0.22851562 -0.059814453 -0.2421875 0.07714844 -0.09765625 -0.22167969
0.091796875 0.1640625 -0.14746094 0.12890625 0.12890625 0.15820312 -0.14453125 -0.06982422
-0.26367188 0.13769531 0.099609375 0.13378906 -0.27734375 -0.125 0.27539062 -0.18847656
-0.24804688 -0.13964844 0.104003906 -0.26171875 0.038085938 -0.29492188 0.14746094 0.049072266
-0.26757812 0.28320312 -0.13574219 0.29492188 0.24707031 0.037353516 -0.2578125 0.107910156
0.21679688 0.17285156 0.15039062 0.033935547 0.21582031 -0.01940918 -0.047607422 -0.26171875
0.115234375 -0.29296875 -0.004272461 -0.05859375 -0.22070312 0.2421875 -0.040039062 -0.140625
-0.25585938 0.072265625 -0.22167969 -0.048095703 -0.26953125 -0.28710938 0.26757812 -0.14746094
-0.08691406 -0.21289062 -0.27734375 -0.24121094 -0.24511719 -0.20898438 0.100097656 0.17675781
0.072753906 -0.24023438 0.25195312 -0.05029297 0.10498047 -0.08642578 -0.2890625 -0.21386719
0.23046875 -0.012329102 0.21679688 0.24316406 0.115234375 0.19140625 0.27148438 0.25976562
0.20214844 -0.109375 -0.083496094 0.21582031 0.07080078 0.016601562 -0.28125 -0.10498047
0.2421875 0.19433594 0.09667969 -0.13183594 0.27929688 -0.18945312 -0.12451172 0.1796875
-0.016479492 0.09765625 0.048339844 0.09326172 -0.15722656 -0.110839844 0.055419922 0.28710938
-0.14355469 -0.2734375 -0.29492188 0.21289062 -0.19628906 0.14746094 0.25390625 -0.15039062
00000000: 1c3e 1e3e 85be 233d cb3b fd3d a63d 95be
00000010: 563e d73d 1ebe 23be 473e 203d 5a3e cabd
00000020: 81bd d3bd 8d3e a23d 94bd 86bd 043e dc3d
00000030: b83d 8e3e b3bd f63c 593e febd 5d3e 97bd
00000040: 2c3e 013e 95be 25bd 82be 9c3d dd3c 103e
00000050: 163c 1d3e dcbd 783e 203e 75bc 6a3d 673e
00000060: 5ebe 97bc 6c3e 4ebe 81bd 0cbe 163e 7abe
00000070: 853e 643e 873d 44be f53d 213e 94bc 0ebe
00000080: 4d3e 323e bd3c 0e3e a4bd 11bd 63be 90bd
00000090: 283e 97be 963d 28be 893e 323d 64be 88be
000000a0: b8bd 03bd af3d 9a3d 96be 8d3d 083e 453e
000000b0: 6cbd db3d c13d e53d a4bc fcbd 7fbe 333e
000000c0: b13c 8a3e 4e3e 4f3e 10be 4fbe 023e 013d
000000d0: 723e ea3d 613e 823d 8abe 1b3e 46be c8bd
000000e0: cf3d 81be c2bd 8e3e 69be 25be d4bc c0bd
000000f0: bf3d 00be 3ebe 97be fe3d 673d 26be 093e
00000100: 443e ba3b 5a3d 1d3e 613e 97be 85be 733e
00000110: 913e 64be 6abe 75bd 78be 9e3d c8bd 63be
00000120: bc3d 283e 17be 043e 043e 223e 14be 8fbd
00000130: 87be 0d3e cc3d 093e 8ebe 00be 8d3e 41be
00000140: 7ebe 0fbe d53d 86be 1c3d 97be 173e 493d
00000150: 89be 913e 0bbe 973e 7d3e 193d 84be dd3d
00000160: 5e3e 313e 1a3e 0b3d 5d3e 9fbc 43bd 86be
00000170: ec3d 96be 8cbb 70bd 62be 783e 24bd 10be
00000180: 83be 943d 63be 45bd 8abe 93be 893e 17be
00000190: b2bd 5abe 8ebe 77be 7bbe 56be cd3d 353e
000001a0: 953d 76be 813e 4ebd d73d b1bd 94be 5bbe
000001b0: 6c3e 4abc 5e3e 793e ec3d 443e 8b3e 853e
000001c0: 4f3e e0bd abbd 5d3e 913d 883c 90be d7bd
000001d0: 783e 473e c63d 07be 8f3e 42be ffbd 383e
000001e0: 87bc c83d 463d bf3d 21be e3bd 633d 933e
000001f0: 13be 8cbe 97be 5a3e 49be 173e 823e 1abe

layer_11.Wv bf16 [64, 4]
-0.19921875 -0.014160156 -0.25195312 0.26757812 0.15234375 0.017456055 -0.23925781 -0.057617188
0.29492188 0.16113281 0.11230469 -0.22363281 -0.09277344 -0.07373047 -0.014282227 0.27734375
-0.02758789 0.18945312 0.12158203 0.122558594 0.12695312 -0.2734375 -0.024780273 0.28320312
0.16992188 0.025024414 -0.02746582 -0.296875 0.21289062 0.08935547 0.25976562 0.22460938
-0.28125 -0.072753906 0.01159668 0.03515625 -0.25585938 0.010253906 -0.106933594 0.18945312
-0.10107422 0.0024871826 -0.039794922 0.19433594 -0.021362305 0.18261719 -0.22460938 0.033935547
0.17578125 -0.17089844 0.14453125 -0.09716797 0.20800781 0.13574219 0.21386719 -0.22753906
-0.21875 0.049316406 0.2890625 -0.21484375 0.027709961 -0.08496094 -0.016723633 0.068359375
0.10498047 0.010559082 -0.032226562 0.19140625 -0.10595703 0.041503906 0.09814453 0.20898438
0.27929688 -0.095214844 0.06982422 -0.296875 -0.21289062 -0.09863281 0.22460938 -0.08544922
0.03173828 0.015136719 0.03930664 -0.123046875 0.072753906 0.0020446777 -0.21582031 -0.29296875
-0.25976562 -0.2734375 0.23828125 0.03173828 -0.24414062 0.025390625 0.099609375 0.051757812
0.10595703 0.16796875 -0.08544922 -0.14746094 -0.024169922 0.11035156 -0.11230469 -0.053222656
0.2421875 0.13476562 -0.18066406 0.24316406 0.08251953 -0.26367188 -0.038085938 -0.038330078
-0.03173828 -0.19433594 -0.03540039 0.20605469 -0.088378906 0.17480469 -0.1015625 0.0035705566
0.21972656 -0.28125 0.28710938 0.017089844 -0.045654297 -0.26757812 0.14355469 0.15722656
0.13476562 0.119140625 0.12988281 0.20410156 -0.072753906 -0.037597656 -0.27539062 -0.14550781
0.14746094 0.13964844 0.03540039 -0.27539062 0.1171875 -0.15429688 -0.19628906 -0.140625
-0.25195312 0.17871094 -0.265625 0.035888672 0.28320312 0.24121094 0.17382812 -0.22167969
0.13574219 0.26757812 -0.21191406 0.012817383 0.10595703 0.28515625 0.29492188 -0.038330078
0.087890625 0.12890625 -0.14257812 -0.024536133 0.027709961 -0.12890625 0.28515625 -0.046875
0.06982422 -0.024536133 -0.18359375 0.20703125 -0.010253906 0.12060547 -0.22949219 0.14160156
0.032470703 0.16699219 0.034423828 -0.13964844 0.28320312 0.22070312 -0.103027344 0.25585938
-0.2734375 0.12988281 -0.06982422 0.19921875 0.28320312 -0.11279297 -0.022338867 0.06640625
-0.2734375 0.18457031 0.12792969 0.13769531 0.071777344 0.008850098 0.008056641 -0.07373047
0.032226562 -0.18847656 0.045654297 -0.16015625 -0.23339844 -0.19921875 0.056396484 -0.29101562
-0.12597656 0.018310547 0.16113281 -0.14160156 0.18457031 -0.14257812 0.10253906 0.0004081726
-0.06225586 0.10058594 -0.28710938 0.140625 0.2734375 -0.031982422 -0.26757812 0.052978516
-0.036621094 0.14941406 -0.032714844 -0.13671875 -0.21582031 -0.234375 -0.14453125 0.07519531
-0.18164062 0.23730469 0.15136719 -0.03173828 -0.140625 0.057128906 -0.18554688 -0.14160156
0.24316406 -0.23046875 0.19433594 0.24609375 -0.087890625 -0.099609375 0.034423828 -0.28515625
0.26171875 -0.29296875 -0.24804688 0.125 -0.25 -0.28320312 -0.14550781 -0.18847656
00000000: 4cbe 68bc 81be 893e 1c3e 8f3c 75be 6cbd
00000010: 973e 253e e63d 65be bebd 97bd 6abc 8e3e
00000020: e2bc 423e f93d fb3d 023e 8cbe cbbc 913e
00000030: 2e3e cd3c e1bc 98be 5a3e b73d 853e 663e
00000040: 90be 95bd 3e3c 103d 83be 283c dbbd 423e
00000050: cfbd 233b 23bd 473e afbc 3b3e 66be 0b3d
00000060: 343e 2fbe 143e c7bd 553e 0b3e 5b3e 69be
00000070: 60be 4a3d 943e 5cbe e33c aebd 89bc 8c3d
00000080: d73d 2d3c 04bd 443e d9bd 2a3d c93d 563e
00000090: 8f3e c3bd 8f3d 98be 5abe cabd 663e afbd
000000a0: 023d 783c 213d fcbd 953d 063b 5dbe 96be
000000b0: 85be 8cbe 743e 023d 7abe d03c cc3d 543d
000000c0: d93d 2c3e afbd 17be c6bc e23d e6bd 5abd
000000d0: 783e 0a3e 39be 793e a93d 87be 1cbd 1dbd
000000e0: 02bd 47be 11bd 533e b5bd 333e d0bd 6a3b
000000f0: 613e 90be 933e 8c3c 3bbd 89be 133e 213e
00000100: 0a3e f43d 053e 513e 95bd 1abd 8dbe 15be
00000110: 173e 0f3e 113d 8dbe f03d 1ebe 49be 10be
00000120: 81be 373e 88be 133d 913e 773e 323e 63be
00000130: 0b3e 893e 59be 523c d93d 923e 973e 1dbd
00000140: b43d 043e 12be c9bc e33c 04be 923e 40bd
00000150: 8f3d c9bc 3cbe 543e 28bc f73d 6bbe 113e
00000160: 053d 2b3e 0d3d 0fbe 913e 623e d3bd 833e
00000170: 8cbe 053e 8fbd 4c3e 913e e7bd b7bc 883d
00000180: 8cbe 3d3e 033e 0d3e 933d 113c 043c 97bd
00000190: 043d 41be 3b3d 24be 6fbe 4cbe 673d 95be
000001a0: 01be 963c 253e 11be 3d3e 12be d23d d639
000001b0: 7fbd ce3d 93be 103e 8c3e 03bd 89be 593d
000001c0: 16bd 193e 06bd 0cbe 5dbe 70be 14be 9a3d
000001d0: 3abe 733e 1b3e 02bd 10be 6a3d 3ebe 11be
000001e0: 793e 6cbe 473e 7c3e b4bd ccbd 0d3d 92be
000001f0: 863e 96be 7ebe 003e 80be 91be 15be 41be

layer_11.Uv bf16 [64, 4]
-0.02319336 -0.068359375 0.29101562 -0.2421875 0.19433594 -0.032714844 -0.12011719 0.26367188
-0.10595703 -0.022705078 -0.265625 0.28710938 0.09423828 0.16015625 -0.020019531 -0.27148438
0.22753906 -0.10253906 0.18554688 -0.03173828 0.040771484 0.25976562 0.13671875 -0.20898438
-0.18457031 -0.11279297 0.16015625 -0.23046875 -0.104003906 0.20214844 0.007019043 -0.08691406
-0.010498047 0.24121094 0.005340576 -0.09863281 -0.006958008 -0.123046875 0.14550781 -0.20214844
-0.06640625 0.09033203 -0.17089844 -0.01550293 -0.046875 0.24804688 -0.17773438 -0.016235352
-0.27148438 0.01953125 0.25195312 -0.23242188 -0.026855469 0.1953125 -0.10107422 -0.032226562
-0.28125 -0.17578125 0.2734375 0.296875 -0.09765625 0.1875 0.22363281 0.27148438
0.26171875 0.140625 -0.26953125 0.20898438 0.22460938 -0.00045394897 0.033935547 0.06542969
-0.079589844 -0.022949219 -0.12207031 -0.16699219 -0.015625 -0.14257812 0.068847656 -0.24023438
0.040527344 -0.24511719 -0.21679688 0.08886719 0.096191406 -0.19140625 -0.10253906 -0.10888672
0.12890625 -0.0859375 -0.07519531 -0.17871094 -0.119140625 -0.111328125 0.06738281 -0.08203125
0.040771484 0.20117188 0.05517578 0.0119018555 -0.10107422 -0.2734375 -0.15917969 -0.14941406
0.17382812 0.11425781 -0.234375 -0.25976562 0.265625 -0.20507812 0.021728516 0.29492188
0.15820312 -0.29101562 -0.21289062 -0.021728516 0.24609375 -0.22363281 0.2421875 0.25976562
-0.24023438 -0.1796875 -0.09082031 -0.28710938 -0.29101562 -0.055908203 -0.018920898 0.017333984
0.26757812 0.21386719 -0.080566406 -0.05908203 -0.27734375 -0.18066406 0.12011719 -0.061279297
-0.01928711 -0.007232666 -0.26953125 -0.044677734 0.171875 -0.07373047 -0.10253906 0.044677734
-0.19433594 -0.07714844 -0.25390625 -0.04711914 0.24023438 0.047607422 0.21679688 0.030029297
-0.22363281 -0.24414062 -0.095703125 -0.08544922 -0.25390625 -0.119628906 -0.12695312 -0.24023438
0.19238281 -0.27148438 0.28710938 0.11767578 0.27148438 -0.011291504 -0.16894531 0.09863281
0.27539062 0.0079956055 0.2109375 0.072265625 -0.003829956 0.12109375 0.19628906 0.008728027
-0.19726562 -0.009460449 -0.20605469 -0.043701172 -0.14648438 0.26757812 -0.2734375 0.23730469
0.006591797 0.08886719 0.11230469 -0.15332031 0.007873535 0.2265625 0.02746582 0.119628906
-0.23144531 -0.203125 -0.022583008 -0.21972656 -0.012634277 0.076660156 -0.041015625 -0.15917969
-0.09423828 0.036865234 0.0037994385 -0.010803223 0.15234375 0.26367188 -0.09667969 0.0036621094
-0.1171875 0.20214844 -0.2578125 0.19238281 -0.13183594 0.22753906 -0.18457031 -0.10205078
0.16601562 0.29296875 0.08154297 -0.26953125 -0.0027618408 0.12158203 -0.24316406 0.06982422
-0.22460938 0.060058594 -0.059814453 -0.13671875 -0.0038604736 -0.21191406 -0.16894531 -0.18066406
0.26953125 -0.005065918 -0.10986328 -0.18847656 -0.0087890625 0.09375 -0.045166016 -0.008239746
0.0022125244 0.13964844 0.015380859 0.041503906 -0.24414062 0.028076172 0.29296875 0.08544922
0.110839844 -0.26171875 0.25585938 0.02734375 -0.22851562 0.064941406 0.16113281 0.14160156
00000000: bebc 8cbd 953e 78be 473e 06bd f6bd 873e
00000010: d9bd babc 88be 933e c13d 243e a4bc 8bbe
00000020: 693e d2bd 3e3e 02bd 273d 853e 0c3e 56be
00000030: 3dbe e7bd 243e 6cbe d5bd 4f3e e63b b2bd
00000040: 2cbc 773e af3b cabd e4bb fcbd 153e 4fbe
00000050: 88bd b93d 2fbe 7ebc 40bd 7e3e 36be 85bc
00000060: 8bbe a03c 813e 6ebe dcbc 483e cfbd 04bd
00000070: 90be 34be 8c3e 983e c8bd 403e 653e 8b3e
00000080: 863e 103e 8abe 563e 663e eeb9 0b3d 863d
00000090: a3bd bcbc fabd 2bbe 80bc 12be 8d3d 76be
000000a0: 263d 7bbe 5ebe b63d c53d 44be d2bd dfbd
000000b0: 043e b0bd 9abd 37be f4bd e4bd 8a3d a8bd
000000c0: 273d 4e3e 623d 433c cfbd 8cbe 23be 19be
000000d0: 323e ea3d 70be 85be 883e 52be b23c 973e
000000e0: 223e 95be 5abe b2bc 7c3e 65be 783e 853e
000000f0: 76be 38be babd 93be 95be 65bd 9bbc 8e3c
00000100: 893e 5b3e a5bd 72bd 8ebe 39be f63d 7bbd
00000110: 9ebc edbb 8abe 37bd 303e 97bd d2bd 373d
00000120: 47be 9ebd 82be 41bd 763e 433d 5e3e f63c
00000130: 65be 7abe c4bd afbd 82be f5bd 02be 76be
00000140: 453e 8bbe 933e f13d 8b3e 39bc 2dbe ca3d
00000150: 8d3e 033c 583e 943d 7bbb f83d 493e 0f3c
00000160: 4abe 1bbc 53be 33bd 16be 893e 8cbe 733e
00000170: d83b b63d e63d 1dbe 013c 683e e13c f53d
00000180: 6dbe 50be b9bc 61be 4fbc 9d3d 28bd 23be
00000190: c1bd 173d 793b 31bc 1c3e 873e c6bd 703b
000001a0: f0bd 4f3e 84be 453e 07be 693e 3dbe d1bd
000001b0: 2a3e 963e a73d 8abe 35bb f93d 79be 8f3d
000001c0: 66be 763d 75bd 0cbe 7dbb 59be 2dbe 39be
000001d0: 8a3e a6bb e1bd 41be 10bc c03d 39bd 07bc
000001e0: 113b 0f3e 7c3c 2a3d 7abe e63c 963e af3d
000001f0: e33d 86be 833e e03c 6abe 853d 253e 113e
