empty_dirs_for_codex/outputs/runs_fast_paper_core/fast_paper_sweep_core_v1/ablation_no_contr_loto_holdout_overwrite/checkpoints/repair_step_4500.pt (torch, 43513 bytes, 48 tensors)

layer_8.Wk bf16 [64, 8]
0	0xbe4a	-0.19726562
1	0xbd87	-0.06591797
2	0xbe82	-0.25390625
3	0x3deb	0.114746094
4	0x3e55	0.20800781
5	0xbd39	-0.045166016
6	0xbe93	-0.28710938
7	0x3dce	0.10058594
8	0xbd0b	-0.033935547
9	0x3d9a	0.07519531
10	0xbdaf	-0.08544922
11	0xbe61	-0.21972656
12	0xbe6f	-0.23339844
13	0x3dae	0.08496094
14	0xbdbb	-0.091308594
15	0x3e85	0.25976562
16	0x3ced	0.028930664
17	0x3d32	0.04345703
18	0x3e43	0.19042969
19	0x3e8a	0.26953125
20	0x3dd8	0.10546875
21	0x3e79	0.24316406
22	0x3e6d	0.23144531
23	0x3e92	0.28515625
24	0xbe76	-0.24023438
25	0x3df0	0.1171875
26	0xbe07	-0.13183594
27	0xbe55	-0.20800781
28	0x3d2e	0.04248047
29	0x3e58	0.2109375
30	0x3e80	0.25
31	0x3c5b	0.013366699
32	0x3df5	0.119628906
33	0x3d26	0.040527344
34	0xbd16	-0.036621094
35	0xbd95	-0.072753906
36	0xbe09	-0.13378906
37	0xbe3a	-0.18164062
38	0xbe87	-0.26367188
39	0x3cf6	0.030029297
40	0x3e8b	0.27148438
41	0x3dd9	0.10595703
42	0x3cf1	0.029418945
43	0xbe7b	-0.24511719
44	0xbd2c	-0.041992188
45	0xbe8a	-0.26953125
46	0xbd10	-0.03515625
47	0xbdd7	-0.10498047
48	0x3e6b	0.22949219
49	0x3e3b	0.18261719
50	0xbe7c	-0.24609375
51	0x3e27	0.16308594
52	0xbd98	-0.07421875
53	0xbe91	-0.28320312
54	0xbdcc	-0.099609375
55	0x3d17	0.036865234
56	0x3e22	0.15820312
57	0xbc80	-0.015625
58	0x3e60	0.21875
59	0xbe84	-0.2578125
60	0xbe01	-0.12597656
61	0xbe93	-0.28710938
62	0xbd13	-0.035888672
63	0xbe53	-0.20605469
64	0x3e2b	0.16699219
65	0x3e33	0.17480469
66	0xbdfd	-0.123535156
67	0x3e89	0.26757812
68	0xbe4d	-0.20019531
69	0xbe60	-0.21875
70	0xbd7d	-0.061767578
71	0x3d5f	0.05444336
72	0x3e85	0.25976562
73	0xbe49	-0.19628906
74	0x3e67	0.22558594
75	0x3dee	0.11621094
76	0xbe10	-0.140625
77	0xbe42	-0.18945312
78	0x3dc4	0.095703125
79	0x3c68	0.014160156
80	0x3e6d	0.23144531
81	0x3cac	0.020996094
82	0xbe88	-0.265625
83	0xbdba	-0.09082031
84	0xbde5	-0.111816406
85	0xbe2b	-0.16699219
86	0x3d2f	0.04272461
87	0x3dfb	0.122558594
88	0xbe38	-0.1796875
89	0xbd20	-0.0390625
90	0xbdfd	-0.123535156
91	0x3e39	0.18066406
92	0x3e64	0.22265625
93	0x3e74	0.23828125
94	0x3e91	0.28320312
95	0xbe0d	-0.13769531
96	0xbe4f	-0.20214844
97	0x3e54	0.20703125
98	0x3e00	0.125
99	0x3d80	0.0625
100	0xbe26	-0.16210938
101	0xbe6c	-0.23046875
102	0xbdbf	-0.09326172
103	0x3e74	0.23828125
104	0xbe15	-0.14550781
105	0xbe3c	-0.18359375
106	0x3dd2	0.10253906
107	0x3e7b	0.24511719
108	0x3d28	0.041015625
109	0x3d9f	0.07763672
110	0x3e40	0.1875
111	0xbdb1	-0.08642578
112	0xbe85	-0.25976562
113	0xbd27	-0.040771484
114	0xbe26	-0.16210938
115	0x3de9	0.11376953
116	0xbe1b	-0.15136719
117	0x3e8a	0.26953125
118	0x3c69	0.014221191
119	0x3e6b	0.22949219
120	0xbe52	-0.20507812
121	0xbe7d	-0.24707031
122	0xbe0d	-0.13769531
123	0xbd92	-0.07128906
124	0x3e61	0.21972656
125	0xbe66	-0.22460938
126	0xbde1	-0.10986328
127	0x3db0	0.0859375
128	0xbd19	-0.037353516
129	0xbe02	-0.12695312
130	0x3e43	0.19042969
131	0xbe27	-0.16308594
132	0x3e0c	0.13671875
133	0x3d8e	0.06933594
134	0xbe26	-0.16210938
135	0x3d80	0.0625
136	0x3dc1	0.09423828
137	0x3bf5	0.0074768066
138	0xbdb7	-0.08935547
139	0x3e10	0.140625
140	0xbdfe	-0.12402344
141	0xbd85	-0.064941406
142	0xbd80	-0.0625
143	0x3d3b	0.045654297
144	0x3d80	0.0625
145	0x3d78	0.060546875
146	0xbe7b	-0.24511719
147	0xbe3a	-0.18164062
148	0x3d99	0.07470703
149	0x3e75	0.23925781
150	0xbe41	-0.18847656
151	0xbda7	-0.08154297
152	0xbe3c	-0.18359375
153	0xbe66	-0.22460938
154	0xbe83	-0.25585938
155	0x3daf	0.08544922
156	0x3d0d	0.034423828
157	0xbe18	-0.1484375
158	0x3e90	0.28125
159	0x3cbb	0.022827148
160	0xbd23	-0.039794922
161	0x3e94	0.2890625
162	0xbe53	-0.20605469
163	0xbdc5	-0.096191406
164	0xbe6c	-0.23046875
165	0x3dbe	0.09277344
166	0xbd84	-0.064453125
167	0xbe91	-0.28320312
168	0x3d2c	0.041992188
169	0x3d65	0.055908203
170	0x3e87	0.26367188
171	0x3d02	0.03173828
172	0xbe58	-0.2109375
173	0x3e29	0.16503906
174	0x3e29	0.16503906
175	0x3def	0.11669922
176	0xbdf7	-0.12060547
177	0x3e2f	0.17089844
178	0xbdc2	-0.09472656
179	0x3b17	0.0023040771
180	0x3dc6	0.09667969
181	0xbdfa	-0.12207031
182	0x3e83	0.25585938
183	0x3e84	0.2578125
184	0xbd05	-0.032470703
185	0x3d19	0.037353516
186	0xbe1d	-0.15332031
187	0x3e4a	0.19726562
188	0xbde7	-0.11279297
189	0x3e80	0.25
190	0x3d81	0.06298828
191	0x3e69	0.22753906
192	0x3e18	0.1484375
193	0x3e57	0.20996094
194	0xbd9b	-0.075683594
195	0xbd72	-0.05908203
196	0xbe84	-0.2578125
197	0x3e2c	0.16796875
198	0xbd0f	-0.03491211
199	0xbe44	-0.19140625
200	0xbdaf	-0.08544922
201	0xbe82	-0.25390625
202	0x3e6f	0.23339844
203	0x3d06	0.032714844
204	0xbd83	-0.063964844
205	0xbbf4	-0.007446289
206	0xbd35	-0.044189453
207	0x3e37	0.17871094
208	0xbe2d	-0.16894531
209	0x3e6d	0.23144531
210	0xbe16	-0.14648438
211	0x3d50	0.05078125
212	0xbd84	-0.064453125
213	0x3d03	0.031982422
214	0xbd08	-0.033203125
215	0x3dee	0.11621094
216	0xbe30	-0.171875
217	0xbe36	-0.17773438
218	0x3e3e	0.18554688
219	0xbe72	-0.23632812
220	0x3e5e	0.21679688
221	0xbe90	-0.28125
222	0xbd80	-0.0625
223	0x3de8	0.11328125
224	0x3e04	0.12890625
225	0xbcb7	-0.022338867
226	0x3d44	0.047851562
227	0x3e8e	0.27734375
228	0xbe67	-0.22558594
229	0xbd81	-0.06298828
230	0x3e3a	0.18164062
231	0x3e89	0.26757812
232	0xbd83	-0.063964844
233	0x3e85	0.25976562
234	0x3dea	0.11425781
235	0x3d80	0.0625
236	0x3e5f	0.21777344
237	0x3e22	0.15820312
238	0xbe84	-0.2578125
239	0xbccd	-0.025024414
240	0xbe89	-0.26757812
241	0xbe40	-0.1875
242	0x3d7e	0.06201172
243	0x3d4b	0.049560547
244	0x3e90	0.28125
245	0xbda1	-0.07861328
246	0x3e6d	0.23144531
247	0x3e8b	0.27148438
248	0x3d26	0.040527344
249	0x3e89	0.26757812
250	0xbd16	-0.036621094
251	0x3dd6	0.10449219
252	0x3d80	0.0625
253	0x3e30	0.171875
254	0x3ddb	0.106933594
255	0xbd5e	-0.05419922

layer_8.Uk bf16 [64, 8]
0	0xbe86	-0.26171875
1	0x3e52	0.20507812
2	0xbcec	-0.028808594
3	0xbbf5	-0.0074768066
4	0xbd0c	-0.034179688
5	0xbd00	-0.03125
6	0x3cf8	0.030273438
7	0xbe59	-0.21191406
8	0x3ced	0.028930664
9	0x3dd7	0.10498047
10	0xbe52	-0.20507812
11	0xbe8d	-0.27539062
12	0x3d36	0.044433594
13	0x3d9b	0.075683594
14	0xbda8	-0.08203125
15	0xbe3a	-0.18164062
16	0x3b95	0.004547119
17	0x3e0e	0.13867188
18	0xbe2c	-0.16796875
19	0xbe8a	-0.26953125
20	0x3e8f	0.27929688
21	0xbe8b	-0.27148438
22	0xbd39	-0.045166016
23	0x3e0b	0.13574219
24	0xbe38	-0.1796875
25	0x3d0d	0.034423828
26	0xbb6b	-0.0035858154
27	0x3d25	0.040283203
28	0x3d81	0.06298828
29	0xbe0e	-0.13867188
30	0x3e4a	0.19726562
31	0x3d2a	0.041503906
32	0x3e92	0.28515625
33	0x3d69	0.056884766
34	0xbe12	-0.14257812
35	0xbd00	-0.03125
36	0x3e8c	0.2734375
37	0xbe43	-0.19042969
38	0x3cfc	0.030761719
39	0xbe2a	-0.16601562
40	0xbe16	-0.14648438
41	0x3e5f	0.21777344
42	0x3e82	0.25390625
43	0x3e29	0.16503906
44	0xbe47	-0.19433594
45	0xbe19	-0.14941406
46	0xbe79	-0.24316406
47	0xbdc1	-0.09423828
48	0x3db2	0.08691406
49	0x3e4f	0.20214844
50	0xbe02	-0.12695312
51	0xbe28	-0.1640625
52	0x3dc4	0.095703125
53	0x3e70	0.234375
54	0xbcef	-0.029174805
55	0x3e55	0.20800781
56	0x3e7b	0.24511719
57	0x3d03	0.031982422
58	0x3e89	0.26757812
59	0x3e58	0.2109375
60	0x3da4	0.080078125
61	0xbe80	-0.25
62	0xbdb8	-0.08984375
63	0xbd04	-0.032226562
64	0xbcff	-0.03112793
65	0xbe81	-0.25195312
66	0x3e61	0.21972656
67	0x3e4a	0.19726562
68	0xbd26	-0.040527344
69	0xbe70	-0.234375
70	0xbe41	-0.18847656
71	0xbe93	-0.28710938
72	0xbdd2	-0.10253906
73	0x3e35	0.17675781
74	0xbe61	-0.21972656
75	0x3e46	0.19335938
76	0xbd42	-0.04736328
77	0xbd27	-0.040771484
78	0xbdc4	-0.095703125
79	0x3d3c	0.045898438
80	0xbdcf	-0.10107422
81	0xbe13	-0.14355469
82	0xbc72	-0.014770508
83	0xbe70	-0.234375
84	0x3dcb	0.099121094
85	0xbe59	-0.21191406
86	0x3e62	0.22070312
87	0x3e4e	0.20117188
88	0xbd0e	-0.03466797
89	0x3cf0	0.029296875
90	0x3c3a	0.011352539
91	0x3dc5	0.096191406
92	0xbd2c	-0.041992188
93	0x3d4b	0.049560547
94	0x3d01	0.03149414
95	0xbe40	-0.1875
96	0x3de6	0.11230469
97	0xbe6f	-0.23339844
98	0x3c68	0.014160156
99	0x3e8b	0.27148438
100	0xbc53	-0.012878418
101	0x3cb6	0.022216797
102	0x3e08	0.1328125
103	0x3e88	0.265625
104	0x3deb	0.114746094
105	0xbdb4	-0.087890625
106	0x3e48	0.1953125
107	0x3c6a	0.014282227
108	0x3d54	0.051757812
109	0x3e2f	0.17089844
110	0xbd49	-0.049072266
111	0x3de1	0.10986328
112	0xbd45	-0.048095703
113	0x3e18	0.1484375
114	0x3e54	0.20703125
115	0x3d33	0.043701172
116	0xbcbd	-0.023071289
117	0xbe6b	-0.22949219
118	0xbe21	-0.15722656
119	0xbd20	-0.0390625
120	0x3e83	0.25585938
121	0x3d39	0.045166016
122	0x3dd1	0.10205078
123	0xbe26	-0.16210938
124	0x3d83	0.063964844
125	0xbe4c	-0.19921875
126	0xbe13	-0.14355469
127	0xbe87	-0.26367188
128	0x3e48	0.1953125
129	0xbe43	-0.19042969
130	0xbe2b	-0.16699219
131	0x3e3e	0.18554688
132	0x3e5d	0.21582031
133	0x3e1d	0.15332031
134	0x3e7d	0.24707031
135	0xbe41	-0.18847656
136	0x3d93	0.071777344
137	0xbe13	-0.14355469
138	0xbe85	-0.25976562
139	0xbe24	-0.16015625
140	0xbdd3	-0.103027344
141	0xbd0c	-0.034179688
142	0xbd42	-0.04736328
143	0xbd1a	-0.037597656
144	0xbe87	-0.26367188
145	0x3e62	0.22070312
146	0x3e8c	0.2734375
147	0x3e22	0.15820312
148	0x3e91	0.28320312
149	0xbda2	-0.07910156
150	0xbcc1	-0.02355957
151	0xbe7c	-0.24609375
152	0xbd02	-0.03173828
153	0xbe58	-0.2109375
154	0xbe89	-0.26757812
155	0xbd0f	-0.03491211
156	0xbe08	-0.1328125
157	0xbe6a	-0.22851562
158	0x3c00	0.0078125
159	0x3cda	0.026611328
160	0x3e86	0.26171875
161	0xbcdb	-0.026733398
162	0x3d73	0.059326172
163	0x3e70	0.234375
164	0xbd8a	-0.06738281
165	0x3e51	0.20410156
166	0x3e8a	0.26953125
167	0xbdf7	-0.12060547
168	0xbe70	-0.234375
169	0x3e23	0.15917969
170	0xbe11	-0.14160156
171	0xbe79	-0.24316406
172	0xbe86	-0.26171875
173	0x3e8b	0.27148438
174	0x3e8d	0.27539062
175	0xbe62	-0.22070312
176	0xbe02	-0.12695312
177	0x3d9d	0.076660156
178	0x3b9f	0.004852295
179	0xbd00	-0.03125
180	0xbd60	-0.0546875
181	0xbd84	-0.064453125
182	0xbe53	-0.20605469
183	0x3b6d	0.003616333
184	0x3d04	0.032226562
185	0x3e89	0.26757812
186	0xbd2c	-0.041992188
187	0x3df6	0.12011719
188	0x3e46	0.19335938
189	0xbe8e	-0.27734375
190	0x3d0c	0.034179688
191	0x3e93	0.28710938
192	0xbdce	-0.10058594
193	0x3dac	0.083984375
194	0xbc43	-0.0119018555
195	0xbd33	-0.043701172
196	0x3e37	0.17871094
197	0xbbc9	-0.006134033
198	0xbe40	-0.1875
199	0x3e0f	0.13964844
200	0xbdba	-0.09082031
201	0x3c7f	0.015563965
202	0x3e11	0.14160156
203	0xbdd6	-0.10449219
204	0xbe63	-0.22167969
205	0xbe43	-0.19042969
206	0x3e8a	0.26953125
207	0xbdca	-0.09863281
208	0x3e2c	0.16796875
209	0xbe45	-0.19238281
210	0x3e51	0.20410156
211	0x3e77	0.24121094
212	0xbbd6	-0.0065307617
213	0xbdc4	-0.095703125
214	0x3e3f	0.18652344
215	0x3dea	0.11425781
216	0xbdd0	-0.1015625
217	0xbe73	-0.23730469
218	0x3e38	0.1796875
219	0xbe08	-0.1328125
220	0x3ded	0.115722656
221	0xbe8d	-0.27539062
222	0xbe88	-0.265625
223	0x3e2d	0.16894531
224	0xbdbd	-0.092285156
225	0x3e80	0.25
226	0x3d0a	0.033691406
227	0x3e4c	0.19921875
228	0xbd18	-0.037109375
229	0x3e85	0.25976562
230	0xbe69	-0.22753906
231	0xbdd1	-0.10205078
232	0xbd27	-0.040771484
233	0xbe79	-0.24316406
234	0xbd08	-0.033203125
235	0xbe56	-0.20898438
236	0x3d94	0.072265625
237	0x3d88	0.06640625
238	0xbe89	-0.26757812
239	0xbe84	-0.2578125
240	0xbe91	-0.28320312
241	0x3d2e	0.04248047
242	0x3c68	0.014160156
243	0xbd3f	-0.04663086
244	0x3e53	0.20605469
245	0xbe87	-0.26367188
246	0x3dd8	0.10546875
247	0x3e5b	0.21386719
248	0xbe83	-0.25585938
249	0x3c6d	0.014465332
250	0x3e72	0.23632812
251	0x3e04	0.12890625
252	0xbd05	-0.032470703
253	0x3b36	0.0027770996
254	0x3e49	0.19628906
255	0x3bb5	0.0055236816

layer_8.Wv bf16 [64, 8]
0	0xbd0e	-0.03466797
1	0x3e89	0.26757812
2	0xbdd1	-0.10205078
3	0xbe7e	-0.24804688
4	0xbd9f	-0.07763672
5	0x3dd7	0.10498047
6	0x3e0e	0.13867188
7	0x3e85	0.25976562
8	0x3d8c	0.068359375
9	0x3e29	0.16503906
10	0xbb22	-0.0024719238
11	0xbda6	-0.08105469
12	0xbc18	-0.009277344
13	0x3e82	0.25390625
14	0x3d6d	0.057861328
15	0x3dbc	0.091796875
16	0xbc9a	-0.018798828
17	0xbe22	-0.15820312
18	0xbce7	-0.028198242
19	0xbdca	-0.09863281
20	0x3e8e	0.27734375
21	0xbbb3	-0.0054626465
22	0x3d6e	0.05810547
23	0x3e81	0.25195312
24	0xbdb9	-0.09033203
25	0x3e17	0.14746094
26	0xbe14	-0.14453125
27	0xbe16	-0.14648438
28	0x3e12	0.14257812
29	0x3c5e	0.013549805
30	0x3e4d	0.20019531
31	0x3d34	0.043945312
32	0x3c9b	0.018920898
33	0x3e57	0.20996094
34	0xbc9e	-0.01928711
35	0xbe2c	-0.16796875
36	0x3e7a	0.24414062
37	0xbdcb	-0.099121094
38	0xbe7f	-0.24902344
39	0x3e86	0.26171875
40	0xbe71	-0.23535156
41	0xbda3	-0.079589844
42	0x3e6b	0.22949219
43	0xbe46	-0.19335938
44	0x3e5e	0.21679688
45	0x3e89	0.26757812
46	0x3e1b	0.15136719
47	0x3cfd	0.030883789
48	0xbd94	-0.072265625
49	0x3e4f	0.20214844
50	0xbe55	-0.20800781
51	0x3c68	0.014160156
52	0xbe81	-0.25195312
53	0xbde3	-0.110839844
54	0x3d00	0.03125
55	0xbda7	-0.08154297
56	0x3de6	0.11230469
57	0xbde7	-0.11279297
58	0xbe63	-0.22167969
59	0x3e6e	0.23242188
60	0x3da3	0.079589844
61	0xbd3f	-0.04663086
62	0xbcaf	-0.021362305
63	0xbe52	-0.20507812
64	0xbd09	-0.033447266
65	0x3e6a	0.22851562
66	0xbe19	-0.14941406
67	0xbe75	-0.23925781
68	0x3dfa	0.12207031
69	0xbe33	-0.17480469
70	0xbe09	-0.13378906
71	0x3e90	0.28125
72	0xbe86	-0.26171875
73	0xbe2c	-0.16796875
74	0x3e22	0.15820312
75	0xbaa1	-0.0012283325
76	0x3db9	0.09033203
77	0x3e80	0.25
78	0x3aae	0.0013275146
79	0xbe60	-0.21875
80	0x3cf9	0.030395508
81	0xbe8b	-0.27148438
82	0x3d0f	0.03491211
83	0x3b4e	0.0031433105
84	0xbe37	-0.17871094
85	0x3e2f	0.17089844
86	0x3dac	0.083984375
87	0x3c88	0.016601562
88	0x3e35	0.17675781
89	0x3e2e	0.16992188
90	0x3dd5	0.104003906
91	0x3d86	0.06542969
92	0x3cd5	0.026000977
93	0x3d03	0.031982422
94	0x3e22	0.15820312
95	0xbe45	-0.19238281
96	0x3da1	0.07861328
97	0x3e7f	0.24902344
98	0x3d95	0.072753906
99	0xbdc7	-0.09716797
100	0x3e29	0.16503906
101	0xbc46	-0.012084961
102	0xbe05	-0.12988281
103	0xbe56	-0.20898438
104	0x3dd5	0.104003906
105	0x3b85	0.004058838
106	0xbe91	-0.28320312
107	0x3e35	0.17675781
108	0x3e72	0.23632812
109	0xbdf5	-0.119628906
110	0xbe5e	-0.21679688
111	0xbd15	-0.036376953
112	0xbdb5	-0.088378906
113	0x3d56	0.052246094
114	0xbe70	-0.234375
115	0xbe76	-0.24023438
116	0xbe08	-0.1328125
117	0xbe63	-0.22167969
118	0x3db2	0.08691406
119	0x3e71	0.23535156
120	0x3cfb	0.030639648
121	0x3e0c	0.13671875
122	0x3d96	0.07324219
123	0xbdc2	-0.09472656
124	0xbe3c	-0.18359375
125	0x3dbc	0.091796875
126	0xbca8	-0.020507812
127	0xbe85	-0.25976562
128	0x3e90	0.28125
129	0xbe54	-0.20703125
130	0x3e13	0.14355469
131	0x3d3f	0.04663086
132	0x3e7f	0.24902344
133	0xbde7	-0.11279297
134	0x3da4	0.080078125
135	0xbe60	-0.21875
136	0xbe64	-0.22265625
137	0xbc0c	-0.008544922
138	0x3e89	0.26757812
139	0xbc17	-0.009216309
140	0xbc1f	-0.00970459
141	0x3e24	0.16015625
142	0xbcd3	-0.025756836
143	0x3d15	0.036376953
144	0xbe18	-0.1484375
145	0xbe2a	-0.16601562
146	0x3e90	0.28125
147	0xbe34	-0.17578125
148	0xbe7b	-0.24511719
149	0x3dc3	0.095214844
150	0x3c80	0.015625
151	0x3d9e	0.07714844
152	0xbe55	-0.20800781
153	0x3e26	0.16210938
154	0x3e1d	0.15332031
155	0xbdb5	-0.088378906
156	0xbe17	-0.14746094
157	0x3de1	0.10986328
158	0x3db1	0.08642578
159	0xbe1c	-0.15234375
160	0xbcc7	-0.024291992
161	0x3d72	0.05908203
162	0xbe12	-0.14257812
163	0x3cb8	0.022460938
164	0x3d8c	0.068359375
165	0x3e27	0.16308594
166	0xbe62	-0.22070312
167	0x3e5d	0.21582031
168	0xbbb9	-0.005645752
169	0xbcbe	-0.02319336
170	0x3de8	0.11328125
171	0x3cd7	0.026245117
172	0xbe84	-0.2578125
173	0xbe82	-0.25390625
174	0xbd4c	-0.049804688
175	0x3e8f	0.27929688
176	0xbe66	-0.22460938
177	0x3e8b	0.27148438
178	0xbe05	-0.12988281
179	0x3e25	0.16113281
180	0x3d2f	0.04272461
181	0xbe76	-0.24023438
182	0x3e60	0.21875
183	0xbe55	-0.20800781
184	0xbd8f	-0.06982422
185	0xbd8e	-0.06933594
186	0x3e70	0.234375
187	0xbe6d	-0.23144531
188	0xbe89	-0.26757812
189	0x3d0b	0.033935547
190	0xbdb1	-0.08642578
191	0xbe36	-0.17773438
192	0xbe3f	-0.18652344
193	0xbe86	-0.26171875
194	0x3e75	0.23925781
195	0xbe68	-0.2265625
196	0x3dbc	0.091796875
197	0x3e21	0.15722656
198	0x3cf9	0.030395508
199	0x3db6	0.08886719
200	0x3df5	0.119628906
201	0xbe87	-0.26367188
202	0x3e54	0.20703125
203	0x3d89	0.06689453
204	0x3e8b	0.27148438
205	0xbe18	-0.1484375
206	0xbe13	-0.14355469
207	0x3e84	0.2578125
208	0xbe93	-0.28710938
209	0xbe31	-0.17285156
210	0x3e4c	0.19921875
211	0x3df4	0.119140625
212	0xbe57	-0.20996094
213	0xbe2e	-0.16992188
214	0x3e58	0.2109375
215	0x3de3	0.110839844
216	0xbd8a	-0.06738281
217	0xbe6e	-0.23242188
218	0xbe85	-0.25976562
219	0x3e61	0.21972656
220	0x3c89	0.016723633
221	0x3e1b	0.15136719
222	0xbcb4	-0.021972656
223	0x3e8e	0.27734375
224	0x3dc1	0.09423828
225	0x3d8c	0.068359375
226	0x3e28	0.1640625
227	0xbe1e	-0.15429688
228	0xbe93	-0.28710938
229	0x3e4d	0.20019531
230	0x3d97	0.07373047
231	0x3c9a	0.018798828
232	0x3d28	0.041015625
233	0xbd5a	-0.053222656
234	0xbda3	-0.079589844
235	0xbe60	-0.21875
236	0x3d3c	0.045898438
237	0x3cb5	0.022094727
238	0x3e5e	0.21679688
239	0xbe29	-0.16503906
240	0x3ddc	0.107421875
241	0xbe8f	-0.27929688
242	0xbe8a	-0.26953125
243	0x3e22	0.15820312
244	0x3e3c	0.18359375
245	0xbc23	-0.0099487305
246	0x3d46	0.048339844
247	0x3e8d	0.27539062
248	0xbe6e	-0.23242188
249	0xbd83	-0.063964844
250	0xbe5e	-0.21679688
251	0xbd66	-0.056152344
252	0xbe0f	-0.13964844
253	0x3dda	0.10644531
254	0x3de0	0.109375
255	0x3b02	0.0019836426

layer_8.Uv bf16 [64, 8]
0	0xbdb9	-0.09033203
1	0x3dd1	0.10205078
2	0xbde7	-0.11279297
3	0xbe6e	-0.23242188
4	0xbd97	-0.07373047
5	0xbe90	-0.28125
6	0xbe91	-0.28320312
7	0x3d44	0.047851562
8	0xbc8f	-0.017456055
9	0x3e03	0.12792969
10	0x3e80	0.25
11	0xbde1	-0.10986328
12	0x3e37	0.17871094
13	0x3e55	0.20800781
14	0xbe65	-0.22363281
15	0x3e66	0.22460938
16	0x3e85	0.25976562
17	0x3be4	0.006958008
18	0xbdef	-0.11669922
19	0x3e1b	0.15136719
20	0x3e46	0.19335938
21	0x3e1a	0.15039062
22	0x3cad	0.021118164
23	0x3c4b	0.012390137
24	0xbd80	-0.0625
25	0x3e20	0.15625
26	0x3cc0	0.0234375
27	0xbe13	-0.14355469
28	0xbe5b	-0.21386719
29	0x3d89	0.06689453
30	0x3d0c	0.034179688
31	0x3e8a	0.26953125
32	0x3c92	0.017822266
33	0x3e94	0.2890625
34	0xbdea	-0.11425781
35	0xbe50	-0.203125
36	0xbd27	-0.040771484
37	0xbdd7	-0.10498047
38	0xbd20	-0.0390625
39	0xbdb5	-0.088378906
40	0x3e87	0.26367188
41	0x3e03	0.12792969
42	0x3d2f	0.04272461
43	0x3c4c	0.012451172
44	0x3e8d	0.27539062
45	0x3e03	0.12792969
46	0xbd97	-0.07373047
47	0xbe8d	-0.27539062
48	0xbe8d	-0.27539062
49	0xbddf	-0.10888672
50	0x3d1d	0.038330078
51	0x3d27	0.040771484
52	0x3e0c	0.13671875
53	0x3e06	0.13085938
54	0xbdfe	-0.12402344
55	0x3e0f	0.13964844
56	0x3e21	0.15722656
57	0x3d9d	0.076660156
58	0x3e6e	0.23242188
59	0xbe55	-0.20800781
60	0x3d1c	0.038085938
61	0xbd6a	-0.057128906
62	0x3e85	0.25976562
63	0xbe67	-0.22558594
64	0x3dc6	0.09667969
65	0xbe54	-0.20703125
66	0xbe47	-0.19433594
67	0xbe86	-0.26171875
68	0x3d58	0.052734375
69	0x3e87	0.26367188
70	0xbe15	-0.14550781
71	0xbced	-0.028930664
72	0xbe71	-0.23535156
73	0xbe55	-0.20800781
74	0x3de9	0.11376953
75	0xbd2f	-0.04272461
76	0xbd23	-0.039794922
77	0xbe27	-0.16308594
78	0x3e38	0.1796875
79	0xbe62	-0.22070312
80	0xbe08	-0.1328125
81	0x3e40	0.1875
82	0x3e02	0.12695312
83	0xbe88	-0.265625
84	0xbe90	-0.28125
85	0xbe2b	-0.16699219
86	0xbe8e	-0.27734375
87	0x3e4f	0.20214844
88	0xbe10	-0.140625
89	0x3ddf	0.10888672
90	0xbe70	-0.234375
91	0x3d92	0.07128906
92	0x3e8a	0.26953125
93	0x3e3f	0.18652344
94	0x3e84	0.2578125
95	0xbd60	-0.0546875
96	0xbd22	-0.03955078
97	0xbe75	-0.23925781
98	0xbdf6	-0.12011719
99	0xbe34	-0.17578125
100	0xbc96	-0.018310547
101	0x3b2e	0.0026550293
102	0xbd93	-0.071777344
103	0xbdf4	-0.119140625
104	0x3e90	0.28125
105	0x3d01	0.03149414
106	0xbe86	-0.26171875
107	0xbdcf	-0.10107422
108	0x3e23	0.15917969
109	0xbe8b	-0.27148438
110	0x3e8a	0.26953125
111	0xbcb1	-0.021606445
112	0x3de3	0.110839844
113	0xbd87	-0.06591797
114	0xbe40	-0.1875
115	0x3e1f	0.15527344
116	0x3db3	0.087402344
117	0xbe1f	-0.15527344
118	0x3df9	0.12158203
119	0xbe1b	-0.15136719
120	0xbe59	-0.21191406
121	0xbe92	-0.28515625
122	0x3e5a	0.21289062
123	0x3e6f	0.23339844
124	0x3e4c	0.19921875
125	0x3e4c	0.19921875
126	0x3e87	0.26367188
127	0x3cc9	0.024536133
128	0xbe89	-0.26757812
129	0xbe3b	-0.18261719
130	0x3e30	0.171875
131	0xbe6a	-0.22851562
132	0xbd1e	-0.03857422
133	0xbcf4	-0.029785156
134	0xbd13	-0.035888672
135	0xbe86	-0.26171875
136	0x3e75	0.23925781
137	0xbd11	-0.03540039
138	0xbd3b	-0.045654297
139	0xbdd5	-0.104003906
140	0xbd38	-0.044921875
141	0xbd36	-0.044433594
142	0xbe26	-0.16210938
143	0x3e75	0.23925781
144	0x3d4b	0.049560547
145	0x3ca5	0.020141602
146	0xbe51	-0.20410156
147	0x3e92	0.28515625
148	0xbdbd	-0.092285156
149	0x3e3d	0.18457031
150	0xbe22	-0.15820312
151	0xbd12	-0.03564453
152	0xbc58	-0.013183594
153	0x3cff	0.03112793
154	0xbcc5	-0.024047852
155	0xbd85	-0.064941406
156	0xbe2b	-0.16699219
157	0xbdbb	-0.091308594
158	0xbe62	-0.22070312
159	0x3e66	0.22460938
160	0xbde5	-0.111816406
161	0xbba1	-0.00491333
162	0xbe78	-0.2421875
163	0xbe5b	-0.21386719
164	0xbe41	-0.18847656
165	0x3de1	0.10986328
166	0x3e8a	0.26953125
167	0x3cb3	0.021850586
168	0x3e64	0.22265625
169	0xbe89	-0.26757812
170	0xbe93	-0.28710938
171	0x3dde	0.10839844
172	0xbe22	-0.15820312
173	0xbe18	-0.1484375
174	0x3e6a	0.22851562
175	0xbcc4	-0.023925781
176	0x3e3d	0.18457031
177	0xbdd6	-0.10449219
178	0x3d14	0.036132812
179	0x3e8e	0.27734375
180	0xbc94	-0.018066406
181	0x3e29	0.16503906
182	0x3e85	0.25976562
183	0x3e6d	0.23144531
184	0x3e77	0.24121094
185	0xbe16	-0.14648438
186	0x3dd9	0.10595703
187	0xbc9e	-0.01928711
188	0xbe07	-0.13183594
189	0xbe25	-0.16113281
190	0x3e01	0.12597656
191	0x3e14	0.14453125
192	0x3d2a	0.041503906
193	0x3e78	0.2421875
194	0x3dbe	0.09277344
195	0x3e70	0.234375
196	0x3e18	0.1484375
197	0xbd30	-0.04296875
198	0xbdd7	-0.10498047
199	0xbe76	-0.24023438
200	0x3e94	0.2890625
201	0xbda5	-0.080566406
202	0x3ded	0.115722656
203	0x3e27	0.16308594
204	0xbe4d	-0.20019531
205	0x3e0f	0.13964844
206	0x3e35	0.17675781
207	0xbe19	-0.14941406
208	0xbde0	-0.109375
209	0x3d38	0.044921875
210	0x3e7b	0.24511719
211	0x3e88	0.265625
212	0xbd19	-0.037353516
213	0xbe0e	-0.13867188
214	0x3e0c	0.13671875
215	0xbd05	-0.032470703
216	0x3d3b	0.045654297
217	0xbe70	-0.234375
218	0x3c71	0.014709473
219	0x3d9b	0.075683594
220	0xbdd0	-0.1015625
221	0x3d39	0.045166016
222	0x3e70	0.234375
223	0xbe88	-0.265625
224	0x3e84	0.2578125
225	0xbe3d	-0.18457031
226	0xbe83	-0.25585938
227	0x3d4c	0.049804688
228	0x3e8d	0.27539062
229	0xbe4e	-0.20117188
230	0xbe88	-0.265625
231	0x3e70	0.234375
232	0xbe0a	-0.13476562
233	0xbe80	-0.25
234	0xbe84	-0.2578125
235	0xbda4	-0.080078125
236	0xbe8f	-0.27929688
237	0xbe81	-0.25195312
238	0x3df7	0.12060547
239	0xbd38	-0.044921875
240	0x3db4	0.087890625
241	0x3e1b	0.15136719
242	0x3d6c	0.057617188
243	0x3e78	0.2421875
244	0xbe26	-0.16210938
245	0x3e3e	0.18554688
246	0xbce9	-0.028442383
247	0x3e67	0.22558594
248	0x3e35	0.17675781
249	0xbe5c	-0.21484375
250	0xbe24	-0.16015625
251	0xbdbb	-0.091308594
252	0x3d04	0.032226562
253	0x3e29	0.16503906
254	0x3df4	0.119140625
255	0x3e3e	0.18554688

layer_8.gate_k.net.0.weight bf16 [8, 64]
0	0xbdf1	-0.11767578
1	0x3cb8	0.022460938
2	0xbd80	-0.0625
3	0xbd6b	-0.057373047
4	0xbde2	-0.11035156
5	0x3d4c	0.049804688
6	0xbde5	-0.111816406
7	0xbd14	-0.036132812
8	0x3d62	0.05517578
9	0x3d03	0.031982422
10	0x3d91	0.07080078
11	0x3d7e	0.06201172
12	0x3d8d	0.068847656
13	0x3da4	0.080078125
14	0xbd80	-0.0625
15	0x3d3b	0.045654297
16	0xbd13	-0.035888672
17	0x3d01	0.03149414
18	0xbd86	-0.06542969
19	0x3d2f	0.04272461
20	0xbd26	-0.040527344
21	0xbd54	-0.051757812
22	0xbd80	-0.0625
23	0x3cc0	0.0234375
24	0x3def	0.11669922
25	0x3d79	0.060791016
26	0xbd0f	-0.03491211
27	0xbd43	-0.047607422
28	0x3d92	0.07128906
29	0xbdb2	-0.08691406
30	0xbd2d	-0.042236328
31	0xbd2c	-0.041992188
32	0x3d94	0.072265625
33	0xbd80	-0.0625
34	0x3d65	0.055908203
35	0x3d37	0.044677734
36	0x3db0	0.0859375
37	0xbd02	-0.03173828
38	0x3dea	0.11425781
39	0xbdd9	-0.10595703
40	0xbd32	-0.04345703
41	0xbdff	-0.12451172
42	0x3d13	0.035888672
43	0xbd62	-0.05517578
44	0xbd65	-0.055908203
45	0x3d80	0.0625
46	0xbd34	-0.043945312
47	0xbdde	-0.10839844
48	0x3dc5	0.096191406
49	0x3d9e	0.07714844
50	0x3d81	0.06298828
51	0x3dcc	0.099609375
52	0x3d71	0.05883789
53	0x3d88	0.06640625
54	0x3dd4	0.103515625
55	0x3d5d	0.053955078
56	0xbdc8	-0.09765625
57	0xbd80	-0.0625
58	0xbd49	-0.049072266
59	0xbd0a	-0.033691406
60	0x3d01	0.03149414
61	0x3d95	0.072753906
62	0x3d65	0.055908203
63	0xbdbd	-0.092285156
64	0x3d19	0.037353516
65	0x3d26	0.040527344
66	0x3d9c	0.076171875
67	0xbd80	-0.0625
68	0xbd0c	-0.034179688
69	0xbd80	-0.0625
70	0xbd41	-0.04711914
71	0xbd2b	-0.041748047
72	0xbdfa	-0.12207031
73	0x3de4	0.111328125
74	0x3d87	0.06591797
75	0x3d1d	0.038330078
76	0xbda0	-0.078125
77	0xbd84	-0.064453125
78	0x3d92	0.07128906
79	0xbdbb	-0.091308594
80	0x3d82	0.06347656
81	0x3d21	0.03930664
82	0xbda5	-0.080566406
83	0xbd82	-0.06347656
84	0xbdc1	-0.09423828
85	0x3ded	0.115722656
86	0x3d89	0.06689453
87	0xbded	-0.115722656
88	0xbd8f	-0.06982422
89	0x3d28	0.041015625
90	0xbd41	-0.04711914
91	0xbd83	-0.063964844
92	0xbdcc	-0.099609375
93	0xbd88	-0.06640625
94	0x3d57	0.052490234
95	0xbdc3	-0.095214844
96	0x3d15	0.036376953
97	0x3d07	0.032958984
98	0x3d85	0.064941406
99	0xbd16	-0.036621094
100	0x3d7a	0.061035156
101	0x3d80	0.0625
102	0x3d73	0.059326172
103	0xbd1e	-0.03857422
104	0x3dc3	0.095214844
105	0x3dfc	0.123046875
106	0x3d6e	0.05810547
107	0xbd7d	-0.061767578
108	0xbddf	-0.10888672
109	0xbdfd	-0.123535156
110	0xbd31	-0.04321289
111	0xbd5c	-0.053710938
112	0xbd0e	-0.03466797
113	0xbd40	-0.046875
114	0x3df2	0.11816406
115	0x3df7	0.12060547
116	0xbb4e	-0.0031433105
117	0x3d14	0.036132812
118	0x3d1b	0.037841797
119	0x3d26	0.040527344
120	0xbdf0	-0.1171875
121	0xbd42	-0.04736328
122	0x3df4	0.119140625
123	0xbdce	-0.10058594
124	0x3d00	0.03125
125	0x3d5f	0.05444336
126	0xbdd0	-0.1015625
127	0xbdd7	-0.10498047
128	0x3dbf	0.09326172
129	0xbd2f	-0.04272461
130	0x3d95	0.072753906
131	0x3d22	0.03955078
132	0xbd02	-0.03173828
133	0xbdab	-0.083496094
134	0xbced	-0.028930664
135	0x3da9	0.08251953
136	0x3d53	0.051513672
137	0xbd2d	-0.042236328
138	0x3c1c	0.009521484
139	0x3dc4	0.095703125
140	0xbde0	-0.109375
141	0x3da4	0.080078125
142	0xbd15	-0.036376953
143	0xbd24	-0.040039062
144	0x3d55	0.052001953
145	0xbdd5	-0.104003906
146	0x3d02	0.03173828
147	0x3df5	0.119628906
148	0x3d2b	0.041748047
149	0xbd3d	-0.046142578
150	0xbd08	-0.033203125
151	0x3dcb	0.099121094
152	0x3d0a	0.033691406
153	0x3dae	0.08496094
154	0xbda5	-0.080566406
155	0x3d4a	0.049316406
156	0x3c64	0.013916016
157	0xbc44	-0.011962891
158	0x3dee	0.11621094
159	0x3d8e	0.06933594
160	0x3db0	0.0859375
161	0x3d69	0.056884766
162	0x3d3a	0.045410156
163	0x3d05	0.032470703
164	0xbde2	-0.11035156
165	0xbdd8	-0.10546875
166	0xbd9f	-0.07763672
167	0xbda6	-0.08105469
168	0x3d7e	0.06201172
169	0x3d2a	0.041503906
170	0xbd1c	-0.038085938
171	0xbdc3	-0.095214844
172	0x3dfc	0.123046875
173	0x3dc0	0.09375
174	0x3d71	0.05883789
175	0x3dfd	0.123535156
176	0xbd88	-0.06640625
177	0xbd92	-0.07128906
178	0xbd96	-0.07324219
179	0x3d00	0.03125
180	0xbde2	-0.11035156
181	0x3dcb	0.099121094
182	0x3c81	0.01574707
183	0x3d45	0.048095703
184	0xbd8d	-0.068847656
185	0x3d0c	0.034179688
186	0x3d21	0.03930664
187	0xbd09	-0.033447266
188	0x3df2	0.11816406
189	0xbd74	-0.059570312
190	0x3d2c	0.041992188
191	0xbdae	-0.08496094
192	0xbce1	-0.02746582
193	0xbd12	-0.03564453
194	0x3d80	0.0625
195	0x3db3	0.087402344
196	0xbd00	-0.03125
197	0xbcfe	-0.03100586
198	0x3d0c	0.034179688
199	0x3dc9	0.09814453
200	0xbd27	-0.040771484
201	0x3db9	0.09033203
202	0xbd45	-0.048095703
203	0x3dd3	0.103027344
204	0x3dff	0.12451172
205	0x3dad	0.084472656
206	0x3d93	0.071777344
207	0x3d14	0.036132812
208	0xbd7e	-0.06201172
209	0x3ce3	0.027709961
210	0x3d4b	0.049560547
211	0xbd0b	-0.033935547
212	0x3ca4	0.020019531
213	0x3d96	0.07324219
214	0xbded	-0.115722656
215	0xbde9	-0.11376953
216	0xbd96	-0.07324219
217	0xbce1	-0.02746582
218	0x3c3e	0.01159668
219	0x3d18	0.037109375
220	0xbd06	-0.032714844
221	0xbda8	-0.08203125
222	0x3d40	0.046875
223	0x3dad	0.084472656
224	0xbd9a	-0.07519531
225	0x3ddf	0.10888672
226	0xbd04	-0.032226562
227	0x3dfc	0.123046875
228	0xbdeb	-0.114746094
229	0xbdf5	-0.119628906
230	0x3cf9	0.030395508
231	0xbdef	-0.11669922
232	0xbdd2	-0.10253906
233	0x3d82	0.06347656
234	0x3d63	0.055419922
235	0xbde9	-0.11376953
236	0x3db7	0.08935547
237	0x395d	0.00021076202
238	0x3dbe	0.09277344
239	0xbd96	-0.07324219
240	0xbdf3	-0.118652344
241	0xbdaa	-0.08300781
242	0x3d08	0.033203125
243	0xbe00	-0.125
244	0xbd05	-0.032470703
245	0xbd7e	-0.06201172
246	0xbd23	-0.039794922
247	0xbd20	-0.0390625
248	0xbca9	-0.020629883
249	0xbdfa	-0.12207031
250	0x3d84	0.064453125
251	0xbd9d	-0.076660156
252	0x3d9b	0.075683594
253	0x3deb	0.114746094
254	0xbd31	-0.04321289
255	0xbd0a	-0.033691406

layer_8.gate_k.net.0.bias bf16 [8]
0	0x3dd5	0.104003906
1	0x3d95	0.072753906
2	0xbdba	-0.09082031
3	0xbd0e	-0.03466797
4	0x3d88	0.06640625
5	0xbd2e	-0.04248047
6	0xbd81	-0.06298828
7	0x3df9	0.12158203

layer_8.gate_k.net.2.weight bf16 [8, 8]
0	0xbe7e	-0.24804688
1	0xbe93	-0.28710938
2	0x3deb	0.114746094
3	0x3e19	0.14941406
4	0xbd07	-0.032958984
5	0xbd11	-0.03540039
6	0x3e18	0.1484375
7	0x3e80	0.25
8	0xbe2f	-0.17089844
9	0x3de3	0.110839844
10	0xbe05	-0.12988281
11	0xbe3b	-0.18261719
12	0xbe3c	-0.18359375
13	0xbe87	-0.26367188
14	0x3e99	0.29882812
15	0xbdf6	-0.12011719
16	0xbdce	-0.10058594
17	0xbd83	-0.063964844
18	0xbe6c	-0.23046875
19	0x3e6b	0.22949219
20	0xbde2	-0.11035156
21	0x3e40	0.1875
22	0x3dcd	0.100097656
23	0xbeb4	-0.3515625
24	0xbea6	-0.32421875
25	0xbeb0	-0.34375
26	0x3ea2	0.31640625
27	0x3ea5	0.32226562
28	0x3df8	0.12109375
29	0xbe16	-0.14648438
30	0x3dee	0.11621094
31	0xbe89	-0.26757812
32	0xbd62	-0.05517578
33	0xbd80	-0.0625
34	0x3e78	0.2421875
35	0x3ce5	0.027954102
36	0xbd1c	-0.038085938
37	0xbd38	-0.044921875
38	0x3eae	0.33984375
39	0xbe7d	-0.24707031
40	0x3e24	0.16015625
41	0xbea3	-0.31835938
42	0x3d85	0.064941406
43	0xbe98	-0.296875
44	0x3e30	0.171875
45	0x3ea2	0.31640625
46	0xbe2e	-0.16992188
47	0x3ea2	0.31640625
48	0xbea2	-0.31640625
49	0x3e2d	0.16894531
50	0x3d78	0.060546875
51	0xbda6	-0.08105469
52	0xbd75	-0.059814453
53	0x3e11	0.14160156
54	0xbd84	-0.064453125
55	0xbeaf	-0.34179688
56	0xbe03	-0.12792969
57	0x3e9a	0.30078125
58	0xbe9c	-0.3046875
59	0xbdf4	-0.119140625
60	0x3e15	0.14550781
61	0x3e84	0.2578125
62	0xbe88	-0.265625
63	0xbe7b	-0.24511719

layer_8.gate_k.net.2.bias bf16 [8]
0	0x3e5a	0.21289062
1	0x3e76	0.24023438
2	0x3e6b	0.22949219
3	0x3e50	0.203125
4	0xbe9a	-0.30078125
5	0x3def	0.11669922
6	0xbd80	-0.0625
7	0xbd70	-0.05859375

layer_8.gate_v.net.0.weight bf16 [8, 64]
0	0xbd43	-0.047607422
1	0x3df6	0.12011719
2	0x3d16	0.036621094
3	0xbdac	-0.083984375
4	0x3d76	0.060058594
5	0x3d1f	0.03881836
6	0xbd9e	-0.07714844
7	0xbd63	-0.055419922
8	0xbd9f	-0.07763672
9	0xbc3c	-0.011474609
10	0xbd11	-0.03540039
11	0xbd05	-0.032470703
12	0xbc3f	-0.011657715
13	0xbd8d	-0.068847656
14	0xbdfe	-0.12402344
15	0xbcd5	-0.026000977
16	0x3df0	0.1171875
17	0xbdc1	-0.09423828
18	0x3d12	0.03564453
19	0xbd83	-0.063964844
20	0x3d08	0.033203125
21	0x3d15	0.036376953
22	0xbd73	-0.059326172
23	0xbdd0	-0.1015625
24	0xbccb	-0.024780273
25	0xbc39	-0.011291504
26	0x3db9	0.09033203
27	0x3d6c	0.057617188
28	0x3d94	0.072265625
29	0xbd9f	-0.07763672
30	0xbdf2	-0.11816406
31	0xbd96	-0.07324219
32	0xbdd3	-0.103027344
33	0x3bd9	0.0066223145
34	0xbd48	-0.048828125
35	0xbd04	-0.032226562
36	0xbd28	-0.041015625
37	0xbd23	-0.039794922
38	0xbcb0	-0.021484375
39	0x3dfd	0.123535156
40	0xbd0c	-0.034179688
41	0x3dd0	0.1015625
42	0x3ddf	0.10888672
43	0x3d82	0.06347656
44	0x3c9d	0.019165039
45	0x3d00	0.03125
46	0xbda5	-0.080566406
47	0x3c4b	0.012390137
48	0xbd4b	-0.049560547
49	0xbdba	-0.09082031
50	0xbdd4	-0.103515625
51	0xbd73	-0.059326172
52	0x3cf1	0.029418945
53	0x3c16	0.009155273
54	0x3c98	0.018554688
55	0x3d05	0.032470703
56	0x3ce1	0.02746582
57	0x3dab	0.083496094
58	0x3d09	0.033447266
59	0x3d15	0.036376953
60	0x3c89	0.016723633
61	0xbd4e	-0.05029297
62	0xbdaa	-0.08300781
63	0xbd23	-0.039794922
64	0xbdf5	-0.119628906
65	0x3d03	0.031982422
66	0xbdc2	-0.09472656
67	0xbd31	-0.04321289
68	0xbd53	-0.051513672
69	0x3de2	0.11035156
70	0xbdcc	-0.099609375
71	0xbd29	-0.041259766
72	0x3d4f	0.05053711
73	0x3cd5	0.026000977
74	0x3dcf	0.10107422
75	0x3cb6	0.022216797
76	0x3d97	0.07373047
77	0xbd96	-0.07324219
78	0x3da0	0.078125
79	0x3c98	0.018554688
80	0xbd3a	-0.045410156
81	0xbd69	-0.056884766
82	0x3d28	0.041015625
83	0x3d8d	0.068847656
84	0xbdb9	-0.09033203
85	0xbdbf	-0.09326172
86	0x3d5a	0.053222656
87	0xbde0	-0.109375
88	0xbde7	-0.11279297
89	0x3db9	0.09033203
90	0x3d2c	0.041992188
91	0x3d00	0.03125
92	0xbc65	-0.013977051
93	0x3d3e	0.04638672
94	0xbdb0	-0.0859375
95	0x3dd3	0.103027344
96	0xbc9c	-0.019042969
97	0x3d08	0.033203125
98	0xbdf2	-0.11816406
99	0xbc85	-0.016235352
100	0xbd9c	-0.076171875
101	0x3d86	0.06542969
102	0xbdfa	-0.12207031
103	0x3dde	0.10839844
104	0xbd0e	-0.03466797
105	0xbd3b	-0.045654297
106	0xbd21	-0.03930664
107	0xbdd0	-0.1015625
108	0x3d0e	0.03466797
109	0x3dc9	0.09814453
110	0xbd1b	-0.037841797
111	0xbc3d	-0.0115356445
112	0xbdd2	-0.10253906
113	0x3d2a	0.041503906
114	0x3dbf	0.09326172
115	0x3dc9	0.09814453
116	0x3d1f	0.03881836
117	0x3d6c	0.057617188
118	0xbdbb	-0.091308594
119	0xbd52	-0.05126953
120	0x3df3	0.118652344
121	0x3d03	0.031982422
122	0x3d64	0.055664062
123	0xbdbb	-0.091308594
124	0xbdcd	-0.100097656
125	0x3dcd	0.100097656
126	0xbd69	-0.056884766
127	0xbd8f	-0.06982422
128	0xbb91	-0.004425049
129	0xbcc4	-0.023925781
130	0x3d73	0.059326172
131	0x3da8	0.08203125
132	0x3de9	0.11376953
133	0xbd03	-0.031982422
134	0xbd23	-0.039794922
135	0xbdc8	-0.09765625
136	0xbd82	-0.06347656
137	0xbc03	-0.0079956055
138	0xbd88	-0.06640625
139	0xbc46	-0.012084961
140	0x3b49	0.0030670166
141	0x3d96	0.07324219
142	0xbde3	-0.110839844
143	0xbca9	-0.020629883
144	0xbd5c	-0.053710938
145	0x3c97	0.018432617
146	0xbd8a	-0.06738281
147	0xbdfc	-0.123046875
148	0xbc97	-0.018432617
149	0x3bd4	0.0064697266
150	0x3dd5	0.104003906
151	0xbdae	-0.08496094
152	0xbd00	-0.03125
153	0x3dd0	0.1015625
154	0x3df7	0.12060547
155	0x3ce6	0.028076172
156	0xbd7c	-0.061523438
157	0x3d99	0.07470703
158	0xbdc4	-0.095703125
159	0xbdd4	-0.103515625
160	0xbbce	-0.006286621
161	0xbd98	-0.07421875
162	0x3d44	0.047851562
163	0xbd27	-0.040771484
164	0xbdbe	-0.09277344
165	0xbd39	-0.045166016
166	0xbda3	-0.079589844
167	0xbdb3	-0.087402344
168	0x3d8a	0.06738281
169	0xbc9d	-0.019165039
170	0xbd4d	-0.050048828
171	0xbdf6	-0.12011719
172	0x3dc9	0.09814453
173	0xbd96	-0.07324219
174	0x3dcb	0.099121094
175	0xbdd0	-0.1015625
176	0xbd5f	-0.05444336
177	0x3ded	0.115722656
178	0x3d76	0.060058594
179	0xbda1	-0.07861328
180	0xbda3	-0.079589844
181	0xbd86	-0.06542969
182	0x3d7c	0.061523438
183	0x3d86	0.06542969
184	0xbd3b	-0.045654297
185	0xbdd6	-0.10449219
186	0xbda5	-0.080566406
187	0x3da2	0.07910156
188	0x3cc1	0.02355957
189	0x3d67	0.056396484
190	0x3d80	0.0625
191	0xbda1	-0.07861328
192	0xbdbe	-0.09277344
193	0xbdb6	-0.08886719
194	0x3dfb	0.122558594
195	0x3d07	0.032958984
196	0xbbcc	-0.006225586
197	0xbdfd	-0.123535156
198	0xbcc0	-0.0234375
199	0xbded	-0.115722656
200	0xbda4	-0.080078125
201	0x3ca1	0.01965332
202	0xbde1	-0.10986328
203	0x3d3c	0.045898438
204	0x3db9	0.09033203
205	0xbd6c	-0.057617188
206	0x3dbb	0.091308594
207	0x3dc5	0.096191406
208	0xbdef	-0.11669922
209	0xbbf4	-0.007446289
210	0xbc21	-0.00982666
211	0xbd04	-0.032226562
212	0x3d8e	0.06933594
213	0xbd8e	-0.06933594
214	0xbdab	-0.083496094
215	0x3c14	0.009033203
216	0x3c85	0.016235352
217	0xbd8c	-0.068359375
218	0xbd7f	-0.06225586
219	0xbdee	-0.11621094
220	0x3d96	0.07324219
221	0xbd87	-0.06591797
222	0x3d37	0.044677734
223	0xbdd6	-0.10449219
224	0xbda3	-0.079589844
225	0xbcfb	-0.030639648
226	0x3dfe	0.12402344
227	0x3c94	0.018066406
228	0xbcbd	-0.023071289
229	0xbcd0	-0.025390625
230	0xbbaa	-0.0051879883
231	0xbce2	-0.02758789
232	0x3dcb	0.099121094
233	0x3b67	0.0035247803
234	0x3d85	0.064941406
235	0xbbe2	-0.0068969727
236	0x3dc7	0.09716797
237	0xbd9b	-0.075683594
238	0xbd8b	-0.067871094
239	0xbd49	-0.049072266
240	0xbd41	-0.04711914
241	0xbce7	-0.028198242
242	0x3d55	0.052001953
243	0xbdb6	-0.08886719
244	0xbdb0	-0.0859375
245	0x3d9e	0.07714844
246	0x3d85	0.064941406
247	0x3d0f	0.03491211
248	0x3d7a	0.061035156
249	0xbcca	-0.024658203
250	0xbd3d	-0.046142578
251	0xbcd8	-0.026367188
252	0xbd11	-0.03540039
253	0xbd4f	-0.05053711
254	0xbd9f	-0.07763672
255	0x3d12	0.03564453

layer_8.gate_v.net.0.bias bf16 [8]
0	0x3dff	0.12451172
1	0x3da9	0.08251953
2	0xbcf4	-0.029785156
3	0x3d91	0.07080078
4	0xbdc8	-0.09765625
5	0x3d93	0.071777344
6	0x3d80	0.0625
7	0x3dfd	0.123535156

layer_8.gate_v.net.2.weight bf16 [8, 8]
0	0xbdce	-0.10058594
1	0xbe70	-0.234375
2	0x3e97	0.29492188
3	0x3eb1	0.34570312
4	0xbccc	-0.024902344
5	0x3da1	0.07861328
6	0x3eb0	0.34375
7	0xbe99	-0.29882812
8	0xbdde	-0.10839844
9	0xbe85	-0.25976562
10	0x3e2d	0.16894531
11	0x3e72	0.23632812
12	0xbe9c	-0.3046875
13	0xbd7f	-0.06225586
14	0xbea4	-0.3203125
15	0x3e86	0.26171875
16	0x3e90	0.28125
17	0x3de5	0.111816406
18	0xbd40	-0.046875
19	0xbd49	-0.049072266
20	0x3e72	0.23632812
21	0x3df9	0.12158203
22	0xbe8a	-0.26953125
23	0x3d8b	0.067871094
24	0x3e90	0.28125
25	0x3e6b	0.22949219
26	0xbe80	-0.25
27	0xbe8d	-0.27539062
28	0x3e63	0.22167969
29	0x3e93	0.28710938
30	0xbe36	-0.17773438
31	0xbe62	-0.22070312
32	0x3da8	0.08203125
33	0xbe37	-0.17871094
34	0x3e3b	0.18261719
35	0x3e07	0.13183594
36	0x3e8f	0.27929688
37	0xbd96	-0.07324219
38	0xbdd5	-0.104003906
39	0xbe8e	-0.27734375
40	0x3ea1	0.31445312
41	0x3e39	0.18066406
42	0x3c2d	0.010559082
43	0xbe5d	-0.21582031
44	0x3e97	0.29492188
45	0x3ea6	0.32421875
46	0xbdb9	-0.09033203
47	0xbe52	-0.20507812
48	0xbe1d	-0.15332031
49	0x3e6d	0.23144531
50	0xbe9c	-0.3046875
51	0xbe24	-0.16015625
52	0xbd04	-0.032226562
53	0x3e6b	0.22949219
54	0xbd83	-0.063964844
55	0xbe85	-0.25976562
56	0xbe75	-0.23925781
57	0x3deb	0.114746094
58	0xbd28	-0.041015625
59	0xbdb3	-0.087402344
60	0x3e64	0.22265625
61	0x3e0a	0.13476562
62	0xbd7d	-0.061767578
63	0xbde3	-0.110839844

layer_8.gate_v.net.2.bias bf16 [8]
0	0xbe6e	-0.23242188
1	0xbeb3	-0.34960938
2	0x3e2e	0.16992188
3	0xbd80	-0.0625
4	0x3e96	0.29296875
5	0xbe02	-0.12695312
6	0xbeaf	-0.34179688
7	0xbe46	-0.19335938

layer_9.Wk bf16 [64, 8]
0	0xbe0f	-0.13964844
1	0x3e17	0.14746094
2	0xbe90	-0.28125
3	0xbe5f	-0.21777344
4	0xbd36	-0.044433594
5	0x3d31	0.04321289
6	0xbdc5	-0.096191406
7	0xbe27	-0.16308594
8	0xbe61	-0.21972656
9	0x3cdc	0.026855469
10	0xbe56	-0.20898438
11	0xbe7e	-0.24804688
12	0xbe25	-0.16113281
13	0xbe37	-0.17871094
14	0x3d4c	0.049804688
15	0x3e3f	0.18652344
16	0x3de6	0.11230469
17	0x3e06	0.13085938
18	0x3e86	0.26171875
19	0xbd80	-0.0625
20	0xbda2	-0.07910156
21	0xbd2c	-0.041992188
22	0x3d99	0.07470703
23	0xbe1d	-0.15332031
24	0x3d3f	0.04663086
25	0xbe40	-0.1875
26	0x3e37	0.17871094
27	0xbe8f	-0.27929688
28	0x3dfe	0.12402344
29	0x3d80	0.0625
30	0xbda1	-0.07861328
31	0xbe08	-0.1328125
32	0x3e57	0.20996094
33	0x3da8	0.08203125
34	0xbd81	-0.06298828
35	0xbd84	-0.064453125
36	0x3d18	0.037109375
37	0xbdbf	-0.09326172
38	0xbd35	-0.044189453
39	0xbe18	-0.1484375
40	0x3d2e	0.04248047
41	0xbe7f	-0.24902344
42	0xbda6	-0.08105469
43	0x3d15	0.036376953
44	0xbe33	-0.17480469
45	0x3d95	0.072753906
46	0x3d30	0.04296875
47	0x3e19	0.14941406
48	0xbe2e	-0.16992188
49	0x3dda	0.10644531
50	0x3e6e	0.23242188
51	0xbe91	-0.28320312
52	0x3d32	0.04345703
53	0x3e1b	0.15136719
54	0x3e45	0.19238281
55	0x3e2a	0.16601562
56	0x3d4c	0.049804688
57	0xbe36	-0.17773438
58	0x3e2f	0.17089844
59	0xbe6f	-0.23339844
60	0x3d11	0.03540039
61	0x3d22	0.03955078
62	0x3e75	0.23925781
63	0xbde2	-0.11035156
64	0xbdf9	-0.12158203
65	0x3dc1	0.09423828
66	0xbe51	-0.20410156
67	0x3e22	0.15820312
68	0x3e3c	0.18359375
69	0x3d19	0.037353516
70	0x3e14	0.14453125
71	0x3e32	0.17382812
72	0x3d5c	0.053710938
73	0x3e85	0.25976562
74	0xbe63	-0.22167969
75	0x3e24	0.16015625
76	0xbdd3	-0.103027344
77	0xbe53	-0.20605469
78	0xbc76	-0.015014648
79	0xbe58	-0.2109375
80	0x3e20	0.15625
81	0x3d9f	0.07763672
82	0xbd16	-0.036621094
83	0x3d35	0.044189453
84	0xbe42	-0.18945312
85	0x3e5d	0.21582031
86	0xbe50	-0.203125
87	0xbe19	-0.14941406
88	0x3e6f	0.23339844
89	0xbdc8	-0.09765625
90	0x3c17	0.009216309
91	0xbe85	-0.25976562
92	0xbe4f	-0.20214844
93	0xbd80	-0.0625
94	0xbe3f	-0.18652344
95	0xbd1e	-0.03857422
96	0x3e8e	0.27734375
97	0x3d02	0.03173828
98	0x3d45	0.048095703
99	0x3ded	0.115722656
100	0x3e82	0.25390625
101	0xbd69	-0.056884766
102	0xbe7d	-0.24707031
103	0xbe81	-0.25195312
104	0xbe65	-0.22363281
105	0x3db8	0.08984375
106	0x3e36	0.17773438
107	0x3e31	0.17285156
108	0xbde5	-0.111816406
109	0xbd36	-0.044433594
110	0x3d88	0.06640625
111	0xbdce	-0.10058594
112	0xbd11	-0.03540039
113	0x3d92	0.07128906
114	0xbe65	-0.22363281
115	0x3de0	0.109375
116	0xbd25	-0.040283203
117	0xbdc4	-0.095703125
118	0xbe18	-0.1484375
119	0xbe36	-0.17773438
120	0xbe74	-0.23828125
121	0x3e14	0.14453125
122	0xbd12	-0.03564453
123	0x3e57	0.20996094
124	0xbe74	-0.23828125
125	0xbe47	-0.19433594
126	0x3dac	0.083984375
127	0xbe39	-0.18066406
128	0x3e5c	0.21484375
129	0x3e47	0.19433594
130	0xbe92	-0.28515625
131	0x3e49	0.19628906
132	0xbe20	-0.15625
133	0x3e5f	0.21777344
134	0xbd1e	-0.03857422
135	0x3e00	0.125
136	0x3d21	0.03930664
137	0x3e6b	0.22949219
138	0x3d0f	0.03491211
139	0xbe68	-0.2265625
140	0x3e93	0.28710938
141	0xbd19	-0.037353516
142	0xbdc1	-0.09423828
143	0x3d82	0.06347656
144	0xbe57	-0.20996094
145	0x3d52	0.05126953
146	0x3d39	0.045166016
147	0x3d2a	0.041503906
148	0x3e78	0.2421875
149	0xbdb4	-0.087890625
150	0x3d1c	0.038085938
151	0x3dcd	0.100097656
152	0x3e25	0.16113281
153	0xbdfe	-0.12402344
154	0x3e79	0.24316406
155	0x3d4e	0.05029297
156	0xbe84	-0.2578125
157	0x3df4	0.119140625
158	0xbe36	-0.17773438
159	0x3d2e	0.04248047
160	0x3e0b	0.13574219
161	0xbd80	-0.0625
162	0xbd02	-0.03173828
163	0x3bca	0.006164551
164	0x3e89	0.26757812
165	0xbe30	-0.171875
166	0xbccb	-0.024780273
167	0xbe3d	-0.18457031
168	0x3c9c	0.019042969
169	0xbe1d	-0.15332031
170	0xbde4	-0.111328125
171	0x3e56	0.20898438
172	0x3e6f	0.23339844
173	0x3e57	0.20996094
174	0xbda5	-0.080566406
175	0x3d14	0.036132812
176	0xbe6c	-0.23046875
177	0x3e25	0.16113281
178	0x3e84	0.2578125
179	0xbdcf	-0.10107422
180	0x3d13	0.035888672
181	0xbcd6	-0.026123047
182	0xbe93	-0.28710938
183	0xbe43	-0.19042969
184	0xbe70	-0.234375
185	0x3e1b	0.15136719
186	0xbe3a	-0.18164062
187	0x3db6	0.08886719
188	0xbe03	-0.12792969
189	0xbe1e	-0.15429688
190	0xbdba	-0.09082031
191	0xbd26	-0.040527344
192	0x3e8f	0.27929688
193	0xbe6f	-0.23339844
194	0x3e3a	0.18164062
195	0x3e8f	0.27929688
196	0xbe12	-0.14257812
197	0xbe4d	-0.20019531
198	0x3dcd	0.100097656
199	0xbe46	-0.19335938
200	0xbdba	-0.09082031
201	0x3d90	0.0703125
202	0xbdd0	-0.1015625
203	0x3e60	0.21875
204	0x3e93	0.28710938
205	0xbddf	-0.10888672
206	0x3e8b	0.27148438
207	0xbd2f	-0.04272461
208	0xbe24	-0.16015625
209	0xbe3c	-0.18359375
210	0x3e86	0.26171875
211	0x3d1e	0.03857422
212	0xbe2e	-0.16992188
213	0x3d3f	0.04663086
214	0xbd39	-0.045166016
215	0xbe57	-0.20996094
216	0xbe03	-0.12792969
217	0x3e6a	0.22851562
218	0x3de3	0.110839844
219	0x3e55	0.20800781
220	0xbe29	-0.16503906
221	0x3e2f	0.17089844
222	0xbe91	-0.28320312
223	0x3db8	0.08984375
224	0x3e67	0.22558594
225	0x3b1e	0.0024108887
226	0xbdfb	-0.122558594
227	0x3d18	0.037109375
228	0x3df9	0.12158203
229	0xbd65	-0.055908203
230	0xbe14	-0.14453125
231	0x3df8	0.12109375
232	0x3e89	0.26757812
233	0x3e82	0.25390625
234	0x3da0	0.078125
235	0xbd31	-0.04321289
236	0x3d1b	0.037841797
237	0x3d0b	0.033935547
238	0xbe8e	-0.27734375
239	0xbdea	-0.11425781
240	0x3e3b	0.18261719
241	0x3d78	0.060546875
242	0x3dce	0.10058594
243	0x3e27	0.16308594
244	0xbe6f	-0.23339844
245	0xbe7a	-0.24414062
246	0x3db0	0.0859375
247	0xbcbf	-0.02331543
248	0x3e65	0.22363281
249	0xbe79	-0.24316406
250	0x3e46	0.19335938
251	0x3e90	0.28125
252	0xbd15	-0.036376953
253	0x3ddf	0.10888672
254	0xbe82	-0.25390625
255	0x3d08	0.033203125

layer_9.Uk bf16 [64, 8]
0	0x3df6	0.12011719
1	0xbca1	-0.01965332
2	0xbe3c	-0.18359375
3	0xbd88	-0.06640625
4	0xbd21	-0.03930664
5	0x3dee	0.11621094
6	0x3d1f	0.03881836
7	0xbe02	-0.12695312
8	0xbe0e	-0.13867188
9	0xbd2f	-0.04272461
10	0x3e3b	0.18261719
11	0x3df5	0.119628906
12	0x3d9f	0.07763672
13	0x3cf2	0.029541016
14	0xbe76	-0.24023438
15	0xbe13	-0.14355469
16	0xbe10	-0.140625
17	0xbe83	-0.25585938
18	0x3da4	0.080078125
19	0x3d96	0.07324219
20	0xbe91	-0.28320312
21	0x3d99	0.07470703
22	0xbde0	-0.109375
23	0xbe4c	-0.19921875
24	0xbe1e	-0.15429688
25	0xbdc7	-0.09716797
26	0x3e8c	0.2734375
27	0xbe87	-0.26367188
28	0x3d2b	0.041748047
29	0xbe72	-0.23632812
30	0xbda0	-0.078125
31	0x3df8	0.12109375
32	0x3e5c	0.21484375
33	0x3e2c	0.16796875
34	0xbe57	-0.20996094
35	0xbd3c	-0.045898438
36	0x3d77	0.060302734
37	0xbe0f	-0.13964844
38	0x3e82	0.25390625
39	0x3e89	0.26757812
40	0xbe40	-0.1875
41	0xbd12	-0.03564453
42	0xbd00	-0.03125
43	0x3e20	0.15625
44	0x3c3a	0.011352539
45	0x3e92	0.28515625
46	0xbd87	-0.06591797
47	0xbe2c	-0.16796875
48	0xbe47	-0.19433594
49	0x3e81	0.25195312
50	0x3ca3	0.019897461
51	0x3d8b	0.067871094
52	0xbe43	-0.19042969
53	0x3e5f	0.21777344
54	0x3e13	0.14355469
55	0x3e1d	0.15332031
56	0x3db9	0.09033203
57	0xbe57	-0.20996094
58	0xbdc8	-0.09765625
59	0x3d9e	0.07714844
60	0xbe39	-0.18066406
61	0xbe20	-0.15625
62	0x3e0d	0.13769531
63	0xbe2c	-0.16796875
64	0x3e90	0.28125
65	0xbd3b	-0.045654297
66	0x3dd5	0.104003906
67	0xbcd3	-0.025756836
68	0xbe38	-0.1796875
69	0x3d91	0.07080078
70	0xbe34	-0.17578125
71	0xbe8a	-0.26953125
72	0x3d33	0.043701172
73	0xbe06	-0.13085938
74	0xbe17	-0.14746094
75	0xbe18	-0.1484375
76	0xbe53	-0.20605469
77	0xbbb3	-0.0054626465
78	0x3e10	0.140625
79	0x3da2	0.07910156
80	0x3da7	0.08154297
81	0x3e93	0.28710938
82	0x3ccf	0.025268555
83	0xbe73	-0.23730469
84	0x3e84	0.2578125
85	0xbe40	-0.1875
86	0x3de5	0.111816406
87	0x3e36	0.17773438
88	0x3e6c	0.23046875
89	0x3e37	0.17871094
90	0xbe5a	-0.21289062
91	0xbe0e	-0.13867188
92	0x3e26	0.16210938
93	0x3e8a	0.26953125
94	0x3d8a	0.06738281
95	0x3dd5	0.104003906
96	0xbe56	-0.20898438
97	0x3e32	0.17382812
98	0xbe1f	-0.15527344
99	0x3e88	0.265625
100	0xbe8a	-0.26953125
101	0xbe58	-0.2109375
102	0xbd0f	-0.03491211
103	0xbcbe	-0.02319336
104	0x3ddd	0.107910156
105	0xbe73	-0.23730469
106	0x3d9d	0.076660156
107	0x3e53	0.20605469
108	0xbe23	-0.15917969
109	0xbd81	-0.06298828
110	0x3e78	0.2421875
111	0x3e6c	0.23046875
112	0x3e85	0.25976562
113	0x3d26	0.040527344
114	0x3e8a	0.26953125
115	0x3db2	0.08691406
116	0x3d86	0.06542969
117	0x3e85	0.25976562
118	0x3e93	0.28710938
119	0xbdb2	-0.08691406
120	0xbda4	-0.080078125
121	0xbe5d	-0.21582031
122	0x3e71	0.23535156
123	0xbde3	-0.110839844
124	0xbda6	-0.08105469
125	0xbe0a	-0.13476562
126	0xbe1c	-0.15234375
127	0xbd12	-0.03564453
128	0x3e74	0.23828125
129	0x3d0b	0.033935547
130	0xbd2a	-0.041503906
131	0xbe28	-0.1640625
132	0xbe50	-0.203125
133	0xbd80	-0.0625
134	0xbe4b	-0.19824219
135	0x3e90	0.28125
136	0xbe1b	-0.15136719
137	0x3e3f	0.18652344
138	0x3e41	0.18847656
139	0x3d0c	0.034179688
140	0x3d86	0.06542969
141	0x3ceb	0.028686523
142	0xbdc4	-0.095703125
143	0x3cd7	0.026245117
144	0x3c96	0.018310547
145	0xbe03	-0.12792969
146	0xbe3d	-0.18457031
147	0xbe52	-0.20507812
148	0x3e70	0.234375
149	0x3e0e	0.13867188
150	0x3cdc	0.026855469
151	0xbcbc	-0.022949219
152	0xbe66	-0.22460938
153	0xbe8c	-0.2734375
154	0xbe93	-0.28710938
155	0xbcc0	-0.0234375
156	0xbc1d	-0.0095825195
157	0xbddf	-0.10888672
158	0xbe25	-0.16113281
159	0xbd46	-0.048339844
160	0xbca8	-0.020507812
161	0xbd04	-0.032226562
162	0xbd1d	-0.038330078
163	0x3e7d	0.24707031
164	0xbde8	-0.11328125
165	0x3e46	0.19335938
166	0x3dca	0.09863281
167	0x3d85	0.064941406
168	0xbc42	-0.01184082
169	0x3d93	0.071777344
170	0x3e7e	0.24804688
171	0xbd8c	-0.068359375
172	0x3d22	0.03955078
173	0x3d65	0.055908203
174	0xbe87	-0.26367188
175	0x3dcf	0.10107422
176	0x3dd8	0.10546875
177	0xbe51	-0.20410156
178	0xbe8b	-0.27148438
179	0xbe46	-0.19335938
180	0x3e54	0.20703125
181	0x3e23	0.15917969
182	0xbe40	-0.1875
183	0x3e46	0.19335938
184	0xbd07	-0.032958984
185	0x3df1	0.11767578
186	0xbe78	-0.2421875
187	0xbe1d	-0.15332031
188	0xbe0f	-0.13964844
189	0x3db6	0.08886719
190	0x3d9c	0.076171875
191	0xbe06	-0.13085938
192	0xbe56	-0.20898438
193	0xbe91	-0.28320312
194	0xbe8d	-0.27539062
195	0x3e67	0.22558594
196	0xbe27	-0.16308594
197	0xbe68	-0.2265625
198	0xbe50	-0.203125
199	0xbd8b	-0.067871094
200	0xbe28	-0.1640625
201	0x3e4b	0.19824219
202	0xbe46	-0.19335938
203	0x3dd0	0.1015625
204	0x3e8b	0.27148438
205	0xbe79	-0.24316406
206	0xbe4f	-0.20214844
207	0x3e2c	0.16796875
208	0xbe51	-0.20410156
209	0xbd4e	-0.05029297
210	0xbe4f	-0.20214844
211	0xbe6d	-0.23144531
212	0x3e69	0.22753906
213	0xbe7b	-0.24511719
214	0xbd2c	-0.041992188
215	0x3dc9	0.09814453
216	0xbe8a	-0.26953125
217	0xbd08	-0.033203125
218	0x3cb4	0.021972656
219	0xbda9	-0.08251953
220	0x3e54	0.20703125
221	0x3d4b	0.049560547
222	0xbd60	-0.0546875
223	0xbd06	-0.032714844
224	0xbd57	-0.052490234
225	0xbe09	-0.13378906
226	0x3e90	0.28125
227	0x3d81	0.06298828
228	0x3e45	0.19238281
229	0xbddf	-0.10888672
230	0xbe5a	-0.21289062
231	0x3e06	0.13085938
232	0x3cb3	0.021850586
233	0x3e94	0.2890625
234	0xbe87	-0.26367188
235	0x3de8	0.11328125
236	0x3e75	0.23925781
237	0xbe56	-0.20898438
238	0xbe0f	-0.13964844
239	0x3e56	0.20898438
240	0xbe6a	-0.22851562
241	0x3e86	0.26171875
242	0xbdf9	-0.12158203
243	0xbe7f	-0.24902344
244	0x3e34	0.17578125
245	0x3e44	0.19140625
246	0xbdbe	-0.09277344
247	0x3d9a	0.07519531
248	0x3e90	0.28125
249	0x3d1e	0.03857422
250	0x3d73	0.059326172
251	0x3e08	0.1328125
252	0xbc0b	-0.008483887
253	0x3dd6	0.10449219
254	0xbe18	-0.1484375
255	0xbe3c	-0.18359375
