empty_dirs_for_codex/outputs/runs_fast_paper_core/fast_paper_sweep_core_v1/ablation_no_contr_loto_holdout_overwrite/checkpoints/repair_step_3000.pt (torch, 43513 bytes, 48 tensors)

layer_8.Wk bf16 [64, 8]
00000000: 4abe 87bd 82be eb3d 553e 39bd 93be ce3d
00000010: 1bbd 9b3d b0bd 61be 6fbe af3d bbbd 853e
00000020: 003d 303d 433e 8a3e d83d 793e 6d3e 923e
00000030: 76be f03d 07be 55be 273d 583e 803e 373c
00000040: f53d 263d 15bd 95bd 09be 3abe 87be 003d
00000050: 8b3e d73d e73c 7bbe 2bbd 8abe 09bd d7bd
00000060: 6b3e 3b3e 7cbe 273e 98bd 91be ccbd 123d
00000070: 223e 78bb 603e 84be 01be 93be 11bd 53be
00000080: 2b3e 333e f9bd 893e 4dbe 60be 7ebd 6c3d
00000090: 853e 49be 673e ee3d 10be 42be c43d 823c
000000a0: 6d3e b13c 88be babd e5bd 2abe 243d fb3d
000000b0: 38be 28bd 00be 393e 643e 743e 913e 0dbe
000000c0: 4fbe 543e 003e 783d 26be 6cbe bfbd 743e
000000d0: 15be 3cbe d53d 7b3e 223d 9e3d 403e aebd
000000e0: 85be 26bd 26be e93d 1bbe 8a3e 7e3c 6b3e
000000f0: 52be 7dbe 0dbe 92bd 613e 66be e4bd b03d
00000100: 10bd 02be 433e 27be 0c3e 8e3d 26be 803d
00000110: be3d 2a3b b7bd 103e febd 85bd 80bd 333d
00000120: 803d 783d 7bbe 3abe 993d 753e 41be a7bd
00000130: 3cbe 66be 83be af3d 083d 18be 903e a23c
00000140: 18bd 943e 53be c5bd 6cbe be3d 84bd 91be
00000150: 2d3d 613d 873e 073d 58be 293e 293e ef3d
00000160: f7bd 2f3e c3bd c93b c93d f8bd 833e 843e
00000170: 05bd 153d 1dbe 4a3e e7bd 803e 813d 693e
00000180: 183e 573e 9bbd 72bd 84be 2c3e 06bd 44be
00000190: afbd 82be 6f3e 043d 83bd 873b 30bd 373e
000001a0: 2dbe 6d3e 16be 423d 83bd f83c 04bd ef3d
000001b0: 30be 36be 3e3e 72be 5e3e 90be 80bd e83d
000001c0: 043e afbc 403d 8e3e 67be 81bd 3a3e 893e
000001d0: 83bd 853e ea3d 803d 5f3e 223e 84be ecbc
000001e0: 89be 40be 7b3d 4c3d 903e a1bd 6d3e 8b3e
000001f0: 1d3d 893e 16bd d63d 803d 303e db3d 57bd
-0.19726562 -0.06591797 -0.25390625 0.114746094 0.20800781 -0.045166016 -0.28710938 0.10058594
-0.037841797 0.075683594 -0.0859375 -0.21972656 -0.23339844 0.08544922 -0.091308594 0.25976562
0.03125 0.04296875 0.19042969 0.26953125 0.10546875 0.24316406 0.23144531 0.28515625
-0.24023438 0.1171875 -0.13183594 -0.20800781 0.040771484 0.2109375 0.25 0.011169434
0.119628906 0.040527344 -0.036376953 -0.072753906 -0.13378906 -0.18164062 -0.26367188 0.03125
0.27148438 0.10498047 0.028198242 -0.24511719 -0.041748047 -0.26953125 -0.033447266 -0.10498047
0.22949219 0.18261719 -0.24609375 0.16308594 -0.07421875 -0.28320312 -0.099609375 0.03564453
0.15820312 -0.0037841797 0.21875 -0.2578125 -0.12597656 -0.28710938 -0.03540039 -0.20605469
0.16699219 0.17480469 -0.12158203 0.26757812 -0.20019531 -0.21875 -0.06201172 0.057617188
0.25976562 -0.19628906 0.22558594 0.11621094 -0.140625 -0.18945312 0.095703125 0.01586914
0.23144531 0.021606445 -0.265625 -0.09082031 -0.111816406 -0.16601562 0.040039062 0.122558594
-0.1796875 -0.041015625 -0.125 0.18066406 0.22265625 0.23828125 0.28320312 -0.13769531
-0.20214844 0.20703125 0.125 0.060546875 -0.16210938 -0.23046875 -0.09326172 0.23828125
-0.14550781 -0.18359375 0.104003906 0.24511719 0.03955078 0.07714844 0.1875 -0.08496094
-0.25976562 -0.040527344 -0.16210938 0.11376953 -0.15136719 0.26953125 0.01550293 0.22949219
-0.20507812 -0.24707031 -0.13769531 -0.07128906 0.21972656 -0.22460938 -0.111328125 0.0859375
-0.03515625 -0.12695312 0.19042969 -0.16308594 0.13671875 0.06933594 -0.16210938 0.0625
0.09277344 0.0025939941 -0.08935547 0.140625 -0.12402344 -0.064941406 -0.0625 0.043701172
0.0625 0.060546875 -0.24511719 -0.18164062 0.07470703 0.23925781 -0.18847656 -0.08154297
-0.18359375 -0.22460938 -0.25585938 0.08544922 0.033203125 -0.1484375 0.28125 0.01977539
-0.037109375 0.2890625 -0.20605469 -0.096191406 -0.23046875 0.09277344 -0.064453125 -0.28320312
0.042236328 0.05493164 0.26367188 0.032958984 -0.2109375 0.16503906 0.16503906 0.11669922
-0.12060547 0.17089844 -0.095214844 0.006134033 0.09814453 -0.12109375 0.25585938 0.2578125
-0.032470703 0.036376953 -0.15332031 0.19726562 -0.11279297 0.25 0.06298828 0.22753906
0.1484375 0.20996094 -0.075683594 -0.05908203 -0.2578125 0.16796875 -0.032714844 -0.19140625
-0.08544922 -0.25390625 0.23339844 0.032226562 -0.063964844 0.004119873 -0.04296875 0.17871094
-0.16894531 0.23144531 -0.14648438 0.04736328 -0.063964844 0.030273438 -0.032226562 0.11669922
-0.171875 -0.17773438 0.18554688 -0.23632812 0.21679688 -0.28125 -0.0625 0.11328125
0.12890625 -0.021362305 0.046875 0.27734375 -0.22558594 -0.06298828 0.18164062 0.26757812
-0.063964844 0.25976562 0.11425781 0.0625 0.21777344 0.15820312 -0.2578125 -0.028808594
-0.26757812 -0.1875 0.061279297 0.049804688 0.28125 -0.07861328 0.23144531 0.27148438
0.038330078 0.26757812 -0.036621094 0.10449219 0.0625 0.171875 0.106933594 -0.052490234

layer_8.Uk bf16 [64, 8]
00000000: 86be 523e 05bd b2bb e0bc 08bd 0a3d 59be
00000010: 103d d73d 52be 8dbe 343d 9f3d a9bd 3abe
00000020: 253c 103e 2cbe 8abe 8f3e 8bbe 32bd 0b3e
00000030: 38be e73c eebb 213d 863d 0ebe 4a3e 213d
00000040: 923e 5e3d 12be efbc 8c3e 43be 003d 2abe
00000050: 16be 5f3e 823e 293e 47be 19be 79be c1bd
00000060: b23d 4f3e 02be 28be c73d 703e 09bd 553e
00000070: 7b3e 053d 893e 583e 9f3d 80be b8bd 12bd
00000080: fdbc 81be 613e 4a3e 1fbd 70be 41be 93be
00000090: d2bd 353e 61be 463e 42bd 18bd c4bd 4d3d
000000a0: cfbd 13be 20bc 70be cb3d 59be 623e 4e3e
000000b0: 11bd db3c 113c c53d 33bd 473d ee3c 40be
000000c0: e63d 6fbe 9fba 8b3e 94bc cf3c 083e 883e
000000d0: eb3d b5bd 483e 843c 543d 2f3e 43bd e13d
000000e0: 44bd 183e 543e 473d aebc 6bbe 21be 24bd
000000f0: 833e 3d3d d23d 26be 813d 4cbe 13be 87be
00000100: 483e 43be 2bbe 3e3e 5d3e 1d3e 7d3e 41be
00000110: 933d 13be 85be 24be d6bd 04bd 3fbd 11bd
00000120: 87be 623e 8c3e 223e 913e a2bd d6bc 7cbe
00000130: 01bd 58be 89be 1abd 08be 6abe 973c c13c
00000140: 863e d4bc 843d 703e 8abd 513e 8a3e f9bd
00000150: 70be 233e 11be 79be 86be 8b3e 8d3e 62be
00000160: 02be 9b3d 643c f6bc 52bd 8abd 53be d53b
00000170: 083d 893e 38bd f63d 463e 8ebe e23c 933e
00000180: cebd ab3d 4dbc 35bd 373e 6abc 40be 0f3e
00000190: babd aa3c 113e d6bd 63be 43be 8a3e cabd
000001a0: 2c3e 45be 513e 773e 34bc c4bd 3f3e ea3d
000001b0: d0bd 73be 383e 08be ed3d 8dbe 88be 2d3e
000001c0: bdbd 803e 053d 4c3e 28bd 853e 69be d1bd
000001d0: 27bd 79be f5bc 56be 943d 843d 89be 84be
000001e0: 91be 233d d43c 49bd 533e 87be db3d 5b3e
000001f0: 83be 6c3c 723e 043e 07bd 04bb 493e 953a
-0.26171875 0.20507812 -0.032470703 -0.005432129 -0.02734375 -0.033203125 0.033691406 -0.21191406
0.03515625 0.10498047 -0.20507812 -0.27539062 0.043945312 0.07763672 -0.08251953 -0.18164062
0.010070801 0.140625 -0.16796875 -0.26953125 0.27929688 -0.27148438 -0.04345703 0.13574219
-0.1796875 0.028198242 -0.0072631836 0.03930664 0.06542969 -0.13867188 0.19726562 0.03930664
0.28515625 0.05419922 -0.14257812 -0.029174805 0.2734375 -0.19042969 0.03125 -0.16601562
-0.14648438 0.21777344 0.25390625 0.16503906 -0.19433594 -0.14941406 -0.24316406 -0.09423828
0.08691406 0.20214844 -0.12695312 -0.1640625 0.09716797 0.234375 -0.033447266 0.20800781
0.24511719 0.032470703 0.26757812 0.2109375 0.07763672 -0.25 -0.08984375 -0.03564453
-0.030883789 -0.25195312 0.21972656 0.19726562 -0.03881836 -0.234375 -0.18847656 -0.28710938
-0.10253906 0.17675781 -0.21972656 0.19335938 -0.04736328 -0.037109375 -0.095703125 0.050048828
-0.10107422 -0.14355469 -0.009765625 -0.234375 0.099121094 -0.21191406 0.22070312 0.20117188
-0.03540039 0.026733398 0.008850098 0.096191406 -0.043701172 0.048583984 0.029052734 -0.1875
0.11230469 -0.23339844 -0.0012130737 0.27148438 -0.018066406 0.025268555 0.1328125 0.265625
0.114746094 -0.088378906 0.1953125 0.016113281 0.051757812 0.17089844 -0.047607422 0.10986328
-0.047851562 0.1484375 0.20703125 0.048583984 -0.021240234 -0.22949219 -0.15722656 -0.040039062
0.25585938 0.046142578 0.10253906 -0.16210938 0.06298828 -0.19921875 -0.14355469 -0.26367188
0.1953125 -0.19042969 -0.16699219 0.18554688 0.21582031 0.15332031 0.24707031 -0.18847656
0.071777344 -0.14355469 -0.25976562 -0.16015625 -0.10449219 -0.032226562 -0.04663086 -0.03540039
-0.26367188 0.22070312 0.2734375 0.15820312 0.28320312 -0.07910156 -0.026123047 -0.24609375
-0.03149414 -0.2109375 -0.26757812 -0.037597656 -0.1328125 -0.22851562 0.018432617 0.02355957
0.26171875 -0.025878906 0.064453125 0.234375 -0.06738281 0.20410156 0.26953125 -0.12158203
-0.234375 0.15917969 -0.14160156 -0.24316406 -0.26171875 0.27148438 0.27539062 -0.22070312
-0.12695312 0.075683594 0.013916016 -0.030029297 -0.05126953 -0.06738281 -0.20605469 0.006500244
0.033203125 0.26757812 -0.044921875 0.12011719 0.19335938 -0.27734375 0.02758789 0.28710938
-0.10058594 0.083496094 -0.012512207 -0.044189453 0.17871094 -0.014282227 -0.1875 0.13964844
-0.09082031 0.020751953 0.14160156 -0.10449219 -0.22167969 -0.19042969 0.26953125 -0.09863281
0.16796875 -0.19238281 0.20410156 0.24121094 -0.010986328 -0.095703125 0.18652344 0.11425781
-0.1015625 -0.23730469 0.1796875 -0.1328125 0.115722656 -0.27539062 -0.265625 0.16894531
-0.092285156 0.25 0.032470703 0.19921875 -0.041015625 0.25976562 -0.22753906 -0.10205078
-0.040771484 -0.24316406 -0.029907227 -0.20898438 0.072265625 0.064453125 -0.26757812 -0.2578125
-0.28320312 0.039794922 0.025878906 -0.049072266 0.20605469 -0.26367188 0.106933594 0.21386719
-0.25585938 0.014404297 0.23632812 0.12890625 -0.032958984 -0.0020141602 0.19628906 0.0011367798

layer_8.Wv bf16 [64, 8]
00000000: 12bd 893e d1bd 7ebe 9fbd d73d 0e3e 853e
00000010: 8c3d 293e 8dbb a6bd 6dbb 823e 723d bc3d
00000020: 8fbc 22be e8bc cabd 8e3e ebbb 733d 813e
00000030: b9bd 173e 14be 16be 123e 803c 4d3e 2d3d
00000040: 9d3c 573e bdbc 2cbe 7a3e cbbd 7fbe 863e
00000050: 71be a3bd 6b3e 46be 5e3e 893e 1b3e 043d
00000060: 94bd 4f3e 55be 913b 81be e3bd f43c a7bd
00000070: e63d e7bd 63be 6e3e a33d 44bd a0bc 52be
00000080: 0ebd 6a3e 19be 75be fa3d 33be 09be 903e
00000090: 86be 2cbe 223e 8c3b b93d 803e 053c 60be
000000a0: 073d 8bbe 093d 8f3b 37be 2f3e ac3d 8e3c
000000b0: 353e 2e3e d53d 863d de3c 183d 223e 45be
000000c0: a13d 7f3e 953d c7bd 293e 7abc 05be 56be
000000d0: d53d f33b 91be 353e 723e f5bd 5ebe 12bd
000000e0: b5bd 603d 70be 76be 08be 63be b23d 713e
000000f0: fd3c 0c3e 913d c2bd 3cbe bc3d 99bc 85be
00000100: 903e 54be 133e 3f3d 7f3e e7bd a43d 60be
00000110: 64be 24bc 893e acbb 73bc 243e edbc 043d
00000120: 18be 2abe 903e 34be 7bbe c33d 803c 9e3d
00000130: 55be 263e 1d3e b5bd 17be e13d b13d 1cbe
00000140: d7bc 743d 12be b83c 8c3d 273e 62be 5d3e
00000150: 74bb a7bc e83d d93c 84be 82be 47bd 8f3e
00000160: 66be 8b3e 05be 253e 303d 76be 603e 55be
00000170: 8fbd 91bd 703e 6dbe 89be 143d b1bd 36be
00000180: 3fbe 86be 753e 68be bc3d 213e dd3c b63d
00000190: f53d 87be 543e 893d 8b3e 18be 13be 843e
000001a0: 93be 31be 4c3e f43d 57be 2ebe 583e e33d
000001b0: 8bbd 6ebe 85be 613e 9d3c 1b3e aabc 8e3e
000001c0: c13d 8c3d 283e 1ebe 93be 4d3e 973d 803c
000001d0: 2d3d 69bd a3bd 60be 463d 793c 5e3e 29be
000001e0: db3d 8fbe 8abe 223e 3c3e 39bc 433d 8d3e
000001f0: 6ebe 83bd 5ebe 65bd 0fbe da3d e03d babb
-0.03564453 0.26757812 -0.10205078 -0.24804688 -0.07763672 0.10498047 0.13867188 0.25976562
0.068359375 0.16503906 -0.0043029785 -0.08105469 -0.003616333 0.25390625 0.05908203 0.091796875
-0.017456055 -0.15820312 -0.028320312 -0.09863281 0.27734375 -0.007171631 0.059326172 0.25195312
-0.09033203 0.14746094 -0.14453125 -0.14648438 0.14257812 0.015625 0.20019531 0.042236328
0.019165039 0.20996094 -0.023071289 -0.16796875 0.24414062 -0.099121094 -0.24902344 0.26171875
-0.23535156 -0.079589844 0.22949219 -0.19335938 0.21679688 0.26757812 0.15136719 0.032226562
-0.072265625 0.20214844 -0.20800781 0.004425049 -0.25195312 -0.110839844 0.029785156 -0.08154297
0.11230469 -0.11279297 -0.22167969 0.23242188 0.079589844 -0.047851562 -0.01953125 -0.20507812
-0.03466797 0.22851562 -0.14941406 -0.23925781 0.12207031 -0.17480469 -0.13378906 0.28125
-0.26171875 -0.16796875 0.15820312 0.004272461 0.09033203 0.25 0.008117676 -0.21875
0.032958984 -0.27148438 0.033447266 0.0043640137 -0.17871094 0.17089844 0.083984375 0.017333984
0.17675781 0.16992188 0.104003906 0.06542969 0.02709961 0.037109375 0.15820312 -0.19238281
0.07861328 0.24902344 0.072753906 -0.09716797 0.16503906 -0.015258789 -0.12988281 -0.20898438
0.104003906 0.0074157715 -0.28320312 0.17675781 0.23632812 -0.119628906 -0.21679688 -0.03564453
-0.088378906 0.0546875 -0.234375 -0.24023438 -0.1328125 -0.22167969 0.08691406 0.23535156
0.030883789 0.13671875 0.07080078 -0.09472656 -0.18359375 0.091796875 -0.018676758 -0.25976562
0.28125 -0.20703125 0.14355469 0.04663086 0.24902344 -0.11279297 0.080078125 -0.21875
-0.22265625 -0.010009766 0.26757812 -0.0052490234 -0.014831543 0.16015625 -0.028930664 0.032226562
-0.1484375 -0.16601562 0.28125 -0.17578125 -0.24511719 0.095214844 0.015625 0.07714844
-0.20800781 0.16210938 0.15332031 -0.088378906 -0.14746094 0.10986328 0.08642578 -0.15234375
-0.026245117 0.059570312 -0.14257812 0.022460938 0.068359375 0.16308594 -0.22070312 0.21582031
-0.0037231445 -0.020385742 0.11328125 0.026489258 -0.2578125 -0.25390625 -0.048583984 0.27929688
-0.22460938 0.27148438 -0.12988281 0.16113281 0.04296875 -0.24023438 0.21875 -0.20800781
-0.06982422 -0.07080078 0.234375 -0.23144531 -0.26757812 0.036132812 -0.08642578 -0.17773438
-0.18652344 -0.26171875 0.23925781 -0.2265625 0.091796875 0.15722656 0.026977539 0.08886719
0.119628906 -0.26367188 0.20703125 0.06689453 0.27148438 -0.1484375 -0.14355469 0.2578125
-0.28710938 -0.17285156 0.19921875 0.119140625 -0.20996094 -0.16992188 0.2109375 0.110839844
-0.067871094 -0.23242188 -0.25976562 0.21972656 0.019165039 0.15136719 -0.020751953 0.27734375
0.09423828 0.068359375 0.1640625 -0.15429688 -0.28710938 0.20019531 0.07373047 0.015625
0.042236328 -0.056884766 -0.079589844 -0.21875 0.048339844 0.015197754 0.21679688 -0.16503906
0.106933594 -0.27929688 -0.26953125 0.15820312 0.18359375 -0.011291504 0.047607422 0.27539062
-0.23242188 -0.063964844 -0.21679688 -0.055908203 -0.13964844 0.10644531 0.109375 -0.0056762695

layer_8.Uv bf16 [64, 8]
00000000: b9bd d23d e7bd 6ebe 97bd 90be 91be 4c3d
00000010: 95bc 033e 803e e0bd 373e 553e 65be 663e
00000020: 853e 053c efbd 1b3e 463e 1a3e a63c 663c
00000030: 80bd 203e a33c 13be 5bbe 893d 0c3d 8a3e
00000040: cf3c 943e eabd 50be 2ebd d7bd 26bd b5bd
00000050: 873e 033e 323d af3b 8d3e 033e 97bd 8dbe
00000060: 8dbe dfbd 1f3d 373d 0c3e 063e febd 0f3e
00000070: 213e 9d3d 6e3e 55be 2d3d 68bd 853e 67be
00000080: c63d 54be 47be 86be 523d 873e 15be 93bc
00000090: 71be 55be e93d 2dbd 2cbd 27be 383e 62be
000000a0: 08be 403e 023e 88be 90be 2bbe 8ebe 4f3e
000000b0: 10be df3d 70be 923d 8a3e 3f3e 843e 65bd
000000c0: 22bd 75be f6bd 34be 80bc 473b 93bd f4bd
000000d0: 903e e83c 86be cfbd 233e 8bbe 8a3e c8bc
000000e0: e33d 87bd 40be 1f3e b33d 1fbe f93d 1bbe
000000f0: 59be 92be 5a3e 6f3e 4c3e 4c3e 873e be3c
00000100: 89be 3bbe 303e 6abe 1ebd 06bd 0bbd 86be
00000110: 753e 13bd 4bbd d5bd 3fbd 2fbd 26be 753e
00000120: 553d b13c 51be 923e bdbd 3d3e 22be 0cbd
00000130: 0dbc f03c ebbc 85bd 2bbe bdbd 62be 663e
00000140: e5bd edbb 78be 5bbe 41be e13d 8a3e c43c
00000150: 643e 89be 93be de3d 22be 18be 6a3e c8bc
00000160: 3d3e d6bd 133d 8e3e 2fbc 293e 853e 6d3e
00000170: 773e 16be d93d a5bc 07be 25be 013e 143e
00000180: 2b3d 783e be3d 703e 183e 36bd d4bd 76be
00000190: 943e a6bd ed3d 273e 4dbe 0f3e 353e 19be
000001a0: e0bd 353d 7b3e 883e 22bd 0ebe 0c3e 10bd
000001b0: 3a3d 70be 763c 9b3d d0bd 393d 703e 88be
000001c0: 843e 3dbe 83be 4b3d 8d3e 4ebe 88be 703e
000001d0: 0abe 80be 84be a6bd 8fbe 81be f73d 30bd
000001e0: b43d 1b3e 6d3d 783e 26be 3e3e e1bc 673e
000001f0: 353e 5cbe 24be bbbd 053d 293e f33d 3e3e
-0.09033203 0.10253906 -0.11279297 -0.23242188 -0.07373047 -0.28125 -0.28320312 0.049804688
-0.018188477 0.12792969 0.25 -0.109375 0.17871094 0.20800781 -0.22363281 0.22460938
0.25976562 0.008117676 -0.11669922 0.15136719 0.19335938 0.15039062 0.020263672 0.014038086
-0.0625 0.15625 0.019897461 -0.14355469 -0.21386719 0.06689453 0.034179688 0.26953125
0.025268555 0.2890625 -0.11425781 -0.203125 -0.04248047 -0.10498047 -0.040527344 -0.088378906
0.26367188 0.12792969 0.04345703 0.005340576 0.27539062 0.12792969 -0.07373047 -0.27539062
-0.27539062 -0.10888672 0.03881836 0.044677734 0.13671875 0.13085938 -0.12402344 0.13964844
0.15722656 0.076660156 0.23242188 -0.20800781 0.042236328 -0.056640625 0.25976562 -0.22558594
0.09667969 -0.20703125 -0.19433594 -0.26171875 0.05126953 0.26367188 -0.14550781 -0.017944336
-0.23535156 -0.20800781 0.11376953 -0.042236328 -0.041992188 -0.16308594 0.1796875 -0.22070312
-0.1328125 0.1875 0.12695312 -0.265625 -0.28125 -0.16699219 -0.27734375 0.20214844
-0.140625 0.10888672 -0.234375 0.07128906 0.26953125 0.18652344 0.2578125 -0.055908203
-0.03955078 -0.23925781 -0.12011719 -0.17578125 -0.015625 0.003036499 -0.071777344 -0.119140625
0.28125 0.028320312 -0.26171875 -0.10107422 0.15917969 -0.27148438 0.26953125 -0.024414062
0.110839844 -0.06591797 -0.1875 0.15527344 0.087402344 -0.15527344 0.12158203 -0.15136719
-0.21191406 -0.28515625 0.21289062 0.23339844 0.19921875 0.19921875 0.26367188 0.02319336
-0.26757812 -0.18261719 0.171875 -0.22851562 -0.03857422 -0.032714844 -0.033935547 -0.26171875
0.23925781 -0.035888672 -0.049560547 -0.104003906 -0.04663086 -0.04272461 -0.16210938 0.23925781
0.052001953 0.021606445 -0.20410156 0.28515625 -0.092285156 0.18457031 -0.15820312 -0.034179688
-0.008605957 0.029296875 -0.028686523 -0.064941406 -0.16699219 -0.092285156 -0.22070312 0.22460938
-0.111816406 -0.007232666 -0.2421875 -0.21386719 -0.18847656 0.10986328 0.26953125 0.023925781
0.22265625 -0.26757812 -0.28710938 0.10839844 -0.15820312 -0.1484375 0.22851562 -0.024414062
0.18457031 -0.10449219 0.035888672 0.27734375 -0.010681152 0.16503906 0.25976562 0.23144531
0.24121094 -0.14648438 0.10595703 -0.020141602 -0.13183594 -0.16113281 0.12597656 0.14453125
0.041748047 0.2421875 0.09277344 0.234375 0.1484375 -0.044433594 -0.103515625 -0.24023438
0.2890625 -0.08105469 0.115722656 0.16308594 -0.20019531 0.13964844 0.17675781 -0.14941406
-0.109375 0.044189453 0.24511719 0.265625 -0.03955078 -0.13867188 0.13671875 -0.03515625
0.045410156 -0.234375 0.015014648 0.075683594 -0.1015625 0.045166016 0.234375 -0.265625
0.2578125 -0.18457031 -0.25585938 0.049560547 0.27539062 -0.20117188 -0.265625 0.234375
-0.13476562 -0.25 -0.2578125 -0.08105469 -0.27929688 -0.25195312 0.12060547 -0.04296875
0.087890625 0.15136719 0.057861328 0.2421875 -0.16210938 0.18554688 -0.02746582 0.22558594
0.17675781 -0.21484375 -0.16015625 -0.091308594 0.032470703 0.16503906 0.118652344 0.18554688

layer_8.gate_k.net.0.weight bf16 [8, 64]
00000000: f1bd d33b 80bd 66bd e2bd 503d e5bd 14bd
00000010: 623d 013d 913d 6f3d 8d3d a43d 80bd 3b3d
00000020: 18bd 013d 86bd 2f3d 20bd 54bd 80bd ec3c
00000030: ef3d 7b3d 0fbd 3abd 923d b2bd 25bd 2cbd
00000040: 943d 80bd 603d 353d b03d 02bd ea3d d9bd
00000050: 2dbd ffbd 133d 5bbd 62bd 803d 33bd debd
00000060: c53d 9e3d 813d cc3d 6e3d 883d d43d 583d
00000070: c8bd 80bd 43bd 08bd 013d 953d 633d bdbd
00000080: 113d 173d 9c3d 80bd 0cbd 80bd 40bd 24bd
00000090: fabd e43d 873d 0e3d a0bd 81bd 923d bbbd
000000a0: 803d 213d a5bd 80bd c1bd ed3d 893d edbd
000000b0: 8fbd 2d3d 3dbd 80bd cfbd 89bd 5f3d c3bd
000000c0: 153d 1a3d 853d 0ebd 773d 803d 6c3d 1ebd
000000d0: c33d fb3d 753d 80bd dfbd fdbd 2dbd 48bd
000000e0: 19bd 3cbd f23d f33d 77bc 143d 243d 263d
000000f0: f1bd 2abd f53d cebd 003d 573d d0bd d7bd
00000100: bf3d 2fbd 953d 1b3d 02bd abbd eebc a93d
00000110: 593d 2dbd f83b c43d e0bd a43d 18bd 21bd
00000120: 553d d5bd 013d f53d 363d 3dbd 09bd cb3d
00000130: 0c3d ae3d a5bd 453d 973c 27bc ee3d 8e3d
00000140: b03d 6a3d 3a3d fb3c e2bd d8bd 9fbd a6bd
00000150: 803d 2b3d 18bd c3bd fc3d c03d 703d fd3d
00000160: 88bd 92bd 96bd 003d e2bd cb3d 4c3c 453d
00000170: 8dbd 023d 1c3d 09bd f23d 74bd 2e3d aebd
00000180: babc 10bd 7d3d b33d 00bd d5bc 0c3d c93d
00000190: 20bd b93d 4abd d33d ff3d ad3d 933d 183d
000001a0: 7ebd f13c 4b3d 0ebd 8d3c 963d edbd e9bd
000001b0: 96bd c1bc 4e3a 183d 08bd a8bd 403d ad3d
000001c0: 9abd df3d 00bd fc3d ebbd f5bd 023d efbd
000001d0: d2bd 823d 633d e9bd b73d 43bc be3d 96bd
000001e0: f3bd aabd 023d 00be f9bc 80bd 1ebd 1cbd
000001f0: a4bc fabd 843d 9dbd 9b3d eb3d 31bd 00bd
-0.11767578 0.006439209 -0.0625 -0.056152344 -0.11035156 0.05078125 -0.111816406 -0.036132812
0.05517578 0.03149414 0.07080078 0.05834961 0.068847656 0.080078125 -0.0625 0.045654297
-0.037109375 0.03149414 -0.06542969 0.04272461 -0.0390625 -0.051757812 -0.0625 0.028808594
0.11669922 0.061279297 -0.03491211 -0.045410156 0.07128906 -0.08691406 -0.040283203 -0.041992188
0.072265625 -0.0625 0.0546875 0.044189453 0.0859375 -0.03173828 0.11425781 -0.10595703
-0.042236328 -0.12451172 0.035888672 -0.053466797 -0.05517578 0.0625 -0.043701172 -0.10839844
0.096191406 0.07714844 0.06298828 0.099609375 0.05810547 0.06640625 0.103515625 0.052734375
-0.09765625 -0.0625 -0.047607422 -0.033203125 0.03149414 0.072753906 0.055419922 -0.092285156
0.03540039 0.036865234 0.076171875 -0.0625 -0.034179688 -0.0625 -0.046875 -0.040039062
-0.12207031 0.111328125 0.06591797 0.03466797 -0.078125 -0.06298828 0.07128906 -0.091308594
0.0625 0.03930664 -0.080566406 -0.0625 -0.09423828 0.115722656 0.06689453 -0.115722656
-0.06982422 0.042236328 -0.046142578 -0.0625 -0.10107422 -0.06689453 0.05444336 -0.095214844
0.036376953 0.037597656 0.064941406 -0.03466797 0.060302734 0.0625 0.057617188 -0.03857422
0.095214844 0.122558594 0.059814453 -0.0625 -0.10888672 -0.123535156 -0.042236328 -0.048828125
-0.037353516 -0.045898438 0.11816406 0.118652344 -0.015075684 0.036132812 0.040039062 0.040527344
-0.11767578 -0.041503906 0.119628906 -0.10058594 0.03125 0.052490234 -0.1015625 -0.10498047
0.09326172 -0.04272461 0.072753906 0.037841797 -0.03173828 -0.083496094 -0.029052734 0.08251953
0.052978516 -0.042236328 0.0075683594 0.095703125 -0.109375 0.080078125 -0.037109375 -0.03930664
0.052001953 -0.104003906 0.03149414 0.119628906 0.044433594 -0.046142578 -0.033447266 0.099121094
0.034179688 0.08496094 -0.080566406 0.048095703 0.018432617 -0.010192871 0.11621094 0.06933594
0.0859375 0.057128906 0.045410156 0.030639648 -0.11035156 -0.10546875 -0.07763672 -0.08105469
0.0625 0.041748047 -0.037109375 -0.095214844 0.123046875 0.09375 0.05859375 0.123535156
-0.06640625 -0.07128906 -0.07324219 0.03125 -0.11035156 0.099121094 0.012451172 0.048095703
-0.068847656 0.03173828 0.038085938 -0.033447266 0.11816406 -0.059570312 0.04248047 -0.08496094
-0.022705078 -0.03515625 0.061767578 0.087402344 -0.03125 -0.026000977 0.034179688 0.09814453
-0.0390625 0.09033203 -0.049316406 0.103027344 0.12451172 0.084472656 0.071777344 0.037109375
-0.06201172 0.029418945 0.049560547 -0.03466797 0.017211914 0.07324219 -0.115722656 -0.11376953
-0.07324219 -0.02355957 0.00078582764 0.037109375 -0.033203125 -0.08203125 0.046875 0.084472656
-0.07519531 0.10888672 -0.03125 0.123046875 -0.114746094 -0.119628906 0.03173828 -0.11669922
-0.10253906 0.06347656 0.055419922 -0.11376953 0.08935547 -0.0119018555 0.09277344 -0.07324219
-0.118652344 -0.08300781 0.03173828 -0.125 -0.030395508 -0.0625 -0.03857422 -0.038085938
-0.020019531 -0.12207031 0.064453125 -0.076660156 0.075683594 0.114746094 -0.04321289 -0.03125

layer_8.gate_k.net.0.bias bf16 [8]
00000000: d53d 953d babd 09bd 883d 1cbd 81bd f93d
0.104003906 0.072753906 -0.09082031 -0.033447266 0.06640625 -0.038085938 -0.06298828 0.12158203

layer_8.gate_k.net.2.weight bf16 [8, 8]
00000000: 7ebe 93be eb3d 193e 06bd 11bd 183e 803e
00000010: 2fbe e33d 05be 3bbe 3cbe 87be 993e f6bd
00000020: ccbd 80bd 6cbe 6b3e e2bd 403e d23d b4be
00000030: a6be b0be a23e a53e f83d 16be ee3d 89be
00000040: 51bd 80bd 783e e43c 1ebd 38bd ae3e 7dbe
00000050: 243e a3be 853d 98be 303e a23e 2ebe a23e
00000060: a2be 2d3e 783d a6bd 74bd 113e 84bd afbe
00000070: 03be 9a3e 9cbe f4bd 153e 843e 88be 7bbe
-0.24804688 -0.28710938 0.114746094 0.14941406 -0.032714844 -0.03540039 0.1484375 0.25
-0.17089844 0.110839844 -0.12988281 -0.18261719 -0.18359375 -0.26367188 0.29882812 -0.12011719
-0.099609375 -0.0625 -0.23046875 0.22949219 -0.11035156 0.1875 0.10253906 -0.3515625
-0.32421875 -0.34375 0.31640625 0.32226562 0.12109375 -0.14648438 0.11621094 -0.26757812
-0.05102539 -0.0625 0.2421875 0.027832031 -0.03857422 -0.044921875 0.33984375 -0.24707031
0.16015625 -0.31835938 0.064941406 -0.296875 0.171875 0.31640625 -0.16992188 0.31640625
-0.31640625 0.16894531 0.060546875 -0.08105469 -0.059570312 0.14160156 -0.064453125 -0.34179688
-0.12792969 0.30078125 -0.3046875 -0.119140625 0.14550781 0.2578125 -0.265625 -0.24511719

layer_8.gate_k.net.2.bias bf16 [8]
00000000: 5a3e 763e 6b3e 503e 9abe ef3d 80bd 38bd
0.21289062 0.24023438 0.22949219 0.203125 -0.30078125 0.11669922 -0.0625 -0.044921875

layer_8.gate_v.net.0.weight bf16 [8, 64]
00000000: 45bd f63d 163d acbd 763d 1d3d 9ebd 5ebd
00000010: 9fbd 82bb f9bc 04bd 1dbc 8dbd febd d8bc
00000020: f03d c1bd 0e3d 83bd f63c 1a3d 76bd d0bd
00000030: bcbc 86bc b93d 6c3d 943d 9fbd f2bd 96bd
00000040: d3bd a0bb 3ebd 00bd 1abd 1cbd a7bc fd3d
00000050: 0bbd d03d df3d 823d 1e3c 063d a5bd 033c
00000060: 51bd babd d4bd 70bd 003d 453c 733c 093d
00000070: f23c ab3d b83c 163d 633c 45bd aabd 20bd
00000080: f5bd 043d c2bd 2dbd 53bd e23d ccbd 22bd
00000090: 513d f83c cf3d cf3c 973d 96bd 9d3d 8d3c
000000a0: 36bd 6abd 233d 8d3d b9bd bfbd 523d e0bd
000000b0: e7bd b93d 2e3d f53c 23bc 423d b0bd d33d
000000c0: 99bc f83c f2bd 61bc 9cbd 863d fabd de3d
000000d0: 0ebd 3dbd 21bd d0bd 143d c93d 0ebd 85bc
000000e0: d2bd 273d bf3d c93d 263d 6c3d bbbd 54bd
000000f0: f33d 053d 623d bbbd cdbd cd3d 66bd 8fbd
00000100: 5c3b e8bc 773d a53d e93d 15bd 2abd c8bd
00000110: 84bd 3abc 82bd 2bbc 90bb 963d e3bd 8dbc
00000120: 49bd 6c3c 8abd fcbd 7bbc 6cba d93d aebd
00000130: dfbc d03d f73d fb3c 80bd 993d c4bd d4bd
00000140: 1dbc 96bd 3c3d 2cbd bebd 3bbd a3bd b3bd
00000150: 8a3d 95bc 50bd f6bd c53d 96bd ca3d d0bd
00000160: 61bd ed3d 6e3d a1bd a4bd 86bd 713d 863d
00000170: 3fbd d6bd a5bd a23d d93c 5a3d 823d a1bd
00000180: bdbd b6bd fb3d ed3c 15bb fdbd 7bbc edbd
00000190: a5bd 583c dfbd 433d b93d 71bd bb3d c43d
000001a0: ecbd 32bc 44bc e4bc 8e3d 8dbd a9bd 843b
000001b0: 8e3c 8cbd 80bd eebd 963d 87bd 333d d6bd
000001c0: a3bd d6bc fe3d 4f3c e4bc d0bc eb36 eabc
000001d0: ca3d c63b 853d e63a c33d 9bbd 8cbd 4fbd
000001e0: 42bd d8bc 563d b6bd b3bd 9e3d 823d 103d
000001f0: 783d aebc 33bd b5bc 0cbd 4fbd 9fbd f23c
-0.048095703 0.12011719 0.036621094 -0.083984375 0.060058594 0.038330078 -0.07714844 -0.05419922
-0.07763672 -0.003967285 -0.030395508 -0.032226562 -0.0095825195 -0.068847656 -0.12402344 -0.026367188
0.1171875 -0.09423828 0.03466797 -0.063964844 0.030029297 0.037597656 -0.060058594 -0.1015625
-0.022949219 -0.016357422 0.09033203 0.057617188 0.072265625 -0.07763672 -0.11816406 -0.07324219
-0.103027344 -0.0048828125 -0.04638672 -0.03125 -0.037597656 -0.038085938 -0.020385742 0.123535156
-0.033935547 0.1015625 0.10888672 0.06347656 0.009643555 0.032714844 -0.080566406 0.0079956055
-0.05102539 -0.09082031 -0.103515625 -0.05859375 0.03125 0.012023926 0.014831543 0.033447266
0.029541016 0.083496094 0.022460938 0.036621094 0.0138549805 -0.048095703 -0.08300781 -0.0390625
-0.119628906 0.032226562 -0.09472656 -0.042236328 -0.051513672 0.11035156 -0.099609375 -0.03955078
0.05102539 0.030273438 0.10107422 0.025268555 0.07373047 -0.07324219 0.076660156 0.017211914
-0.044433594 -0.057128906 0.039794922 0.068847656 -0.09033203 -0.09326172 0.05126953 -0.109375
-0.11279297 0.09033203 0.04248047 0.029907227 -0.0099487305 0.04736328 -0.0859375 0.103027344
-0.018676758 0.030273438 -0.11816406 -0.01373291 -0.076171875 0.06542969 -0.12207031 0.10839844
-0.03466797 -0.046142578 -0.03930664 -0.1015625 0.036132812 0.09814453 -0.03466797 -0.016235352
-0.10253906 0.040771484 0.09326172 0.09814453 0.040527344 0.057617188 -0.091308594 -0.051757812
0.118652344 0.032470703 0.05517578 -0.091308594 -0.100097656 0.100097656 -0.056152344 -0.06982422
0.0033569336 -0.028320312 0.060302734 0.080566406 0.11376953 -0.036376953 -0.041503906 -0.09765625
-0.064453125 -0.011352539 -0.06347656 -0.010437012 -0.0043945312 0.07324219 -0.110839844 -0.017211914
-0.049072266 0.014404297 -0.06738281 -0.123046875 -0.015319824 -0.00090026855 0.10595703 -0.08496094
-0.02722168 0.1015625 0.12060547 0.030639648 -0.0625 0.07470703 -0.095703125 -0.103515625
-0.0095825195 -0.07324219 0.045898438 -0.041992188 -0.09277344 -0.045654297 -0.079589844 -0.087402344
0.06738281 -0.018188477 -0.05078125 -0.12011719 0.096191406 -0.07324219 0.09863281 -0.1015625
-0.05493164 0.115722656 0.05810547 -0.07861328 -0.080078125 -0.06542969 0.05883789 0.06542969
-0.04663086 -0.10449219 -0.080566406 0.07910156 0.026489258 0.053222656 0.06347656 -0.07861328
-0.092285156 -0.08886719 0.122558594 0.028930664 -0.0022735596 -0.123535156 -0.015319824 -0.115722656
-0.080566406 0.013183594 -0.10888672 0.047607422 0.09033203 -0.05883789 0.091308594 0.095703125
-0.115234375 -0.010864258 -0.011962891 -0.027832031 0.06933594 -0.068847656 -0.08251953 0.0040283203
0.017333984 -0.068359375 -0.0625 -0.11621094 0.07324219 -0.06591797 0.043701172 -0.10449219
-0.079589844 -0.026123047 0.12402344 0.012634277 -0.027832031 -0.025390625 7.0035458e-06 -0.028564453
0.09863281 0.0060424805 0.064941406 0.0017547607 0.095214844 -0.075683594 -0.068359375 -0.05053711
-0.04736328 -0.026367188 0.052246094 -0.08886719 -0.087402344 0.07714844 0.06347656 0.03515625
0.060546875 -0.021240234 -0.043701172 -0.022094727 -0.034179688 -0.05053711 -0.07763672 0.029541016

layer_8.gate_v.net.0.bias bf16 [8]
00000000: ff3d a93d cebc 913d c8bd 933d 803d fd3d
0.12451172 0.08251953 -0.025146484 0.07080078 -0.09765625 0.071777344 0.0625 0.123535156

layer_8.gate_v.net.2.weight bf16 [8, 8]
00000000: cebd 70be 973e b13e 94bc a13d b03e 99be
00000010: debd 85be 2d3e 723e 9cbe 80bd a4be 863e
00000020: 903e e53d 36bd 41bd 723e f93d 8abe 8b3d
00000030: 903e 6b3e 80be 8dbe 633e 933e 36be 62be
00000040: a83d 37be 3b3e 073e 8f3e 96bd d5bd 8ebe
00000050: a13e 393e 873c 5dbe 973e a63e b7bd 52be
00000060: 1dbe 6d3e 9cbe 24be 06bd 6b3e 87bd 85be
00000070: 75be eb3d 1fbd b3bd 643e 0a3e 80bd e3bd
-0.10058594 -0.234375 0.29492188 0.34570312 -0.018066406 0.07861328 0.34375 -0.29882812
-0.10839844 -0.25976562 0.16894531 0.23632812 -0.3046875 -0.0625 -0.3203125 0.26171875
0.28125 0.111816406 -0.044433594 -0.04711914 0.23632812 0.12158203 -0.26953125 0.067871094
0.28125 0.22949219 -0.25 -0.27539062 0.22167969 0.28710938 -0.17773438 -0.22070312
0.08203125 -0.17871094 0.18261719 0.13183594 0.27929688 -0.07324219 -0.104003906 -0.27734375
0.31445312 0.18066406 0.016479492 -0.21582031 0.29492188 0.32421875 -0.08935547 -0.20507812
-0.15332031 0.23144531 -0.3046875 -0.16015625 -0.032714844 0.22949219 -0.06591797 -0.25976562
-0.23925781 0.114746094 -0.03881836 -0.087402344 0.22265625 0.13476562 -0.0625 -0.110839844

layer_8.gate_v.net.2.bias bf16 [8]
00000000: 6ebe b3be 2e3e 80bd 963e 02be afbe 46be
-0.23242188 -0.34960938 0.16992188 -0.0625 0.29296875 -0.12695312 -0.34179688 -0.19335938

layer_9.Wk bf16 [64, 8]
00000000: 0fbe 173e 90be 5fbe 22bd 2d3d c5bd 27be
00000010: 61be 003d 56be 7ebe 25be 37be 4d3d 3f3e
00000020: e63d 063e 863e 7ebd a3bd 1bbd 993d 1dbe
00000030: 373d 40be 373e 8fbe fe3d 7f3d a2bd 08be
00000040: 573e a83d 81bd 89bd 1f3d bfbd 3dbd 18be
00000050: 183d 7fbe a6bd 0f3d 33be 953d 243d 193e
00000060: 2ebe da3d 6e3e 91be 323d 1b3e 453e 2a3e
00000070: 533d 36be 2f3e 6fbe 133d 223d 753e e7bd
00000080: f9bd c13d 51be 223e 3c3e 153d 143e 323e
00000090: 573d 853e 63be 243e d3bd 53be 1fbc 58be
000000a0: 203e 9f3d 15bd 353d 42be 5d3e 50be 19be
000000b0: 6f3e cbbd adbc 85be 4fbe 80bd 3fbe 1bbd
000000c0: 8e3e c83c 4a3d ed3d 823e 5bbd 7dbe 81be
000000d0: 65be bb3d 363e 313e e5bd 3cbd 873d cfbd
000000e0: 0ebd 923d 65be e03d 1abd c4bd 18be 36be
000000f0: 74be 143e 0cbd 573e 74be 47be ac3d 39be
00000100: 5c3e 473e 92be 493e 20be 5f3e 08bd 003e
00000110: 263d 6b3e 0a3d 68be 933e 0ebd c1bd 823d
00000120: 57be 473d 393d 163d 783e b0bd 2a3d cd3d
00000130: 253e febd 793e 403d 84be f43d 36be 113d
00000140: 0b3e 7fbd 02bd 1a3c 893e 30be 99bc 3dbe
00000150: a93c 1dbe e4bd 563e 6f3e 573e a5bd 1c3d
00000160: 6cbe 253e 843e cfbd 073d cabc 93be 43be
00000170: 70be 1b3e 3abe b63d 03be 1ebe babd 1dbd
00000180: 8f3e 6fbe 3a3e 8f3e 12be 4dbe d23d 46be
00000190: babd 903d d0bd 603e 933e dfbd 8b3e 20bd
000001a0: 24be 3cbe 863e 1e3d 2ebe 473d 33bd 57be
000001b0: 03be 6a3e e13d 553e 29be 2f3e 91be b93d
000001c0: 673e 143b fbbd 1a3d f93d 6bbd 14be f83d
000001d0: 893e 823e a03d 1fbd 0f3d 103d 8ebe eabd
000001e0: 3b3e 783d ce3d 273e 6fbe 7abe b03d 8fbc
000001f0: 653e 79be 463e 903e 10bd e33d 82be 0c3d
-0.13964844 0.14746094 -0.28125 -0.21777344 -0.03955078 0.042236328 -0.096191406 -0.16308594
-0.21972656 0.03125 -0.20898438 -0.24804688 -0.16113281 -0.17871094 0.050048828 0.18652344
0.11230469 0.13085938 0.26171875 -0.06201172 -0.079589844 -0.037841797 0.07470703 -0.15332031
0.044677734 -0.1875 0.17871094 -0.27929688 0.12402344 0.06225586 -0.07910156 -0.1328125
0.20996094 0.08203125 -0.06298828 -0.06689453 0.03881836 -0.09326172 -0.046142578 -0.1484375
0.037109375 -0.24902344 -0.08105469 0.03491211 -0.17480469 0.072753906 0.040039062 0.14941406
-0.16992188 0.10644531 0.23242188 -0.28320312 0.04345703 0.15136719 0.19238281 0.16601562
0.051513672 -0.17773438 0.17089844 -0.23339844 0.035888672 0.03955078 0.23925781 -0.11279297
-0.12158203 0.09423828 -0.20410156 0.15820312 0.18359375 0.036376953 0.14453125 0.17382812
0.052490234 0.25976562 -0.22167969 0.16015625 -0.103027344 -0.20605469 -0.00970459 -0.2109375
0.15625 0.07763672 -0.036376953 0.044189453 -0.18945312 0.21582031 -0.203125 -0.14941406
0.23339844 -0.099121094 -0.021118164 -0.25976562 -0.20214844 -0.0625 -0.18652344 -0.037841797
0.27734375 0.024414062 0.049316406 0.115722656 0.25390625 -0.053466797 -0.24707031 -0.25195312
-0.22363281 0.091308594 0.17773438 0.17285156 -0.111816406 -0.045898438 0.06591797 -0.10107422
-0.03466797 0.07128906 -0.22363281 0.109375 -0.037597656 -0.095703125 -0.1484375 -0.17773438
-0.23828125 0.14453125 -0.034179688 0.20996094 -0.23828125 -0.19433594 0.083984375 -0.18066406
0.21484375 0.19433594 -0.28515625 0.19628906 -0.15625 0.21777344 -0.033203125 0.125
0.040527344 0.22949219 0.033691406 -0.2265625 0.28710938 -0.03466797 -0.09423828 0.06347656
-0.20996094 0.048583984 0.045166016 0.036621094 0.2421875 -0.0859375 0.041503906 0.100097656
0.16113281 -0.12402344 0.24316406 0.046875 -0.2578125 0.119140625 -0.17773438 0.03540039
0.13574219 -0.06225586 -0.03173828 0.009399414 0.26757812 -0.171875 -0.018676758 -0.18457031
0.020629883 -0.15332031 -0.111328125 0.20898438 0.23339844 0.20996094 -0.080566406 0.038085938
-0.23046875 0.16113281 0.2578125 -0.10107422 0.032958984 -0.024658203 -0.28710938 -0.19042969
-0.234375 0.15136719 -0.18164062 0.08886719 -0.12792969 -0.15429688 -0.09082031 -0.038330078
0.27929688 -0.23339844 0.18164062 0.27929688 -0.14257812 -0.20019531 0.10253906 -0.19335938
-0.09082031 0.0703125 -0.1015625 0.21875 0.28710938 -0.10888672 0.27148438 -0.0390625
-0.16015625 -0.18359375 0.26171875 0.03857422 -0.16992188 0.048583984 -0.043701172 -0.20996094
-0.12792969 0.22851562 0.10986328 0.20800781 -0.16503906 0.17089844 -0.28320312 0.09033203
0.22558594 0.0022583008 -0.122558594 0.037597656 0.12158203 -0.057373047 -0.14453125 0.12109375
0.26757812 0.25390625 0.078125 -0.03881836 0.03491211 0.03515625 -0.27734375 -0.11425781
0.18261719 0.060546875 0.10058594 0.16308594 -0.23339844 -0.24414062 0.0859375 -0.017456055
0.22363281 -0.24316406 0.19335938 0.28125 -0.03515625 0.110839844 -0.25390625 0.034179688

layer_9.Uk bf16 [64, 8]
00000000: f63d 8bbc 3cbe 88bd 19bd ee3d 0c3d 02be
00000010: 0ebe 2fbd 3b3e f53d 9f3d 033d 76be 13be
00000020: 10be 83be a43d 963d 91be 993d e0bd 4cbe
00000030: 1ebe c9bd 8c3e 87be 2b3d 72be 9ebd f93d
00000040: 5c3e 2c3e 57be 3fbd 853d 0fbe 823e 893e
00000050: 40be 16bd e7bc 203e 1b3c 923e 87bd 2cbe
00000060: 47be 813e 893c 8b3d 43be 5f3e 133e 1d3e
00000070: bc3d 57be c8bd a03d 39be 20be 0d3e 2cbe
00000080: 903e 3fbd d53d c3bc 38be 923d 34be 8abe
00000090: 323d 06be 17be 18be 53be b0bb 103e a23d
000000a0: a73d 933e c33c 73be 843e 40be e53d 363e
000000b0: 6c3e 373e 5abe 0ebe 263e 8a3e 8a3d d53d
000000c0: 56be 323e 1fbe 883e 8abe 58be 0ebd b8bc
000000d0: dd3d 73be 9d3d 533e 23be 83bd 783e 6c3e
000000e0: 853e 223d 8a3e b63d 843d 853e 933e b2bd
000000f0: a4bd 5dbe 713e e3bd a6bd 0abe 1cbe 17bd
00000100: 743e 003d 1dbd 28be 50be 80bd 4bbe 903e
00000110: 1bbe 3f3e 413e 0a3d 863d dd3c c4bd ae3c
00000120: 803c 03be 3dbe 52be 703e 0e3e 003d 8cbc
00000130: 66be 8cbe 93be abbc 5f3c dfbd 25be 3fbd
00000140: 93bc 14bd 1bbd 7d3e e8bd 463e cc3d 863d
00000150: 66bc 933d 7e3e 8cbd 113d 5c3d 87be cf3d
00000160: d83d 51be 8bbe 46be 543e 233e 40be 463e
00000170: 1ebd f13d 78be 1dbe 0fbe b63d 9a3d 06be
00000180: 56be 91be 8dbe 673e 27be 68be 50be 8bbd
00000190: 28be 4b3e 46be d43d 8b3e 79be 4fbe 2c3e
000001a0: 51be 56bd 4fbe 6dbe 693e 7bbe 20bd c93d
000001b0: 8abe f7bc a43c a9bd 543e 4f3d 5cbd 05bd
000001c0: 54bd 09be 903e 813d 453e dfbd 5abe 063e
000001d0: 923c 943e 87be e83d 753e 56be 0fbe 563e
000001e0: 6abe 863e f9bd 7fbe 343e 443e bfbd 9a3d
000001f0: 903e 1e3d 753d 083e 55bb d63d 18be 3cbe
0.12011719 -0.016967773 -0.18359375 -0.06640625 -0.037353516 0.11621094 0.034179688 -0.12695312
-0.13867188 -0.04272461 0.18261719 0.119628906 0.07763672 0.031982422 -0.24023438 -0.14355469
-0.140625 -0.25585938 0.080078125 0.07324219 -0.28320312 0.07470703 -0.109375 -0.19921875
-0.15429688 -0.09814453 0.2734375 -0.26367188 0.041748047 -0.23632812 -0.07714844 0.12158203
0.21484375 0.16796875 -0.20996094 -0.04663086 0.064941406 -0.13964844 0.25390625 0.26757812
-0.1875 -0.036621094 -0.028198242 0.15625 0.009460449 0.28515625 -0.06591797 -0.16796875
-0.19433594 0.25195312 0.016723633 0.067871094 -0.19042969 0.21777344 0.14355469 0.15332031
0.091796875 -0.20996094 -0.09765625 0.078125 -0.18066406 -0.15625 0.13769531 -0.16796875
0.28125 -0.04663086 0.104003906 -0.023803711 -0.1796875 0.07128906 -0.17578125 -0.26953125
0.04345703 -0.13085938 -0.14746094 -0.1484375 -0.20605469 -0.0053710938 0.140625 0.07910156
0.08154297 0.28710938 0.023803711 -0.23730469 0.2578125 -0.1875 0.111816406 0.17773438
0.23046875 0.17871094 -0.21289062 -0.13867188 0.16210938 0.26953125 0.06738281 0.104003906
-0.20898438 0.17382812 -0.15527344 0.265625 -0.26953125 -0.2109375 -0.03466797 -0.022460938
0.107910156 -0.23730469 0.076660156 0.20605469 -0.15917969 -0.063964844 0.2421875 0.23046875
0.25976562 0.03955078 0.26953125 0.08886719 0.064453125 0.25976562 0.28710938 -0.08691406
-0.080078125 -0.21582031 0.23535156 -0.110839844 -0.08105469 -0.13476562 -0.15234375 -0.036865234
0.23828125 0.03125 -0.038330078 -0.1640625 -0.203125 -0.0625 -0.19824219 0.28125
-0.15136719 0.18652344 0.18847656 0.033691406 0.06542969 0.026977539 -0.095703125 0.021240234
0.015625 -0.12792969 -0.18457031 -0.20507812 0.234375 0.13867188 0.03125 -0.017089844
-0.22460938 -0.2734375 -0.28710938 -0.020874023 0.01361084 -0.10888672 -0.16113281 -0.04663086
-0.017944336 -0.036132812 -0.037841797 0.24707031 -0.11328125 0.19335938 0.099609375 0.06542969
-0.014038086 0.071777344 0.24804688 -0.068359375 0.03540039 0.053710938 -0.26367188 0.10107422
0.10546875 -0.20410156 -0.27148438 -0.19335938 0.20703125 0.15917969 -0.1875 0.19335938
-0.03857422 0.11767578 -0.2421875 -0.15332031 -0.13964844 0.08886719 0.07519531 -0.13085938
-0.20898438 -0.28320312 -0.27539062 0.22558594 -0.16308594 -0.2265625 -0.203125 -0.067871094
-0.1640625 0.19824219 -0.19335938 0.103515625 0.27148438 -0.24316406 -0.20214844 0.16796875
-0.20410156 -0.052246094 -0.20214844 -0.23144531 0.22753906 -0.24511719 -0.0390625 0.09814453
-0.26953125 -0.030151367 0.020019531 -0.08251953 0.20703125 0.05053711 -0.053710938 -0.032470703
-0.051757812 -0.13378906 0.28125 0.06298828 0.19238281 -0.10888672 -0.21289062 0.13085938
0.017822266 0.2890625 -0.26367188 0.11328125 0.23925781 -0.20898438 -0.13964844 0.20898438
-0.22851562 0.26171875 -0.12158203 -0.24902344 0.17578125 0.19140625 -0.09326172 0.07519531
0.28125 0.03857422 0.059814453 0.1328125 -0.003250122 0.10449219 -0.1484375 -0.18359375

layer_9.Wv bf16 [64, 8]
00000000: c3bd 2f3a 3dbe 92bd 38be 47bd ae3d 2ebe
00000010: 06be 613e bd3d 24be 02be 83be 163d e3bd
00000020: 0abe cfbd 8bbe 013e 673e 173e 4abe e53d
00000030: 073e 01be 003e db3d d2bd 643e 93be 283e
00000040: 343d 23be a2bc 84be 17be a43d 1a3d 6cbe
00000050: 513d 54be 503d 16be 3f3e 453e 05be 4d3d
00000060: d23d 0fbe 6cbc 9bbd 87be b03c 1fbe 7dbe
00000070: 87be edbc ae3c f13d 4ebe 80bc 853e 58be
00000080: 43be 58be 67be 4a3e 45be 513e 42be 653e
00000090: 7a3e 8bbe 8c3e 813d 5cbd 94be c1bd dcbd
000000a0: b0bc 24be 4fbe 8d3d 4e3e efbd 3a3e 60bb
000000b0: 57be 7cbe 33be 8abe d43d 313e 0c3d 163e
000000c0: 5a3e 6fbe cf3d 1bbe ee3c 49bd 5abe 273d
000000d0: 433d cf3d ef3d 6fbe 5d3d ec3d 19be 263e
000000e0: dd3d 833e 90bd 88be 7a3e 0ebe 483e 84be
000000f0: 8fbe f53d 18bd 7c3e 163e 7c3e e23d 263e
00000100: 0bbe 35be 86be 613e 8fbe 4a3d 25be 6c3e
00000110: c03d f33c 41bc 81be 70be 603d cb3d 883e
00000120: 78be cb3d 6c3e 6fbe 48be 793e b43d b8bd
00000130: 0dbd fcbc 8b3e acbd 47be 42be 88bc 3f3e
00000140: 40be 58be 6cbe 07bd 4abe d6bd f3bc 25be
00000150: 8fbc 693e 31bd 88be e13d a13d ebbd 5dbe
00000160: 82be e73d 213e a23c 30be 5d3e 70be e33d
00000170: 68be 8abe 88be 303e 913e ca3d 53be 7ebe
00000180: 703e 25bd 3abe 40be 1f3d 12be 4a3e b83d
00000190: 293e 8ebc 823d 2c3e f73d 9b3d 603e 693e
000001a0: 5bbe 1abe 343e 833e a8bd d0bd f03d f8bd
000001b0: 3abe 1f3e a13d 80bd 723e 73be e73d bebd
000001c0: 33be 42bc 78be 163e 9fbd 83be 92bd 0cbe
000001d0: d13d 673e 8c3e 5e3e 8abe 17be d7bd 52be
000001e0: 753d 393e db3d 9bbd 51bd 9fbd 783e 8a3c
000001f0: 50bd 84bd 87be 4f3e ab3d 4fbe 5d3e 19be
-0.095214844 0.000667572 -0.18457031 -0.07128906 -0.1796875 -0.048583984 0.08496094 -0.16992188
-0.13085938 0.21972656 0.092285156 -0.16015625 -0.12695312 -0.25585938 0.036621094 -0.110839844
-0.13476562 -0.10107422 -0.27148438 0.12597656 0.22558594 0.14746094 -0.19726562 0.111816406
0.13183594 -0.12597656 0.125 0.106933594 -0.10253906 0.22265625 -0.28710938 0.1640625
0.043945312 -0.15917969 -0.01977539 -0.2578125 -0.14746094 0.080078125 0.037597656 -0.23046875
0.05102539 -0.20703125 0.05078125 -0.14648438 0.18652344 0.19238281 -0.12988281 0.050048828
0.10253906 -0.13964844 -0.014404297 -0.075683594 -0.26367188 0.021484375 -0.15527344 -0.24707031
-0.26367188 -0.028930664 0.021240234 0.11767578 -0.20117188 -0.015625 0.25976562 -0.2109375
-0.19042969 -0.2109375 -0.22558594 0.19726562 -0.19238281 0.20410156 -0.18945312 0.22363281
0.24414062 -0.27148438 0.2734375 0.06298828 -0.053710938 -0.2890625 -0.09423828 -0.107421875
-0.021484375 -0.16015625 -0.20214844 0.068847656 0.20117188 -0.11669922 0.18164062 -0.0034179688
-0.20996094 -0.24609375 -0.17480469 -0.26953125 0.103515625 0.17285156 0.034179688 0.14648438
0.21289062 -0.23339844 0.10107422 -0.15136719 0.029052734 -0.049072266 -0.21289062 0.040771484
0.047607422 0.10107422 0.11669922 -0.23339844 0.053955078 0.115234375 -0.14941406 0.16210938
0.107910156 0.25585938 -0.0703125 -0.265625 0.24414062 -0.13867188 0.1953125 -0.2578125
-0.27929688 0.119628906 -0.037109375 0.24609375 0.14648438 0.24609375 0.11035156 0.16210938
-0.13574219 -0.17675781 -0.26171875 0.21972656 -0.27929688 0.049316406 -0.16113281 0.23046875
0.09375 0.029663086 -0.011779785 -0.25195312 -0.234375 0.0546875 0.099121094 0.265625
-0.2421875 0.099121094 0.23046875 -0.23339844 -0.1953125 0.24316406 0.087890625 -0.08984375
-0.034423828 -0.030761719 0.27148438 -0.083984375 -0.19433594 -0.18945312 -0.016601562 0.18652344
-0.1875 -0.2109375 -0.23046875 -0.032958984 -0.19726562 -0.10449219 -0.029663086 -0.16113281
-0.017456055 0.22753906 -0.04321289 -0.265625 0.10986328 0.07861328 -0.114746094 -0.21582031
-0.25390625 0.11279297 0.15722656 0.01977539 -0.171875 0.21582031 -0.234375 0.110839844
-0.2265625 -0.26953125 -0.265625 0.171875 0.28320312 0.09863281 -0.20605469 -0.24804688
0.234375 -0.040283203 -0.18164062 -0.1875 0.03881836 -0.14257812 0.19726562 0.08984375
0.16503906 -0.017333984 0.06347656 0.16796875 0.12060547 0.075683594 0.21875 0.22753906
-0.21386719 -0.15039062 0.17578125 0.25585938 -0.08203125 -0.1015625 0.1171875 -0.12109375
-0.18164062 0.15527344 0.07861328 -0.0625 0.23632812 -0.23730469 0.11279297 -0.09277344
-0.17480469 -0.01184082 -0.2421875 0.14648438 -0.07763672 -0.25585938 -0.07128906 -0.13671875
0.10205078 0.22558594 0.2734375 0.21679688 -0.26953125 -0.14746094 -0.10498047 -0.20507812
0.059814453 0.18066406 0.106933594 -0.075683594 -0.05102539 -0.07763672 0.2421875 0.016845703
-0.05078125 -0.064453125 -0.26367188 0.20214844 0.083496094 -0.20214844 0.21582031 -0.14941406

layer_9.Uv bf16 [64, 8]
00000000: bd3d 2f3e a2bd 7b3e 25be c23d 7ebd 1ebd
00000010: 483e 1a3e 61be 4dbe 8a3e 7a3e 793e 893e
00000020: 78bd 88be 3d3e 12be 69bb 2dbe edbd 8e3e
00000030: b83c 4c3e 9abd 143e 783e 313d 7dbd a7bd
00000040: 6cbe 3e3e 6a3e 31bc 683e 28be 91bc 403e
00000050: 03bd 0ebe 1dbe b8bc 4f3e 1cbe 053e 57be
00000060: b5bd 42bd 44be 91bd babd 333e a13d d63d
00000070: 8b3d 2bbe f5bd f8bd ddbd 643c 7e3e 97bc
00000080: 3bbe 26be bd3c 6dbe f9bd a1bc 8abd 1e3e
00000090: 86be bf3d dcbd 943d cfbd 29be 3b3e 973c
000000a0: f7bd c3bd 6b3e fd3c 74be 7a3e d53d 3cbe
000000b0: 87be 8b3e 813e 3cbe 6abe 2a3e 30be f3bd
000000c0: dcbd 6a3c d1bd 25be be3d 533e 3ebe 36bd
000000d0: 91bd bbbd eabd 64bc 1f3e c3bc debd 943d
000000e0: 5c3e e43d 8bbe 843e 6bbe e23d a93d dabd
000000f0: 89be c2bd 883e a93d 26be 673e 49be 4e3e
00000100: a5bd debd 40be 183e efbd 8c3e 483e e93d
00000110: 1f3e 88be 6b3e 2cbe 3f3e 343e 5f3d b6bc
00000120: 6c3e 3dbe 70be 88be de3d 42bd 93bd 37bd
00000130: 9a3c 433e 16bd 7a3d 2dbe 2abe 4ebe 053e
00000140: 6cbe 123d 943d 3bbe 30be 4f3e 0e3d 28be
00000150: 33be 633e 2abe 203e 313d 103e 923e 8abd
00000160: bb3d 1c3d 47bd b63d 873e 5ebe 11be 403e
00000170: 34be 333e 07be 073e 00bd 96bc 5dbe 9d3d
00000180: 86be 903e f5bd cd3d 6fbe 1e3d 2b3e 843e
00000190: 3abe 77bd 7bbe e03d 36be ccbd 4dbe 57be
000001a0: 19bd 0fbe 8c3e 2fbe 7b3e 9cbc 8bbe 0a3e
000001b0: 803e 483e 2e3e db3c e5bd f7bd 99bd c2bd
000001c0: 203d c0bb 3c3c 323c 263e 5f3e 833e 39bc
000001d0: 8cbd 14be 10be 8cbd 883e 8cbd bf3d 7bbe
000001e0: 24be 74be d6bd 7c3e d43d 463e 79be 67be
000001f0: c63c 15bc 4ebd 883e c9bd d5bd 46be 833e
0.092285156 0.17089844 -0.07910156 0.24511719 -0.16113281 0.09472656 -0.06201172 -0.03857422
0.1953125 0.15039062 -0.21972656 -0.20019531 0.26953125 0.24414062 0.24316406 0.26757812
-0.060546875 -0.265625 0.18457031 -0.14257812 -0.0035552979 -0.16894531 -0.115722656 0.27734375
0.022460938 0.19921875 -0.07519531 0.14453125 0.2421875 0.04321289 -0.061767578 -0.08154297
-0.23046875 0.18554688 0.22851562 -0.010803223 0.2265625 -0.1640625 -0.017700195 0.1875
-0.031982422 -0.13867188 -0.15332031 -0.022460938 0.20214844 -0.15234375 0.12988281 -0.20996094
-0.088378906 -0.04736328 -0.19140625 -0.07080078 -0.09082031 0.17480469 0.07861328 0.10449219
0.067871094 -0.16699219 -0.119628906 -0.12109375 -0.107910156 0.013916016 0.24804688 -0.018432617
-0.18261719 -0.16210938 0.023071289 -0.23144531 -0.12158203 -0.01965332 -0.06738281 0.15429688
-0.26171875 0.09326172 -0.107421875 0.072265625 -0.10107422 -0.16503906 0.18261719 0.018432617
-0.12060547 -0.095214844 0.22949219 0.030883789 -0.23828125 0.24414062 0.104003906 -0.18359375
-0.26367188 0.27148438 0.25195312 -0.18359375 -0.22851562 0.16601562 -0.171875 -0.118652344
-0.107421875 0.014282227 -0.10205078 -0.16113281 0.09277344 0.20605469 -0.18554688 -0.044433594
-0.07080078 -0.091308594 -0.11425781 -0.013916016 0.15527344 -0.023803711 -0.10839844 0.072265625
0.21484375 0.111328125 -0.27148438 0.2578125 -0.22949219 0.11035156 0.08251953 -0.10644531
-0.26757812 -0.09472656 0.265625 0.08251953 -0.16210938 0.22558594 -0.19628906 0.20117188
-0.080566406 -0.10839844 -0.1875 0.1484375 -0.11669922 0.2734375 0.1953125 0.11376953
0.15527344 -0.265625 0.22949219 -0.16796875 0.18652344 0.17578125 0.05444336 -0.022216797
0.23046875 -0.18457031 -0.234375 -0.265625 0.10839844 -0.04736328 -0.071777344 -0.044677734
0.018798828 0.19042969 -0.036621094 0.061035156 -0.16894531 -0.16601562 -0.20117188 0.12988281
-0.23046875 0.03564453 0.072265625 -0.18261719 -0.171875 0.20214844 0.03466797 -0.1640625
-0.17480469 0.22167969 -0.16601562 0.15625 0.04321289 0.140625 0.28515625 -0.06738281
0.091308594 0.038085938 -0.048583984 0.08886719 0.26367188 -0.21679688 -0.14160156 0.1875
-0.17578125 0.17480469 -0.13183594 0.13183594 -0.03125 -0.018310547 -0.21582031 0.076660156
-0.26171875 0.28125 -0.119628906 0.100097656 -0.23339844 0.03857422 0.16699219 0.2578125
-0.18164062 -0.060302734 -0.24511719 0.109375 -0.17773438 -0.099609375 -0.20019531 -0.20996094
-0.037353516 -0.13964844 0.2734375 -0.17089844 0.24511719 -0.019042969 -0.27148438 0.13476562
0.25 0.1953125 0.16992188 0.026733398 -0.111816406 -0.12060547 -0.07470703 -0.09472656
0.0390625 -0.005859375 0.011474609 0.010864258 0.16210938 0.21777344 0.25585938 -0.011291504
-0.068359375 -0.14453125 -0.140625 -0.068359375 0.265625 -0.068359375 0.09326172 -0.24511719
-0.16015625 -0.23828125 -0.10449219 0.24609375 0.103515625 0.19335938 -0.24316406 -0.22558594
0.024169922 -0.009094238 -0.05029297 0.265625 -0.09814453 -0.104003906 -0.19335938 0.25585938
