empty_dirs_for_codex/outputs/runs_fast_paper_core/fast_paper_sweep_core_v1/ablation_no_contr_loto_holdout_overwrite/checkpoints/train_state_step_1500.pt (torch, 148983 bytes, 144 tensors)

layer_8.Wk bf16 [64, 8]
000000 4a be 84 bd 82 be ee 3d 55 3e 20 bd 93 be ce 3d
       -0.19726562 -0.064453125 -0.25390625 0.11621094 0.20800781 -0.0390625 -0.28710938 0.10058594
000010 2f bd 9b 3d b1 bd 61 be 6f be af 3d bb bd 85 3e
       -0.04272461 0.075683594 -0.08642578 -0.21972656 -0.23339844 0.08544922 -0.091308594 0.25976562
000020 a2 3c 21 3d 43 3e 8a 3e d8 3d 79 3e 6d 3e 92 3e
       0.01977539 0.03930664 0.19042969 0.26953125 0.10546875 0.24316406 0.23144531 0.28515625
000030 76 be f0 3d 07 be 55 be 2b 3d 58 3e 80 3e c0 3a
       -0.24023438 0.1171875 -0.13183594 -0.20800781 0.041748047 0.2109375 0.25 0.0014648438
000040 f5 3d 1a 3d 06 bd 95 bd 09 be 3a be 87 be c6 3c
       0.119628906 0.037597656 -0.032714844 -0.072753906 -0.13378906 -0.18164062 -0.26367188 0.024169922
000050 8b 3e d3 3d d3 3c 7b be 29 bd 8a be 04 bd d7 bd
       0.27148438 0.103027344 0.025756836 -0.24511719 -0.041259766 -0.26953125 -0.032226562 -0.10498047
000060 6b 3e 3b 3e 7c be 27 3e 98 bd 91 be cc bd 15 3d
       0.22949219 0.18261719 -0.24609375 0.16308594 -0.07421875 -0.28320312 -0.099609375 0.036376953
000070 22 3e e9 3b 60 3e 84 be 01 be 93 be 00 bd 53 be
       0.15820312 0.0071105957 0.21875 -0.2578125 -0.12597656 -0.28710938 -0.03125 -0.20605469
000080 2b 3e 33 3e f6 bd 89 3e 4d be 60 be 80 bd 82 3d
       0.16699219 0.17480469 -0.12011719 0.26757812 -0.20019531 -0.21875 -0.0625 0.06347656
000090 85 3e 49 be 67 3e ee 3d 10 be 42 be c4 3d 1f 3c
       0.25976562 -0.19628906 0.22558594 0.11621094 -0.140625 -0.18945312 0.095703125 0.00970459
0000a0 6d 3e fe 3c 88 be ba bd e5 bd 2a be 0d 3d fb 3d
       0.23144531 0.03100586 -0.265625 -0.09082031 -0.111816406 -0.16601562 0.034423828 0.122558594
0000b0 38 be 1f bd 00 be 39 3e 64 3e 74 3e 91 3e 0d be
       -0.1796875 -0.03881836 -0.125 0.18066406 0.22265625 0.23828125 0.28320312 -0.13769531
0000c0 4f be 54 3e 00 3e 6f 3d 26 be 6c be bf bd 74 3e
       -0.20214844 0.20703125 0.125 0.05834961 -0.16210938 -0.23046875 -0.09326172 0.23828125
0000d0 15 be 3c be da 3d 7b 3e 11 3d 9c 3d 40 3e ad bd
       -0.14550781 -0.18359375 0.10644531 0.24511719 0.03540039 0.076171875 0.1875 -0.084472656
0000e0 85 be 15 bd 26 be e9 3d 1b be 8a 3e eb 3b 6b 3e
       -0.25976562 -0.036376953 -0.16210938 0.11376953 -0.15136719 0.26953125 0.007171631 0.22949219
0000f0 52 be 7d be 0d be 92 bd 61 3e 66 be e4 bd b0 3d
       -0.20507812 -0.24707031 -0.13769531 -0.07128906 0.21972656 -0.22460938 -0.111328125 0.0859375
000100 0f bd 02 be 43 3e 27 be 0c 3e 8e 3d 26 be 72 3d
       -0.03491211 -0.12695312 0.19042969 -0.16308594 0.13671875 0.06933594 -0.16210938 0.05908203
000110 bb 3d 94 bb b7 bd 10 3e fe bd 85 bd 80 bd 2e 3d
       0.091308594 -0.0045166016 -0.08935547 0.140625 -0.12402344 -0.064941406 -0.0625 0.04248047
000120 80 3d 74 3d 7b be 3a be 99 3d 75 3e 41 be a8 bd
       0.0625 0.059570312 -0.24511719 -0.18164062 0.07470703 0.23925781 -0.18847656 -0.08203125
000130 3c be 66 be 83 be af 3d 01 3d 18 be 90 3e 41 3c
       -0.18359375 -0.22460938 -0.25585938 0.08544922 0.03149414 -0.1484375 0.28125 0.011779785
000140 00 bd 94 3e 53 be c5 bd 6c be be 3d 88 bd 91 be
       -0.03125 0.2890625 -0.20605469 -0.096191406 -0.23046875 0.09277344 -0.06640625 -0.28320312
000150 21 3d 52 3d 87 3e 13 3d 58 be 29 3e 29 3e ef 3d
       0.03930664 0.05126953 0.26367188 0.035888672 -0.2109375 0.16503906 0.16503906 0.11669922
000160 f2 bd 2f 3e c3 bd e6 3b cc 3d f8 bd 83 3e 84 3e
       -0.11816406 0.17089844 -0.095214844 0.007019043 0.099609375 -0.12109375 0.25585938 0.2578125
000170 00 bd 05 3d 1d be 4a 3e e6 bd 80 3e 80 3d 69 3e
       -0.03125 0.032470703 -0.15332031 0.19726562 -0.11230469 0.25 0.0625 0.22753906
000180 18 3e 57 3e 9e bd 6c bd 84 be 2c 3e 0b bd 44 be
       0.1484375 0.20996094 -0.07714844 -0.057617188 -0.2578125 0.16796875 -0.033935547 -0.19140625
000190 af bd 82 be 6f 3e 00 3d 83 bd 9c 3c 2b bd 37 3e
       -0.08544922 -0.25390625 0.23339844 0.03125 -0.063964844 0.019042969 -0.041748047 0.17871094
0001a0 2d be 6d 3e 16 be 38 3d 80 bd 09 3d 02 bd f1 3d
       -0.16894531 0.23144531 -0.14648438 0.044921875 -0.0625 0.033447266 -0.03173828 0.11767578
0001b0 30 be 36 be 3e 3e 72 be 5e 3e 90 be 80 bd ef 3d
       -0.171875 -0.17773438 0.18554688 -0.23632812 0.21679688 -0.28125 -0.0625 0.11669922
0001c0 04 3e 82 bc 2d 3d 8e 3e 67 be 80 bd 3a 3e 89 3e
       0.12890625 -0.01586914 0.042236328 0.27734375 -0.22558594 -0.0625 0.18164062 0.26757812
0001d0 83 bd 85 3e ea 3d 80 3d 5f 3e 22 3e 84 be f3 bc
       -0.063964844 0.25976562 0.11425781 0.0625 0.21777344 0.15820312 -0.2578125 -0.029663086
0001e0 89 be 40 be 80 3d 51 3d 90 3e a1 bd 6d 3e 8b 3e
       -0.26757812 -0.1875 0.0625 0.05102539 0.28125 -0.07861328 0.23144531 0.27148438
0001f0 0b 3d 89 3e 02 bd d7 3d 80 3d 30 3e db 3d 56 bd
       0.033935547 0.26757812 -0.03173828 0.10498047 0.0625 0.171875 0.106933594 -0.052246094

layer_8.Uk bf16 [64, 8]
000000 86 be 52 3e ff bc c8 bb 07 bc 25 bd 24 3d 59 be
       -0.26171875 0.20507812 -0.03112793 -0.0061035156 -0.008239746 -0.040283203 0.040039062 -0.21191406
000010 0d 3d dc 3d 52 be 8d be 19 3d a0 3d a6 bd 3a be
       0.034423828 0.107421875 -0.20507812 -0.27539062 0.037353516 0.078125 -0.08105469 -0.18164062
000020 c1 3b 10 3e 2c be 8a be 8f 3e 8b be 37 bd 0b 3e
       0.0058898926 0.140625 -0.16796875 -0.26953125 0.27929688 -0.27148438 -0.044677734 0.13574219
000030 38 be d0 3c 8f bc 15 3d 88 3d 0e be 4a 3e 25 3d
       -0.1796875 0.025390625 -0.017456055 0.036376953 0.06640625 -0.13867188 0.19726562 0.040283203
000040 92 3e 40 3d 12 be 04 bd 8c 3e 43 be 01 3d 2a be
       0.28515625 0.046875 -0.14257812 -0.032226562 0.2734375 -0.19042969 0.03149414 -0.16601562
000050 16 be 5f 3e 82 3e 29 3e 47 be 19 be 79 be c6 bd
       -0.14648438 0.21777344 0.25390625 0.16503906 -0.19433594 -0.14941406 -0.24316406 -0.09667969
000060 b3 3d 4f 3e 02 be 28 be c5 3d 70 3e 01 bd 55 3e
       0.087402344 0.20214844 -0.12695312 -0.1640625 0.096191406 0.234375 -0.03149414 0.20800781
000070 7b 3e 9d 3c 89 3e 58 3e 9f 3d 80 be b7 bd 14 bd
       0.24511719 0.019165039 0.26757812 0.2109375 0.07763672 -0.25 -0.08935547 -0.036132812
000080 ef bc 81 be 61 3e 4a 3e 07 bd 70 be 41 be 93 be
       -0.029174805 -0.25195312 0.21972656 0.19726562 -0.032958984 -0.234375 -0.18847656 -0.28710938
000090 d0 bd 35 3e 61 be 46 3e 49 bd 0a bd c9 bd 71 3d
       -0.1015625 0.17675781 -0.21972656 0.19335938 -0.049072266 -0.033691406 -0.09814453 0.05883789
0000a0 cf bd 13 be 83 3c 70 be d2 3d 59 be 62 3e 4e 3e
       -0.10107422 -0.14355469 0.015991211 -0.234375 0.10253906 -0.21191406 0.22070312 0.20117188
0000b0 f0 bc d2 3c e6 3b c7 3d 37 bd 44 3d 8a 3c 40 be
       -0.029296875 0.025634766 0.007019043 0.09716797 -0.044677734 0.047851562 0.016845703 -0.1875
0000c0 e6 3d 6f be 11 bd 8b 3e b8 bc a7 3c 08 3e 88 3e
       0.11230469 -0.23339844 -0.03540039 0.27148438 -0.022460938 0.020385742 0.1328125 0.265625
0000d0 ea 3d b5 bd 48 3e 5b 3c 2c 3d 2f 3e 36 bd e5 3d
       0.11425781 -0.088378906 0.1953125 0.013366699 0.041992188 0.17089844 -0.044433594 0.111816406
0000e0 25 bd 18 3e 54 3e 47 3d cc bc 6b be 21 be 41 bd
       -0.040283203 0.1484375 0.20703125 0.048583984 -0.024902344 -0.22949219 -0.15722656 -0.04711914
0000f0 83 3e 20 3d d0 3d 26 be 86 3d 4c be 13 be 87 be
       0.25585938 0.0390625 0.1015625 -0.16210938 0.06542969 -0.19921875 -0.14355469 -0.26367188
000100 48 3e 43 be 2b be 3e 3e 5d 3e 1d 3e 7d 3e 41 be
       0.1953125 -0.19042969 -0.16699219 0.18554688 0.21582031 0.15332031 0.24707031 -0.18847656
000110 97 3d 13 be 85 be 24 be de bd 17 bd 45 bd 03 bd
       0.07373047 -0.14355469 -0.25976562 -0.16015625 -0.10839844 -0.036865234 -0.048095703 -0.031982422
000120 87 be 62 3e 8c 3e 22 3e 91 3e a2 bd a0 bc 7c be
       -0.26367188 0.22070312 0.2734375 0.15820312 0.28320312 -0.07910156 -0.01953125 -0.24609375
000130 d9 bc 58 be 89 be 25 bd 08 be 6a be c0 3c 67 3c
       -0.026489258 -0.2109375 -0.26757812 -0.040283203 -0.1328125 -0.22851562 0.0234375 0.014099121
000140 86 3e b2 bc 84 3d 70 3e 8d bd 51 3e 8a 3e f9 bd
       0.26171875 -0.021728516 0.064453125 0.234375 -0.068847656 0.20410156 0.26953125 -0.12158203
000150 70 be 23 3e 11 be 79 be 86 be 8b 3e 8d 3e 62 be
       -0.234375 0.15917969 -0.14160156 -0.24316406 -0.26171875 0.27148438 0.27539062 -0.22070312
000160 02 be 9c 3d aa 3c eb bc 3b bd 8a bd 53 be 04 3b
       -0.12695312 0.076171875 0.020751953 -0.028686523 -0.045654297 -0.06738281 -0.20605469 0.0020141602
000170 03 3d 89 3e 3f bd f7 3d 46 3e 8e be d2 3c 93 3e
       0.031982422 0.26757812 -0.04663086 0.12060547 0.19335938 -0.27734375 0.025634766 0.28710938
000180 d1 bd ab 3d 1b bc 27 bd 37 3e 97 bc 40 be 0f 3e
       -0.10205078 0.083496094 -0.009460449 -0.040771484 0.17871094 -0.018432617 -0.1875 0.13964844
000190 bf bd 4b 3b 11 3e d6 bd 63 be 43 be 8a 3e ca bd
       -0.09326172 0.0030975342 0.14160156 -0.10449219 -0.22167969 -0.19042969 0.26953125 -0.09863281
0001a0 2c 3e 45 be 51 3e 77 3e cb bb c4 bd 3f 3e e4 3d
       0.16796875 -0.19238281 0.20410156 0.24121094 -0.0061950684 -0.095703125 0.18652344 0.111328125
0001b0 d3 bd 73 be 38 3e 08 be ed 3d 8d be 88 be 2d 3e
       -0.103027344 -0.23730469 0.1796875 -0.1328125 0.115722656 -0.27539062 -0.265625 0.16894531
0001c0 be bd 80 3e 00 3d 4c 3e 2e bd 85 3e 69 be d4 bd
       -0.09277344 0.25 0.03125 0.19921875 -0.04248047 0.25976562 -0.22753906 -0.103515625
0001d0 0b bd 79 be dc bc 56 be 94 3d 80 3d 89 be 84 be
       -0.033935547 -0.24316406 -0.026855469 -0.20898438 0.072265625 0.0625 -0.26757812 -0.2578125
0001e0 91 be 10 3d 39 3d 4c bd 53 3e 87 be db 3d 5b 3e
       -0.28320312 0.03515625 0.045166016 -0.049804688 0.20605469 -0.26367188 0.106933594 0.21386719
0001f0 83 be c6 ba 72 3e 04 3e 09 bd dd 3a 49 3e 10 3b
       -0.25585938 -0.0015106201 0.23632812 0.12890625 -0.033447266 0.0016860962 0.19628906 0.0021972656

layer_8.Wv bf16 [64, 8]
000000 21 bd 89 3e d1 bd 7e be a2 bd d7 3d 0e 3e 85 3e
       -0.03930664 0.26757812 -0.10205078 -0.24804688 -0.07910156 0.10498047 0.13867188 0.25976562
000010 93 3d 29 3e be bb a7 bd 21 bb 82 3e 83 3d bc 3d
       0.071777344 0.16503906 -0.00579834 -0.08154297 -0.002456665 0.25390625 0.063964844 0.091796875
000020 a1 bb 22 be cd bc c9 bd 8e 3e 94 bc 72 3d 81 3e
       -0.00491333 -0.15820312 -0.025024414 -0.09814453 0.27734375 -0.018066406 0.05908203 0.25195312
000030 b5 bd 17 3e 14 be 16 be 12 3e b7 3c 4d 3e 2a 3d
       -0.088378906 0.14746094 -0.14453125 -0.14648438 0.14257812 0.022338867 0.20019531 0.041503906
000040 80 3c 57 3e c4 bc 2c be 7a 3e d2 bd 7f be 86 3e
       0.015625 0.20996094 -0.023925781 -0.16796875 0.24414062 -0.10253906 -0.24902344 0.26171875
000050 71 be 9d bd 6b 3e 46 be 5e 3e 89 3e 1a 3e bd 3c
       -0.23535156 -0.076660156 0.22949219 -0.19335938 0.21679688 0.26757812 0.15039062 0.023071289
000060 96 bd 4f 3e 55 be 63 ba 81 be e3 bd ef 3c a7 bd
       -0.07324219 0.20214844 -0.20800781 -0.0008659363 -0.25195312 -0.110839844 0.029174805 -0.08154297
000070 e6 3d e1 bd 63 be 6e 3e a3 3d 55 bd 93 bc 52 be
       0.11230469 -0.10986328 -0.22167969 0.23242188 0.079589844 -0.052001953 -0.017944336 -0.20507812
000080 0f bd 6a 3e 19 be 75 be f9 3d 33 be 09 be 90 3e
       -0.03491211 0.22851562 -0.14941406 -0.23925781 0.12158203 -0.17480469 -0.13378906 0.28125
000090 86 be 2c be 22 3e 08 3c ba 3d 80 3e 4d 3c 60 be
       -0.26171875 -0.16796875 0.15820312 0.008300781 0.09082031 0.25 0.012512207 -0.21875
0000a0 e9 3c 8b be 09 3d ac ba 37 be 2f 3e ab 3d 77 3c
       0.028442383 -0.27148438 0.033447266 -0.0013122559 -0.17871094 0.17089844 0.083496094 0.015075684
0000b0 35 3e 2e 3e d5 3d 86 3d 2b 3d 16 3d 22 3e 45 be
       0.17675781 0.16992188 0.104003906 0.06542969 0.041748047 0.036621094 0.15820312 -0.19238281
0000c0 a3 3d 7f 3e 95 3d c4 bd 29 3e a6 bc 05 be 56 be
       0.079589844 0.24902344 0.072753906 -0.095703125 0.16503906 -0.020263672 -0.12988281 -0.20898438
0000d0 d0 3d 9f bb 91 be 35 3e 72 3e f9 bd 5e be 05 bd
       0.1015625 -0.004852295 -0.28320312 0.17675781 0.23632812 -0.12158203 -0.21679688 -0.032470703
0000e0 b5 bd 5f 3d 70 be 76 be 08 be 63 be b6 3d 71 3e
       -0.088378906 0.05444336 -0.234375 -0.24023438 -0.1328125 -0.22167969 0.08886719 0.23535156
0000f0 f6 3c 0c 3e 91 3d c2 bd 3c be b9 3d e7 bc 85 be
       0.030029297 0.13671875 0.07080078 -0.09472656 -0.18359375 0.09033203 -0.028198242 -0.25976562
000100 90 3e 54 be 13 3e 40 3d 7f 3e e7 bd 9f 3d 60 be
       0.28125 -0.20703125 0.14355469 0.046875 0.24902344 -0.11279297 0.07763672 -0.21875
000110 64 be 16 bb 89 3e 12 bc 94 bc 24 3e 02 bd fd 3c
       -0.22265625 -0.0022888184 0.26757812 -0.008911133 -0.018066406 0.16015625 -0.03173828 0.030883789
000120 18 be 2a be 90 3e 34 be 7b be c3 3d 08 3c 9e 3d
       -0.1484375 -0.16601562 0.28125 -0.17578125 -0.24511719 0.095214844 0.008300781 0.07714844
000130 55 be 26 3e 1d 3e b7 bd 17 be e5 3d b1 3d 1c be
       -0.20800781 0.16210938 0.15332031 -0.08935547 -0.14746094 0.111816406 0.08642578 -0.15234375
000140 f0 bc 75 3d 12 be c1 3c 86 3d 27 3e 62 be 5d 3e
       -0.029296875 0.059814453 -0.14257812 0.02355957 0.06542969 0.16308594 -0.22070312 0.21582031
000150 58 3a 61 bc ec 3d ce 3c 84 be 82 be 4f bd 8f 3e
       0.0008239746 -0.01373291 0.115234375 0.025146484 -0.2578125 -0.25390625 -0.05053711 0.27929688
000160 66 be 8b 3e 05 be 25 3e 35 3d 76 be 60 3e 55 be
       -0.22460938 0.27148438 -0.12988281 0.16113281 0.044189453 -0.24023438 0.21875 -0.20800781
000170 8f bd 92 bd 70 3e 6d be 89 be 0a 3d b1 bd 36 be
       -0.06982422 -0.07128906 0.234375 -0.23144531 -0.26757812 0.033691406 -0.08642578 -0.17773438
000180 3f be 86 be 75 3e 68 be ba 3d 21 3e d0 3c b4 3d
       -0.18652344 -0.26171875 0.23925781 -0.2265625 0.09082031 0.15722656 0.025390625 0.087890625
000190 f5 3d 87 be 54 3e 8c 3d 8b 3e 18 be 13 be 84 3e
       0.119628906 -0.26367188 0.20703125 0.068359375 0.27148438 -0.1484375 -0.14355469 0.2578125
0001a0 93 be 31 be 4c 3e f3 3d 57 be 2e be 58 3e de 3d
       -0.28710938 -0.17285156 0.19921875 0.118652344 -0.20996094 -0.16992188 0.2109375 0.10839844
0001b0 8b bd 6e be 85 be 61 3e c0 3c 1b 3e 97 bb 8e 3e
       -0.067871094 -0.23242188 -0.25976562 0.21972656 0.0234375 0.15136719 -0.0046081543 0.27734375
0001c0 c1 3d 8d 3d 28 3e 1e be 93 be 4d 3e 99 3d 46 3c
       0.09423828 0.068847656 0.1640625 -0.15429688 -0.28710938 0.20019531 0.07470703 0.012084961
0001d0 1a 3d 5e bd a1 bd 60 be 44 3d 53 ba 5e 3e 29 be
       0.037597656 -0.05419922 -0.07861328 -0.21875 0.047851562 -0.0008049011 0.21679688 -0.16503906
0001e0 e0 3d 8f be 8a be 22 3e 3c 3e 0e bc 4a 3d 8d 3e
       0.109375 -0.27929688 -0.26953125 0.15820312 0.18359375 -0.008666992 0.049316406 0.27539062
0001f0 6e be 81 bd 5e be 62 bd 0f be d7 3d de 3d 6f 39
       -0.23242188 -0.06298828 -0.21679688 -0.05517578 -0.13964844 0.10498047 0.10839844 0.00022792816

layer_8.Uv bf16 [64, 8]
000000 b9 bd d3 3d e7 bd 6e be 94 bd 90 be 91 be 4a 3d
       -0.09033203 0.103027344 -0.11279297 -0.23242188 -0.072265625 -0.28125 -0.28320312 0.049316406
000010 91 bc 03 3e 80 3e e0 bd 37 3e 55 3e 65 be 66 3e
       -0.017700195 0.12792969 0.25 -0.109375 0.17871094 0.20800781 -0.22363281 0.22460938
000020 85 3e 2e 3c ed bd 1b 3e 46 3e 1a 3e b9 3c 69 3c
       0.25976562 0.010620117 -0.115722656 0.15136719 0.19335938 0.15039062 0.022583008 0.014221191
000030 72 bd 20 3e d8 3c 13 be 5b be 8a 3d ea 3c 8a 3e
       -0.05908203 0.15625 0.026367188 -0.14355469 -0.21386719 0.06738281 0.028564453 0.26953125
000040 eb 3c 94 3e ea bd 50 be 16 bd d7 bd 2d bd b5 bd
       0.028686523 0.2890625 -0.11425781 -0.203125 -0.036621094 -0.10498047 -0.042236328 -0.088378906
000050 87 3e 03 3e 36 3d 05 3b 8d 3e 03 3e 96 bd 8d be
       0.26367188 0.12792969 0.044433594 0.002029419 0.27539062 0.12792969 -0.07324219 -0.27539062
000060 8d be e0 bd 2f 3d 53 3d 0c 3e 06 3e fd bd 0f 3e
       -0.27539062 -0.109375 0.04272461 0.051513672 0.13671875 0.13085938 -0.123535156 0.13964844
000070 21 3e 9d 3d 6e 3e 55 be 2e 3d 6b bd 85 3e 67 be
       0.15722656 0.076660156 0.23242188 -0.20800781 0.04248047 -0.057373047 0.25976562 -0.22558594
000080 c3 3d 54 be 47 be 86 be 62 3d 87 3e 15 be 04 bc
       0.095214844 -0.20703125 -0.19433594 -0.26171875 0.05517578 0.26367188 -0.14550781 -0.008056641
000090 71 be 55 be e9 3d 2c bd 3f bd 27 be 38 3e 62 be
       -0.23535156 -0.20800781 0.11376953 -0.041992188 -0.04663086 -0.16308594 0.1796875 -0.22070312
0000a0 08 be 40 3e 02 3e 88 be 90 be 2b be 8e be 4f 3e
       -0.1328125 0.1875 0.12695312 -0.265625 -0.28125 -0.16699219 -0.27734375 0.20214844
0000b0 10 be eb 3d 70 be 92 3d 8a 3e 3f 3e 84 3e 6a bd
       -0.140625 0.114746094 -0.234375 0.07128906 0.26953125 0.18652344 0.2578125 -0.057128906
0000c0 1f bd 75 be f7 bd 34 be c8 bb 82 3c 94 bd f5 bd
       -0.03881836 -0.23925781 -0.12060547 -0.17578125 -0.0061035156 0.01586914 -0.072265625 -0.119628906
0000d0 90 3e 06 3d 86 be d2 bd 23 3e 8b be 8a 3e 9c bc
       0.28125 0.032714844 -0.26171875 -0.10253906 0.15917969 -0.27148438 0.26953125 -0.019042969
0000e0 e3 3d 8c bd 40 be 1f 3e b2 3d 1f be f3 3d 1b be
       0.110839844 -0.068359375 -0.1875 0.15527344 0.08691406 -0.15527344 0.118652344 -0.15136719
0000f0 59 be 92 be 5a 3e 6f 3e 4c 3e 4c 3e 87 3e a6 3c
       -0.21191406 -0.28515625 0.21289062 0.23339844 0.19921875 0.19921875 0.26367188 0.020263672
000100 89 be 3b be 30 3e 6a be 1e bd cc bc d6 bc 86 be
       -0.26757812 -0.18261719 0.171875 -0.22851562 -0.03857422 -0.024902344 -0.026123047 -0.26171875
000110 75 3e 18 bd 57 bd d5 bd 45 bd 2a bd 26 be 75 3e
       0.23925781 -0.037109375 -0.052490234 -0.104003906 -0.048095703 -0.041503906 -0.16210938 0.23925781
000120 3c 3d ea 3c 51 be 92 3e b7 bd 3d 3e 22 be 18 bd
       0.045898438 0.028564453 -0.20410156 0.28515625 -0.08935547 0.18457031 -0.15820312 -0.037109375
000130 0e bc d2 3c 07 bd 85 bd 2b be b8 bd 62 be 66 3e
       -0.008666992 0.025634766 -0.032958984 -0.064941406 -0.16699219 -0.08984375 -0.22070312 0.22460938
000140 e4 bd bd bb 78 be 5b be 41 be e0 3d 8a 3e 94 3c
       -0.111328125 -0.0057678223 -0.2421875 -0.21386719 -0.18847656 0.109375 0.26953125 0.018066406
000150 64 3e 89 be 93 be e0 3d 22 be 18 be 6a 3e 9a bc
       0.22265625 -0.26757812 -0.28710938 0.109375 -0.15820312 -0.1484375 0.22851562 -0.018798828
000160 3d 3e d7 bd 03 3d 8e 3e 57 bc 29 3e 85 3e 6d 3e
       0.18457031 -0.10498047 0.031982422 0.27734375 -0.013122559 0.16503906 0.25976562 0.23144531
000170 77 3e 16 be d9 3d 63 bc 07 be 25 be 01 3e 14 3e
       0.24121094 -0.14648438 0.10595703 -0.0138549805 -0.13183594 -0.16113281 0.12597656 0.14453125
000180 18 3d 78 3e bf 3d 70 3e 18 3e 43 bd d4 bd 76 be
       0.037109375 0.2421875 0.09326172 0.234375 0.1484375 -0.047607422 -0.103515625 -0.24023438
000190 94 3e a6 bd ed 3d 27 3e 4d be 0f 3e 35 3e 19 be
       0.2890625 -0.08105469 0.115722656 0.16308594 -0.20019531 0.13964844 0.17675781 -0.14941406
0001a0 e0 bd 2d 3d 7b 3e 88 3e 30 bd 0e be 0c 3e 0d bd
       -0.109375 0.042236328 0.24511719 0.265625 -0.04296875 -0.13867188 0.13671875 -0.034423828
0001b0 43 3d 70 be a2 3c 98 3d d1 bd 39 3d 70 3e 88 be
       0.047607422 -0.234375 0.01977539 0.07421875 -0.10205078 0.045166016 0.234375 -0.265625
0001c0 84 3e 3d be 83 be 52 3d 8d 3e 4e be 88 be 70 3e
       0.2578125 -0.18457031 -0.25585938 0.05126953 0.27539062 -0.20117188 -0.265625 0.234375
0001d0 0a be 80 be 84 be a6 bd 8f be 81 be f7 3d 17 bd
       -0.13476562 -0.25 -0.2578125 -0.08105469 -0.27929688 -0.25195312 0.12060547 -0.036865234
0001e0 b4 3d 1b 3e 69 3d 78 3e 26 be 3e 3e 91 bc 67 3e
       0.087890625 0.15136719 0.056884766 0.2421875 -0.16210938 0.18554688 -0.017700195 0.22558594
0001f0 35 3e 5c be 24 be b9 bd 01 3d 29 3e f4 3d 3e 3e
       0.17675781 -0.21484375 -0.16015625 -0.09033203 0.03149414 0.16503906 0.119140625 0.18554688

layer_8.gate_k.net.0.weight bf16 [8, 64]
000000 f1 bd 03 bc 80 bd 60 bd e2 bd 50 3d e5 bd 11 bd
       -0.11767578 -0.0079956055 -0.0625 -0.0546875 -0.11035156 0.05078125 -0.111816406 -0.03540039
000010 5d 3d 98 3b 91 3d 66 3d 8d 3d a4 3d 80 bd 3a 3d
       0.053955078 0.004638672 0.07080078 0.056152344 0.068847656 0.080078125 -0.0625 0.045410156
000020 27 bd 02 3d 86 bd 31 3d 16 bd 52 bd 80 bd f9 3c
       -0.040771484 0.03173828 -0.06542969 0.04321289 -0.036621094 -0.05126953 -0.0625 0.030395508
000030 ef 3d 7b 3d 0e bd 1d bd 92 3d b2 bd 07 bd 2d bd
       0.11669922 0.061279297 -0.03466797 -0.038330078 0.07128906 -0.08691406 -0.032958984 -0.042236328
000040 94 3d 80 bd 49 3d 33 3d b0 3d 02 bd ea 3d d9 bd
       0.072265625 -0.0625 0.049072266 0.043701172 0.0859375 -0.03173828 0.11425781 -0.10595703
000050 2b bd ff bd 0b 3d 33 bd 62 bd 7d 3d 21 bd de bd
       -0.041748047 -0.12451172 0.033935547 -0.043701172 -0.05517578 0.061767578 -0.03930664 -0.10839844
000060 c5 3d 9e 3d 81 3d cc 3d 68 3d 88 3d d4 3d 33 3d
       0.096191406 0.07714844 0.06298828 0.099609375 0.056640625 0.06640625 0.103515625 0.043701172
000070 c8 bd 80 bd 40 bd 06 bd e9 3c 95 3d 4d 3d bd bd
       -0.09765625 -0.0625 -0.046875 -0.032714844 0.028442383 0.072753906 0.050048828 -0.092285156
000080 80 3c 00 3d 9c 3d 80 bd 1a bd 66 bd 27 bd 1f bd
       0.015625 0.03125 0.076171875 -0.0625 -0.037597656 -0.056152344 -0.040771484 -0.03881836
000090 fa bd e4 3d 88 3d 08 bc a0 bd 66 bd 92 3d b8 bd
       -0.12207031 0.111328125 0.06640625 -0.008300781 -0.078125 -0.056152344 0.07128906 -0.08984375
0000a0 57 3d 1d 3d a5 bd 80 bd c1 bd ed 3d 8a 3d ed bd
       0.052490234 0.038330078 -0.080566406 -0.0625 -0.09423828 0.115722656 0.06738281 -0.115722656
0000b0 8d bd 3e 3d 20 bd 51 bd d1 bd 89 bd 5f 3d c3 bd
       -0.068847656 0.04638672 -0.0390625 -0.05102539 -0.10205078 -0.06689453 0.05444336 -0.095214844
0000c0 04 3d 33 3d 85 3d ef bc 5c 3d 80 3d 4c 3d 1a bd
       0.032226562 0.043701172 0.064941406 -0.029174805 0.053710938 0.0625 0.049804688 -0.037597656
0000d0 c3 3d fa 3d 7f 3d 80 bd df bd fd bd 29 bd 3d bd
       0.095214844 0.12207031 0.06225586 -0.0625 -0.10888672 -0.123535156 -0.041259766 -0.046142578
0000e0 0f bd 1d bd f2 3d f3 3d 61 bc 04 3d 33 3d 13 3d
       -0.03491211 -0.038330078 0.11816406 0.118652344 -0.01373291 0.032226562 0.043701172 0.035888672
0000f0 f4 bd 00 bd f5 3d cb bd 93 3c 45 3d d0 bd db bd
       -0.119140625 -0.03125 0.119628906 -0.099121094 0.017944336 0.048095703 -0.1015625 -0.106933594
000100 bf 3d 31 bd 95 3d 14 3d da bc ab bd ee bc a9 3d
       0.09326172 -0.04321289 0.072753906 0.036132812 -0.026611328 -0.083496094 -0.029052734 0.08251953
000110 5c 3d 2a bd 20 3b c4 3d e0 bd a4 3d 1c bd 1a bd
       0.053710938 -0.041503906 0.0024414062 0.095703125 -0.109375 0.080078125 -0.038085938 -0.037597656
000120 55 3d d5 bd 01 3d f5 3d 36 3d 3f bd fb bc cb 3d
       0.052001953 -0.104003906 0.03149414 0.119628906 0.044433594 -0.04663086 -0.030639648 0.099121094
000130 0c 3d ae 3d a5 bd 43 3d 96 3c f9 bb ee 3d 8e 3d
       0.034179688 0.08496094 -0.080566406 0.047607422 0.018310547 -0.007598877 0.11621094 0.06933594
000140 b0 3d 6e 3d 3a 3d 9a 3c e2 bd d8 bd 9f bd a6 bd
       0.0859375 0.05810547 0.045410156 0.018798828 -0.11035156 -0.10546875 -0.07763672 -0.08105469
000150 80 3d 2b 3d 20 bd c3 bd fc 3d c0 3d 70 3d fd 3d
       0.0625 0.041748047 -0.0390625 -0.095214844 0.123046875 0.09375 0.05859375 0.123535156
000160 88 bd 92 bd 96 bd dc 3c e2 bd cb 3d 7e 3c 49 3d
       -0.06640625 -0.07128906 -0.07324219 0.026855469 -0.11035156 0.099121094 0.01550293 0.049072266
000170 8d bd 00 3d 19 3d 07 bd f2 3d 72 bd 31 3d ae bd
       -0.068847656 0.03125 0.037353516 -0.032958984 0.11816406 -0.05908203 0.04321289 -0.08496094
000180 9e bc 09 bd 7a 3d b3 3d d8 bc c9 bc 00 3d c9 3d
       -0.01928711 -0.033447266 0.061035156 0.087402344 -0.026367188 -0.024536133 0.03125 0.09814453
000190 0c bd b9 3d 43 bd d3 3d ff 3d af 3d 93 3d 1c 3d
       -0.034179688 0.09033203 -0.047607422 0.103027344 0.12451172 0.08544922 0.071777344 0.038085938
0001a0 80 bd e9 3c 50 3d 01 bd 90 3c 96 3d ed bd e9 bd
       -0.0625 0.028442383 0.05078125 -0.03149414 0.017578125 0.07324219 -0.115722656 -0.11376953
0001b0 99 bd 8c bc 3b bb 1a 3d 07 bd a8 bd 35 3d ad 3d
       -0.07470703 -0.017089844 -0.0028533936 0.037597656 -0.032958984 -0.08203125 0.044189453 0.084472656
0001c0 9a bd e0 3d 00 bd fc 3d eb bd f5 bd 07 3d ef bd
       -0.07519531 0.109375 -0.03125 0.123046875 -0.114746094 -0.119628906 0.032958984 -0.11669922
0001d0 d2 bd 82 3d 5f 3d e9 bd b8 3d a3 bc be 3d 96 bd
       -0.10253906 0.06347656 0.05444336 -0.11376953 0.08984375 -0.019897461 0.09277344 -0.07324219
0001e0 f3 bd aa bd fc 3c 00 be b1 bc 7d bd 13 bd 17 bd
       -0.118652344 -0.08300781 0.030761719 -0.125 -0.021606445 -0.061767578 -0.035888672 -0.036865234
0001f0 8c bc fa bd 84 3d 9d bd 9b 3d eb 3d 31 bd 00 bd
       -0.017089844 -0.12207031 0.064453125 -0.076660156 0.075683594 0.114746094 -0.04321289 -0.03125

layer_8.gate_k.net.0.bias bf16 [8]
000000 d5 3d 95 3d ba bd 02 bd 88 3d 1a bd 81 bd f9 3d
       0.104003906 0.072753906 -0.09082031 -0.03173828 0.06640625 -0.037597656 -0.06298828 0.12158203

layer_8.gate_k.net.2.weight bf16 [8, 8]
000000 7e be 93 be eb 3d 19 3e c9 bc 0c bd 18 3e 80 3e
       -0.24804688 -0.28710938 0.114746094 0.14941406 -0.024536133 -0.034179688 0.1484375 0.25
000010 2f be e3 3d 05 be 3b be 3c be 87 be 99 3e f6 bd
       -0.17089844 0.110839844 -0.12988281 -0.18261719 -0.18359375 -0.26367188 0.29882812 -0.12011719
000020 cc bd 80 bd 6c be 6b 3e e2 bd 40 3e d2 3d b4 be
       -0.099609375 -0.0625 -0.23046875 0.22949219 -0.11035156 0.1875 0.10253906 -0.3515625
000030 a6 be b0 be a2 3e a5 3e f8 3d 16 be ee 3d 89 be
       -0.32421875 -0.34375 0.31640625 0.32226562 0.12109375 -0.14648438 0.11621094 -0.26757812
000040 1d bd 80 bd 78 3e 96 3c 0a bd 36 bd ae 3e 7d be
       -0.038330078 -0.0625 0.2421875 0.018310547 -0.033691406 -0.044433594 0.33984375 -0.24707031
000050 24 3e a3 be 85 3d 98 be 30 3e a2 3e 2e be a2 3e
       0.16015625 -0.31835938 0.064941406 -0.296875 0.171875 0.31640625 -0.16992188 0.31640625
000060 a2 be 2d 3e 78 3d a6 bd 61 bd 11 3e 84 bd af be
       -0.31640625 0.16894531 0.060546875 -0.08105469 -0.05493164 0.14160156 -0.064453125 -0.34179688
000070 03 be 9a 3e 9c be f4 bd 15 3e 84 3e 88 be 7b be
       -0.12792969 0.30078125 -0.3046875 -0.119140625 0.14550781 0.2578125 -0.265625 -0.24511719

layer_8.gate_k.net.2.bias bf16 [8]
000000 5a 3e 76 3e 6b 3e 50 3e 9a be ef 3d 4e bd 18 bd
       0.21289062 0.24023438 0.22949219 0.203125 -0.30078125 0.11669922 -0.05029297 -0.037109375

layer_8.gate_v.net.0.weight bf16 [8, 64]
000000 45 bd f8 3d 09 3d af bd 82 3d 00 3d 9c bd 52 bd
       -0.048095703 0.12109375 0.033447266 -0.08544922 0.06347656 0.03125 -0.076171875 -0.05126953
000010 a0 bd 2d bb df bc 12 bd 1c bb 8c bd fe bd 80 bc
       -0.078125 -0.0026397705 -0.02722168 -0.03564453 -0.002380371 -0.068359375 -0.12402344 -0.015625
000020 f0 3d bf bd 02 3d 83 bd af 3c 0b 3d 79 bd d7 bd
       0.1171875 -0.09326172 0.03173828 -0.063964844 0.021362305 0.033935547 -0.060791016 -0.10498047
000030 c2 bc 50 bc b9 3d 5c 3d 93 3d 9f bd f0 bd 97 bd
       -0.02368164 -0.0126953125 0.09033203 0.053710938 0.071777344 -0.07763672 -0.1171875 -0.07373047
000040 ce bd e2 bb 32 bd 0b bd 1f bd 09 bd 9a bc fb 3d
       -0.10058594 -0.0068969727 -0.04345703 -0.033935547 -0.03881836 -0.033447266 -0.018798828 0.122558594
000050 05 bd d2 3d e6 3d 7c 3d da ba 0f 3d a5 bd 8b 3b
       -0.032470703 0.10253906 0.11230469 0.061523438 -0.001663208 0.03491211 -0.080566406 0.0042419434
000060 64 bd c4 bd d4 bd 6f bd eb 3c 00 3b 18 3c 26 3d
       -0.055664062 -0.095703125 -0.103515625 -0.05834961 0.028686523 0.001953125 0.009277344 0.040527344
000070 17 3d ac 3d 3e 3c 07 3d aa 3c 3f bd ac bd 1d bd
       0.036865234 0.083984375 0.01159668 0.032958984 0.020751953 -0.04663086 -0.083984375 -0.038330078
000080 f4 bd f2 3c cb bd 1e bd 40 bd dd 3d cd bd 15 bd
       -0.119140625 0.029541016 -0.099121094 -0.03857422 -0.046875 0.107910156 -0.100097656 -0.036376953
000090 58 3d e4 3c d0 3d b4 3c 93 3d 9a bd 9f 3d 6d 3c
       0.052734375 0.027832031 0.1015625 0.021972656 0.071777344 -0.07519531 0.07763672 0.014465332
0000a0 2e bd 54 bd 35 3d 88 3d b9 bd c6 bd 52 3d e3 bd
       -0.04248047 -0.051757812 0.044189453 0.06640625 -0.09033203 -0.09667969 0.05126953 -0.110839844
0000b0 f1 bd b9 3d 1f 3d c5 3c 06 bb 46 3d b4 bd d5 3d
       -0.11767578 0.09033203 0.03881836 0.024047852 -0.0020446777 0.048339844 -0.087890625 0.104003906
0000c0 80 bc a8 3c f2 bd 3b bc 9c bd 90 3d f3 bd e6 3d
       -0.015625 0.020507812 -0.11816406 -0.011413574 -0.076171875 0.0703125 -0.118652344 0.11230469
0000d0 0b bd 26 bd 08 bd d1 bd 2a 3d d1 3d 38 bd 96 bc
       -0.033935547 -0.040527344 -0.033203125 -0.10205078 0.041503906 0.10205078 -0.044921875 -0.018310547
0000e0 d5 bd 0f 3d be 3d cc 3d 2f 3d 7c 3d bc bd 4f bd
       -0.104003906 0.03491211 0.09277344 0.099609375 0.04272461 0.061523438 -0.091796875 -0.05053711
0000f0 f8 3d c2 3c 57 3d be bd d3 bd ca 3d 80 bd 8e bd
       0.12109375 0.02368164 0.052490234 -0.09277344 -0.103027344 0.09863281 -0.0625 -0.06933594
000100 14 3c a6 bc 66 3d a0 3d e3 3d 03 bd 22 bd c9 bd
       0.009033203 -0.020263672 0.056152344 0.078125 0.110839844 -0.031982422 -0.03955078 -0.09814453
000110 84 bd 26 bc 83 bd 06 3b 8f bc 91 3d e0 bd 64 bc
       -0.064453125 -0.010131836 -0.063964844 0.0020446777 -0.017456055 0.07080078 -0.109375 -0.013916016
000120 41 bd 2b 3c 8a bd fc bd 90 bc 3b 3c de 3d ae bd
       -0.04711914 0.010437012 -0.06738281 -0.123046875 -0.017578125 0.011413574 0.10839844 -0.08496094
000130 ad bc cf 3d f7 3d c0 3c 80 bd 97 3d c0 bd d7 bd
       -0.021118164 0.10107422 0.12060547 0.0234375 -0.0625 0.07373047 -0.09375 -0.10498047
000140 ed bb 96 bd 35 3d 3a bd b9 bd 43 bd a7 bd b5 bd
       -0.007232666 -0.07324219 0.044189453 -0.045410156 -0.09033203 -0.047607422 -0.08154297 -0.088378906
000150 87 3d ba bc 5c bd f9 bd c4 3d 97 bd cf 3d d7 bd
       0.06591797 -0.022705078 -0.053710938 -0.12158203 0.095703125 -0.07373047 0.10107422 -0.10498047
000160 5e bd f6 3d 54 3d a4 bd a8 bd 81 bd 5a 3d 86 3d
       -0.05419922 0.12011719 0.051757812 -0.080078125 -0.08203125 -0.06298828 0.053222656 0.06542969
000170 45 bd d7 bd ab bd a0 3d a7 3c 55 3d 82 3d a5 bd
       -0.048095703 -0.10498047 -0.083496094 0.078125 0.020385742 0.052001953 0.06347656 -0.080566406
000180 bd bd b6 bd fc 3d a4 3c f9 bb f9 bd 18 bb f1 bd
       -0.092285156 -0.08886719 0.123046875 0.020019531 -0.007598877 -0.12158203 -0.002319336 -0.11767578
000190 a6 bd 86 3c df bd 60 3d b6 3d 71 bd ba 3d c4 3d
       -0.08105469 0.016357422 -0.10888672 0.0546875 0.08886719 -0.05883789 0.09082031 0.095703125
0001a0 ec bd 06 bc d2 bc be bc 8e 3d 84 bd a8 bd a6 3c
       -0.115234375 -0.008178711 -0.025634766 -0.02319336 0.06933594 -0.064453125 -0.08203125 0.020263672
0001b0 93 3c 8a bd 73 bd e9 bd 91 3d 87 bd 3f 3d d4 bd
       0.017944336 -0.06738281 -0.059326172 -0.11376953 0.07080078 -0.06591797 0.04663086 -0.103515625
0001c0 ab bd ad bc fe 3d b7 3b b2 bc fe bc 2c 3b 17 bd
       -0.083496094 -0.021118164 0.12402344 0.005584717 -0.021728516 -0.03100586 0.0026245117 -0.036865234
0001d0 c6 3d 02 3b 84 3d 2f 3b c0 3d 9f bd 86 bd 51 bd
       0.09667969 0.0019836426 0.064453125 0.002670288 0.09375 -0.07763672 -0.06542969 -0.05102539
0001e0 44 bd 76 bc 5c 3d bd bd b4 bd 9b 3d 81 3d fd 3c
       -0.047851562 -0.015014648 0.053710938 -0.092285156 -0.087890625 0.075683594 0.06298828 0.030883789
0001f0 5a 3d 09 bc 2b bd c4 bc 0a bd 48 bd 9f bd 82 3c
       0.053222656 -0.008361816 -0.041748047 -0.023925781 -0.033691406 -0.048828125 -0.07763672 0.01586914

layer_8.gate_v.net.0.bias bf16 [8]
000000 ff 3d ac 3d ba bc 91 3d c8 bd 93 3d 80 3d fd 3d
       0.12451172 0.083984375 -0.022705078 0.07080078 -0.09765625 0.071777344 0.0625 0.123535156

layer_8.gate_v.net.2.weight bf16 [8, 8]
000000 ce bd 70 be 97 3e b1 3e 80 bc 9f 3d b0 3e 99 be
       -0.10058594 -0.234375 0.29492188 0.34570312 -0.015625 0.07763672 0.34375 -0.29882812
000010 de bd 85 be 2d 3e 72 3e 9c be 74 bd a4 be 86 3e
       -0.10839844 -0.25976562 0.16894531 0.23632812 -0.3046875 -0.059570312 -0.3203125 0.26171875
000020 90 3e e5 3d 17 bd 3b bd 72 3e f9 3d 8a be 8f 3d
       0.28125 0.111816406 -0.036865234 -0.045654297 0.23632812 0.12158203 -0.26953125 0.06982422
000030 90 3e 6b 3e 80 be 8d be 63 3e 93 3e 36 be 62 be
       0.28125 0.22949219 -0.25 -0.27539062 0.22167969 0.28710938 -0.17773438 -0.22070312
000040 a8 3d 37 be 3b 3e 08 3e 8f 3e 92 bd d5 bd 8e be
       0.08203125 -0.17871094 0.18261719 0.1328125 0.27929688 -0.07128906 -0.104003906 -0.27734375
000050 a1 3e 39 3e da 3c 5d be 97 3e a6 3e b5 bd 52 be
       0.31445312 0.18066406 0.026611328 -0.21582031 0.29492188 0.32421875 -0.088378906 -0.20507812
000060 1d be 6d 3e 9c be 24 be 07 bd 6b 3e 85 bd 85 be
       -0.15332031 0.23144531 -0.3046875 -0.16015625 -0.032958984 0.22949219 -0.064941406 -0.25976562
000070 75 be eb 3d 06 bd b3 bd 64 3e 0a 3e 70 bd da bd
       -0.23925781 0.114746094 -0.032714844 -0.087402344 0.22265625 0.13476562 -0.05859375 -0.10644531

layer_8.gate_v.net.2.bias bf16 [8]
000000 6e be b3 be 2e 3e 80 bd 96 3e 02 be af be 46 be
       -0.23242188 -0.34960938 0.16992188 -0.0625 0.29296875 -0.12695312 -0.34179688 -0.19335938

layer_9.Wk bf16 [64, 8]
000000 0f be 17 3e 90 be 5f be 0f bd 1d 3d c6 bd 27 be
       -0.13964844 0.14746094 -0.28125 -0.21777344 -0.03491211 0.038330078 -0.09667969 -0.16308594
000010 61 be d4 3c 56 be 7e be 25 be 37 be 57 3d 3f 3e
       -0.21972656 0.025878906 -0.20898438 -0.24804688 -0.16113281 -0.17871094 0.052490234 0.18652344
000020 e6 3d 06 3e 86 3e 80 bd a3 bd 18 bd 9c 3d 1d be
       0.11230469 0.13085938 0.26171875 -0.0625 -0.079589844 -0.037109375 0.076171875 -0.15332031
000030 2d 3d 40 be 37 3e 8f be fe 3d 80 3d a0 bd 08 be
       0.042236328 -0.1875 0.17871094 -0.27929688 0.12402344 0.0625 -0.078125 -0.1328125
000040 57 3e a8 3d 83 bd 89 bd 06 3d bd bd 31 bd 18 be
       0.20996094 0.08203125 -0.063964844 -0.06689453 0.032714844 -0.092285156 -0.04321289 -0.1484375
000050 08 3d 7f be aa bd 04 3d 33 be 99 3d 37 3d 19 3e
       0.033203125 -0.24902344 -0.08300781 0.032226562 -0.17480469 0.07470703 0.044677734 0.14941406
000060 2e be da 3d 6e 3e 91 be 24 3d 1b 3e 45 3e 2a 3e
       -0.16992188 0.10644531 0.23242188 -0.28320312 0.040039062 0.15136719 0.19238281 0.16601562
000070 57 3d 36 be 2f 3e 6f be fa 3c 1a 3d 76 3e e7 bd
       0.052490234 -0.17773438 0.17089844 -0.23339844 0.030517578 0.037597656 0.24023438 -0.11279297
000080 f9 bd c3 3d 51 be 22 3e 3c 3e 12 3d 14 3e 32 3e
       -0.12158203 0.095214844 -0.20410156 0.15820312 0.18359375 0.03564453 0.14453125 0.17382812
000090 1f 3d 85 3e 63 be 24 3e d3 bd 53 be 83 bc 58 be
       0.03881836 0.25976562 -0.22167969 0.16015625 -0.103027344 -0.20605469 -0.015991211 -0.2109375
0000a0 20 3e a1 3d 00 bd 15 3d 42 be 5d 3e 50 be 19 be
       0.15625 0.07861328 -0.03125 0.036376953 -0.18945312 0.21582031 -0.203125 -0.14941406
0000b0 6f 3e cc bd 04 bd 85 be 4f be 80 bd 3f be 19 bd
       0.23339844 -0.099609375 -0.032226562 -0.25976562 -0.20214844 -0.0625 -0.18652344 -0.037353516
0000c0 8e 3e e7 bc 4a 3d ed 3d 82 3e 42 bd 7d be 81 be
       0.27734375 -0.028198242 0.049316406 0.115722656 0.25390625 -0.04736328 -0.24707031 -0.25195312
0000d0 65 be bd 3d 36 3e 31 3e e5 bd 2b bd 87 3d cf bd
       -0.22363281 0.092285156 0.17773438 0.17285156 -0.111816406 -0.041748047 0.06591797 -0.10107422
0000e0 06 bd 94 3d 65 be e0 3d 19 bd c4 bd 18 be 36 be
       -0.032714844 0.072265625 -0.22363281 0.109375 -0.037353516 -0.095703125 -0.1484375 -0.17773438
0000f0 74 be 14 3e 08 bd 57 3e 74 be 47 be a3 3d 39 be
       -0.23828125 0.14453125 -0.033203125 0.20996094 -0.23828125 -0.19433594 0.079589844 -0.18066406
000100 5c 3e 47 3e 92 be 49 3e 20 be 5f 3e 3f bc fe 3d
       0.21484375 0.19433594 -0.28515625 0.19628906 -0.15625 0.21777344 -0.011657715 0.12402344
000110 32 3d 6b 3e 02 3d 68 be 93 3e 05 bd c1 bd 82 3d
       0.04345703 0.22949219 0.03173828 -0.2265625 0.28710938 -0.032470703 -0.09423828 0.06347656
000120 57 be 3c 3d 35 3d fb 3c 78 3e b0 bd 15 3d cd 3d
       -0.20996094 0.045898438 0.044189453 0.030639648 0.2421875 -0.0859375 0.036376953 0.100097656
000130 25 3e fb bd 79 3e 2d 3d 84 be f8 3d 36 be 0c 3d
       0.16113281 -0.122558594 0.24316406 0.042236328 -0.2578125 0.12109375 -0.17773438 0.034179688
000140 0b 3e 80 bd 06 bd 6e 3c 89 3e 30 be 82 bc 3d be
       0.13574219 -0.0625 -0.032714844 0.014526367 0.26757812 -0.171875 -0.01586914 -0.18457031
000150 87 3c 1e be e4 bd 56 3e 6f 3e 57 3e 9f bd 26 3d
       0.016479492 -0.15429688 -0.111328125 0.20898438 0.23339844 0.20996094 -0.07763672 0.040527344
000160 6c be 25 3e 84 3e cf bd 0b 3d a2 bc 93 be 43 be
       -0.23046875 0.16113281 0.2578125 -0.10107422 0.033935547 -0.01977539 -0.28710938 -0.19042969
000170 70 be 1c 3e 3a be b1 3d 03 be 1e be c2 bd 0b bd
       -0.234375 0.15234375 -0.18164062 0.08642578 -0.12792969 -0.15429688 -0.09472656 -0.033935547
000180 8f 3e 6f be 3a 3e 8f 3e 12 be 4d be d2 3d 46 be
       0.27929688 -0.23339844 0.18164062 0.27929688 -0.14257812 -0.20019531 0.10253906 -0.19335938
000190 bf bd 90 3d d0 bd 60 3e 93 3e e3 bd 8b 3e 10 bd
       -0.09326172 0.0703125 -0.1015625 0.21875 0.28710938 -0.110839844 0.27148438 -0.03515625
0001a0 24 be 3c be 86 3e 0e 3d 2e be 39 3d 33 bd 57 be
       -0.16015625 -0.18359375 0.26171875 0.03466797 -0.16992188 0.045166016 -0.043701172 -0.20996094
0001b0 03 be 6a 3e e2 3d 55 3e 29 be 2f 3e 91 be b8 3d
       -0.12792969 0.22851562 0.11035156 0.20800781 -0.16503906 0.17089844 -0.28320312 0.08984375
0001c0 67 3e 63 bb fb bd 0b 3d f9 3d 68 bd 14 be f9 3d
       0.22558594 -0.0034637451 -0.122558594 0.033935547 0.12158203 -0.056640625 -0.14453125 0.12158203
0001d0 89 3e 82 3e a0 3d 08 bd 03 3d 00 3d 8e be ef bd
       0.26757812 0.25390625 0.078125 -0.033203125 0.031982422 0.03125 -0.27734375 -0.11669922
0001e0 3b 3e 62 3d ce 3d 27 3e 6f be 7a be b6 3d 80 bc
       0.18261719 0.05517578 0.10058594 0.16308594 -0.23339844 -0.24414062 0.08886719 -0.015625
0001f0 65 3e 79 be 46 3e 90 3e 20 bd e5 3d 82 be 02 3d
       0.22363281 -0.24316406 0.19335938 0.28125 -0.0390625 0.111816406 -0.25390625 0.03173828

layer_9.Uk bf16 [64, 8]
000000 f6 3d 50 bc 3c be 88 bd 22 bd ec 3d 07 3d 02 be
       0.12011719 -0.0126953125 -0.18359375 -0.06640625 -0.03955078 0.115234375 0.032958984 -0.12695312
000010 0e be 1e bd 3b 3e f7 3d a1 3d 19 3d 76 be 13 be
       -0.13867188 -0.03857422 0.18261719 0.12060547 0.07861328 0.037353516 -0.24023438 -0.14355469
000020 10 be 83 be a4 3d 96 3d 91 be 96 3d e3 bd 4c be
       -0.140625 -0.25585938 0.080078125 0.07324219 -0.28320312 0.07324219 -0.110839844 -0.19921875
000030 1e be c7 bd 8c 3e 87 be 16 3d 72 be 9e bd f9 3d
       -0.15429688 -0.09716797 0.2734375 -0.26367188 0.036621094 -0.23632812 -0.07714844 0.12158203
000040 5c 3e 2c 3e 57 be 30 bd 84 3d 0f be 82 3e 89 3e
       0.21484375 0.16796875 -0.20996094 -0.04296875 0.064453125 -0.13964844 0.25390625 0.26757812
000050 40 be 08 bd a6 bc 20 3e 2b bb 92 3e 86 bd 2c be
       -0.1875 -0.033203125 -0.020263672 0.15625 -0.002609253 0.28515625 -0.06542969 -0.16796875
000060 47 be 81 3e 37 bb 89 3d 43 be 5f 3e 13 3e 1d 3e
       -0.19433594 0.25195312 -0.0027923584 0.06689453 -0.19042969 0.21777344 0.14355469 0.15332031
000070 bc 3d 57 be ca bd a0 3d 39 be 21 be 0e 3e 2c be
       0.091796875 -0.20996094 -0.09863281 0.078125 -0.18066406 -0.15722656 0.13867188 -0.16796875
000080 90 3e 5a bd d5 3d 5f bc 38 be 99 3d 34 be 8a be
       0.28125 -0.053222656 0.104003906 -0.01361084 -0.1796875 0.07470703 -0.17578125 -0.26953125
000090 45 3d 06 be 17 be 18 be 53 be 59 bc 10 3e a4 3d
       0.048095703 -0.13085938 -0.14746094 -0.1484375 -0.20605469 -0.013244629 0.140625 0.080078125
0000a0 a7 3d 93 3e f4 3c 73 be 84 3e 40 be ec 3d 36 3e
       0.08154297 0.28710938 0.029785156 -0.23730469 0.2578125 -0.1875 0.115234375 0.17773438
0000b0 6c 3e 37 3e 5a be 0e be 26 3e 8a 3e 80 3d d5 3d
       0.23046875 0.17871094 -0.21289062 -0.13867188 0.16210938 0.26953125 0.0625 0.104003906
0000c0 56 be 32 3e 1f be 88 3e 8a be 58 be a5 bc d1 bc
       -0.20898438 0.17382812 -0.15527344 0.265625 -0.26953125 -0.2109375 -0.020141602 -0.025512695
0000d0 dd 3d 73 be 9d 3d 53 3e 23 be 86 bd 78 3e 6c 3e
       0.107910156 -0.23730469 0.076660156 0.20605469 -0.15917969 -0.06542969 0.2421875 0.23046875
0000e0 85 3e f4 3c 8a 3e b6 3d 80 3d 85 3e 93 3e b1 bd
       0.25976562 0.029785156 0.26953125 0.08886719 0.0625 0.25976562 0.28710938 -0.08642578
0000f0 a3 bd 5d be 71 3e e3 bd a5 bd 0a be 1c be 16 bd
       -0.079589844 -0.21582031 0.23535156 -0.110839844 -0.080566406 -0.13476562 -0.15234375 -0.036621094
000100 74 3e 88 3c 1a bd 28 be 50 be 80 bd 4b be 90 3e
       0.23828125 0.016601562 -0.037597656 -0.1640625 -0.203125 -0.0625 -0.19824219 0.28125
000110 1b be 3f 3e 41 3e 06 3d 82 3d 85 3c c7 bd 4f 3c
       -0.15136719 0.18652344 0.18847656 0.032714844 0.06347656 0.016235352 -0.09716797 0.012634277
000120 af 3c 03 be 3d be 52 be 70 3e 0e 3e 00 3d a7 bc
       0.021362305 -0.12792969 -0.18457031 -0.20507812 0.234375 0.13867188 0.03125 -0.020385742
000130 66 be 8c be 93 be a7 bc c4 3c e6 bd 24 be 1f bd
       -0.22460938 -0.2734375 -0.28710938 -0.020385742 0.023925781 -0.11230469 -0.16015625 -0.03881836
000140 60 bc 3b bd 09 bd 7d 3e ee bd 46 3e cd 3d 8b 3d
       -0.013671875 -0.045654297 -0.033447266 0.24707031 -0.11621094 0.19335938 0.100097656 0.067871094
000150 57 bc 9a 3d 7e 3e 8c bd 15 3d 82 3d 87 be cf 3d
       -0.013122559 0.07519531 0.24804688 -0.068359375 0.036376953 0.06347656 -0.26367188 0.10107422
000160 d8 3d 51 be 8b be 46 be 54 3e 23 3e 40 be 46 3e
       0.10546875 -0.20410156 -0.27148438 -0.19335938 0.20703125 0.15917969 -0.1875 0.19335938
000170 1e bd f1 3d 78 be 1d be 0f be b6 3d 9d 3d 06 be
       -0.03857422 0.11767578 -0.2421875 -0.15332031 -0.13964844 0.08886719 0.076660156 -0.13085938
000180 56 be 91 be 8d be 67 3e 27 be 68 be 50 be 8b bd
       -0.20898438 -0.28320312 -0.27539062 0.22558594 -0.16308594 -0.2265625 -0.203125 -0.067871094
000190 28 be 4b 3e 46 be d4 3d 8b 3e 79 be 4f be 2c 3e
       -0.1640625 0.19824219 -0.19335938 0.103515625 0.27148438 -0.24316406 -0.20214844 0.16796875
0001a0 51 be 4e bd 4f be 6d be 69 3e 7b be e9 bc c9 3d
       -0.20410156 -0.05029297 -0.20214844 -0.23144531 0.22753906 -0.24511719 -0.028442383 0.09814453
0001b0 8a be c4 bc 80 3c a9 bd 54 3e 3d 3d 4e bd 09 bd
       -0.26953125 -0.023925781 0.015625 -0.08251953 0.20703125 0.046142578 -0.05029297 -0.033447266
0001c0 54 bd 09 be 90 3e 80 3d 45 3e df bd 5a be 06 3e
       -0.051757812 -0.13378906 0.28125 0.0625 0.19238281 -0.10888672 -0.21289062 0.13085938
0001d0 9d 3c 94 3e 87 be e8 3d 75 3e 56 be 0f be 56 3e
       0.019165039 0.2890625 -0.26367188 0.11328125 0.23925781 -0.20898438 -0.13964844 0.20898438
0001e0 6a be 86 3e fb bd 7f be 34 3e 44 3e bf bd 9a 3d
       -0.22851562 0.26171875 -0.122558594 -0.24902344 0.17578125 0.19140625 -0.09326172 0.07519531
0001f0 90 3e 14 3d 82 3d 08 3e 02 3c d5 3d 18 be 3c be
       0.28125 0.036132812 0.06347656 0.1328125 0.00793457 0.104003906 -0.1484375 -0.18359375

layer_9.Wv bf16 [64, 8]
000000 c3 bd f0 3b 3d be 8f bd 38 be 2c bd ae 3d 2e be
       -0.095214844 0.0073242188 -0.18457031 -0.06982422 -0.1796875 -0.041992188 0.08496094 -0.16992188
000010 06 be 61 3e bd 3d 24 be 02 be 83 be 20 3d e7 bd
       -0.13085938 0.21972656 0.092285156 -0.16015625 -0.12695312 -0.25585938 0.0390625 -0.11279297
000020 0a be cf bd 8b be 01 3e 67 3e 17 3e 4a be e5 3d
       -0.13476562 -0.10107422 -0.27148438 0.12597656 0.22558594 0.14746094 -0.19726562 0.111816406
000030 07 3e 01 be 00 3e db 3d d2 bd 64 3e 93 be 28 3e
       0.13183594 -0.12597656 0.125 0.106933594 -0.10253906 0.22265625 -0.28710938 0.1640625
000040 21 3d 23 be cc bc 84 be 17 be a4 3d f8 3c 6c be
       0.03930664 -0.15917969 -0.024902344 -0.2578125 -0.14746094 0.080078125 0.030273438 -0.23046875
000050 49 3d 54 be 4c 3d 16 be 3f 3e 45 3e 05 be 51 3d
       0.049072266 -0.20703125 0.049804688 -0.14648438 0.18652344 0.19238281 -0.12988281 0.05102539
000060 d3 3d 0f be 4f bb 97 bd 87 be e7 3c 1f be 7d be
       0.103027344 -0.13964844 -0.0031585693 -0.07373047 -0.26367188 0.028198242 -0.15527344 -0.24707031
000070 87 be f5 bc 54 3c f8 3d 4e be 6f bc 85 3e 58 be
       -0.26367188 -0.029907227 0.012939453 0.12109375 -0.20117188 -0.014587402 0.25976562 -0.2109375
000080 43 be 58 be 67 be 4a 3e 45 be 51 3e 42 be 65 3e
       -0.19042969 -0.2109375 -0.22558594 0.19726562 -0.19238281 0.20410156 -0.18945312 0.22363281
000090 7a 3e 8b be 8c 3e 81 3d 6a bd 94 be c1 bd e3 bd
       0.24414062 -0.27148438 0.2734375 0.06298828 -0.057128906 -0.2890625 -0.09423828 -0.110839844
0000a0 aa bc 24 be 4f be 91 3d 4e 3e ee bd 3a 3e 33 bc
       -0.020751953 -0.16015625 -0.20214844 0.07080078 0.20117188 -0.11621094 0.18164062 -0.010925293
0000b0 57 be 7c be 33 be 8a be d4 3d 31 3e 15 3d 16 3e
       -0.20996094 -0.24609375 -0.17480469 -0.26953125 0.103515625 0.17285156 0.036376953 0.14648438
0000c0 5a 3e 6f be d3 3d 1b be 01 3d 44 bd 5a be 10 3d
       0.21289062 -0.23339844 0.103027344 -0.15136719 0.03149414 -0.047851562 -0.21289062 0.03515625
0000d0 5d 3d cc 3d ef 3d 6f be 47 3d e9 3d 1a be 27 3e
       0.053955078 0.099609375 0.11669922 -0.23339844 0.048583984 0.11376953 -0.15039062 0.16308594
0000e0 dd 3d 83 3e 8f bd 88 be 7a 3e 0e be 48 3e 84 be
       0.107910156 0.25585938 -0.06982422 -0.265625 0.24414062 -0.13867188 0.1953125 -0.2578125
0000f0 8f be f5 3d 1b bd 7c 3e 16 3e 7c 3e e1 3d 26 3e
       -0.27929688 0.119628906 -0.037841797 0.24609375 0.14648438 0.24609375 0.10986328 0.16210938
000100 0b be 35 be 86 be 61 3e 8f be 5c 3d 24 be 6e 3e
       -0.13574219 -0.17675781 -0.26171875 0.21972656 -0.27929688 0.053710938 -0.16015625 0.23242188
000110 c4 3d f3 3c 3d bc 81 be 70 be 4b 3d c5 3d 88 3e
       0.095703125 0.029663086 -0.0115356445 -0.25195312 -0.234375 0.049560547 0.096191406 0.265625
000120 78 be cb 3d 6c 3e 6f be 48 be 79 3e b5 3d bc bd
       -0.2421875 0.099121094 0.23046875 -0.23339844 -0.1953125 0.24316406 0.088378906 -0.091796875
000130 f1 bc fb bc 8b 3e ac bd 47 be 42 be 9f bb 3f 3e
       -0.029418945 -0.030639648 0.27148438 -0.083984375 -0.19433594 -0.18945312 -0.004852295 0.18652344
000140 40 be 58 be 6c be 0d bd 4a be d8 bd 1b bd 25 be
       -0.1875 -0.2109375 -0.23046875 -0.034423828 -0.19726562 -0.10546875 -0.037841797 -0.16113281
000150 a1 bc 69 3e 38 bd 88 be e1 3d a1 3d e9 bd 5d be
       -0.01965332 0.22753906 -0.044921875 -0.265625 0.10986328 0.07861328 -0.11376953 -0.21582031
000160 82 be e7 3d 21 3e 5b 3c 30 be 5d 3e 70 be e0 3d
       -0.25390625 0.11279297 0.15722656 0.013366699 -0.171875 0.21582031 -0.234375 0.109375
000170 68 be 8a be 88 be 30 3e 91 3e c9 3d 53 be 7e be
       -0.2265625 -0.26953125 -0.265625 0.171875 0.28320312 0.09814453 -0.20605469 -0.24804688
000180 70 3e 1d bd 3a be 40 be 35 3d 12 be 4a 3e bc 3d
       0.234375 -0.038330078 -0.18164062 -0.1875 0.044189453 -0.14257812 0.19726562 0.091796875
000190 29 3e f8 bb 82 3d 2c 3e f7 3d 9c 3d 60 3e 69 3e
       0.16503906 -0.0075683594 0.06347656 0.16796875 0.12060547 0.076171875 0.21875 0.22753906
0001a0 5b be 1a be 34 3e 83 3e ac bd d0 bd f4 3d f8 bd
       -0.21386719 -0.15039062 0.17578125 0.25585938 -0.083984375 -0.1015625 0.119140625 -0.12109375
0001b0 3a be 1f 3e a1 3d 73 bd 72 3e 73 be e8 3d bc bd
       -0.18164062 0.15527344 0.07861328 -0.059326172 0.23632812 -0.23730469 0.11328125 -0.091796875
0001c0 33 be 1e bc 78 be 16 3e 9c bd 83 be 92 bd 0c be
       -0.17480469 -0.009643555 -0.2421875 0.14648438 -0.076171875 -0.25585938 -0.07128906 -0.13671875
0001d0 d2 3d 67 3e 8c 3e 5e 3e 8a be 17 be d8 bd 52 be
       0.10253906 0.22558594 0.2734375 0.21679688 -0.26953125 -0.14746094 -0.10546875 -0.20507812
0001e0 82 3d 39 3e db 3d 9c bd 50 bd 9f bd 78 3e e1 3b
       0.06347656 0.18066406 0.106933594 -0.076171875 -0.05078125 -0.07763672 0.2421875 0.006866455
0001f0 45 bd 85 bd 87 be 4f 3e a6 3d 4f be 5d 3e 19 be
       -0.048095703 -0.064941406 -0.26367188 0.20214844 0.08105469 -0.20214844 0.21582031 -0.14941406
