empty_dirs_for_codex/outputs/runs_recovery/recovery_vonly_lambda5_tuned_single/main_contr_vonly_tuned_loto_overwrite_lambda5/checkpoints/train_state_step_2500.pt (torch, 44204 bytes, 48 tensors)

layer_10.Wk bf16 [64, 4]
00000000: 0a3e 89be 5f3d 7fbe 143e 883e 12be 883e
00000010: 88be 113e 4f3d 8bbd 28bd f33d 5ebd 93be
00000020: dcbd 813e 83be cdbd fb3d 5e3e 65be 52be
00000030: 383e 4f3e 463e 2f3e 82be c93d 30bc 3b3d
00000040: e9bd 933e 84bc 50be 1e3e ccbb 3ebe 06be
00000050: 40be 6f3d 833d a8bd c83c 25be 97be ebbb
00000060: 903e 63be 713d 19be 3fbd 8e3d 16be 82be
00000070: 97bb b5bc 5c3e f33d 2f3e 3fbe 8fbe 38be
00000080: 74be 2abc b5bd dfbc acbd 49bd 873d 953e
00000090: 7bbd 7a3e 893e 123e a1bd a23d 47be cfbc
000000a0: 0ebe 69be 81be dcbd 983d cdbb 283c ff3d
000000b0: ae3d 4c3e 92bd 8c3d 42bb d1bd 4cbe a9bd
000000c0: 90be 103d 72be d4bd eebd 823e 78be 91bd
000000d0: da3d ac3d 7a3e 943d 333e 37be 3d3e d33b
000000e0: 07bd 09be e13d 1d3e 5fbe 6bbe f33d 87be
000000f0: 8fbe 5c3e c23d bb3c e1ba fd3d 59be 7d3e
00000100: 2abd ef3c 90be 943c 3abe 2b3e 90be 893e
00000110: 8fbd d0bd faba 79be c43d 783e 00be c6bd
00000120: 7dbe 943d 603e 783e c33d 083e 5fbe f5bd
00000130: 943e 903b f73d 61be 7bbe 703e 07be 24be
00000140: 53bc b1bc 053e 3e3e 873e b4bd 9ebd 6ebe
00000150: 1abe 63bd 1cbe ef3b 83bd 2f3e 85be c5bb
00000160: e6bd a43c 24be 96be e3bb da3c 843e 4fbe
00000170: 35bd 763e 923e 3a3d 14be 333e 5cbe 7fbe
00000180: d13c 32be c23d 04be 5cbe debd 46be 56be
00000190: 203e f4bc 02be 95be 693e 34be 783e 81be
000001a0: 0cbe 923e ff3d 43be 47be 19be e83d 1f3e
000001b0: e2bd 7fbe 4bbe 3e3e 543d f93d 1d3e 44be
000001c0: 65be 59be 963e 103c 8b3c 94be 483d 8dbe
000001d0: 47be 9c3c 88be 083e 583e ffbd 5d3e 6d3e
000001e0: 8cbe 783c a1bd 3dbd 2b3e 1cbe 4abe 0b3d
000001f0: 7e3d 24be 05be 89be 2c3e 1bbe 133e 7cbe
0.13476562 -0.26757812 0.05444336 -0.24902344 0.14453125 0.265625 -0.14257812 0.265625
-0.265625 0.14160156 0.05053711 -0.067871094 -0.041015625 0.118652344 -0.05419922 -0.28710938
-0.107421875 0.25195312 -0.25585938 -0.100097656 0.122558594 0.21679688 -0.22363281 -0.20507812
0.1796875 0.20214844 0.19335938 0.17089844 -0.25390625 0.09814453 -0.0107421875 0.045654297
-0.11376953 0.28710938 -0.016113281 -0.203125 0.15429688 -0.006225586 -0.18554688 -0.13085938
-0.1875 0.05834961 0.063964844 -0.08203125 0.024414062 -0.16113281 -0.29492188 -0.007171631
0.28125 -0.22167969 0.05883789 -0.14941406 -0.04663086 0.06933594 -0.14648438 -0.25390625
-0.0046081543 -0.022094727 0.21484375 0.118652344 0.17089844 -0.18652344 -0.27929688 -0.1796875
-0.23828125 -0.010375977 -0.088378906 -0.02722168 -0.083984375 -0.049072266 0.06591797 0.29101562
-0.061279297 0.24414062 0.26757812 0.14257812 -0.07861328 0.07910156 -0.19433594 -0.025268555
-0.13867188 -0.22753906 -0.25195312 -0.107421875 0.07421875 -0.0062561035 0.010253906 0.12451172
0.08496094 0.19921875 -0.07128906 0.068359375 -0.002960205 -0.10205078 -0.19921875 -0.08251953
-0.28125 0.03515625 -0.23632812 -0.103515625 -0.11621094 0.25390625 -0.2421875 -0.07080078
0.10644531 0.083984375 0.24414062 0.072265625 0.17480469 -0.17871094 0.18457031 0.006439209
-0.032958984 -0.13378906 0.10986328 0.15332031 -0.21777344 -0.22949219 0.118652344 -0.26367188
-0.27929688 0.21484375 0.09472656 0.022827148 -0.0017166138 0.123535156 -0.21191406 0.24707031
-0.041503906 0.029174805 -0.28125 0.018066406 -0.18164062 0.16699219 -0.28125 0.26757812
-0.06982422 -0.1015625 -0.0019073486 -0.24316406 0.095703125 0.2421875 -0.125 -0.09667969
-0.24707031 0.072265625 0.21875 0.2421875 0.095214844 0.1328125 -0.21777344 -0.119628906
0.2890625 0.0043945312 0.12060547 -0.21972656 -0.24511719 0.234375 -0.13183594 -0.16015625
-0.012878418 -0.021606445 0.12988281 0.18554688 0.26367188 -0.087890625 -0.07714844 -0.23242188
-0.15039062 -0.055419922 -0.15234375 0.007293701 -0.063964844 0.17089844 -0.25976562 -0.006011963
-0.11230469 0.020019531 -0.16015625 -0.29296875 -0.0069274902 0.026611328 0.2578125 -0.20214844
-0.044189453 0.24023438 0.28515625 0.045410156 -0.14453125 0.17480469 -0.21484375 -0.24902344
0.025512695 -0.17382812 0.09472656 -0.12890625 -0.21484375 -0.10839844 -0.19335938 -0.20898438
0.15625 -0.029785156 -0.12695312 -0.29101562 0.22753906 -0.17578125 0.2421875 -0.25195312
-0.13671875 0.28515625 0.12451172 -0.19042969 -0.19433594 -0.14941406 0.11328125 0.15527344
-0.11035156 -0.24902344 -0.19824219 0.18554688 0.051757812 0.12158203 0.15332031 -0.19140625
-0.22363281 -0.21191406 0.29296875 0.0087890625 0.016967773 -0.2890625 0.048828125 -0.27539062
-0.19433594 0.019042969 -0.265625 0.1328125 0.2109375 -0.12451172 0.21582031 0.23144531
-0.2734375 0.015136719 -0.07861328 -0.046142578 0.16699219 -0.15234375 -0.19726562 0.033935547
0.06201172 -0.16015625 -0.12988281 -0.26757812 0.16796875 -0.15136719 0.14355469 -0.24609375

layer_10.Uk bf16 [64, 4]
00000000: 4bbe 20bc 973e 1ebd eabc 86bd 2f3d bcbd
00000010: 6b3e f83c 1d3e 213c 643e 40be 1bbe f1bd
00000020: fdbd ae3c 0d3e 60be 56be 383e 0c3e 803d
00000030: 013e 0e3d d0bd 43bd a0bd 00be 39be 37bd
00000040: 44be 30be 3ebe 8d3e 963e 273e 78bd a03d
00000050: fc3d 3e3d 1d3e e53d c53d 913e 7dbe e93c
00000060: 743e 793e acbd 4b3e 35be 99bc 8a3e 4fbd
00000070: 1e3e 983e 02be 023e efbd a7bd 623e c13d
00000080: 84be 8f3e 573e 293e 0a3d 0c3e bebd d4bd
00000090: 203e 3e3d 923e af3b 8bbc 313e 14be 87be
000000a0: 233c 963e 68be 3f3d 47be 83be 10bb d8bd
000000b0: 91bd c93d 8fbd 083d e8bb 683e d23d dcbd
000000c0: 65be 4a3e 01bd f53d 04be 583e 4e3e 683c
000000d0: 9e3d 743d e73d 18bd 83be 55be 3c3d 97be
000000e0: 91be 28be 1d3e b6bc 58be 4bbe ecbd 60be
000000f0: 8e3e 43be 21be 56be dcbd 723e df3d b53c
00000100: 96be f63d 8e3e 9cbb 4f3e c4bd 8fbe f3bb
00000110: f33d 06be 8d3c 4b3d 923e 1fbe 84be 0ebe
00000120: 5b3e 0dbe a0bc 5bbe 1dbe 83be b63d 4d3e
00000130: 22bd b0bc 9c3d 33bd cc3c fa3d 6a3e 1b3e
00000140: 953d 823e 88be 48be 773e 8d3e 0ebe 6f3e
00000150: 0cbd aabd 3cbc 9ebd a83d b93c c3ba 00be
00000160: 393e 3cbe 86bb 483e 22be 4bbe a23d 7cbe
00000170: febd 853e 2f3e 8a3e 91be 8fbe 973d d83d
00000180: 30be db3d 523d 01be 8e3e 6a3e 7c3e c6bd
00000190: e73a 11be 793e 8a3e 17be b13d 813e 1b3d
000001a0: cdbd 3abd 48be 953e 18be 853d 85be ea3c
000001b0: 573e 7abe d83d c93b 253e 0fbe 36be 08be
000001c0: 31bd 803e 95bc 5fbe 2dbe 90bd b2bd d3bc
000001d0: f5bd 11be aa3d b63d ffbd e63d f1bd 643c
000001e0: 7bbd f63b 783e f6bd 893e 5ebc 4fbe d53d
000001f0: 093d 953e 693e 8dbe 833e 8b3e 1f3e 78bc
-0.19824219 -0.009765625 0.29492188 -0.03857422 -0.028564453 -0.06542969 0.04272461 -0.091796875
0.22949219 0.030273438 0.15332031 0.00982666 0.22265625 -0.1875 -0.15136719 -0.11767578
-0.123535156 0.021240234 0.13769531 -0.21875 -0.20898438 0.1796875 0.13671875 0.0625
0.12597656 0.03466797 -0.1015625 -0.047607422 -0.078125 -0.125 -0.18066406 -0.044677734
-0.19140625 -0.171875 -0.18554688 0.27539062 0.29296875 0.16308594 -0.060546875 0.078125
0.123046875 0.04638672 0.15332031 0.111816406 0.096191406 0.28320312 -0.24707031 0.028442383
0.23828125 0.24316406 -0.083984375 0.19824219 -0.17675781 -0.018676758 0.26953125 -0.05053711
0.15429688 0.296875 -0.12695312 0.12695312 -0.11669922 -0.08154297 0.22070312 0.09423828
-0.2578125 0.27929688 0.20996094 0.16503906 0.033691406 0.13671875 -0.09277344 -0.103515625
0.15625 0.04638672 0.28515625 0.005340576 -0.016967773 0.17285156 -0.14453125 -0.26367188
0.0099487305 0.29296875 -0.2265625 0.04663086 -0.19433594 -0.25585938 -0.0021972656 -0.10546875
-0.07080078 0.09814453 -0.06982422 0.033203125 -0.007080078 0.2265625 0.10253906 -0.107421875
-0.22363281 0.19726562 -0.03149414 0.119628906 -0.12890625 0.2109375 0.20117188 0.014160156
0.07714844 0.059570312 0.11279297 -0.037109375 -0.25585938 -0.20800781 0.045898438 -0.29492188
-0.28320312 -0.1640625 0.15332031 -0.022216797 -0.2109375 -0.19824219 -0.115234375 -0.21875
0.27734375 -0.19042969 -0.15722656 -0.20898438 -0.107421875 0.23632812 0.10888672 0.022094727
-0.29296875 0.12011719 0.27734375 -0.004760742 0.20214844 -0.095703125 -0.27929688 -0.0074157715
0.118652344 -0.13085938 0.017211914 0.049560547 0.28515625 -0.15527344 -0.2578125 -0.13867188
0.21386719 -0.13769531 -0.01953125 -0.21386719 -0.15332031 -0.25585938 0.08886719 0.20019531
-0.03955078 -0.021484375 0.076171875 -0.043701172 0.024902344 0.12207031 0.22851562 0.15136719
0.072753906 0.25390625 -0.265625 -0.1953125 0.24121094 0.27539062 -0.13867188 0.23339844
-0.034179688 -0.08300781 -0.011474609 -0.07714844 0.08203125 0.022583008 -0.0014877319 -0.125
0.18066406 -0.18359375 -0.0040893555 0.1953125 -0.15820312 -0.19824219 0.07910156 -0.24609375
-0.12402344 0.25976562 0.17089844 0.26953125 -0.28320312 -0.27929688 0.07373047 0.10546875
-0.171875 0.106933594 0.05126953 -0.12597656 0.27734375 0.22851562 0.24609375 -0.09667969
0.0017623901 -0.14160156 0.24316406 0.26953125 -0.14746094 0.08642578 0.25195312 0.037841797
-0.100097656 -0.045410156 -0.1953125 0.29101562 -0.1484375 0.064941406 -0.25976562 0.028564453
0.20996094 -0.24414062 0.10546875 0.006134033 0.16113281 -0.13964844 -0.17773438 -0.1328125
-0.04321289 0.25 -0.018188477 -0.21777344 -0.16894531 -0.0703125 -0.08691406 -0.025756836
-0.119628906 -0.14160156 0.08300781 0.08886719 -0.12451172 0.11230469 -0.11767578 0.013916016
-0.061279297 0.007507324 0.2421875 -0.12011719 0.26757812 -0.013549805 -0.20214844 0.104003906
0.033447266 0.29101562 0.22753906 -0.27539062 0.25585938 0.27148438 0.15527344 -0.015136719

layer_10.Wv bf16 [64, 4]
00000000: 933e 323c f63c fbbc 243e f93c 96bc edbd
00000010: 02bd 1c3e 223e 8f3e 513d 8dbe 39be 12be
00000020: 973b 7ebe 733e 7f3e 5cbe 9ebd 3abe 26be
00000030: 8c3e 11be 093e 233e 093d 3fbe 9b3b 32bd
00000040: 983e 523e 40bc 223e 6ebe 2f3e 0f3e 963e
00000050: adbd 4abe 7d3e 943e cbbc 863d 943e 81be
00000060: babd 60be 113e 4b3e 83be 9ebc 8abe 603e
00000070: 733e c53d 3bbd 41bd 4b3e d13d 68be 2dbd
00000080: 733e 463e 57be 6ebe 3f3e 763e 19be 3ebe
00000090: 8d3d 1abe 1d3e e53d 703e 5cbd b3bd 6ebe
000000a0: 873e 1c3e ccbc 39be 7e3e 8b3e 97bd 30be
000000b0: 04be 473e 83be 0abe f03c 463e 003d 60be
000000c0: 4ebe c63d 633d 97bd 3f3e e73d babc b2bd
000000d0: 48be 96be 123e 923c 7b3e dabd 93be 27be
000000e0: 50be 2fbd 86be f53d 5b3e 173a 97be d43d
000000f0: 81bd 9f3d b6bd 68be 76be b43d c0bd 893e
00000100: c63c 9d3c 483e 8e3e dd3d 803e 743e 973e
00000110: 7ebe f73d 0bbe 5bbe 00bd 5f3e 843e b8bb
00000120: fc3d 003d 22bc 99bd 0cbe 3fbe 8bbe 8d3c
00000130: 8f3e dd3d c2bc 81be 9abc 8ebe 02bc debd
00000140: 723e 413e 82be 2c3e 9cbd 95be d2bd 443d
00000150: 273e 823c 673e 88be 04be 97be ef3c 5abe
00000160: 303e 383e fdbd 8d3e 53be 66be a33c 853d
00000170: 893e 4fbe 6e3e f53d 15be 47be cb3d e93b
00000180: 743e 22bc 8cbe bfbd ecbd 2fbe 883c 013e
00000190: 3ebe 80bd 04be 3f3e 6a3e 7b3e 953e 11be
000001a0: 55be 5a3e 043e 8cb7 2abe 73be cabd 7b3e
000001b0: 1abe 42be e03d 813e 683c a13d 453e b2bd
000001c0: 89be 013d 2bbe f23d 20be 8e3e d23c 713e
000001d0: 58be 82be 11be 95bd 673e 6cbe ebbd b53d
000001e0: 97bc 05be 493e 2cbe 103e 923d 2bbe 03bd
000001f0: be3d a13c bcbd 143e 03be 89bd 3e3c 14bd
0.28710938 0.010864258 0.030029297 -0.030639648 0.16015625 0.030395508 -0.018310547 -0.115722656
-0.03173828 0.15234375 0.15820312 0.27929688 0.05102539 -0.27539062 -0.18066406 -0.14257812
0.0046081543 -0.24804688 0.23730469 0.24902344 -0.21484375 -0.07714844 -0.18164062 -0.16210938
0.2734375 -0.14160156 0.13378906 0.15917969 0.033447266 -0.18652344 0.0047302246 -0.04345703
0.296875 0.20507812 -0.01171875 0.15820312 -0.23242188 0.17089844 0.13964844 0.29296875
-0.084472656 -0.19726562 0.24707031 0.2890625 -0.024780273 0.06542969 0.2890625 -0.25195312
-0.09082031 -0.21875 0.14160156 0.19824219 -0.25585938 -0.01928711 -0.26953125 0.21875
0.23730469 0.096191406 -0.045654297 -0.04711914 0.19824219 0.10205078 -0.2265625 -0.042236328
0.23730469 0.19335938 -0.20996094 -0.23242188 0.18652344 0.24023438 -0.14941406 -0.18554688
0.068847656 -0.15039062 0.15332031 0.111816406 0.234375 -0.053710938 -0.087402344 -0.23242188
0.26367188 0.15234375 -0.024902344 -0.18066406 0.24804688 0.27148438 -0.07373047 -0.171875
-0.12890625 0.19433594 -0.25585938 -0.13476562 0.029296875 0.19335938 0.03125 -0.21875
-0.20117188 0.09667969 0.055419922 -0.07373047 0.18652344 0.11279297 -0.022705078 -0.08691406
-0.1953125 -0.29296875 0.14257812 0.017822266 0.24511719 -0.10644531 -0.28710938 -0.16308594
-0.203125 -0.04272461 -0.26171875 0.119628906 0.21386719 0.0005760193 -0.29492188 0.103515625
-0.06298828 0.07763672 -0.08886719 -0.2265625 -0.24023438 0.087890625 -0.09375 0.26757812
0.024169922 0.019165039 0.1953125 0.27734375 0.107910156 0.25 0.23828125 0.29492188
-0.24804688 0.12060547 -0.13574219 -0.21386719 -0.03125 0.21777344 0.2578125 -0.0056152344
0.123046875 0.03125 -0.009887695 -0.07470703 -0.13671875 -0.18652344 -0.27148438 0.017211914
0.27929688 0.107910156 -0.02368164 -0.25195312 -0.018798828 -0.27734375 -0.00793457 -0.10839844
0.23632812 0.18847656 -0.25390625 0.16796875 -0.076171875 -0.29101562 -0.10253906 0.047851562
0.16308594 0.01586914 0.22558594 -0.265625 -0.12890625 -0.29492188 0.029174805 -0.21289062
0.171875 0.1796875 -0.123535156 0.27539062 -0.20605469 -0.22460938 0.019897461 0.064941406
0.26757812 -0.20214844 0.23242188 0.119628906 -0.14550781 -0.19433594 0.099121094 0.0071105957
0.23828125 -0.009887695 -0.2734375 -0.09326172 -0.115234375 -0.17089844 0.016601562 0.12597656
-0.18554688 -0.0625 -0.12890625 0.18652344 0.22851562 0.24511719 0.29101562 -0.14160156
-0.20800781 0.21289062 0.12890625 -1.66893e-05 -0.16601562 -0.23730469 -0.09863281 0.24511719
-0.15039062 -0.18945312 0.109375 0.25195312 0.014160156 0.07861328 0.19238281 -0.08691406
-0.26757812 0.03149414 -0.16699219 0.11816406 -0.15625 0.27734375 0.025634766 0.23535156
-0.2109375 -0.25390625 -0.14160156 -0.072753906 0.22558594 -0.23046875 -0.114746094 0.088378906
-0.018432617 -0.12988281 0.19628906 -0.16796875 0.140625 0.07128906 -0.16699219 -0.031982422
0.09277344 0.01965332 -0.091796875 0.14453125 -0.12792969 -0.06689453 0.01159668 -0.036132812

layer_10.Uv bf16 [64, 4]
00000000: 04bd feb9 81be 3fbe 9d3d 7c3e 47be adbd
00000010: 42be 6dbe 87be b43d fd3c 1cbe 943e 44bd
00000020: 3fbd 983e 59be cbbd 73be c33d 8cbd 95be
00000030: 86bb 1ebb 8b3e 00bd 5fbe 2e3e 2e3e f63d
00000040: f9bd 343e c9bd b83b d03d ffbd 863e 883e
00000050: 253d 333c 21be 503e ebbd 843e acbc 6f3e
00000060: 1c3e 5d3e a3bd 1e3d 87be 313e 793c 4abe
00000070: b4bd 86be 763e 80bd 86bd c73c 5dbc 3d3e
00000080: 32be 743e 1bbe a63c 7a3c 63bb 41bb f83d
00000090: 35be 3bbe 443e 79be 643e 94be 16bc f73d
000000a0: 083e 29bc cfbc 923e 6ebe 033d 403e 8d3e
000000b0: 87bd 893e f13d 16bc 653e 273e 88be 803d
000000c0: 8dbe 46be 34bc 843d 953e a6bd 743e 8f3e
000000d0: 17bd 8d3e 9ebc de3d fabc 353e e13d 0abc
000000e0: 5cbe 3b3e d8bc 923e 4cbe 52be d7bd 583e
000000f0: debd 183c 243c c3bd 7f3d 54be 18be 0f3e
00000100: 50be 693e 923e c23d 89be c13d 8f3c 5ebe
00000110: f9bd 933e 1b3e 6b3e a4bd 503c 1cbe a43c
00000120: 893e 963e 4c3e 46be 00bc 9bbb 953c 97bd
00000130: afbd 5fbe a03c 67be 823c 8abe 6b3e 6bbe
00000140: d63d 973e 503e 983e f0bd 74be 82be 9e3b
00000150: 56be e8bd 11be 943e c63d a8bc 12be a3bd
00000160: 893e ff3d 093e 023d 91be 803d 6b3e 593e
00000170: b93d 6abe 123e 48be 6c3e 363e 613e 69be
00000180: 7c3d 1cbe 6d3e 393e 953e 03bd d0bd 773e
00000190: 533e 29bd 023e 05be 2e3e 453e 463e 20be
000001a0: e03d 3cbd 943e a3bd 3bbe 82be 883e 8cbe
000001b0: 87bd f6bd 2ebe 88bd 95bd 83be 05be 073e
000001c0: ed3d 883e 9f3c 81be 233e d0bd b0bd 103e
000001d0: 983e 823e dd3a 383d 833d aabd 593e 8f3d
000001e0: 423e e1bc 8ebc 4b3e 09be 863e 31be 633e
000001f0: 4bbe 77be 7cbe c7bc ec3d d2bc 5ebe d7bd
-0.032226562 -0.00048446655 -0.25195312 -0.18652344 0.076660156 0.24609375 -0.19433594 -0.084472656
-0.18945312 -0.23144531 -0.26367188 0.087890625 0.030883789 -0.15234375 0.2890625 -0.047851562
-0.04663086 0.296875 -0.21191406 -0.099121094 -0.23730469 0.095214844 -0.068359375 -0.29101562
-0.0040893555 -0.0024108887 0.27148438 -0.03125 -0.21777344 0.16992188 0.16992188 0.12011719
-0.12158203 0.17578125 -0.09814453 0.0056152344 0.1015625 -0.12451172 0.26171875 0.265625
0.040283203 0.010925293 -0.15722656 0.203125 -0.114746094 0.2578125 -0.020996094 0.23339844
0.15234375 0.21582031 -0.079589844 0.03857422 -0.26367188 0.17285156 0.015197754 -0.19726562
-0.087890625 -0.26171875 0.24023438 -0.0625 -0.06542969 0.024291992 -0.0134887695 0.18457031
-0.17382812 0.23828125 -0.15136719 0.020263672 0.015258789 -0.0034637451 -0.0029449463 0.12109375
-0.17675781 -0.18261719 0.19140625 -0.24316406 0.22265625 -0.2890625 -0.009155273 0.12060547
0.1328125 -0.010314941 -0.025268555 0.28515625 -0.23242188 0.031982422 0.1875 0.27539062
-0.06591797 0.26757812 0.11767578 -0.009155273 0.22363281 0.16308594 -0.265625 0.0625
-0.27539062 -0.19335938 -0.010986328 0.064453125 0.29101562 -0.08105469 0.23828125 0.27929688
-0.036865234 0.27539062 -0.01928711 0.10839844 -0.030517578 0.17675781 0.10986328 -0.008422852
-0.21484375 0.18261719 -0.026367188 0.28515625 -0.19921875 -0.20507812 -0.10498047 0.2109375
-0.10839844 0.009277344 0.010009766 -0.095214844 0.06225586 -0.20703125 -0.1484375 0.13964844
-0.203125 0.22753906 0.28515625 0.09472656 -0.26757812 0.09423828 0.017456055 -0.21679688
-0.12158203 0.28710938 0.15136719 0.22949219 -0.080078125 0.0126953125 -0.15234375 0.020019531
0.26757812 0.29296875 0.19921875 -0.19335938 -0.0078125 -0.0047302246 0.018188477 -0.07373047
-0.08544922 -0.21777344 0.01953125 -0.22558594 0.01586914 -0.26953125 0.22949219 -0.22949219
0.10449219 0.29492188 0.203125 0.296875 -0.1171875 -0.23828125 -0.25390625 0.0048217773
-0.20898438 -0.11328125 -0.14160156 0.2890625 0.09667969 -0.020507812 -0.14257812 -0.079589844
0.26757812 0.12451172 0.13378906 0.03173828 -0.28320312 0.0625 0.22949219 0.21191406
0.09033203 -0.22851562 0.14257812 -0.1953125 0.23046875 0.17773438 0.21972656 -0.22753906
0.061523438 -0.15234375 0.23144531 0.18066406 0.29101562 -0.031982422 -0.1015625 0.24121094
0.20605469 -0.041259766 0.12695312 -0.12988281 0.16992188 0.19238281 0.19335938 -0.15625
0.109375 -0.045898438 0.2890625 -0.079589844 -0.18261719 -0.25390625 0.265625 -0.2734375
-0.06591797 -0.12011719 -0.16992188 -0.06640625 -0.072753906 -0.25585938 -0.12988281 0.13183594
0.115722656 0.265625 0.01940918 -0.25195312 0.15917969 -0.1015625 -0.0859375 0.140625
0.296875 0.25390625 0.0016860962 0.044921875 0.063964844 -0.08300781 0.21191406 0.06982422
0.18945312 -0.02746582 -0.017333984 0.19824219 -0.13378906 0.26171875 -0.17285156 0.22167969
-0.19824219 -0.24121094 -0.24609375 -0.024291992 0.115234375 -0.025634766 -0.21679688 -0.10498047

layer_10.gate_k.net.0.weight bf16 [4, 64]
00000000: f1bd c9bc 76bd 09bd e2bd 4d3d e5bd 03bc
00000010: 323d 2dbd 913d 813c 8d3d a43d 62bd 3a3d
00000020: 5ebd 203d 86bd 6d3d cf3c 48bd 7bbd 043d
00000030: ef3d 763d 46bc c7bb 923d b2bd 2a3d 2abd
00000040: 943d 37bd cb3b 2d3d b03d 97bc ea3d d9bd
00000050: b7bc ffbd 2a3c 113d 4fbd 553d a6bc debd
00000060: c53d 9e3d 813d cc3d 3c3d 883d d43d cebc
00000070: c8bd 7cbd 89bc 61bc 5eba 933d 243d bdbd
00000080: 1abd f1bc 9c3d 3abd 56bd a5bc 02bd fcbc
00000090: fabd e43d 883d 72bd a0bd 8e3b 923d b8bd
000000a0: 41bd 563d a5bd 64bc c1bd ed3d 8a3d edbd
000000b0: 8dbd 353d e03b 083d d1bd 89bd 683d c3bd
000000c0: d7bc 613d 853d ff3b 143d 643d 6fbc 0cbd
000000d0: c33d fa3d 6d3d 60bd dfbd fdbd 633a 44bd
000000e0: 01bd 90bc f23d f33d 3fbc 1abd 793d 23bc
000000f0: f4bd 273d f53d cbbd ddbc de3c d0bd dbbd
00000100: bf3d 35bd 953d 373c fa3c abbd dbbc a93d
00000110: 6b3d 14bd 7c3c c43d e0bd a43d 1abd d0bc
00000120: 743d d5bd 9bbc f53d 383d 3dbd dfbc ca3d
00000130: 413d ae3d a5bd 143d b73c b23c ee3d 8e3d
00000140: b03d 613d 573d b2bc e2bd d8bd 9fbd a6bd
00000150: 713d 1e3d 12bd c3bd fc3d c03d 733d fd3d
00000160: 88bd 92bd 96bd c6bb e2bd cb3d 533b 7f3d
00000170: 8dbd 53bc 873c 0cbd f23d 6abd 1f3d aebd
00000180: 72bc 08bd 5d3d b33d f93c 3abc 03bd c93d
00000190: f2bc b93d 64bd d33d ff3d af3d 933d 3f3d
000001a0: 7cbd c43a 303d 06bd b83c 963d edbd e9bd
000001b0: 99bd 7a3c bebc dd3c f4bc a8bd 883c ad3d
000001c0: 9abd e03d fc3c fc3d ebbd f5bd 2e3d efbd
000001d0: d2bd 823d 793d e9bd b83d c7bc be3d 96bd
000001e0: f3bd aabd 9fbc 00be 0cbc 80bd eebc 95b7
000001f0: e63b fabd 843d 9dbd 9c3d eb3d 2bbd 663c
-0.11767578 -0.024536133 -0.060058594 -0.033447266 -0.11035156 0.050048828 -0.111816406 -0.0079956055
0.04345703 -0.042236328 0.07080078 0.01574707 0.068847656 0.080078125 -0.05517578 0.045410156
-0.05419922 0.0390625 -0.06542969 0.057861328 0.025268555 -0.048828125 -0.061279297 0.032226562
0.11669922 0.060058594 -0.012084961 -0.006072998 0.07128906 -0.08691406 0.041503906 -0.041503906
0.072265625 -0.044677734 0.0061950684 0.042236328 0.0859375 -0.018432617 0.11425781 -0.10595703
-0.022338867 -0.12451172 0.010375977 0.03540039 -0.05053711 0.052001953 -0.020263672 -0.10839844
0.096191406 0.07714844 0.06298828 0.099609375 0.045898438 0.06640625 0.103515625 -0.025146484
-0.09765625 -0.061523438 -0.016723633 -0.01373291 -0.0008468628 0.071777344 0.040039062 -0.092285156
-0.037597656 -0.029418945 0.076171875 -0.045410156 -0.052246094 -0.020141602 -0.03173828 -0.030761719
-0.12207031 0.111328125 0.06640625 -0.05908203 -0.078125 0.004333496 0.07128906 -0.08984375
-0.04711914 0.052246094 -0.080566406 -0.013916016 -0.09423828 0.115722656 0.06738281 -0.115722656
-0.068847656 0.044189453 0.0068359375 0.033203125 -0.10205078 -0.06689453 0.056640625 -0.095214844
-0.026245117 0.05493164 0.064941406 0.0077819824 0.036132812 0.055664062 -0.014587402 -0.034179688
0.095214844 0.12207031 0.057861328 -0.0546875 -0.10888672 -0.123535156 0.0008659363 -0.047851562
-0.03149414 -0.017578125 0.11816406 0.118652344 -0.011657715 -0.037597656 0.060791016 -0.0099487305
-0.119140625 0.040771484 0.119628906 -0.099121094 -0.026977539 0.02709961 -0.1015625 -0.106933594
0.09326172 -0.044189453 0.072753906 0.011169434 0.030517578 -0.083496094 -0.026733398 0.08251953
0.057373047 -0.036132812 0.015380859 0.095703125 -0.109375 0.080078125 -0.037597656 -0.025390625
0.059570312 -0.104003906 -0.018920898 0.119628906 0.044921875 -0.046142578 -0.02722168 0.09863281
0.04711914 0.08496094 -0.080566406 0.036132812 0.022338867 0.021728516 0.11621094 0.06933594
0.0859375 0.05493164 0.052490234 -0.021728516 -0.11035156 -0.10546875 -0.07763672 -0.08105469
0.05883789 0.03857422 -0.03564453 -0.095214844 0.123046875 0.09375 0.059326172 0.123535156
-0.06640625 -0.07128906 -0.07324219 -0.0060424805 -0.11035156 0.099121094 0.0032196045 0.06225586
-0.068847656 -0.012878418 0.016479492 -0.034179688 0.11816406 -0.057128906 0.03881836 -0.08496094
-0.014770508 -0.033203125 0.053955078 0.087402344 0.030395508 -0.011352539 -0.031982422 0.09814453
-0.029541016 0.09033203 -0.055664062 0.103027344 0.12451172 0.08544922 0.071777344 0.04663086
-0.061523438 0.0014953613 0.04296875 -0.032714844 0.022460938 0.07324219 -0.115722656 -0.11376953
-0.07470703 0.015258789 -0.02319336 0.026977539 -0.029785156 -0.08203125 0.016601562 0.084472656
-0.07519531 0.109375 0.030761719 0.123046875 -0.114746094 -0.119628906 0.04248047 -0.11669922
-0.10253906 0.06347656 0.060791016 -0.11376953 0.08984375 -0.024291992 0.09277344 -0.07324219
-0.118652344 -0.08300781 -0.01940918 -0.125 -0.008544922 -0.0625 -0.029052734 -1.7762184e-05
0.007019043 -0.12207031 0.064453125 -0.076660156 0.076171875 0.114746094 -0.041748047 0.014038086

layer_10.gate_k.net.0.bias bf16 [4]
00000000: 8d3d 22bc d6bd 663d
0.068847656 -0.009887695 -0.10449219 0.056152344

layer_10.gate_k.net.2.weight bf16 [4, 4]
00000000: 743e 8cbe acbe b3bd c93d 81be 45bc 5dbe
00000010: 47be 8cbd 43be c53e 073e e53e e73e a73d
0.23828125 -0.2734375 -0.3359375 -0.087402344 0.09814453 -0.25195312 -0.012023926 -0.21582031
-0.19433594 -0.068359375 -0.19042969 0.38476562 0.13183594 0.44726562 0.45117188 0.08154297

layer_10.gate_k.net.2.bias bf16 [4]
00000000: 55be 9c3e 8fbc be3e
-0.20800781 0.3046875 -0.017456055 0.37109375

layer_10.gate_v.net.0.weight bf16 [4, 64]
00000000: 4e3d e23d 3abd 843c a7bd bd3d 783d 0dbd
00000010: 253d aebc 81bd 1ebd 0f3c 9f3d 803d 003d
00000020: 24bd 00bd cc3d c13d ed3c 1bbd e83d 803d
00000030: 9cbc 983d 803d 11bd 113d 803d 3a3d 8d3c
00000040: f13d 743d d3bd a33d 0a3d 463d 183d 0a3d
00000050: 803d e13d 873d 80bd 863d 01bd a93d 79bd
00000060: 233d ed3d 803d 413d 803d 03bd b83c ddbd
00000070: f73d f43d b0bd 56bd d43d 803d 803d bf3d
00000080: 803d 5abd d5bd efbb 98bd 59bd b5bd a33d
00000090: 0abd 80bd 94bd c6bc 2bbd 723d 803d 60bd
000000a0: 33bd 15bd 20bd 803d a5bd 5bbd 79bd f3bd
000000b0: 653d 80bd e43d a83d fb3d c9bd dfbd 483d
000000c0: 803d 803d a9bd c83d dfbd 133d 1cbd 803d
000000d0: ca3d dd3d 803d 24bc 803d 9dbd 453d dc3d
000000e0: 733d e6bd 503d 803d 763d 20bd e0bd 803d
000000f0: 053d e9bd 24bd 143d 80bd a73d 97bd 803d
00000100: 0abd d73c 253d fd3d 69bc 9ebc 22bd 38bd
00000110: 95bd 003d 853d 083d 9abc 36bc 8e3d 09bd
00000120: 253d 7d3c 8bbd bd3d 13bd 0f3d ea3d c6bd
00000130: b23c e83d 6ebd 19bd f53d 40bd 4c3d 233d
00000140: c1bc d9bd a6bd ccbd fcbd 01bd 27bc debd
00000150: e8bd 01bd 49bd 333d efbc ff3d 37bd cfbd
00000160: a9bd ecbd 80bd 08bd 0fbd ab3c 92bc 24bd
00000170: cd3c 80bd 5e3c 043d 043d bb3d f9bd 893c
00000180: 8bbd 873d c63d b53d 893d 80bd 183d 80bd
00000190: 4bbd 07bd 803d 953d 80bd 413d b4bd 9cbd
000001a0: 7fbd b23d dbbd 803d e63d aabd e3bd 8b3d
000001b0: 9d3d 81bd ca3d a23d 80bd bd3d 81bd 803d
000001c0: 8ebd 823d 8a3d 023d 8b3d 003d 803d 873d
000001d0: d53d 953d babd 0fbd 8e3d 343d 81bd f93d
000001e0: b3bd d0bd 813d 613d 813d 0dbd 473d b53d
000001f0: 58bd 803d 83bd 84bd 89bd b4bd d83d 833d
0.05029297 0.11035156 -0.045410156 0.016113281 -0.08154297 0.092285156 0.060546875 -0.034423828
0.040283203 -0.021240234 -0.06298828 -0.03857422 0.008728027 0.07763672 0.0625 0.03125
-0.040039062 -0.03125 0.099609375 0.09423828 0.028930664 -0.037841797 0.11328125 0.0625
-0.019042969 0.07421875 0.0625 -0.03540039 0.03540039 0.0625 0.045410156 0.017211914
0.11767578 0.059570312 -0.103027344 0.079589844 0.033691406 0.048339844 0.037109375 0.033691406
0.0625 0.10986328 0.06591797 -0.0625 0.06542969 -0.03149414 0.08251953 -0.060791016
0.039794922 0.115722656 0.0625 0.04711914 0.0625 -0.031982422 0.022460938 -0.107910156
0.12060547 0.119140625 -0.0859375 -0.052246094 0.103515625 0.0625 0.0625 0.09326172
0.0625 -0.053222656 -0.104003906 -0.007293701 -0.07421875 -0.052978516 -0.088378906 0.079589844
-0.033691406 -0.0625 -0.072265625 -0.024169922 -0.041748047 0.05908203 0.0625 -0.0546875
-0.043701172 -0.036376953 -0.0390625 0.0625 -0.080566406 -0.053466797 -0.060791016 -0.118652344
0.055908203 -0.0625 0.111328125 0.08203125 0.122558594 -0.09814453 -0.10888672 0.048828125
0.0625 0.0625 -0.08251953 0.09765625 -0.10888672 0.035888672 -0.038085938 0.0625
0.09863281 0.107910156 0.0625 -0.010009766 0.0625 -0.076660156 0.048095703 0.107421875
0.059326172 -0.11230469 0.05078125 0.0625 0.060058594 -0.0390625 -0.109375 0.0625
0.032470703 -0.11376953 -0.040039062 0.036132812 -0.0625 0.08154297 -0.07373047 0.0625
-0.033691406 0.026245117 0.040283203 0.123535156 -0.014221191 -0.01928711 -0.03955078 -0.044921875
-0.072753906 0.03125 0.064941406 0.033203125 -0.018798828 -0.011108398 0.06933594 -0.033447266
0.040283203 0.0154418945 -0.067871094 0.092285156 -0.035888672 0.03491211 0.11425781 -0.09667969
0.021728516 0.11328125 -0.05810547 -0.037353516 0.119628906 -0.046875 0.049804688 0.039794922
-0.02355957 -0.10595703 -0.08105469 -0.099609375 -0.123046875 -0.03149414 -0.010192871 -0.10839844
-0.11328125 -0.03149414 -0.049072266 0.043701172 -0.029174805 0.12451172 -0.044677734 -0.10107422
-0.08251953 -0.115234375 -0.0625 -0.033203125 -0.03491211 0.020874023 -0.017822266 -0.040039062
0.025024414 -0.0625 0.013549805 0.032226562 0.032226562 0.091308594 -0.12158203 0.016723633
-0.067871094 0.06591797 0.09667969 0.088378906 0.06689453 -0.0625 0.037109375 -0.0625
-0.049560547 -0.032958984 0.0625 0.072753906 -0.0625 0.04711914 -0.087890625 -0.076171875
-0.06225586 0.08691406 -0.106933594 0.0625 0.11230469 -0.08300781 -0.110839844 0.067871094
0.076660156 -0.06298828 0.09863281 0.07910156 -0.0625 0.092285156 -0.06298828 0.0625
-0.06933594 0.06347656 0.06738281 0.03173828 0.067871094 0.03125 0.0625 0.06591797
0.104003906 0.072753906 -0.09082031 -0.03491211 0.06933594 0.043945312 -0.06298828 0.12158203
-0.087402344 -0.1015625 0.06298828 0.05493164 0.06298828 -0.034423828 0.048583984 0.088378906
-0.052734375 0.0625 -0.063964844 -0.064453125 -0.06689453 -0.087890625 0.10546875 0.063964844

layer_10.gate_v.net.0.bias bf16 [4]
00000000: 803d 803d a7bd a73d
0.0625 0.0625 -0.08154297 0.08154297

layer_10.gate_v.net.2.weight bf16 [4, 4]
00000000: 1fbe 883e 153e febe ebbe fabe e63e ea3e
00000010: 2f3e 55be 283e c1be a53d 97bd af3e 80bd
-0.15527344 0.265625 0.14550781 -0.49609375 -0.45898438 -0.48828125 0.44921875 0.45703125
0.17089844 -0.20800781 0.1640625 -0.37695312 0.080566406 -0.07373047 0.34179688 -0.0625

layer_10.gate_v.net.2.bias bf16 [4]
00000000: 80bd 80bd f63e b3be
-0.0625 -0.0625 0.48046875 -0.34960938

layer_11.Wk bf16 [64, 4]
00000000: dbbd 1e3e f6bc afbc 2d3e 3e3e e7bd 333e
00000010: e53b 45be a7bb 873e 493e 783e 37bd 6c3e
00000020: 6f3e 283e 08bd 4cbe 65bd 163d 12be 403e
00000030: 93be 09be 2abe f7bd 283d 6bbd c13d 003e
00000040: 533e 89be 16be 783e 943e 3a3e 94be 21bc
00000050: 293e 3dbd 6e3e 823e 7bbd ce3d 80bb c13c
00000060: 843e 883d 7c3e d93d 57bd 873e 4abe 67be
00000070: fd3d 5a3e 53be 033d 36be 0d3e 51be 7ebe
00000080: 24bd 8d3e dbbd 83be a6bd dd3d 133e 893e
00000090: 943d 2d3e c5bb b0bd 3cbc 853e 873d c43d
000000a0: 003d 27be 01bd cfbd 923e c6bc 813d 843e
000000b0: c0bd 1c3e 19be 1abe 163e ed3c 533e 1a3d
000000c0: 3b3c 5d3e e8bc 31be 813e d8bd 83be 8a3e
000000d0: 78be a2bd 723e 4cbe 643e 8d3e 1e3e b6bc
000000e0: 9bbd 563e 5bbe 5cbc 85be ebbd a93c acbd
000000f0: ed3d e8bd 6abe 753e ae3d 78bd 083c 58be
00000100: 17bd 713e 1ebe 7cbe 013e 38be 0cbe 943e
00000110: 8abe 31be 273e b03c c03d 843e be3c 66be
00000120: e83c 8fbe 423d 03bc 3cbe 343e b03d ba3c
00000130: 3b3e 333e db3d 883d 333d 1f3d 273e 4bbe
00000140: a73d 833e 993d cabd 2e3e 0abd 09be 5dbe
00000150: d53d 12bb 95be 3a3e 793e 02be 64be e0bc
00000160: bebd 763d 77be 7dbe 0cbe 6abe bc3d 783e
00000170: 7c3c 103e 963d ccbd 41be bd3d 16bd 89be
00000180: 943e 5abe 173e 5a3d 833e f1bd a33d 67be
00000190: 6bbe c7bb 8d3e 1dbc 86bc 283e 0bbd 163c
000001a0: 1dbe 2fbe 953e 39be 81be c83d 4139 a33d
000001b0: 5cbe 2b3e 213e bcbd 1bbe ec3d b83d 20be
000001c0: 9abc 783d 17be be3c 8a3d 2c3e 69be 643e
000001d0: 4bb8 99bc f13d c83c 88be 85be 66bd 933e
000001e0: 6dbe 8f3e 08be 2a3e 2b3d 7dbe 673e 5bbe
000001f0: 93bd 9abd 773e 74be 8dbe 0b3d b5bd 3bbe
-0.106933594 0.15429688 -0.030029297 -0.021362305 0.16894531 0.18554688 -0.11279297 0.17480469
0.0069885254 -0.19238281 -0.0050964355 0.26367188 0.19628906 0.2421875 -0.044677734 0.23046875
0.23339844 0.1640625 -0.033203125 -0.19921875 -0.055908203 0.036621094 -0.14257812 0.1875
-0.28710938 -0.13378906 -0.16601562 -0.12060547 0.041015625 -0.057373047 0.09423828 0.125
0.20605469 -0.26757812 -0.14648438 0.2421875 0.2890625 0.18164062 -0.2890625 -0.00982666
0.16503906 -0.046142578 0.23242188 0.25390625 -0.061279297 0.10058594 -0.00390625 0.02355957
0.2578125 0.06640625 0.24609375 0.10595703 -0.052490234 0.26367188 -0.19726562 -0.22558594
0.123535156 0.21289062 -0.20605469 0.031982422 -0.17773438 0.13769531 -0.20410156 -0.24804688
-0.040039062 0.27539062 -0.106933594 -0.25585938 -0.08105469 0.107910156 0.14355469 0.26757812
0.072265625 0.16894531 -0.006011963 -0.0859375 -0.011474609 0.25976562 0.06591797 0.095703125
0.03125 -0.16308594 -0.03149414 -0.10107422 0.28515625 -0.024169922 0.06298828 0.2578125
-0.09375 0.15234375 -0.14941406 -0.15039062 0.14648438 0.028930664 0.20605469 0.037597656
0.011413574 0.21582031 -0.028320312 -0.17285156 0.25195312 -0.10546875 -0.25585938 0.26953125
-0.2421875 -0.07910156 0.23632812 -0.19921875 0.22265625 0.27539062 0.15429688 -0.022216797
-0.075683594 0.20898438 -0.21386719 -0.013427734 -0.25976562 -0.114746094 0.020629883 -0.083984375
0.115722656 -0.11328125 -0.22851562 0.23925781 0.08496094 -0.060546875 0.008300781 -0.2109375
-0.036865234 0.23535156 -0.15429688 -0.24609375 0.12597656 -0.1796875 -0.13671875 0.2890625
-0.26953125 -0.17285156 0.16308594 0.021484375 0.09375 0.2578125 0.02319336 -0.22460938
0.028320312 -0.27929688 0.04736328 -0.0079956055 -0.18359375 0.17578125 0.0859375 0.022705078
0.18261719 0.17480469 0.106933594 0.06640625 0.043701172 0.03881836 0.16308594 -0.19824219
0.08154297 0.25585938 0.07470703 -0.09863281 0.16992188 -0.033691406 -0.13378906 -0.21582031
0.104003906 -0.0022277832 -0.29101562 0.18164062 0.24316406 -0.12695312 -0.22265625 -0.02734375
-0.09277344 0.060058594 -0.24121094 -0.24707031 -0.13671875 -0.22851562 0.091796875 0.2421875
0.015380859 0.140625 0.07324219 -0.099609375 -0.18847656 0.092285156 -0.036621094 -0.26757812
0.2890625 -0.21289062 0.14746094 0.053222656 0.25585938 -0.11767578 0.079589844 -0.22558594
-0.22949219 -0.006072998 0.27539062 -0.0095825195 -0.016357422 0.1640625 -0.033935547 0.009155273
-0.15332031 -0.17089844 0.29101562 -0.18066406 -0.25195312 0.09765625 0.00018405914 0.079589844
-0.21484375 0.16699219 0.15722656 -0.091796875 -0.15136719 0.115234375 0.08984375 -0.15625
-0.018798828 0.060546875 -0.14746094 0.02319336 0.06738281 0.16796875 -0.22753906 0.22265625
-4.839897e-05 -0.018676758 0.11767578 0.024414062 -0.265625 -0.25976562 -0.056152344 0.28710938
-0.23144531 0.27929688 -0.1328125 0.16601562 0.041748047 -0.24707031 0.22558594 -0.21386719
-0.071777344 -0.07519531 0.24121094 -0.23828125 -0.27539062 0.033935547 -0.088378906 -0.18261719

layer_11.Uk bf16 [64, 4]
00000000: 44be 8abe 7c3e 6fbe c33d 253e de3c b93d
00000010: fc3d 8bbe 5a3e 903d 8f3e 1dbe 17be 883e
00000020: 97be 37be 523e fa3d 5dbe 33be 5e3e e43d
00000030: 8fbd 75be 89be 673e 283d 203e fe3c 923e
00000040: c53d 913d 2d3e 23be 98be 533e 9d3d c73c
00000050: 143d 6dbd a6bd 67be 5b3d dabc 653e 2ebe
00000060: e93d 93be 8ebe 273e 423e 833b 4a3d 913e
00000070: 75be 84bd 65be 76bd 14be de3d e63d 553c
00000080: f53c 81bc c2bc b53d 863e 193e 423d 02be
00000090: 553e 4ebe 8d3e 2bbe 1f3e 193e 1e3e 89be
000000a0: c5bd a3bd 263d 963e 96bd 5dbd 90bc 8a3e
000000b0: d43c f43d 053e 8a3e 4b3e 913e 8f3e 25be
000000c0: 783e d5bd 963e 3ebe 543e a93d c2bc 983e
000000d0: 97be 1f3e 433b 43be 903e 613e 8dbe 513e
000000e0: 573e 3d3e 64be 69be f8bd f43c 953e 5d3d
000000f0: 8c3e 41be 743c 62bd 36bd d83d 97be 09be
00000100: f53d 6bbe 91be 30be 95bd 14be 4e3e a6bc
00000110: dc3c 45bd 36be c13d c3bd 7ebe 783b 033e
00000120: 87be 36be 20be 523e 6dbe 34bd ad3c c5bd
00000130: 263e 07be 653e 99bd 0abe a2bd a03d 883e
00000140: f9bc 80bd d13d d7bd 103d b8bd fcbd a43d
00000150: 33be 753e 63bc b83d 5f3d 75be 3ebe 8f3c
00000160: 503e 613e 183e 3a3e 1abe 013e 8a3d 0abe
00000170: 843e f53d 07be 5a3e 87bd 44bd 3cbe 27be
00000180: fa3c 4ebe 773e 27be cd3d bd3d 71be 843e
00000190: acbd e33d 80be 83be ce3d 513e b93d 3f3d
000001a0: 44be 25bd c83d 583e cdbd 3c3e 1dbe 0ebe
000001b0: 633e f7bd 29be 143e f5bd cfbd 98bd 753e
000001c0: 7e3e 51be 83be 93be 92be 393e 82be 633e
000001d0: 4a3e 57bc 64bd 2cbe 0f3e 263e 0d3e 3fbe
000001e0: e73d fa3d 4b3e 3b3e a53d c2ba 953e 19be
000001f0: 423d 8cbe 98be 4abe 8e3e 843c babd cebd
-0.19140625 -0.26953125 0.24609375 -0.23339844 0.095214844 0.16113281 0.02709961 0.09033203
0.123046875 -0.27148438 0.21289062 0.0703125 0.27929688 -0.15332031 -0.14746094 0.265625
-0.29492188 -0.17871094 0.20507812 0.12207031 -0.21582031 -0.17480469 0.21679688 0.111328125
-0.06982422 -0.23925781 -0.26757812 0.22558594 0.041015625 0.15625 0.03100586 0.28515625
0.096191406 0.07080078 0.16894531 -0.15917969 -0.296875 0.20605469 0.076660156 0.024291992
0.036132812 -0.057861328 -0.08105469 -0.22558594 0.053466797 -0.026611328 0.22363281 -0.16992188
0.11376953 -0.28710938 -0.27734375 0.16308594 0.18945312 0.0039978027 0.049316406 0.28320312
-0.23925781 -0.064453125 -0.22363281 -0.060058594 -0.14453125 0.10839844 0.11230469 0.013000488
0.029907227 -0.01574707 -0.02368164 0.088378906 0.26171875 0.14941406 0.04736328 -0.12695312
0.20800781 -0.20117188 0.27539062 -0.16699219 0.15527344 0.14941406 0.15429688 -0.26757812
-0.096191406 -0.079589844 0.040527344 0.29296875 -0.07324219 -0.053955078 -0.017578125 0.26953125
0.025878906 0.119140625 0.12988281 0.26953125 0.19824219 0.28320312 0.27929688 -0.16113281
0.2421875 -0.104003906 0.29296875 -0.18554688 0.20703125 0.08251953 -0.02368164 0.296875
-0.29492188 0.15527344 0.0029754639 -0.19042969 0.28125 0.21972656 -0.27539062 0.20410156
0.20996094 0.18457031 -0.22265625 -0.22753906 -0.12109375 0.029785156 0.29101562 0.053955078
0.2734375 -0.18847656 0.014892578 -0.05517578 -0.044433594 0.10546875 -0.29492188 -0.13378906
0.119628906 -0.22949219 -0.28320312 -0.171875 -0.072753906 -0.14453125 0.20117188 -0.020263672
0.026855469 -0.048095703 -0.17773438 0.09423828 -0.095214844 -0.24804688 0.0037841797 0.12792969
-0.26367188 -0.17773438 -0.15625 0.20507812 -0.23144531 -0.043945312 0.021118164 -0.096191406
0.16210938 -0.13183594 0.22363281 -0.07470703 -0.13476562 -0.07910156 0.078125 0.265625
-0.030395508 -0.0625 0.10205078 -0.10498047 0.03515625 -0.08984375 -0.123046875 0.080078125
-0.17480469 0.23925781 -0.0138549805 0.08984375 0.05444336 -0.23925781 -0.18554688 0.017456055
0.203125 0.21972656 0.1484375 0.18164062 -0.15039062 0.12597656 0.06738281 -0.13476562
0.2578125 0.119628906 -0.13183594 0.21289062 -0.06591797 -0.047851562 -0.18359375 -0.16308594
0.030517578 -0.20117188 0.24121094 -0.16308594 0.100097656 0.092285156 -0.23535156 0.2578125
-0.083984375 0.110839844 -0.25 -0.25585938 0.10058594 0.20410156 0.09033203 0.04663086
-0.19140625 -0.040283203 0.09765625 0.2109375 -0.100097656 0.18359375 -0.15332031 -0.13867188
0.22167969 -0.12060547 -0.16503906 0.14453125 -0.119628906 -0.10107422 -0.07421875 0.23925781
0.24804688 -0.20410156 -0.25585938 -0.28710938 -0.28515625 0.18066406 -0.25390625 0.22167969
0.19726562 -0.013122559 -0.055664062 -0.16796875 0.13964844 0.16210938 0.13769531 -0.18652344
0.11279297 0.12207031 0.19824219 0.18261719 0.080566406 -0.0014801025 0.29101562 -0.14941406
0.04736328 -0.2734375 -0.296875 -0.19726562 0.27734375 0.016113281 -0.09082031 -0.10058594

layer_11.Wv bf16 [64, 4]
00000000: 04bc 67bd 7fbe ca3d 11be 00bd 49bd 443e
00000010: 3bbd 8cbe 943e 96be 463e 6a3e 27be b2bc
00000020: d33d 2e3e 833e 17be 6e3e 463d 1abe 303e
00000030: 983e 4fbe 1cbe bcbd 24be 48be 103e 57be
00000040: 05be f23d babc b63d 81bd d73d 0bbd 8a3e
00000050: 003d 643e 203e 343e 48be 103e 99bc 14bd
00000060: 5abe 883e be3d 50be 57be c03d c6bd 8c3d
00000070: d63d 92be 4bbd 7b3e 423e 703e 2dbd 6d3e
00000080: c2bd de3d eebd 75be 98bd 94be 95be 803d
00000090: 0c3d 073e 843e e9bd 3d3e 5b3e 6cbe 6d3e
000000a0: 893e fabc f5bd 203e 4c3e 1e3e c1bc 11bc
000000b0: 003d 243e 643b 17be 61be 923d 08bd 8e3e
000000c0: fc3c 983e f1bd 56be 80bd debd 873c bbbd
000000d0: 8b3e 073e 523d fb3c 913e 073e 99bd 92be
000000e0: 91be e5bd 2b3d 213c 103e 0a3e 02be 133e
000000f0: 263e a13d 753e 5bbe 0abd 83bd 893e 6ebe
00000100: c83d 5abe 4cbe 8abe 5b3d 8b3e 19be 083d
00000110: 78be 5bbe f03d 323c 39bd 2cbe 3d3e 69be
00000120: 0cbe 463e 063e 8cbe 94be 30be 92be 553e
00000130: 14be f23d 77be 963d 8e3e 453e 883e 81bd
00000140: 10bd 7cbe 01be 39be 03bd cabc 9bbd fbbd
00000150: 943e 353d 8abe d9bd 283e 8fbe 8e3e e1bc
00000160: ea3d 8bbd 46be 243e b83d 23be fa3d 1fbe
00000170: 5fbe 96be 603e 763e 523e 523e 8b3e 02bd
00000180: 8dbe 40be 353e 70be 0cbd 2bbd 1c3d 8abe
00000190: 7c3e d0bb 84bd dcbd 20bd 80bd 2abe 7c3e
000001a0: 803d 00bd 57be 973e bcbd 433e 27be eb3c
000001b0: 93bc 23bd 053d 89bd 30be bdbd 68be 6d3e
000001c0: e8bd a93a 7fbe 61be 47be e63d 8e3e 66bd
000001d0: 6b3e 8dbe 97be ea3d 27be 1dbe 713e 80bd
000001e0: 433e debd 5dbd 923e 293d 2e3e 893e 743e
000001f0: 7e3e 1bbe e03d 0a3d 0bbe 2abe 053e 183e
-0.008056641 -0.056396484 -0.24902344 0.09863281 -0.14160156 -0.03125 -0.049072266 0.19140625
-0.045654297 -0.2734375 0.2890625 -0.29296875 0.19335938 0.22851562 -0.16308594 -0.021728516
0.103027344 0.16992188 0.25585938 -0.14746094 0.23242188 0.048339844 -0.15039062 0.171875
0.296875 -0.20214844 -0.15234375 -0.091796875 -0.16015625 -0.1953125 0.140625 -0.20996094
-0.12988281 0.11816406 -0.022705078 0.08886719 -0.06298828 0.10498047 -0.033935547 0.26953125
0.03125 0.22265625 0.15625 0.17578125 -0.1953125 0.140625 -0.018676758 -0.036132812
-0.21289062 0.265625 0.09277344 -0.203125 -0.20996094 0.09375 -0.09667969 0.068359375
0.10449219 -0.28515625 -0.049560547 0.24511719 0.18945312 0.234375 -0.042236328 0.23144531
-0.09472656 0.10839844 -0.11621094 -0.23925781 -0.07421875 -0.2890625 -0.29101562 0.0625
0.034179688 0.13183594 0.2578125 -0.11376953 0.18457031 0.21386719 -0.23046875 0.23144531
0.26757812 -0.030517578 -0.119628906 0.15625 0.19921875 0.15429688 -0.02355957 -0.008850098
0.03125 0.16015625 0.003479004 -0.14746094 -0.21972656 0.07128906 -0.033203125 0.27734375
0.030761719 0.296875 -0.11767578 -0.20898438 -0.0625 -0.10839844 0.016479492 -0.091308594
0.27148438 0.13183594 0.05126953 0.030639648 0.28320312 0.13183594 -0.07470703 -0.28515625
-0.28320312 -0.111816406 0.041748047 0.00982666 0.140625 0.13476562 -0.12695312 0.14355469
0.16210938 0.07861328 0.23925781 -0.21386719 -0.033691406 -0.063964844 0.26757812 -0.23242188
0.09765625 -0.21289062 -0.19921875 -0.26953125 0.053466797 0.27148438 -0.14941406 0.033203125
-0.2421875 -0.21386719 0.1171875 0.010864258 -0.045166016 -0.16796875 0.18457031 -0.22753906
-0.13671875 0.19335938 0.13085938 -0.2734375 -0.2890625 -0.171875 -0.28515625 0.20800781
-0.14453125 0.11816406 -0.24121094 0.07324219 0.27734375 0.19238281 0.265625 -0.06298828
-0.03515625 -0.24609375 -0.12597656 -0.18066406 -0.031982422 -0.024658203 -0.075683594 -0.122558594
0.2890625 0.044189453 -0.26953125 -0.10595703 0.1640625 -0.27929688 0.27734375 -0.02746582
0.11425781 -0.067871094 -0.19335938 0.16015625 0.08984375 -0.15917969 0.12207031 -0.15527344
-0.21777344 -0.29296875 0.21875 0.24023438 0.20507812 0.20507812 0.27148438 -0.03173828
-0.27539062 -0.1875 0.17675781 -0.234375 -0.034179688 -0.041748047 0.038085938 -0.26953125
0.24609375 -0.0063476562 -0.064453125 -0.107421875 -0.0390625 -0.0625 -0.16601562 0.24609375
0.0625 -0.03125 -0.20996094 0.29492188 -0.091796875 0.19042969 -0.16308594 0.028686523
-0.017944336 -0.039794922 0.032470703 -0.06689453 -0.171875 -0.092285156 -0.2265625 0.23144531
-0.11328125 0.0012893677 -0.24902344 -0.21972656 -0.19433594 0.11230469 0.27734375 -0.056152344
0.22949219 -0.27539062 -0.29492188 0.11425781 -0.16308594 -0.15332031 0.23535156 -0.0625
0.19042969 -0.10839844 -0.053955078 0.28515625 0.041259766 0.16992188 0.26757812 0.23828125
0.24804688 -0.15136719 0.109375 0.033691406 -0.13574219 -0.16601562 0.12988281 0.1484375

layer_11.Uv bf16 [64, 4]
00000000: 00bd 7f3e c43d 773e 1d3e 74bc dfbd 7dbe
00000010: 983e a9bd f33d 2c3e 53be 133e 3a3e 1dbe
00000020: e6bd d83b 813e 8c3e e43c 12be 103e 003d
00000030: 2b3d 76be 1f3d 9a3d d7bd 033d 773e 8cbe
00000040: 883e 43be 86be 11bd 913e 54be 8cbe 773e
00000050: 0ebe 84be 88be abbd 93be 85be fe3d 003d
00000060: be3d 203e 803d 7f3e 2bbe 433e 4d3d 6e3e
00000070: 3a3e 62be 29be bebd a2bc 2e3e fc3d 443e
00000080: 2f3d 91be b43d 69be 3cbe 473d a7bd 88be
00000090: 75be 293e 2b3d 823e 453e 8b3e 1e3e 96be
000000a0: c8bd 313e 80bd 0abe 92bd 483e c1bd 1ebe
000000b0: 43be e93d 9ebc 3cbc 8f3d 803e 3a3e 683e
000000c0: 893e 03bd 503e 42be 30be 043d cc3d f33d
000000d0: 60be cabd 3b3e 31be 8f3e 8ebe 173d 003d
000000e0: aebd 963c b9bd e23d 863e 26bd 323e d8bd
000000f0: 4b3e 9fbc 80bd 91be 7b3e 02bd fbbc e2bd
00000100: dabb 6e3c 853d 69be c8bd 283e 8e3e 803d
00000110: 1ebe 1abe 2fbe 71be 48be 983e 2cbe 37be
00000120: 3bbe 733e 143d 2e3e fe3b 0e3e 823e 8d3e
00000130: 003d 84be c7bc 89bd 87be 22be 013e d53d
00000140: 0d3e 83be 75bd 8dbe 92bc 303e f93d 1d3e
00000150: 84be ec3c 64be 893e 883c 51be 3abe c9bd
00000160: 11be 3abe 2abe 38be 403e 37be 783e 573e
00000170: 24bd ff3d 3fbe 90be 89be b53d d63d fd3d
00000180: 3e3e 69be 883e ef3d 923d 0c3e 2abe 00bd
00000190: 8b3e 933e 11be 8bbe fe3b cfbd 55be a03d
000001a0: 313e 30be 8a3e 533e 14be ebbd 2cbd b7bd
000001b0: 803e f63d 92be 80bd bebd 80be 3cba 76bb
000001c0: 3d3e 2ebd f5bd 1a3e 09be 213e 90bd bf3d
000001d0: 1fbe 123d 7bbe 8fbd 7d3d 42be 983e 683d
000001e0: 94be b83d 873e 47be 54be 0e3e 88be 0fbe
000001f0: 41be 253d 8c3d ccbd 413e 943e 453e 5bbe
-0.03125 0.24902344 0.095703125 0.24121094 0.15332031 -0.014892578 -0.10888672 -0.24707031
0.296875 -0.08251953 0.118652344 0.16796875 -0.20605469 0.14355469 0.18164062 -0.15332031
-0.11230469 0.006591797 0.25195312 0.2734375 0.027832031 -0.14257812 0.140625 0.03125
0.041748047 -0.24023438 0.03881836 0.07519531 -0.10498047 0.031982422 0.24121094 -0.2734375
0.265625 -0.19042969 -0.26171875 -0.03540039 0.28320312 -0.20703125 -0.2734375 0.24121094
-0.13867188 -0.2578125 -0.265625 -0.083496094 -0.28710938 -0.25976562 0.12402344 0.03125
0.09277344 0.15625 0.0625 0.24902344 -0.16699219 0.19042969 0.050048828 0.23242188
0.18164062 -0.22070312 -0.16503906 -0.09277344 -0.01977539 0.16992188 0.123046875 0.19140625
0.04272461 -0.28320312 0.087890625 -0.22753906 -0.18359375 0.048583984 -0.08154297 -0.265625
-0.23925781 0.16503906 0.041748047 0.25390625 0.19238281 0.27148438 0.15429688 -0.29296875
-0.09765625 0.17285156 -0.0625 -0.13476562 -0.07128906 0.1953125 -0.09423828 -0.15429688
-0.19042969 0.11376953 -0.01928711 -0.011474609 0.06982422 0.25 0.18164062 0.2265625
0.26757812 -0.031982422 0.203125 -0.18945312 -0.171875 0.032226562 0.099609375 0.118652344
-0.21875 -0.09863281 0.18261719 -0.17285156 0.27929688 -0.27734375 0.036865234 0.03125
-0.08496094 0.018310547 -0.09033203 0.11035156 0.26171875 -0.040527344 0.17382812 -0.10546875
0.19824219 -0.01940918 -0.0625 -0.28320312 0.24511719 -0.03173828 -0.030639648 -0.11035156
-0.006652832 0.014526367 0.064941406 -0.22753906 -0.09765625 0.1640625 0.27734375 0.0625
-0.15429688 -0.15039062 -0.17089844 -0.23535156 -0.1953125 0.296875 -0.16796875 -0.17871094
-0.18261719 0.23730469 0.036132812 0.16992188 0.007751465 0.13867188 0.25390625 0.27539062
0.03125 -0.2578125 -0.024291992 -0.06689453 -0.26367188 -0.15820312 0.12597656 0.104003906
0.13769531 -0.25585938 -0.059814453 -0.27539062 -0.017822266 0.171875 0.12158203 0.15332031
-0.2578125 0.028808594 -0.22265625 0.26757812 0.016601562 -0.20410156 -0.18164062 -0.09814453
-0.14160156 -0.18164062 -0.16601562 -0.1796875 0.1875 -0.17871094 0.2421875 0.20996094
-0.040039062 0.12451172 -0.18652344 -0.28125 -0.26757812 0.088378906 0.10449219 0.123535156
0.18554688 -0.22753906 0.265625 0.11669922 0.07128906 0.13671875 -0.16601562 -0.03125
0.27148438 0.28710938 -0.14160156 -0.27148438 0.007751465 -0.10107422 -0.20800781 0.078125
0.17285156 -0.171875 0.26953125 0.20605469 -0.14453125 -0.114746094 -0.041992188 -0.08935547
0.25 0.12011719 -0.28515625 -0.0625 -0.09277344 -0.25 -0.0007171631 -0.003753662
0.18457031 -0.04248047 -0.119628906 0.15039062 -0.13378906 0.15722656 -0.0703125 0.09326172
-0.15527344 0.03564453 -0.24511719 -0.06982422 0.061767578 -0.18945312 0.296875 0.056640625
-0.2890625 0.08984375 0.26367188 -0.19433594 -0.20703125 0.13867188 -0.265625 -0.13964844
-0.18847656 0.040283203 0.068359375 -0.099609375 0.18847656 0.2890625 0.19238281 -0.21386719
