empty_dirs_for_codex/outputs/runs_recovery/recovery_vonly_sweep_v1/ablation_no_contr_vonly_aggressive_loto_overwrite/checkpoints/train_state_step_1500.pt (torch, 44204 bytes, 48 tensors)

layer_10.Wk bf16 [64, 4]
0	0x3e0a	0.13476562
1	0xbe89	-0.26757812
2	0x3d5f	0.05444336
3	0xbe7f	-0.24902344
4	0x3e14	0.14453125
5	0x3e88	0.265625
6	0xbe12	-0.14257812
7	0x3e88	0.265625
8	0xbe88	-0.265625
9	0x3e11	0.14160156
10	0x3d4f	0.05053711
11	0xbd8b	-0.067871094
12	0xbd28	-0.041015625
13	0x3df3	0.118652344
14	0xbd5e	-0.05419922
15	0xbe93	-0.28710938
16	0xbddc	-0.107421875
17	0x3e81	0.25195312
18	0xbe83	-0.25585938
19	0xbdcd	-0.100097656
20	0x3dfb	0.122558594
21	0x3e5e	0.21679688
22	0xbe65	-0.22363281
23	0xbe52	-0.20507812
24	0x3e38	0.1796875
25	0x3e4f	0.20214844
26	0x3e46	0.19335938
27	0x3e2f	0.17089844
28	0xbe82	-0.25390625
29	0x3dc9	0.09814453
30	0xbc30	-0.0107421875
31	0x3d3b	0.045654297
32	0xbde9	-0.11376953
33	0x3e93	0.28710938
34	0xbc84	-0.016113281
35	0xbe50	-0.203125
36	0x3e1e	0.15429688
37	0xbbcc	-0.006225586
38	0xbe3e	-0.18554688
39	0xbe06	-0.13085938
40	0xbe40	-0.1875
41	0x3d6f	0.05834961
42	0x3d83	0.063964844
43	0xbda8	-0.08203125
44	0x3cc8	0.024414062
45	0xbe25	-0.16113281
46	0xbe97	-0.29492188
47	0xbbeb	-0.007171631
48	0x3e90	0.28125
49	0xbe63	-0.22167969
50	0x3d71	0.05883789
51	0xbe19	-0.14941406
52	0xbd3f	-0.04663086
53	0x3d8e	0.06933594
54	0xbe16	-0.14648438
55	0xbe82	-0.25390625
56	0xbb97	-0.0046081543
57	0xbcb5	-0.022094727
58	0x3e5c	0.21484375
59	0x3df3	0.118652344
60	0x3e2f	0.17089844
61	0xbe3f	-0.18652344
62	0xbe8f	-0.27929688
63	0xbe38	-0.1796875
64	0xbe74	-0.23828125
65	0xbc2a	-0.010375977
66	0xbdb5	-0.088378906
67	0xbcdf	-0.02722168
68	0xbdac	-0.083984375
69	0xbd49	-0.049072266
70	0x3d87	0.06591797
71	0x3e95	0.29101562
72	0xbd7b	-0.061279297
73	0x3e7a	0.24414062
74	0x3e89	0.26757812
75	0x3e12	0.14257812
76	0xbda1	-0.07861328
77	0x3da2	0.07910156
78	0xbe47	-0.19433594
79	0xbccf	-0.025268555
80	0xbe0e	-0.13867188
81	0xbe69	-0.22753906
82	0xbe81	-0.25195312
83	0xbddc	-0.107421875
84	0x3d98	0.07421875
85	0xbbcd	-0.0062561035
86	0x3c28	0.010253906
87	0x3dff	0.12451172
88	0x3dae	0.08496094
89	0x3e4c	0.19921875
90	0xbd92	-0.07128906
91	0x3d8c	0.068359375
92	0xbb42	-0.002960205
93	0xbdd1	-0.10205078
94	0xbe4c	-0.19921875
95	0xbda9	-0.08251953
96	0xbe90	-0.28125
97	0x3d10	0.03515625
98	0xbe72	-0.23632812
99	0xbdd4	-0.103515625
100	0xbdee	-0.11621094
101	0x3e82	0.25390625
102	0xbe78	-0.2421875
103	0xbd91	-0.07080078
104	0x3dda	0.10644531
105	0x3dac	0.083984375
106	0x3e7a	0.24414062
107	0x3d94	0.072265625
108	0x3e33	0.17480469
109	0xbe37	-0.17871094
110	0x3e3d	0.18457031
111	0x3bd3	0.006439209
112	0xbd07	-0.032958984
113	0xbe09	-0.13378906
114	0x3de1	0.10986328
115	0x3e1d	0.15332031
116	0xbe5f	-0.21777344
117	0xbe6b	-0.22949219
118	0x3df3	0.118652344
119	0xbe87	-0.26367188
120	0xbe8f	-0.27929688
121	0x3e5c	0.21484375
122	0x3dc2	0.09472656
123	0x3cbb	0.022827148
124	0xbae1	-0.0017166138
125	0x3dfd	0.123535156
126	0xbe59	-0.21191406
127	0x3e7d	0.24707031
128	0xbd2a	-0.041503906
129	0x3cef	0.029174805
130	0xbe90	-0.28125
131	0x3c94	0.018066406
132	0xbe3a	-0.18164062
133	0x3e2b	0.16699219
134	0xbe90	-0.28125
135	0x3e89	0.26757812
136	0xbd8f	-0.06982422
137	0xbdd0	-0.1015625
138	0xbafa	-0.0019073486
139	0xbe79	-0.24316406
140	0x3dc4	0.095703125
141	0x3e78	0.2421875
142	0xbe00	-0.125
143	0xbdc6	-0.09667969
144	0xbe7d	-0.24707031
145	0x3d94	0.072265625
146	0x3e60	0.21875
147	0x3e78	0.2421875
148	0x3dc3	0.095214844
149	0x3e08	0.1328125
150	0xbe5f	-0.21777344
151	0xbdf5	-0.119628906
152	0x3e94	0.2890625
153	0x3b90	0.0043945312
154	0x3df7	0.12060547
155	0xbe61	-0.21972656
156	0xbe7b	-0.24511719
157	0x3e70	0.234375
158	0xbe07	-0.13183594
159	0xbe24	-0.16015625
160	0xbc53	-0.012878418
161	0xbcb1	-0.021606445
162	0x3e05	0.12988281
163	0x3e3e	0.18554688
164	0x3e87	0.26367188
165	0xbdb4	-0.087890625
166	0xbd9e	-0.07714844
167	0xbe6e	-0.23242188
168	0xbe1a	-0.15039062
169	0xbd63	-0.055419922
170	0xbe1c	-0.15234375
171	0x3bef	0.007293701
172	0xbd83	-0.063964844
173	0x3e2f	0.17089844
174	0xbe85	-0.25976562
175	0xbbc5	-0.006011963
176	0xbde6	-0.11230469
177	0x3ca4	0.020019531
178	0xbe24	-0.16015625
179	0xbe96	-0.29296875
180	0xbbe3	-0.0069274902
181	0x3cda	0.026611328
182	0x3e84	0.2578125
183	0xbe4f	-0.20214844
184	0xbd35	-0.044189453
185	0x3e76	0.24023438
186	0x3e92	0.28515625
187	0x3d3a	0.045410156
188	0xbe14	-0.14453125
189	0x3e33	0.17480469
190	0xbe5c	-0.21484375
191	0xbe7f	-0.24902344
192	0x3cd1	0.025512695
193	0xbe32	-0.17382812
194	0x3dc2	0.09472656
195	0xbe04	-0.12890625
196	0xbe5c	-0.21484375
197	0xbdde	-0.10839844
198	0xbe46	-0.19335938
199	0xbe56	-0.20898438
200	0x3e20	0.15625
201	0xbcf4	-0.029785156
202	0xbe02	-0.12695312
203	0xbe95	-0.29101562
204	0x3e69	0.22753906
205	0xbe34	-0.17578125
206	0x3e78	0.2421875
207	0xbe81	-0.25195312
208	0xbe0c	-0.13671875
209	0x3e92	0.28515625
210	0x3dff	0.12451172
211	0xbe43	-0.19042969
212	0xbe47	-0.19433594
213	0xbe19	-0.14941406
214	0x3de8	0.11328125
215	0x3e1f	0.15527344
216	0xbde2	-0.11035156
217	0xbe7f	-0.24902344
218	0xbe4b	-0.19824219
219	0x3e3e	0.18554688
220	0x3d54	0.051757812
221	0x3df9	0.12158203
222	0x3e1d	0.15332031
223	0xbe44	-0.19140625
224	0xbe65	-0.22363281
225	0xbe59	-0.21191406
226	0x3e96	0.29296875
227	0x3c10	0.0087890625
228	0x3c8b	0.016967773
229	0xbe94	-0.2890625
230	0x3d48	0.048828125
231	0xbe8d	-0.27539062
232	0xbe47	-0.19433594
233	0x3c9c	0.019042969
234	0xbe88	-0.265625
235	0x3e08	0.1328125
236	0x3e58	0.2109375
237	0xbdff	-0.12451172
238	0x3e5d	0.21582031
239	0x3e6d	0.23144531
240	0xbe8c	-0.2734375
241	0x3c78	0.015136719
242	0xbda1	-0.07861328
243	0xbd3d	-0.046142578
244	0x3e2b	0.16699219
245	0xbe1c	-0.15234375
246	0xbe4a	-0.19726562
247	0x3d0b	0.033935547
248	0x3d7e	0.06201172
249	0xbe24	-0.16015625
250	0xbe05	-0.12988281
251	0xbe89	-0.26757812
252	0x3e2c	0.16796875
253	0xbe1b	-0.15136719
254	0x3e13	0.14355469
255	0xbe7c	-0.24609375

layer_10.Uk bf16 [64, 4]
0	0xbe4b	-0.19824219
1	0xbc20	-0.009765625
2	0x3e97	0.29492188
3	0xbd1e	-0.03857422
4	0xbcea	-0.028564453
5	0xbd86	-0.06542969
6	0x3d2f	0.04272461
7	0xbdbc	-0.091796875
8	0x3e6b	0.22949219
9	0x3cf8	0.030273438
10	0x3e1d	0.15332031
11	0x3c21	0.00982666
12	0x3e64	0.22265625
13	0xbe40	-0.1875
14	0xbe1b	-0.15136719
15	0xbdf1	-0.11767578
16	0xbdfd	-0.123535156
17	0x3cae	0.021240234
18	0x3e0d	0.13769531
19	0xbe60	-0.21875
20	0xbe56	-0.20898438
21	0x3e38	0.1796875
22	0x3e0c	0.13671875
23	0x3d80	0.0625
24	0x3e01	0.12597656
25	0x3d0e	0.03466797
26	0xbdd0	-0.1015625
27	0xbd43	-0.047607422
28	0xbda0	-0.078125
29	0xbe00	-0.125
30	0xbe39	-0.18066406
31	0xbd37	-0.044677734
32	0xbe44	-0.19140625
33	0xbe30	-0.171875
34	0xbe3e	-0.18554688
35	0x3e8d	0.27539062
36	0x3e96	0.29296875
37	0x3e27	0.16308594
38	0xbd78	-0.060546875
39	0x3da0	0.078125
40	0x3dfc	0.123046875
41	0x3d3e	0.04638672
42	0x3e1d	0.15332031
43	0x3de5	0.111816406
44	0x3dc5	0.096191406
45	0x3e91	0.28320312
46	0xbe7d	-0.24707031
47	0x3ce9	0.028442383
48	0x3e74	0.23828125
49	0x3e79	0.24316406
50	0xbdac	-0.083984375
51	0x3e4b	0.19824219
52	0xbe35	-0.17675781
53	0xbc99	-0.018676758
54	0x3e8a	0.26953125
55	0xbd4f	-0.05053711
56	0x3e1e	0.15429688
57	0x3e98	0.296875
58	0xbe02	-0.12695312
59	0x3e02	0.12695312
60	0xbdef	-0.11669922
61	0xbda7	-0.08154297
62	0x3e62	0.22070312
63	0x3dc1	0.09423828
64	0xbe84	-0.2578125
65	0x3e8f	0.27929688
66	0x3e57	0.20996094
67	0x3e29	0.16503906
68	0x3d0a	0.033691406
69	0x3e0c	0.13671875
70	0xbdbe	-0.09277344
71	0xbdd4	-0.103515625
72	0x3e20	0.15625
73	0x3d3e	0.04638672
74	0x3e92	0.28515625
75	0x3baf	0.005340576
76	0xbc8b	-0.016967773
77	0x3e31	0.17285156
78	0xbe14	-0.14453125
79	0xbe87	-0.26367188
80	0x3c23	0.0099487305
81	0x3e96	0.29296875
82	0xbe68	-0.2265625
83	0x3d3f	0.04663086
84	0xbe47	-0.19433594
85	0xbe83	-0.25585938
86	0xbb10	-0.0021972656
87	0xbdd8	-0.10546875
88	0xbd91	-0.07080078
89	0x3dc9	0.09814453
90	0xbd8f	-0.06982422
91	0x3d08	0.033203125
92	0xbbe8	-0.007080078
93	0x3e68	0.2265625
94	0x3dd2	0.10253906
95	0xbddc	-0.107421875
96	0xbe65	-0.22363281
97	0x3e4a	0.19726562
98	0xbd01	-0.03149414
99	0x3df5	0.119628906
100	0xbe04	-0.12890625
101	0x3e58	0.2109375
102	0x3e4e	0.20117188
103	0x3c68	0.014160156
104	0x3d9e	0.07714844
105	0x3d74	0.059570312
106	0x3de7	0.11279297
107	0xbd18	-0.037109375
108	0xbe83	-0.25585938
109	0xbe55	-0.20800781
110	0x3d3c	0.045898438
111	0xbe97	-0.29492188
112	0xbe91	-0.28320312
113	0xbe28	-0.1640625
114	0x3e1d	0.15332031
115	0xbcb6	-0.022216797
116	0xbe58	-0.2109375
117	0xbe4b	-0.19824219
118	0xbdec	-0.115234375
119	0xbe60	-0.21875
120	0x3e8e	0.27734375
121	0xbe43	-0.19042969
122	0xbe21	-0.15722656
123	0xbe56	-0.20898438
124	0xbddc	-0.107421875
125	0x3e72	0.23632812
126	0x3ddf	0.10888672
127	0x3cb5	0.022094727
128	0xbe96	-0.29296875
129	0x3df6	0.12011719
130	0x3e8e	0.27734375
131	0xbb9c	-0.004760742
132	0x3e4f	0.20214844
133	0xbdc4	-0.095703125
134	0xbe8f	-0.27929688
135	0xbbf3	-0.0074157715
136	0x3df3	0.118652344
137	0xbe06	-0.13085938
138	0x3c8d	0.017211914
139	0x3d4b	0.049560547
140	0x3e92	0.28515625
141	0xbe1f	-0.15527344
142	0xbe84	-0.2578125
143	0xbe0e	-0.13867188
144	0x3e5b	0.21386719
145	0xbe0d	-0.13769531
146	0xbca0	-0.01953125
147	0xbe5b	-0.21386719
148	0xbe1d	-0.15332031
149	0xbe83	-0.25585938
150	0x3db6	0.08886719
151	0x3e4d	0.20019531
152	0xbd22	-0.03955078
153	0xbcb0	-0.021484375
154	0x3d9c	0.076171875
155	0xbd33	-0.043701172
156	0x3ccc	0.024902344
157	0x3dfa	0.12207031
158	0x3e6a	0.22851562
159	0x3e1b	0.15136719
160	0x3d95	0.072753906
161	0x3e82	0.25390625
162	0xbe88	-0.265625
163	0xbe48	-0.1953125
164	0x3e77	0.24121094
165	0x3e8d	0.27539062
166	0xbe0e	-0.13867188
167	0x3e6f	0.23339844
168	0xbd0c	-0.034179688
169	0xbdaa	-0.08300781
170	0xbc3c	-0.011474609
171	0xbd9e	-0.07714844
172	0x3da8	0.08203125
173	0x3cb9	0.022583008
174	0xbac3	-0.0014877319
175	0xbe00	-0.125
176	0x3e39	0.18066406
177	0xbe3c	-0.18359375
178	0xbb86	-0.0040893555
179	0x3e48	0.1953125
180	0xbe22	-0.15820312
181	0xbe4b	-0.19824219
182	0x3da2	0.07910156
183	0xbe7c	-0.24609375
184	0xbdfe	-0.12402344
185	0x3e85	0.25976562
186	0x3e2f	0.17089844
187	0x3e8a	0.26953125
188	0xbe91	-0.28320312
189	0xbe8f	-0.27929688
190	0x3d97	0.07373047
191	0x3dd8	0.10546875
192	0xbe30	-0.171875
193	0x3ddb	0.106933594
194	0x3d52	0.05126953
195	0xbe01	-0.12597656
196	0x3e8e	0.27734375
197	0x3e6a	0.22851562
198	0x3e7c	0.24609375
199	0xbdc6	-0.09667969
200	0x3ae7	0.0017623901
201	0xbe11	-0.14160156
202	0x3e79	0.24316406
203	0x3e8a	0.26953125
204	0xbe17	-0.14746094
205	0x3db1	0.08642578
206	0x3e81	0.25195312
207	0x3d1b	0.037841797
208	0xbdcd	-0.100097656
209	0xbd3a	-0.045410156
210	0xbe48	-0.1953125
211	0x3e95	0.29101562
212	0xbe18	-0.1484375
213	0x3d85	0.064941406
214	0xbe85	-0.25976562
215	0x3cea	0.028564453
216	0x3e57	0.20996094
217	0xbe7a	-0.24414062
218	0x3dd8	0.10546875
219	0x3bc9	0.006134033
220	0x3e25	0.16113281
221	0xbe0f	-0.13964844
222	0xbe36	-0.17773438
223	0xbe08	-0.1328125
224	0xbd31	-0.04321289
225	0x3e80	0.25
226	0xbc95	-0.018188477
227	0xbe5f	-0.21777344
228	0xbe2d	-0.16894531
229	0xbd90	-0.0703125
230	0xbdb2	-0.08691406
231	0xbcd3	-0.025756836
232	0xbdf5	-0.119628906
233	0xbe11	-0.14160156
234	0x3daa	0.08300781
235	0x3db6	0.08886719
236	0xbdff	-0.12451172
237	0x3de6	0.11230469
238	0xbdf1	-0.11767578
239	0x3c64	0.013916016
240	0xbd7b	-0.061279297
241	0x3bf6	0.007507324
242	0x3e78	0.2421875
243	0xbdf6	-0.12011719
244	0x3e89	0.26757812
245	0xbc5e	-0.013549805
246	0xbe4f	-0.20214844
247	0x3dd5	0.104003906
248	0x3d09	0.033447266
249	0x3e95	0.29101562
250	0x3e69	0.22753906
251	0xbe8d	-0.27539062
252	0x3e83	0.25585938
253	0x3e8b	0.27148438
254	0x3e1f	0.15527344
255	0xbc78	-0.015136719

layer_10.Wv bf16 [64, 4]
0	0x3e93	0.28710938
1	0x3c86	0.016357422
2	0x3cc4	0.023925781
3	0xbd0d	-0.034423828
4	0x3e24	0.16015625
5	0x3cbe	0.02319336
6	0x3b73	0.0037078857
7	0xbded	-0.115722656
8	0xbd0a	-0.033691406
9	0x3e1c	0.15234375
10	0x3e22	0.15820312
11	0x3e8f	0.27929688
12	0x3d13	0.035888672
13	0xbe8d	-0.27539062
14	0xbe39	-0.18066406
15	0xbe13	-0.14355469
16	0xbb8d	-0.0043029785
17	0xbe7e	-0.24804688
18	0x3e73	0.23730469
19	0x3e7f	0.24902344
20	0xbe5c	-0.21484375
21	0xbd9b	-0.075683594
22	0xbe3a	-0.18164062
23	0xbe26	-0.16210938
24	0x3e8c	0.2734375
25	0xbe11	-0.14160156
26	0x3e09	0.13378906
27	0x3e23	0.15917969
28	0x3cf1	0.029418945
29	0xbe3f	-0.18652344
30	0x3c0f	0.008728027
31	0xbd17	-0.036865234
32	0x3e98	0.296875
33	0x3e52	0.20507812
34	0x3b39	0.002822876
35	0x3e22	0.15820312
36	0xbe6e	-0.23242188
37	0x3e2f	0.17089844
38	0x3e0f	0.13964844
39	0x3e96	0.29296875
40	0xbda7	-0.08154297
41	0xbe4a	-0.19726562
42	0x3e7d	0.24707031
43	0x3e94	0.2890625
44	0xbb14	-0.0022583008
45	0x3d82	0.06347656
46	0x3e94	0.2890625
47	0xbe81	-0.25195312
48	0xbdb4	-0.087890625
49	0xbe60	-0.21875
50	0x3e11	0.14160156
51	0x3e4a	0.19726562
52	0xbe83	-0.25585938
53	0xbceb	-0.028686523
54	0xbe8a	-0.26953125
55	0x3e60	0.21875
56	0x3e73	0.23730469
57	0x3dc0	0.09375
58	0xbd2a	-0.041503906
59	0xbd1b	-0.037841797
60	0x3e4b	0.19824219
61	0x3dd1	0.10205078
62	0xbe68	-0.2265625
63	0xbcfc	-0.030761719
64	0x3e73	0.23730469
65	0x3e46	0.19335938
66	0xbe57	-0.20996094
67	0xbe6e	-0.23242188
68	0x3e3f	0.18652344
69	0x3e76	0.24023438
70	0xbe19	-0.14941406
71	0xbe3e	-0.18554688
72	0x3d81	0.06298828
73	0xbe1a	-0.15039062
74	0x3e1d	0.15332031
75	0x3ddc	0.107421875
76	0x3e70	0.234375
77	0xbd7c	-0.061523438
78	0xbdb4	-0.087890625
79	0xbe6e	-0.23242188
80	0x3e87	0.26367188
81	0x3e1c	0.15234375
82	0xbba0	-0.0048828125
83	0xbe39	-0.18066406
84	0x3e7e	0.24804688
85	0x3e8b	0.27148438
86	0xbd98	-0.07421875
87	0xbe30	-0.171875
88	0xbe04	-0.12890625
89	0x3e47	0.19433594
90	0xbe83	-0.25585938
91	0xbe09	-0.13378906
92	0x3cd0	0.025390625
93	0x3e46	0.19335938
94	0x3c8f	0.017456055
95	0xbe60	-0.21875
96	0xbe4e	-0.20117188
97	0x3dce	0.10058594
98	0x3d3c	0.045898438
99	0xbd8c	-0.068359375
100	0x3e3f	0.18652344
101	0x3ddf	0.10888672
102	0xbc9f	-0.01940918
103	0xbdae	-0.08496094
104	0xbe48	-0.1953125
105	0xbe96	-0.29296875
106	0x3e12	0.14257812
107	0x3ca1	0.01965332
108	0x3e7b	0.24511719
109	0xbdd2	-0.10253906
110	0xbe93	-0.28710938
111	0xbe28	-0.1640625
112	0xbe50	-0.203125
113	0xbd20	-0.0390625
114	0xbe86	-0.26171875
115	0x3df1	0.11767578
116	0x3e5b	0.21386719
117	0xbc2c	-0.010498047
118	0xbe97	-0.29492188
119	0x3dc9	0.09814453
120	0xbd5a	-0.053222656
121	0x3d9d	0.076660156
122	0xbdb5	-0.088378906
123	0xbe68	-0.2265625
124	0xbe76	-0.24023438
125	0x3dbb	0.091308594
126	0xbdba	-0.09082031
127	0x3e89	0.26757812
128	0x3c80	0.015625
129	0x3cf6	0.030029297
130	0x3e48	0.1953125
131	0x3e8e	0.27734375
132	0x3dd4	0.103515625
133	0x3e80	0.25
134	0x3e74	0.23828125
135	0x3e97	0.29492188
136	0xbe7e	-0.24804688
137	0x3df3	0.118652344
138	0xbe0b	-0.13574219
139	0xbe5a	-0.21289062
140	0xbca1	-0.01965332
141	0x3e5f	0.21777344
142	0x3e84	0.2578125
143	0xbc43	-0.0119018555
144	0x3dfc	0.123046875
145	0x3ca6	0.020263672
146	0xbc02	-0.00793457
147	0xbd9f	-0.07763672
148	0xbe0c	-0.13671875
149	0xbe3f	-0.18652344
150	0xbe8b	-0.27148438
151	0xbbd8	-0.006591797
152	0x3e8f	0.27929688
153	0x3ddd	0.107910156
154	0x3c2b	0.010437012
155	0xbe81	-0.25195312
156	0xbd0e	-0.03466797
157	0xbe8e	-0.27734375
158	0x3d0e	0.03466797
159	0xbddc	-0.107421875
160	0x3e72	0.23632812
161	0x3e41	0.18847656
162	0xbe82	-0.25390625
163	0x3e2c	0.16796875
164	0xbd92	-0.07128906
165	0xbe95	-0.29101562
166	0xbdd0	-0.1015625
167	0x3d3b	0.045654297
168	0x3e27	0.16308594
169	0x3cb5	0.022094727
170	0x3e67	0.22558594
171	0xbe88	-0.265625
172	0xbe04	-0.12890625
173	0xbe97	-0.29492188
174	0x3c80	0.015625
175	0xbe5a	-0.21289062
176	0x3e30	0.171875
177	0x3e38	0.1796875
178	0xbdf6	-0.12011719
179	0x3e8d	0.27539062
180	0xbe53	-0.20605469
181	0xbe66	-0.22460938
182	0xbbe5	-0.0069885254
183	0x3d72	0.05908203
184	0x3e89	0.26757812
185	0xbe4f	-0.20214844
186	0x3e6e	0.23242188
187	0x3df2	0.11816406
188	0xbe15	-0.14550781
189	0xbe47	-0.19433594
190	0x3dc4	0.095703125
191	0xba96	-0.0011444092
192	0x3e74	0.23828125
193	0xbc7a	-0.015258789
194	0xbe8c	-0.2734375
195	0xbdba	-0.09082031
196	0xbdea	-0.11425781
197	0xbe2f	-0.17089844
198	0xbd0a	-0.033691406
199	0x3e01	0.12597656
200	0xbe3e	-0.18554688
201	0xbd59	-0.052978516
202	0xbe04	-0.12890625
203	0x3e3f	0.18652344
204	0x3e6a	0.22851562
205	0x3e7b	0.24511719
206	0x3e95	0.29101562
207	0xbe11	-0.14160156
208	0xbe55	-0.20800781
209	0x3e5a	0.21289062
210	0x3e04	0.12890625
211	0x3d00	0.03125
212	0xbe2a	-0.16601562
213	0xbe73	-0.23730469
214	0xbdbb	-0.091308594
215	0x3e7b	0.24511719
216	0xbe1a	-0.15039062
217	0xbe41	-0.18847656
218	0x3de3	0.110839844
219	0x3e81	0.25195312
220	0x3cba	0.022705078
221	0x3d9b	0.075683594
222	0x3e45	0.19238281
223	0xbdba	-0.09082031
224	0xbe89	-0.26757812
225	0x3cc1	0.02355957
226	0xbe2b	-0.16699219
227	0x3de9	0.11376953
228	0xbe20	-0.15625
229	0x3e8e	0.27734375
230	0x3c83	0.015991211
231	0x3e71	0.23535156
232	0xbe58	-0.2109375
233	0xbe82	-0.25390625
234	0xbe11	-0.14160156
235	0xbd98	-0.07421875
236	0x3e67	0.22558594
237	0xbe6c	-0.23046875
238	0xbde8	-0.11328125
239	0x3daa	0.08300781
240	0xbbda	-0.006652832
241	0xbe05	-0.12988281
242	0x3e49	0.19628906
243	0xbe2c	-0.16796875
244	0x3e10	0.140625
245	0x3d91	0.07080078
246	0xbe2b	-0.16699219
247	0xbca6	-0.020263672
248	0x3dbe	0.09277344
249	0xbc13	-0.008972168
250	0xbdb8	-0.08984375
251	0x3e14	0.14453125
252	0xbe03	-0.12792969
253	0xbd8c	-0.068359375
254	0xbd28	-0.041015625
255	0xbd13	-0.035888672

layer_10.Uv bf16 [64, 4]
0	0xbc31	-0.010803223
1	0x3d0b	0.033935547
2	0xbe81	-0.25195312
3	0xbe3f	-0.18652344
4	0x3d96	0.07324219
5	0x3e7b	0.24511719
6	0xbe47	-0.19433594
7	0xbda0	-0.078125
8	0xbe42	-0.18945312
9	0xbe6d	-0.23144531
10	0xbe87	-0.26367188
11	0x3db3	0.087402344
12	0x3cab	0.020874023
13	0xbe1c	-0.15234375
14	0x3e94	0.2890625
15	0xbd4f	-0.05053711
16	0xbced	-0.028930664
17	0x3e98	0.296875
18	0xbe59	-0.21191406
19	0xbdca	-0.09863281
20	0xbe73	-0.23730469
21	0x3dc1	0.09423828
22	0xbd84	-0.064453125
23	0xbe95	-0.29101562
24	0xbab5	-0.0013809204
25	0xbc23	-0.0099487305
26	0x3e8b	0.27148438
27	0xbcd1	-0.025512695
28	0xbe5f	-0.21777344
29	0x3e2e	0.16992188
30	0x3e2e	0.16992188
31	0x3df3	0.118652344
32	0xbdef	-0.11669922
33	0x3e34	0.17578125
34	0xbdc7	-0.09716797
35	0xb9cf	-0.00039482117
36	0x3dca	0.09863281
37	0xbdef	-0.11669922
38	0x3e86	0.26171875
39	0x3e88	0.265625
40	0x3d24	0.040039062
41	0xbc68	-0.014160156
42	0xbe21	-0.15722656
43	0x3e50	0.203125
44	0xbddf	-0.10888672
45	0x3e84	0.2578125
46	0x3b36	0.0027770996
47	0x3e6e	0.23242188
48	0x3e1c	0.15234375
49	0x3e5d	0.21582031
50	0xbd99	-0.07470703
51	0x3c7a	0.015258789
52	0xbe87	-0.26367188
53	0x3e31	0.17285156
54	0x3be7	0.0070495605
55	0xbe49	-0.19628906
56	0xbdb0	-0.0859375
57	0xbe86	-0.26171875
58	0x3e76	0.24023438
59	0xbd67	-0.056396484
60	0xbd81	-0.06298828
61	0x3cb9	0.022583008
62	0xbc36	-0.011108398
63	0x3e3d	0.18457031
64	0xbe31	-0.17285156
65	0x3e73	0.23730469
66	0xbe1a	-0.15039062
67	0x3cb0	0.021484375
68	0xbd15	-0.036376953
69	0x3cde	0.02709961
70	0xbc16	-0.009155273
71	0x3dfb	0.122558594
72	0xbe34	-0.17578125
73	0xbe3b	-0.18261719
74	0x3e44	0.19140625
75	0xbe79	-0.24316406
76	0x3e64	0.22265625
77	0xbe94	-0.2890625
78	0xbc76	-0.015014648
79	0x3df0	0.1171875
80	0x3e07	0.13183594
81	0x3d00	0.03125
82	0xbca8	-0.020507812
83	0x3e92	0.28515625
84	0xbe6e	-0.23242188
85	0x3caf	0.021362305
86	0x3e40	0.1875
87	0x3e8d	0.27539062
88	0xbd92	-0.07128906
89	0x3e89	0.26757812
90	0x3de8	0.11328125
91	0x3bae	0.0053100586
92	0x3e65	0.22363281
93	0x3e27	0.16308594
94	0xbe88	-0.265625
95	0x3d51	0.05102539
96	0xbe8d	-0.27539062
97	0xbe46	-0.19335938
98	0x3c5c	0.013427734
99	0x3d71	0.05883789
100	0x3e95	0.29101562
101	0xbda8	-0.08203125
102	0x3e74	0.23828125
103	0x3e8f	0.27929688
104	0xbd27	-0.040771484
105	0x3e8d	0.27539062
106	0xbc3e	-0.01159668
107	0x3ddd	0.107910156
108	0xbcab	-0.020874023
109	0x3e35	0.17675781
110	0x3de2	0.11035156
111	0xbd2d	-0.042236328
112	0xbe5c	-0.21484375
113	0x3e3b	0.18261719
114	0xbc55	-0.013000488
115	0x3e92	0.28515625
116	0xbe4b	-0.19824219
117	0xbe52	-0.20507812
118	0xbddd	-0.107910156
119	0x3e58	0.2109375
120	0xbdd4	-0.103515625
121	0x3ca5	0.020141602
122	0x3bca	0.006164551
123	0xbdb9	-0.09033203
124	0x3d55	0.052001953
125	0xbe54	-0.20703125
126	0xbe18	-0.1484375
127	0x3e0f	0.13964844
128	0xbe50	-0.203125
129	0x3e69	0.22753906
130	0x3e92	0.28515625
131	0x3dbf	0.09326172
132	0xbe89	-0.26757812
133	0x3dba	0.09082031
134	0x3d2f	0.04272461
135	0xbe5e	-0.21679688
136	0xbdfa	-0.12207031
137	0x3e93	0.28710938
138	0x3e1b	0.15136719
139	0x3e6b	0.22949219
140	0xbdac	-0.083984375
141	0x3d0a	0.033691406
142	0xbe1c	-0.15234375
143	0x3d22	0.03955078
144	0x3e89	0.26757812
145	0x3e96	0.29296875
146	0x3e4c	0.19921875
147	0xbe46	-0.19335938
148	0xbbf4	-0.007446289
149	0xbb42	-0.002960205
150	0x3ca4	0.020019531
151	0xbd8c	-0.068359375
152	0xbdaf	-0.08544922
153	0xbe5f	-0.21777344
154	0x3c82	0.01586914
155	0xbe67	-0.22558594
156	0xbd17	-0.036865234
157	0xbe8a	-0.26953125
158	0x3e6b	0.22949219
159	0xbe6a	-0.22851562
160	0x3dd6	0.10449219
161	0x3e97	0.29492188
162	0x3e50	0.203125
163	0x3e98	0.296875
164	0xbde8	-0.11328125
165	0xbe74	-0.23828125
166	0xbe82	-0.25390625
167	0xbd1a	-0.037597656
168	0xbe56	-0.20898438
169	0xbddf	-0.10888672
170	0xbe10	-0.140625
171	0x3e94	0.2890625
172	0x3dbb	0.091308594
173	0xbc06	-0.008178711
174	0xbe12	-0.14257812
175	0xbd96	-0.07324219
176	0x3e89	0.26757812
177	0x3dfe	0.12402344
178	0x3e09	0.13378906
179	0x3ced	0.028930664
180	0xbe91	-0.28320312
181	0x3d6c	0.057617188
182	0x3e6b	0.22949219
183	0x3e59	0.21191406
184	0x3dc0	0.09375
185	0xbe6a	-0.22851562
186	0x3e11	0.14160156
187	0xbe48	-0.1953125
188	0x3e6c	0.23046875
189	0x3e36	0.17773438
190	0x3e61	0.21972656
191	0xbe69	-0.22753906
192	0x3d55	0.052001953
193	0xbe1c	-0.15234375
194	0x3e6d	0.23144531
195	0x3e39	0.18066406
196	0x3e95	0.29101562
197	0xbd14	-0.036132812
198	0xbdd6	-0.10449219
199	0x3e77	0.24121094
200	0x3e53	0.20605469
201	0xbd0c	-0.034179688
202	0x3e02	0.12695312
203	0xbe05	-0.12988281
204	0x3e2e	0.16992188
205	0x3e45	0.19238281
206	0x3e46	0.19335938
207	0xbe20	-0.15625
208	0x3dd9	0.10595703
209	0xbd47	-0.048583984
210	0x3e94	0.2890625
211	0xbda2	-0.07910156
212	0xbe3b	-0.18261719
213	0xbe82	-0.25390625
214	0x3e88	0.265625
215	0xbe8c	-0.2734375
216	0xbd64	-0.055664062
217	0xbdf4	-0.119140625
218	0xbe2e	-0.16992188
219	0xbd80	-0.0625
220	0xbd92	-0.07128906
221	0xbe83	-0.25585938
222	0xbe04	-0.12890625
223	0x3e06	0.13085938
224	0x3de6	0.11230469
225	0x3e88	0.265625
226	0xbc37	-0.011169434
227	0xbe81	-0.25195312
228	0x3e23	0.15917969
229	0xbdcb	-0.099121094
230	0xbda6	-0.08105469
231	0x3e10	0.140625
232	0x3e98	0.296875
233	0x3e82	0.25390625
234	0xbb7d	-0.0038604736
235	0x3d04	0.032226562
236	0x3d88	0.06640625
237	0xbdb3	-0.087402344
238	0x3e59	0.21191406
239	0x3d87	0.06591797
240	0x3e42	0.18945312
241	0xbd17	-0.036865234
242	0xbce8	-0.028320312
243	0x3e4b	0.19824219
244	0xbe09	-0.13378906
245	0x3e86	0.26171875
246	0xbe31	-0.17285156
247	0x3e63	0.22167969
248	0xbe4b	-0.19824219
249	0xbe77	-0.24121094
250	0xbe7c	-0.24609375
251	0xbcdd	-0.026977539
252	0x3de3	0.110839844
253	0x3cae	0.021240234
254	0xbe5e	-0.21679688
255	0xbdd8	-0.10546875

layer_10.gate_k.net.0.weight bf16 [4, 64]
0	0xbdf1	-0.11767578
1	0xbcc9	-0.024536133
2	0xbd76	-0.060058594
3	0xbd09	-0.033447266
4	0xbde2	-0.11035156
5	0x3d4d	0.050048828
6	0xbde5	-0.111816406
7	0xbc03	-0.0079956055
8	0x3d32	0.04345703
9	0xbd2d	-0.042236328
10	0x3d91	0.07080078
11	0x3c81	0.01574707
12	0x3d8d	0.068847656
13	0x3da4	0.080078125
14	0xbd62	-0.05517578
15	0x3d3a	0.045410156
16	0xbd5e	-0.05419922
17	0x3d20	0.0390625
18	0xbd86	-0.06542969
19	0x3d6d	0.057861328
20	0x3ccf	0.025268555
21	0xbd48	-0.048828125
22	0xbd7b	-0.061279297
23	0x3d04	0.032226562
24	0x3def	0.11669922
25	0x3d76	0.060058594
26	0xbc46	-0.012084961
27	0xbbc7	-0.006072998
28	0x3d92	0.07128906
29	0xbdb2	-0.08691406
30	0x3d2a	0.041503906
31	0xbd2a	-0.041503906
32	0x3d94	0.072265625
33	0xbd37	-0.044677734
34	0x3bcb	0.0061950684
35	0x3d2d	0.042236328
36	0x3db0	0.0859375
37	0xbc97	-0.018432617
38	0x3dea	0.11425781
39	0xbdd9	-0.10595703
40	0xbcb7	-0.022338867
41	0xbdff	-0.12451172
42	0x3c2a	0.010375977
43	0x3d11	0.03540039
44	0xbd4f	-0.05053711
45	0x3d55	0.052001953
46	0xbca6	-0.020263672
47	0xbdde	-0.10839844
48	0x3dc5	0.096191406
49	0x3d9e	0.07714844
50	0x3d81	0.06298828
51	0x3dcc	0.099609375
52	0x3d3c	0.045898438
53	0x3d88	0.06640625
54	0x3dd4	0.103515625
55	0xbcce	-0.025146484
56	0xbdc8	-0.09765625
57	0xbd7c	-0.061523438
58	0xbc89	-0.016723633
59	0xbc61	-0.01373291
60	0xba5e	-0.0008468628
61	0x3d93	0.071777344
62	0x3d24	0.040039062
63	0xbdbd	-0.092285156
64	0xbd1a	-0.037597656
65	0xbcf1	-0.029418945
66	0x3d9c	0.076171875
67	0xbd3a	-0.045410156
68	0xbd56	-0.052246094
69	0xbca5	-0.020141602
70	0xbd02	-0.03173828
71	0xbcfc	-0.030761719
72	0xbdfa	-0.12207031
73	0x3de4	0.111328125
74	0x3d88	0.06640625
75	0xbd72	-0.05908203
76	0xbda0	-0.078125
77	0x3b8e	0.004333496
78	0x3d92	0.07128906
79	0xbdb8	-0.08984375
80	0xbd41	-0.04711914
81	0x3d56	0.052246094
82	0xbda5	-0.080566406
83	0xbc64	-0.013916016
84	0xbdc1	-0.09423828
85	0x3ded	0.115722656
86	0x3d8a	0.06738281
87	0xbded	-0.115722656
88	0xbd8d	-0.068847656
89	0x3d35	0.044189453
90	0x3be0	0.0068359375
91	0x3d08	0.033203125
92	0xbdd1	-0.10205078
93	0xbd89	-0.06689453
94	0x3d68	0.056640625
95	0xbdc3	-0.095214844
96	0xbcd7	-0.026245117
97	0x3d61	0.05493164
98	0x3d85	0.064941406
99	0x3bff	0.0077819824
100	0x3d14	0.036132812
101	0x3d64	0.055664062
102	0xbc6f	-0.014587402
103	0xbd0c	-0.034179688
104	0x3dc3	0.095214844
105	0x3dfa	0.12207031
106	0x3d6d	0.057861328
107	0xbd60	-0.0546875
108	0xbddf	-0.10888672
109	0xbdfd	-0.123535156
110	0x3a63	0.0008659363
111	0xbd44	-0.047851562
112	0xbd01	-0.03149414
113	0xbc90	-0.017578125
114	0x3df2	0.11816406
115	0x3df3	0.118652344
116	0xbc3f	-0.011657715
117	0xbd1a	-0.037597656
118	0x3d79	0.060791016
119	0xbc23	-0.0099487305
120	0xbdf4	-0.119140625
121	0x3d27	0.040771484
122	0x3df5	0.119628906
123	0xbdcb	-0.099121094
124	0xbcdd	-0.026977539
125	0x3cde	0.02709961
126	0xbdd0	-0.1015625
127	0xbddb	-0.106933594
128	0x3dbf	0.09326172
129	0xbd35	-0.044189453
130	0x3d95	0.072753906
131	0x3c37	0.011169434
132	0x3cfa	0.030517578
133	0xbdab	-0.083496094
134	0xbcdb	-0.026733398
135	0x3da9	0.08251953
136	0x3d6b	0.057373047
137	0xbd14	-0.036132812
138	0x3c7c	0.015380859
139	0x3dc4	0.095703125
140	0xbde0	-0.109375
141	0x3da4	0.080078125
142	0xbd1a	-0.037597656
143	0xbcd0	-0.025390625
144	0x3d74	0.059570312
145	0xbdd5	-0.104003906
146	0xbc9b	-0.018920898
147	0x3df5	0.119628906
148	0x3d38	0.044921875
149	0xbd3d	-0.046142578
150	0xbcdf	-0.02722168
151	0x3dca	0.09863281
152	0x3d41	0.04711914
153	0x3dae	0.08496094
154	0xbda5	-0.080566406
155	0x3d14	0.036132812
156	0x3cb7	0.022338867
157	0x3cb2	0.021728516
158	0x3dee	0.11621094
159	0x3d8e	0.06933594
160	0x3db0	0.0859375
161	0x3d61	0.05493164
162	0x3d57	0.052490234
163	0xbcb2	-0.021728516
164	0xbde2	-0.11035156
165	0xbdd8	-0.10546875
166	0xbd9f	-0.07763672
167	0xbda6	-0.08105469
168	0x3d71	0.05883789
169	0x3d1e	0.03857422
170	0xbd12	-0.03564453
171	0xbdc3	-0.095214844
172	0x3dfc	0.123046875
173	0x3dc0	0.09375
174	0x3d73	0.059326172
175	0x3dfd	0.123535156
176	0xbd88	-0.06640625
177	0xbd92	-0.07128906
178	0xbd96	-0.07324219
179	0xbbc6	-0.0060424805
180	0xbde2	-0.11035156
181	0x3dcb	0.099121094
182	0x3b53	0.0032196045
183	0x3d7f	0.06225586
184	0xbd8d	-0.068847656
185	0xbc53	-0.012878418
186	0x3c87	0.016479492
187	0xbd0c	-0.034179688
188	0x3df2	0.11816406
189	0xbd6a	-0.057128906
190	0x3d1f	0.03881836
191	0xbdae	-0.08496094
192	0xbc72	-0.014770508
193	0xbd08	-0.033203125
194	0x3d5d	0.053955078
195	0x3db3	0.087402344
196	0x3cf9	0.030395508
197	0xbc3a	-0.011352539
198	0xbd03	-0.031982422
199	0x3dc9	0.09814453
200	0xbcf2	-0.029541016
201	0x3db9	0.09033203
202	0xbd64	-0.055664062
203	0x3dd3	0.103027344
204	0x3dff	0.12451172
205	0x3daf	0.08544922
206	0x3d93	0.071777344
207	0x3d3f	0.04663086
208	0xbd7c	-0.061523438
209	0x3ac4	0.0014953613
210	0x3d30	0.04296875
211	0xbd06	-0.032714844
212	0x3cb8	0.022460938
213	0x3d96	0.07324219
214	0xbded	-0.115722656
215	0xbde9	-0.11376953
216	0xbd99	-0.07470703
217	0x3c7a	0.015258789
218	0xbcbe	-0.02319336
219	0x3cdd	0.026977539
220	0xbcf4	-0.029785156
221	0xbda8	-0.08203125
222	0x3c88	0.016601562
223	0x3dad	0.084472656
224	0xbd9a	-0.07519531
225	0x3de0	0.109375
226	0x3cfc	0.030761719
227	0x3dfc	0.123046875
228	0xbdeb	-0.114746094
229	0xbdf5	-0.119628906
230	0x3d2e	0.04248047
231	0xbdef	-0.11669922
232	0xbdd2	-0.10253906
233	0x3d82	0.06347656
234	0x3d79	0.060791016
235	0xbde9	-0.11376953
236	0x3db8	0.08984375
237	0xbcc7	-0.024291992
238	0x3dbe	0.09277344
239	0xbd96	-0.07324219
240	0xbdf3	-0.118652344
241	0xbdaa	-0.08300781
242	0xbc9f	-0.01940918
243	0xbe00	-0.125
244	0xbc0c	-0.008544922
245	0xbd80	-0.0625
246	0xbcee	-0.029052734
247	0xb795	-1.7762184e-05
248	0x3be6	0.007019043
249	0xbdfa	-0.12207031
250	0x3d84	0.064453125
251	0xbd9d	-0.076660156
252	0x3d9c	0.076171875
253	0x3deb	0.114746094
254	0xbd2b	-0.041748047
255	0x3c66	0.014038086

layer_10.gate_k.net.0.bias bf16 [4]
0	0x3d8d	0.068847656
1	0xbc22	-0.009887695
2	0xbdd6	-0.10449219
3	0x3d66	0.056152344

layer_10.gate_k.net.2.weight bf16 [4, 4]
0	0x3e74	0.23828125
1	0xbe8c	-0.2734375
2	0xbeac	-0.3359375
3	0xbdb3	-0.087402344
4	0x3dc9	0.09814453
5	0xbe81	-0.25195312
6	0xbc45	-0.012023926
7	0xbe5d	-0.21582031
8	0xbe47	-0.19433594
9	0xbd8c	-0.068359375
10	0xbe43	-0.19042969
11	0x3ec5	0.38476562
12	0x3e07	0.13183594
13	0x3ee5	0.44726562
14	0x3ee7	0.45117188
15	0x3da7	0.08154297

layer_10.gate_k.net.2.bias bf16 [4]
0	0xbe55	-0.20800781
1	0x3e9c	0.3046875
2	0xbc8f	-0.017456055
3	0x3ebe	0.37109375

layer_10.gate_v.net.0.weight bf16 [4, 64]
0	0x3d14	0.036132812
1	0x3de2	0.11035156
2	0xbd14	-0.036132812
3	0xbc22	-0.009887695
4	0xbda5	-0.080566406
5	0x3dbd	0.092285156
6	0x3d51	0.05102539
7	0x3c19	0.009338379
8	0x3d25	0.040283203
9	0xbca6	-0.020263672
10	0xbd82	-0.06347656
11	0xbd24	-0.040039062
12	0x3a9e	0.0012054443
13	0x3da2	0.07910156
14	0x3d80	0.0625
15	0xbcbf	-0.02331543
16	0xbd0f	-0.03491211
17	0xbb8c	-0.004272461
18	0x3dcc	0.099609375
19	0x3dc2	0.09472656
20	0x3cb1	0.021606445
21	0xbd12	-0.03564453
22	0x3deb	0.114746094
23	0x3d70	0.05859375
24	0xbc12	-0.008911133
25	0x3d98	0.07421875
26	0x3d80	0.0625
27	0xbd11	-0.03540039
28	0x3d25	0.040283203
29	0x3d74	0.059570312
30	0x3d0b	0.033935547
31	0xbae4	-0.001739502
32	0x3df1	0.11767578
33	0x3d39	0.045166016
34	0xbdd4	-0.103515625
35	0x3da3	0.079589844
36	0x3d1e	0.03857422
37	0x3d59	0.052978516
38	0x3d2d	0.042236328
39	0x3d3c	0.045898438
40	0x3d82	0.06347656
41	0x3de4	0.111328125
42	0x3d87	0.06591797
43	0xbd80	-0.0625
44	0x3d89	0.06689453
45	0xbcee	-0.029052734
46	0x3da9	0.08251953
47	0xbd46	-0.048339844
48	0x3d06	0.032714844
49	0x3ded	0.115722656
50	0x3d80	0.0625
51	0x3d11	0.03540039
52	0x3d83	0.063964844
53	0xbcba	-0.022705078
54	0x3c98	0.018554688
55	0xbdde	-0.10839844
56	0x3df7	0.12060547
57	0x3df4	0.119140625
58	0xbdb0	-0.0859375
59	0xbd1e	-0.03857422
60	0x3dd3	0.103027344
61	0x3d78	0.060546875
62	0x3d86	0.06542969
63	0x3dc1	0.09423828
64	0x3d80	0.0625
65	0xbd60	-0.0546875
66	0xbdd3	-0.103027344
67	0xbd21	-0.03930664
68	0xbd99	-0.07470703
69	0xbd3e	-0.04638672
70	0xbdb4	-0.087890625
71	0x3da4	0.080078125
72	0xbcb4	-0.021972656
73	0xbd73	-0.059326172
74	0xbd8d	-0.068847656
75	0x3cbe	0.02319336
76	0xbd25	-0.040283203
77	0x3d32	0.04345703
78	0x3d82	0.06347656
79	0xbd39	-0.045166016
80	0xbd24	-0.040039062
81	0xbd14	-0.036132812
82	0xbd48	-0.048828125
83	0x3d64	0.055664062
84	0xbda5	-0.080566406
85	0xbd19	-0.037353516
86	0xbd7a	-0.061035156
87	0xbdf0	-0.1171875
88	0x3d62	0.05517578
89	0xbd5b	-0.053466797
90	0x3de4	0.111328125
91	0x3db0	0.0859375
92	0x3e00	0.125
93	0xbdc9	-0.09814453
94	0xbde2	-0.11035156
95	0x3d30	0.04296875
96	0x3d80	0.0625
97	0x3d84	0.064453125
98	0xbdaa	-0.08300781
99	0x3dcb	0.099121094
100	0xbddf	-0.10888672
101	0x3cfa	0.030517578
102	0xbd38	-0.044921875
103	0x3d3a	0.045410156
104	0x3dcb	0.099121094
105	0x3ddd	0.107910156
106	0x3d80	0.0625
107	0x3d3e	0.04638672
108	0x3d86	0.06542969
109	0xbd9d	-0.076660156
110	0x3d24	0.040039062
111	0x3dda	0.10644531
112	0x3d83	0.063964844
113	0xbde3	-0.110839844
114	0x3d3e	0.04638672
115	0x3d3a	0.045410156
116	0x3d4e	0.05029297
117	0xbd37	-0.044677734
118	0xbde3	-0.110839844
119	0x3d80	0.0625
120	0x3d04	0.032226562
121	0xbde9	-0.11376953
122	0xbd12	-0.03564453
123	0x3cdb	0.026733398
124	0xbc98	-0.018554688
125	0x3dae	0.08496094
126	0xbd91	-0.07080078
127	0x3d80	0.0625
128	0xbd06	-0.032714844
129	0x3c8c	0.017089844
130	0x3d10	0.03515625
131	0x3dfc	0.123046875
132	0xbc41	-0.011779785
133	0xbca4	-0.020019531
134	0xbd0e	-0.03466797
135	0xbd52	-0.05126953
136	0xbd95	-0.072753906
137	0x3cc0	0.0234375
138	0x3d85	0.064941406
139	0x3d00	0.03125
140	0xbcae	-0.021240234
141	0x3d15	0.036376953
142	0x3d8a	0.06738281
143	0xbd28	-0.041015625
144	0x3d00	0.03125
145	0x3ca7	0.020385742
146	0xbd8a	-0.06738281
147	0x3dbd	0.092285156
148	0xbd18	-0.037109375
149	0x3d00	0.03125
150	0x3dea	0.11425781
151	0xbdc6	-0.09667969
152	0x3c35	0.011047363
153	0x3de8	0.11328125
154	0xbd6e	-0.05810547
155	0xbd1b	-0.037841797
156	0x3df5	0.119628906
157	0xbd3a	-0.045410156
158	0x3d2a	0.041503906
159	0x3d3a	0.045410156
160	0xbc7a	-0.015258789
161	0xbdd7	-0.10498047
162	0xbda6	-0.08105469
163	0xbdcc	-0.099609375
164	0xbdfc	-0.123046875
165	0xbd12	-0.03564453
166	0xbb61	-0.0034332275
167	0xbde0	-0.109375
168	0xbde8	-0.11328125
169	0xbd00	-0.03125
170	0xbd41	-0.04711914
171	0x3d19	0.037353516
172	0xbcc0	-0.0234375
173	0x3dff	0.12451172
174	0xbd0f	-0.03491211
175	0xbdcf	-0.10107422
176	0xbdaa	-0.08300781
177	0xbdec	-0.115234375
178	0xbd78	-0.060546875
179	0xbcd1	-0.025512695
180	0xbd0b	-0.033935547
181	0x3c95	0.018188477
182	0xbb5e	-0.0033874512
183	0xbd1b	-0.037841797
184	0x3c90	0.017578125
185	0xbd72	-0.05908203
186	0x3c9d	0.019165039
187	0x3d07	0.032958984
188	0x3d04	0.032226562
189	0x3dbb	0.091308594
190	0xbdf9	-0.12158203
191	0x3bf1	0.0073547363
192	0xbd8a	-0.06738281
193	0x3d81	0.06298828
194	0x3dc8	0.09765625
195	0x3db9	0.09033203
196	0x3d84	0.064453125
197	0xbd89	-0.06689453
198	0x3cd7	0.026245117
199	0xbd83	-0.063964844
200	0xbd0c	-0.034179688
201	0xbd58	-0.052734375
202	0x3d80	0.0625
203	0x3d90	0.0703125
204	0xbd87	-0.06591797
205	0x3ccb	0.024780273
206	0xbdb4	-0.087890625
207	0xbd95	-0.072753906
208	0xbd7e	-0.06201172
209	0x3db2	0.08691406
210	0xbddb	-0.106933594
211	0x3d47	0.048583984
212	0x3de1	0.10986328
213	0xbdad	-0.084472656
214	0xbde2	-0.11035156
215	0x3d8c	0.068359375
216	0x3da2	0.07910156
217	0xbd80	-0.0625
218	0x3dca	0.09863281
219	0x3dab	0.083496094
220	0xbd71	-0.05883789
221	0x3dbd	0.092285156
222	0xbd81	-0.06298828
223	0x3d86	0.06542969
224	0xbd95	-0.072753906
225	0x3d84	0.064453125
226	0x3d87	0.06591797
227	0x3d17	0.036865234
228	0x3d8b	0.067871094
229	0x3c8e	0.017333984
230	0x3d40	0.046875
231	0x3d86	0.06542969
232	0x3dd5	0.104003906
233	0x3d98	0.07421875
234	0xbdba	-0.09082031
235	0xba0b	-0.0005302429
236	0x3d8f	0.06982422
237	0x3d30	0.04296875
238	0xbd88	-0.06640625
239	0x3df9	0.12158203
240	0xbdb8	-0.08984375
241	0xbdd3	-0.103027344
242	0x3d76	0.060058594
243	0x3d58	0.052734375
244	0x3d80	0.0625
245	0xbd00	-0.03125
246	0x3d44	0.047851562
247	0x3db5	0.088378906
248	0xbd6e	-0.05810547
249	0x3d66	0.056152344
250	0xbd80	-0.0625
251	0xbd83	-0.063964844
252	0xbd8d	-0.068847656
253	0xbdb8	-0.08984375
254	0x3dd8	0.10546875
255	0x3d80	0.0625

layer_10.gate_v.net.0.bias bf16 [4]
0	0x3d80	0.0625
1	0x3d80	0.0625
2	0xbda7	-0.08154297
3	0x3da6	0.08105469

layer_10.gate_v.net.2.weight bf16 [4, 4]
0	0xbe1f	-0.15527344
1	0x3e88	0.265625
2	0x3e15	0.14550781
3	0xbefe	-0.49609375
4	0xbeeb	-0.45898438
5	0xbefa	-0.48828125
6	0x3ee6	0.44921875
7	0x3eea	0.45703125
8	0x3e2f	0.17089844
9	0xbe55	-0.20800781
10	0x3e28	0.1640625
11	0xbec1	-0.37695312
12	0x3da4	0.080078125
13	0xbd9b	-0.075683594
14	0x3eaf	0.34179688
15	0xbd80	-0.0625

layer_10.gate_v.net.2.bias bf16 [4]
0	0xbd80	-0.0625
1	0xbd80	-0.0625
2	0x3ef6	0.48046875
3	0xbeb3	-0.34960938

layer_11.Wk bf16 [64, 4]
0	0xbddb	-0.106933594
1	0x3e1e	0.15429688
2	0xbcf6	-0.030029297
3	0xbcaf	-0.021362305
4	0x3e2d	0.16894531
5	0x3e3e	0.18554688
6	0xbde7	-0.11279297
7	0x3e33	0.17480469
8	0x3be5	0.0069885254
9	0xbe45	-0.19238281
10	0xbba7	-0.0050964355
11	0x3e87	0.26367188
12	0x3e49	0.19628906
13	0x3e78	0.2421875
14	0xbd37	-0.044677734
15	0x3e6c	0.23046875
16	0x3e6f	0.23339844
17	0x3e28	0.1640625
18	0xbd08	-0.033203125
19	0xbe4c	-0.19921875
20	0xbd65	-0.055908203
21	0x3d16	0.036621094
22	0xbe12	-0.14257812
23	0x3e40	0.1875
24	0xbe93	-0.28710938
25	0xbe09	-0.13378906
26	0xbe2a	-0.16601562
27	0xbdf7	-0.12060547
28	0x3d28	0.041015625
29	0xbd6b	-0.057373047
30	0x3dc1	0.09423828
31	0x3e00	0.125
32	0x3e53	0.20605469
33	0xbe89	-0.26757812
34	0xbe16	-0.14648438
35	0x3e78	0.2421875
36	0x3e94	0.2890625
37	0x3e3a	0.18164062
38	0xbe94	-0.2890625
39	0xbc21	-0.00982666
40	0x3e29	0.16503906
41	0xbd3d	-0.046142578
42	0x3e6e	0.23242188
43	0x3e82	0.25390625
44	0xbd7b	-0.061279297
45	0x3dce	0.10058594
46	0xbb80	-0.00390625
47	0x3cc1	0.02355957
48	0x3e84	0.2578125
49	0x3d88	0.06640625
50	0x3e7c	0.24609375
51	0x3dd9	0.10595703
52	0xbd57	-0.052490234
53	0x3e87	0.26367188
54	0xbe4a	-0.19726562
55	0xbe67	-0.22558594
56	0x3dfd	0.123535156
57	0x3e5a	0.21289062
58	0xbe53	-0.20605469
59	0x3d03	0.031982422
60	0xbe36	-0.17773438
61	0x3e0d	0.13769531
62	0xbe51	-0.20410156
63	0xbe7e	-0.24804688
64	0xbd24	-0.040039062
65	0x3e8d	0.27539062
66	0xbddb	-0.106933594
67	0xbe83	-0.25585938
68	0xbda6	-0.08105469
69	0x3ddd	0.107910156
70	0x3e13	0.14355469
71	0x3e89	0.26757812
72	0x3d94	0.072265625
73	0x3e2d	0.16894531
74	0xbbc5	-0.006011963
75	0xbdb0	-0.0859375
76	0xbc3c	-0.011474609
77	0x3e85	0.25976562
78	0x3d87	0.06591797
79	0x3dc4	0.095703125
80	0x3d00	0.03125
81	0xbe27	-0.16308594
82	0xbd01	-0.03149414
83	0xbdcf	-0.10107422
84	0x3e92	0.28515625
85	0xbcc6	-0.024169922
86	0x3d81	0.06298828
87	0x3e84	0.2578125
88	0xbdc0	-0.09375
89	0x3e1c	0.15234375
90	0xbe19	-0.14941406
91	0xbe1a	-0.15039062
92	0x3e16	0.14648438
93	0x3ced	0.028930664
94	0x3e53	0.20605469
95	0x3d1a	0.037597656
96	0x3c3b	0.011413574
97	0x3e5d	0.21582031
98	0xbce8	-0.028320312
99	0xbe31	-0.17285156
100	0x3e81	0.25195312
101	0xbdd8	-0.10546875
102	0xbe83	-0.25585938
103	0x3e8a	0.26953125
104	0xbe78	-0.2421875
105	0xbda2	-0.07910156
106	0x3e72	0.23632812
107	0xbe4c	-0.19921875
108	0x3e64	0.22265625
109	0x3e8d	0.27539062
110	0x3e1e	0.15429688
111	0xbcb6	-0.022216797
112	0xbd9b	-0.075683594
113	0x3e56	0.20898438
114	0xbe5b	-0.21386719
115	0xbc5c	-0.013427734
116	0xbe85	-0.25976562
117	0xbdeb	-0.114746094
118	0x3ca9	0.020629883
119	0xbdac	-0.083984375
120	0x3ded	0.115722656
121	0xbde8	-0.11328125
122	0xbe6a	-0.22851562
123	0x3e75	0.23925781
124	0x3dae	0.08496094
125	0xbd78	-0.060546875
126	0x3c08	0.008300781
127	0xbe58	-0.2109375
128	0xbd17	-0.036865234
129	0x3e71	0.23535156
130	0xbe1e	-0.15429688
131	0xbe7c	-0.24609375
132	0x3e01	0.12597656
133	0xbe38	-0.1796875
134	0xbe0c	-0.13671875
135	0x3e94	0.2890625
136	0xbe8a	-0.26953125
137	0xbe31	-0.17285156
138	0x3e27	0.16308594
139	0x3cb0	0.021484375
140	0x3dc0	0.09375
141	0x3e84	0.2578125
142	0x3cbe	0.02319336
143	0xbe66	-0.22460938
144	0x3ce8	0.028320312
145	0xbe8f	-0.27929688
146	0x3d42	0.04736328
147	0xbc03	-0.0079956055
148	0xbe3c	-0.18359375
149	0x3e34	0.17578125
150	0x3db0	0.0859375
151	0x3cba	0.022705078
152	0x3e3b	0.18261719
153	0x3e33	0.17480469
154	0x3ddb	0.106933594
155	0x3d88	0.06640625
156	0x3d33	0.043701172
157	0x3d1f	0.03881836
158	0x3e27	0.16308594
159	0xbe4b	-0.19824219
160	0x3da7	0.08154297
161	0x3e83	0.25585938
162	0x3d99	0.07470703
163	0xbdca	-0.09863281
164	0x3e2e	0.16992188
165	0xbd0a	-0.033691406
166	0xbe09	-0.13378906
167	0xbe5d	-0.21582031
168	0x3dd5	0.104003906
169	0xbb12	-0.0022277832
170	0xbe95	-0.29101562
171	0x3e3a	0.18164062
172	0x3e79	0.24316406
173	0xbe02	-0.12695312
174	0xbe64	-0.22265625
175	0xbce0	-0.02734375
176	0xbdbe	-0.09277344
177	0x3d76	0.060058594
178	0xbe77	-0.24121094
179	0xbe7d	-0.24707031
180	0xbe0c	-0.13671875
181	0xbe6a	-0.22851562
182	0x3dbc	0.091796875
183	0x3e78	0.2421875
184	0x3c7c	0.015380859
185	0x3e10	0.140625
186	0x3d96	0.07324219
187	0xbdcc	-0.099609375
188	0xbe41	-0.18847656
189	0x3dbd	0.092285156
190	0xbd16	-0.036621094
191	0xbe89	-0.26757812
192	0x3e94	0.2890625
193	0xbe5a	-0.21289062
194	0x3e17	0.14746094
195	0x3d5a	0.053222656
196	0x3e83	0.25585938
197	0xbdf1	-0.11767578
198	0x3da3	0.079589844
199	0xbe67	-0.22558594
200	0xbe6b	-0.22949219
201	0xbbc7	-0.006072998
202	0x3e8d	0.27539062
203	0xbc1d	-0.0095825195
204	0xbc86	-0.016357422
205	0x3e28	0.1640625
206	0xbd0b	-0.033935547
207	0x3c16	0.009155273
208	0xbe1d	-0.15332031
209	0xbe2f	-0.17089844
210	0x3e95	0.29101562
211	0xbe39	-0.18066406
212	0xbe81	-0.25195312
213	0x3dc8	0.09765625
214	0x3941	0.00018405914
215	0x3da3	0.079589844
216	0xbe5c	-0.21484375
217	0x3e2b	0.16699219
218	0x3e21	0.15722656
219	0xbdbc	-0.091796875
220	0xbe1b	-0.15136719
221	0x3dec	0.115234375
222	0x3db8	0.08984375
223	0xbe20	-0.15625
224	0xbc9a	-0.018798828
225	0x3d78	0.060546875
226	0xbe17	-0.14746094
227	0x3cbe	0.02319336
228	0x3d8a	0.06738281
229	0x3e2c	0.16796875
230	0xbe69	-0.22753906
231	0x3e64	0.22265625
232	0xb84b	-4.839897e-05
233	0xbc99	-0.018676758
234	0x3df1	0.11767578
235	0x3cc8	0.024414062
236	0xbe88	-0.265625
237	0xbe85	-0.25976562
238	0xbd66	-0.056152344
239	0x3e93	0.28710938
240	0xbe6d	-0.23144531
241	0x3e8f	0.27929688
242	0xbe08	-0.1328125
243	0x3e2a	0.16601562
244	0x3d2b	0.041748047
245	0xbe7d	-0.24707031
246	0x3e67	0.22558594
247	0xbe5b	-0.21386719
248	0xbd93	-0.071777344
249	0xbd9a	-0.07519531
250	0x3e77	0.24121094
251	0xbe74	-0.23828125
252	0xbe8d	-0.27539062
253	0x3d0b	0.033935547
254	0xbdb5	-0.088378906
255	0xbe3b	-0.18261719

layer_11.Uk bf16 [64, 4]
0	0xbe44	-0.19140625
1	0xbe8a	-0.26953125
2	0x3e7c	0.24609375
3	0xbe6f	-0.23339844
4	0x3dc3	0.095214844
5	0x3e25	0.16113281
6	0x3cde	0.02709961
7	0x3db9	0.09033203
8	0x3dfc	0.123046875
9	0xbe8b	-0.27148438
10	0x3e5a	0.21289062
11	0x3d90	0.0703125
12	0x3e8f	0.27929688
13	0xbe1d	-0.15332031
14	0xbe17	-0.14746094
15	0x3e88	0.265625
16	0xbe97	-0.29492188
17	0xbe37	-0.17871094
18	0x3e52	0.20507812
19	0x3dfa	0.12207031
20	0xbe5d	-0.21582031
21	0xbe33	-0.17480469
22	0x3e5e	0.21679688
23	0x3de4	0.111328125
24	0xbd8f	-0.06982422
25	0xbe75	-0.23925781
26	0xbe89	-0.26757812
27	0x3e67	0.22558594
28	0x3d28	0.041015625
29	0x3e20	0.15625
30	0x3cfe	0.03100586
31	0x3e92	0.28515625
32	0x3dc5	0.096191406
33	0x3d91	0.07080078
34	0x3e2d	0.16894531
35	0xbe23	-0.15917969
36	0xbe98	-0.296875
37	0x3e53	0.20605469
38	0x3d9d	0.076660156
39	0x3cc7	0.024291992
40	0x3d14	0.036132812
41	0xbd6d	-0.057861328
42	0xbda6	-0.08105469
43	0xbe67	-0.22558594
44	0x3d5b	0.053466797
45	0xbcda	-0.026611328
46	0x3e65	0.22363281
47	0xbe2e	-0.16992188
48	0x3de9	0.11376953
49	0xbe93	-0.28710938
50	0xbe8e	-0.27734375
51	0x3e27	0.16308594
52	0x3e42	0.18945312
53	0x3b83	0.0039978027
54	0x3d4a	0.049316406
55	0x3e91	0.28320312
56	0xbe75	-0.23925781
57	0xbd84	-0.064453125
58	0xbe65	-0.22363281
59	0xbd76	-0.060058594
60	0xbe14	-0.14453125
61	0x3dde	0.10839844
62	0x3de6	0.11230469
63	0x3c55	0.013000488
64	0x3cf5	0.029907227
65	0xbc81	-0.01574707
66	0xbcc2	-0.02368164
67	0x3db5	0.088378906
68	0x3e86	0.26171875
69	0x3e19	0.14941406
70	0x3d42	0.04736328
71	0xbe02	-0.12695312
72	0x3e55	0.20800781
73	0xbe4e	-0.20117188
74	0x3e8d	0.27539062
75	0xbe2b	-0.16699219
76	0x3e1f	0.15527344
77	0x3e19	0.14941406
78	0x3e1e	0.15429688
79	0xbe89	-0.26757812
80	0xbdc5	-0.096191406
81	0xbda3	-0.079589844
82	0x3d26	0.040527344
83	0x3e96	0.29296875
84	0xbd96	-0.07324219
85	0xbd5d	-0.053955078
86	0xbc90	-0.017578125
87	0x3e8a	0.26953125
88	0x3cd4	0.025878906
89	0x3df4	0.119140625
90	0x3e05	0.12988281
91	0x3e8a	0.26953125
92	0x3e4b	0.19824219
93	0x3e91	0.28320312
94	0x3e8f	0.27929688
95	0xbe25	-0.16113281
96	0x3e78	0.2421875
97	0xbdd5	-0.104003906
98	0x3e96	0.29296875
99	0xbe3e	-0.18554688
100	0x3e54	0.20703125
101	0x3da9	0.08251953
102	0xbcc2	-0.02368164
103	0x3e98	0.296875
104	0xbe97	-0.29492188
105	0x3e1f	0.15527344
106	0x3b43	0.0029754639
107	0xbe43	-0.19042969
108	0x3e90	0.28125
109	0x3e61	0.21972656
110	0xbe8d	-0.27539062
111	0x3e51	0.20410156
112	0x3e57	0.20996094
113	0x3e3d	0.18457031
114	0xbe64	-0.22265625
115	0xbe69	-0.22753906
116	0xbdf8	-0.12109375
117	0x3cf4	0.029785156
118	0x3e95	0.29101562
119	0x3d5d	0.053955078
120	0x3e8c	0.2734375
121	0xbe41	-0.18847656
122	0x3c74	0.014892578
123	0xbd62	-0.05517578
124	0xbd36	-0.044433594
125	0x3dd8	0.10546875
126	0xbe97	-0.29492188
127	0xbe09	-0.13378906
128	0x3df5	0.119628906
129	0xbe6b	-0.22949219
130	0xbe91	-0.28320312
131	0xbe30	-0.171875
132	0xbd95	-0.072753906
133	0xbe14	-0.14453125
134	0x3e4e	0.20117188
135	0xbca6	-0.020263672
136	0x3cdc	0.026855469
137	0xbd45	-0.048095703
138	0xbe36	-0.17773438
139	0x3dc1	0.09423828
140	0xbdc3	-0.095214844
141	0xbe7e	-0.24804688
142	0x3b78	0.0037841797
143	0x3e03	0.12792969
144	0xbe87	-0.26367188
145	0xbe36	-0.17773438
146	0xbe20	-0.15625
147	0x3e52	0.20507812
148	0xbe6d	-0.23144531
149	0xbd34	-0.043945312
150	0x3cad	0.021118164
151	0xbdc5	-0.096191406
152	0x3e26	0.16210938
153	0xbe07	-0.13183594
154	0x3e65	0.22363281
155	0xbd99	-0.07470703
156	0xbe0a	-0.13476562
157	0xbda2	-0.07910156
158	0x3da0	0.078125
159	0x3e88	0.265625
160	0xbcf9	-0.030395508
161	0xbd80	-0.0625
162	0x3dd1	0.10205078
163	0xbdd7	-0.10498047
164	0x3d10	0.03515625
165	0xbdb8	-0.08984375
166	0xbdfc	-0.123046875
167	0x3da4	0.080078125
168	0xbe33	-0.17480469
169	0x3e75	0.23925781
170	0xbc63	-0.0138549805
171	0x3db8	0.08984375
172	0x3d5f	0.05444336
173	0xbe75	-0.23925781
174	0xbe3e	-0.18554688
175	0x3c8f	0.017456055
176	0x3e50	0.203125
177	0x3e61	0.21972656
178	0x3e18	0.1484375
179	0x3e3a	0.18164062
180	0xbe1a	-0.15039062
181	0x3e01	0.12597656
182	0x3d8a	0.06738281
183	0xbe0a	-0.13476562
184	0x3e84	0.2578125
185	0x3df5	0.119628906
186	0xbe07	-0.13183594
187	0x3e5a	0.21289062
188	0xbd87	-0.06591797
189	0xbd44	-0.047851562
190	0xbe3c	-0.18359375
191	0xbe27	-0.16308594
192	0x3cfa	0.030517578
193	0xbe4e	-0.20117188
194	0x3e77	0.24121094
195	0xbe27	-0.16308594
196	0x3dcd	0.100097656
197	0x3dbd	0.092285156
198	0xbe71	-0.23535156
199	0x3e84	0.2578125
200	0xbdac	-0.083984375
201	0x3de3	0.110839844
202	0xbe80	-0.25
203	0xbe83	-0.25585938
204	0x3dce	0.10058594
205	0x3e51	0.20410156
206	0x3db9	0.09033203
207	0x3d3f	0.04663086
208	0xbe44	-0.19140625
209	0xbd25	-0.040283203
210	0x3dc8	0.09765625
211	0x3e58	0.2109375
212	0xbdcd	-0.100097656
213	0x3e3c	0.18359375
214	0xbe1d	-0.15332031
215	0xbe0e	-0.13867188
216	0x3e63	0.22167969
217	0xbdf7	-0.12060547
218	0xbe29	-0.16503906
219	0x3e14	0.14453125
220	0xbdf5	-0.119628906
221	0xbdcf	-0.10107422
222	0xbd98	-0.07421875
223	0x3e75	0.23925781
224	0x3e7e	0.24804688
225	0xbe51	-0.20410156
226	0xbe83	-0.25585938
227	0xbe93	-0.28710938
228	0xbe92	-0.28515625
229	0x3e39	0.18066406
230	0xbe82	-0.25390625
231	0x3e63	0.22167969
232	0x3e4a	0.19726562
233	0xbc57	-0.013122559
234	0xbd64	-0.055664062
235	0xbe2c	-0.16796875
236	0x3e0f	0.13964844
237	0x3e26	0.16210938
238	0x3e0d	0.13769531
239	0xbe3f	-0.18652344
240	0x3de7	0.11279297
241	0x3dfa	0.12207031
242	0x3e4b	0.19824219
243	0x3e3b	0.18261719
244	0x3da5	0.080566406
245	0xbac2	-0.0014801025
246	0x3e95	0.29101562
247	0xbe19	-0.14941406
248	0x3d42	0.04736328
249	0xbe8c	-0.2734375
250	0xbe98	-0.296875
251	0xbe4a	-0.19726562
252	0x3e8e	0.27734375
253	0x3c84	0.016113281
254	0xbdba	-0.09082031
255	0xbdce	-0.10058594
