empty_dirs_for_codex/outputs/runs_recovery/recovery_vonly_seedrep_t1/main_contr_vonly_tuned_loto_overwrite_seed2026/checkpoints/repair_step_1500.pt (torch, 15465 bytes, 24 tensors)

layer_10.Wk bf16 [64, 4]
000000 52 3e 25 3e 05 be 91 bd 5d 3e 12 3d 43 be fb 3c
       0.20507812 0.16113281 -0.12988281 -0.07080078 0.21582031 0.03564453 -0.19042969 0.030639648
000010 73 bd 80 be 17 3d 94 3e 62 3e 90 3e 64 be 4f bb
       -0.059326172 -0.25 0.036865234 0.2890625 0.22070312 0.28125 -0.22265625 -0.0031585693
000020 7e 3e 8b 3c 85 3e 0a 3d 2e 3e 45 3e 09 be 40 be
       0.24804688 0.016967773 0.25976562 0.033691406 0.16992188 0.19238281 -0.13378906 -0.1875
000030 20 be 18 be 8f 3e 6d 3e 76 3d 3e be ae bb 8e be
       -0.15625 -0.1484375 0.27929688 0.23144531 0.060058594 -0.18554688 -0.0053100586 -0.27734375
000040 70 be 57 3e 84 be 98 3e a0 bd a1 3d a0 3d 1a 3e
       -0.234375 0.20996094 -0.2578125 0.296875 -0.078125 0.07861328 0.078125 0.15039062
000050 e8 bd 47 3e 87 be 8e 3d 12 3d 8e be cf bd ab 3d
       -0.11328125 0.19433594 -0.26367188 0.06933594 0.03564453 -0.27734375 -0.10107422 0.083496094
000060 42 be 8e 3e 58 3e 65 be 3b 3e 63 3d 96 3e 6c 3e
       -0.18945312 0.27734375 0.2109375 -0.22363281 0.18261719 0.055419922 0.29296875 0.23046875
000070 21 3e 5d be 22 bd d7 bc 81 be 1c 3e 75 bd 3f bc
       0.15722656 -0.21582031 -0.03955078 -0.026245117 -0.25195312 0.15234375 -0.059814453 -0.011657715
000080 8a ba 1e bb 8d 3d 16 3e 37 3d be bd 8c be e2 3d
       -0.0010528564 -0.0024108887 0.068847656 0.14648438 0.044677734 -0.09277344 -0.2734375 0.11035156
000090 ba 3c 7a 3d 78 3d 6a 3e 58 3e 0e 3e 8d 3e 09 be
       0.022705078 0.061035156 0.060546875 0.22851562 0.2109375 0.13867188 0.27539062 -0.13378906
0000a0 bd bd 06 3e c5 bd 04 bd ad 3c 25 3e 17 3e 87 be
       -0.092285156 0.13085938 -0.096191406 -0.032226562 0.021118164 0.16113281 0.14746094 -0.26367188
0000b0 80 3e 08 3d 3f 3d 92 be f7 39 f3 bd 56 be 64 be
       0.25 0.033203125 0.04663086 -0.28515625 0.0004711151 -0.118652344 -0.20898438 -0.22265625
0000c0 60 bd 82 be cf 3c 4d 3e 5d 3e 91 3d d7 bd 90 3e
       -0.0546875 -0.25390625 0.025268555 0.20019531 0.21582031 0.07080078 -0.10498047 0.28125
0000d0 ca 3d a9 bd 02 3e 03 be fe bd 97 3d 0a be 8f bd
       0.09863281 -0.08251953 0.12695312 -0.12792969 -0.12402344 0.07373047 -0.13476562 -0.06982422
0000e0 5d be 1d 3e 85 be 81 be 0a 3e 86 bd fd bd 25 3e
       -0.21582031 0.15332031 -0.25976562 -0.25195312 0.13476562 -0.06542969 -0.123535156 0.16113281
0000f0 2a 3e d8 3d 52 be 73 be fa bd d7 bc 88 3e 4e be
       0.16601562 0.10546875 -0.20507812 -0.23730469 -0.12207031 -0.026245117 0.265625 -0.20117188
000100 49 be 46 be f5 3d 1a bd 46 be 74 be 93 3e 85 be
       -0.19628906 -0.19335938 0.119628906 -0.037597656 -0.19335938 -0.23828125 0.28710938 -0.25976562
000110 80 be 20 bc 7f be 8c 3e 59 3e ba 3c ad 3c c5 3d
       -0.25 -0.009765625 -0.24902344 0.2734375 0.21191406 0.022705078 0.021118164 0.096191406
000120 d0 3d ce 3d 42 3c 7a 3d 03 3e 60 bd 93 3d 8c 3d
       0.1015625 0.10058594 0.01184082 0.061035156 0.12792969 -0.0546875 0.071777344 0.068359375
000130 00 3e 73 3e 91 be fc bd 71 be 48 3e 23 3e 05 3e
       0.125 0.23730469 -0.28320312 -0.123046875 -0.23535156 0.1953125 0.15917969 0.12988281
000140 6b 3e 85 bc 30 3e 0b be 5f be ba bc 54 3e 0b bd
       0.22949219 -0.016235352 0.171875 -0.13574219 -0.21777344 -0.022705078 0.20703125 -0.033935547
000150 5f 3e 20 bd 87 bd 81 be 44 bc 90 be 6e be 2b 3e
       0.21777344 -0.0390625 -0.06591797 -0.25195312 -0.011962891 -0.28125 -0.23242188 0.16699219
000160 85 bd 07 3d 9c 3d 2d be fd 3c f1 3d 94 3e 72 3e
       -0.064941406 0.032958984 0.076171875 -0.16894531 0.030883789 0.11767578 0.2890625 0.23632812
000170 31 3e 65 be 0d 3e ab 3d 41 3e 5d 3e 29 bd 11 3e
       0.17285156 -0.22363281 0.13769531 0.083496094 0.18847656 0.21582031 -0.041259766 0.14160156
000180 8f 3e 8d 3e 91 3e 5c be 3a 3e 3a bc 26 3e 24 3e
       0.27929688 0.27539062 0.28320312 -0.21484375 0.18164062 -0.011352539 0.16210938 0.16015625
000190 0f be 6d 3e 7c 3c e7 bd 84 3e 01 be 62 be 0f be
       -0.13964844 0.23144531 0.015380859 -0.11279297 0.2578125 -0.12597656 -0.22070312 -0.13964844
0001a0 16 be 2c 3e e5 bb c1 3d 2c 3e 6e 3d 7c be 08 be
       -0.14648438 0.16796875 -0.0069885254 0.09423828 0.16796875 0.05810547 -0.24609375 -0.1328125
0001b0 65 3e 81 3e 52 be 88 bd 88 3e 8e 3e 12 be ac 3c
       0.22363281 0.25195312 -0.20507812 -0.06640625 0.265625 0.27734375 -0.14257812 0.020996094
0001c0 1f be 79 be 74 be 43 3e 83 be 5c 3e d7 bd 2b be
       -0.15527344 -0.24316406 -0.23828125 0.19042969 -0.25585938 0.21484375 -0.10498047 -0.16699219
0001d0 94 be 94 3e ac bc 84 be 57 be 1f 3c ef 3d 70 3e
       -0.2890625 0.2890625 -0.020996094 -0.2578125 -0.20996094 0.00970459 0.11669922 0.234375
0001e0 45 bd 1d be a4 bd 60 bc 5e 3e f2 bd 21 3e 07 3e
       -0.048095703 -0.15332031 -0.080078125 -0.013671875 0.21679688 -0.11816406 0.15722656 0.13183594
0001f0 32 be ef bd 3e 3e 85 be 89 bd 32 bc 16 3e 92 be
       -0.17382812 -0.11669922 0.18554688 -0.25976562 -0.06689453 -0.010864258 0.14648438 -0.28515625

layer_10.Uk bf16 [64, 4]
000000 d9 3d 13 3e 3c 3e 5b 3e cf 3d 74 bc 30 be 70 3e
       0.10595703 0.14355469 0.18359375 0.21386719 0.10107422 -0.014892578 -0.171875 0.234375
000010 69 3d 89 be 21 bd 6c be f4 3d 92 be d5 3d 62 3e
       0.056884766 -0.26757812 -0.03930664 -0.23046875 0.119140625 -0.28515625 0.104003906 0.22070312
000020 6a be 8d 3e 54 3d 29 bc 66 be c9 3d 21 3e 9b bd
       -0.22851562 0.27539062 0.051757812 -0.010314941 -0.22460938 0.09814453 0.15722656 -0.075683594
000030 51 3d ea 3d 26 3d 5f 3d 16 bd 93 3e 23 3e 6b 3d
       0.05102539 0.11425781 0.040527344 0.05444336 -0.036621094 0.28710938 0.15917969 0.057373047
000040 21 3e ac 3d 4e 3e 7d 3e 20 3e 5c 3e a1 bd 1f 3d
       0.15722656 0.083984375 0.20117188 0.24707031 0.15625 0.21484375 -0.07861328 0.03881836
000050 e8 3b 01 bd 2f 3e 5e be 10 be 92 3c 8d 3e 63 be
       0.007080078 -0.03149414 0.17089844 -0.21679688 -0.140625 0.017822266 0.27539062 -0.22167969
000060 37 3d 7b be 8d bd 5a be 32 3c 3e bd 63 bd 66 be
       0.044677734 -0.24511719 -0.068847656 -0.21289062 0.010864258 -0.04638672 -0.055419922 -0.22460938
000070 3c 3d 8d be 85 be 87 3e 11 3e 8c 3e 0f 3e 57 3e
       0.045898438 -0.27539062 -0.25976562 0.26367188 0.14160156 0.2734375 0.13964844 0.20996094
000080 f5 3c 8d be de 3d 54 be d6 bd 89 be 8e be dd 3d
       0.029907227 -0.27539062 0.10839844 -0.20703125 -0.10449219 -0.26757812 -0.27734375 0.107910156
000090 87 be 17 be 22 be b4 bd 65 3e 26 be a0 bd 04 3e
       -0.26367188 -0.14746094 -0.15820312 -0.087890625 0.22363281 -0.16210938 -0.078125 0.12890625
0000a0 c9 3d 83 3e 95 3d 21 3e 9f 3d 3c be e2 3d 7b 3c
       0.09814453 0.25585938 0.072753906 0.15722656 0.07763672 -0.18359375 0.11035156 0.015319824
0000b0 dd bd 35 3e 72 3d 70 3e 4f bd 80 be 20 3d 96 3e
       -0.107910156 0.17675781 0.05908203 0.234375 -0.05053711 -0.25 0.0390625 0.29296875
0000c0 1f be 82 be 4c be 89 be 84 3e 90 be e5 3c 6d 3e
       -0.15527344 -0.25390625 -0.19921875 -0.26757812 0.2578125 -0.28125 0.027954102 0.23144531
0000d0 c2 3d e9 bd 53 be 4f be 1c bd 1a be 4a be e3 bd
       0.09472656 -0.11376953 -0.20605469 -0.20214844 -0.038085938 -0.15039062 -0.19726562 -0.110839844
0000e0 9d bd 12 be 4a be 81 be 4d be 60 be 64 3d 8a bc
       -0.076660156 -0.14257812 -0.19726562 -0.25195312 -0.20019531 -0.21875 0.055664062 -0.016845703
0000f0 80 3e 18 be 86 3e 59 be 40 3c dd bd b8 3d 87 be
       0.25 -0.1484375 0.26171875 -0.21191406 0.01171875 -0.107910156 0.08984375 -0.26367188
000100 b0 3c 48 be 72 be 4c be 9a 3d 96 3e 38 be 06 3e
       0.021484375 -0.1953125 -0.23632812 -0.19921875 0.07519531 0.29296875 -0.1796875 0.13085938
000110 23 be 2a 3d 08 be 28 be 10 be 0d be 96 3e 1c 3e
       -0.15917969 0.041503906 -0.1328125 -0.1640625 -0.140625 -0.13769531 0.29296875 0.15234375
000120 c2 bd 0c 3e 0d be d9 3d 1b 3b bf bd 2d 3d 84 be
       -0.09472656 0.13671875 -0.13769531 0.10595703 0.0023651123 -0.09326172 0.042236328 -0.2578125
000130 8d 3e 8f be ca 3d b3 bc 49 3e ec bd 23 3d 53 3e
       0.27539062 -0.27929688 0.09863281 -0.021850586 0.19628906 -0.115234375 0.039794922 0.20605469
000140 9e bd 63 3e 8e be f0 3d 7f 3e 4b 3e 74 be 12 bd
       -0.07714844 0.22167969 -0.27734375 0.1171875 0.24902344 0.19824219 -0.23828125 -0.03564453
000150 96 3d 2b 3e 2c 3d 0f be 53 3e 31 3d 44 3e 2d be
       0.07324219 0.16699219 0.041992188 -0.13964844 0.20605469 0.04321289 0.19140625 -0.16894531
000160 01 be 8a bd 0b 3c 3b 3e 86 be 36 3d 78 3e 82 3c
       -0.12597656 -0.06738281 0.008483887 0.18261719 -0.26171875 0.044433594 0.2421875 0.01586914
000170 8e 3c 25 be 3b 3d 6f be 14 3e 1c be 1a 3c 55 3e
       0.017333984 -0.16113281 0.045654297 -0.23339844 0.14453125 -0.15234375 0.009399414 0.20800781
000180 96 3e f5 3d 70 be 87 3e e7 3d a8 bd 91 3e 15 3e
       0.29296875 0.119628906 -0.234375 0.26367188 0.11279297 -0.08203125 0.28320312 0.14550781
000190 09 3d 10 bd 7e be 91 3e ee 3d 48 bd 5e be 90 be
       0.033447266 -0.03515625 -0.24804688 0.28320312 0.11621094 -0.048828125 -0.21679688 -0.28125
0001a0 d0 3d 2f 3e 92 3e 29 3d 4f 3e dc 3d 33 be 10 be
       0.1015625 0.17089844 0.28515625 0.041259766 0.20214844 0.107421875 -0.17480469 -0.140625
0001b0 10 3e 89 be c7 bd 82 3e 23 3e 1b 3e 7e 3e 8e 3e
       0.140625 -0.26757812 -0.09716797 0.25390625 0.15917969 0.15136719 0.24804688 0.27734375
0001c0 88 be 90 3e 6a be 5d be 64 3c 44 be 79 3e 74 be
       -0.265625 0.28125 -0.22851562 -0.21582031 0.013916016 -0.19140625 0.24316406 -0.23828125
0001d0 8a 3e 8c bd 5b be 85 3e fa 3d 7a 3e 24 be 01 be
       0.26953125 -0.068359375 -0.21386719 0.25976562 0.12207031 0.24414062 -0.16015625 -0.12597656
0001e0 94 3e 86 bd 1f be 44 3d d0 bd 81 be 08 be 3f 3c
       0.2890625 -0.06542969 -0.15527344 0.047851562 -0.1015625 -0.25195312 -0.1328125 0.011657715
0001f0 c6 3c 7a 3e a8 3d 82 be 9d 3d 8b 3e 8a 3e 97 3e
       0.024169922 0.24414062 0.08203125 -0.25390625 0.076660156 0.27148438 0.26953125 0.29492188

layer_10.Wv bf16 [64, 4]
000000 f3 bd 6b be 08 be 01 3d 31 bd 86 be 27 3e c4 3d
       -0.118652344 -0.22949219 -0.1328125 0.03149414 -0.04321289 -0.26171875 0.16308594 0.095703125
000010 80 3d 94 3d 30 3d 6a 3e 13 3d c4 3b 00 bd 3e 3e
       0.0625 0.072265625 0.04296875 0.22851562 0.035888672 0.0059814453 -0.03125 0.18554688
000020 86 3d f2 3d 91 3d 04 bd 77 3c d4 3d 3d 3e 32 3e
       0.06542969 0.11816406 0.07080078 -0.032226562 0.015075684 0.103515625 0.18457031 0.17382812
000030 77 3e 4c be 00 bd ce 3d c6 3d 6a be 6c be f4 3d
       0.24121094 -0.19921875 -0.03125 0.10058594 0.09667969 -0.22851562 -0.23046875 0.119140625
000040 7c 3e 99 bd 35 be 1d 3e 97 be 4a 3e 8b 3e 26 be
       0.24609375 -0.07470703 -0.17675781 0.15332031 -0.29492188 0.19726562 0.27148438 -0.16210938
000050 b1 3d 8f 3e fe 3d 31 3e 53 3e 0e 3e 94 be c5 3c
       0.08642578 0.27929688 0.12402344 0.17285156 0.20605469 0.13867188 -0.2890625 0.024047852
000060 bf 3d 01 bd 00 3d 2a be 5b 3e 2f 3d 20 be 8c be
       0.09326172 -0.03149414 0.03125 -0.16601562 0.21386719 0.04272461 -0.15625 -0.2734375
000070 7c 3d 93 be d8 bd 35 3e 82 3e b1 3d 4b be 84 3d
       0.061523438 -0.28710938 -0.10546875 0.17675781 0.25390625 0.08642578 -0.19824219 0.064453125
000080 ec bd 87 3d 9e 3d 33 bd 65 3e 0a 3e 80 be 7d 3e
       -0.115234375 0.06591797 0.07714844 -0.043701172 0.22363281 0.13476562 -0.25 0.24707031
000090 9b 3a 4e be 49 3c ce bd 24 bd cd 3d a5 3d 0c bd
       0.0011825562 -0.20117188 0.012268066 -0.10058594 -0.040039062 0.100097656 0.080566406 -0.034179688
0000a0 16 3e 0e bd 13 bd 8a 3e fb 3d 02 3e 34 be 2a 3e
       0.14648438 -0.03466797 -0.035888672 0.26953125 0.122558594 0.12695312 -0.17578125 0.16601562
0000b0 2d bc 85 3e 88 be 08 bd 4e 3e 97 be cd bd 80 3d
       -0.010559082 0.25976562 -0.265625 -0.033203125 0.20117188 -0.29492188 -0.100097656 0.0625
0000c0 5a 3e 52 3d fb 3d 3c be 44 3e 1d 3d 03 3e 27 be
       0.21289062 0.05126953 0.122558594 -0.18359375 0.19140625 0.038330078 0.12792969 -0.16308594
0000d0 71 3e b4 bd 06 bd af 3d 2c be b2 3c be bd 07 be
       0.23535156 -0.087890625 -0.032714844 0.08544922 -0.16796875 0.021728516 -0.09277344 -0.13183594
0000e0 29 3e 82 be 2f bd c1 3d 12 3e ed bd ae bb dd bd
       0.16503906 -0.25390625 -0.04272461 0.09423828 0.14257812 -0.115722656 -0.0053100586 -0.107910156
0000f0 99 bd 25 be 4a be e5 bd 88 be f5 3d d9 3c 8e be
       -0.07470703 -0.16113281 -0.19726562 -0.111816406 -0.265625 0.119628906 0.026489258 -0.27734375
000100 49 bd b8 3b 74 3e 12 3e 9b 3c bf bc 56 be 55 3d
       -0.049072266 0.0056152344 0.23828125 0.14257812 0.018920898 -0.02331543 -0.20898438 0.052001953
000110 2d 3e f1 3c 12 bd 47 be 84 be 3a bd 61 be 89 3e
       0.16894531 0.029418945 -0.03564453 -0.19433594 -0.2578125 -0.045410156 -0.21972656 0.26757812
000120 14 3d 7c bd 78 be 09 3e 08 3d 77 3e 8b be 8b 3c
       0.036132812 -0.061523438 -0.2421875 0.13378906 0.033203125 0.24121094 -0.27148438 0.016967773
000130 2f 3e a2 bd 8f 3e 98 bd 3b 3e 8c 3e 04 be 9e bd
       0.17089844 -0.07910156 0.27929688 -0.07421875 0.18261719 0.2734375 -0.12890625 -0.07714844
000140 16 be 22 3e c8 bd 08 be 5a be 0d be 04 bd 4d 3e
       -0.14648438 0.15820312 -0.09765625 -0.1328125 -0.21289062 -0.13769531 -0.032226562 0.20019531
000150 98 be 04 3d 04 3e b4 bd d2 bd 7c 3e e3 bd bb bd
       -0.296875 0.032226562 0.12890625 -0.087890625 -0.10253906 0.24609375 -0.110839844 -0.091308594
000160 8c 3c 14 3e 19 3c 4d 3e 29 3e bc bd 3d be 89 3d
       0.017089844 0.14453125 0.009338379 0.20019531 0.16503906 -0.091796875 -0.18457031 0.06689453
000170 02 bd 85 be 81 3e 57 be 1a be 40 3e 40 be 84 bc
       -0.03173828 -0.25976562 0.25195312 -0.20996094 -0.15039062 0.1875 -0.1875 -0.016113281
000180 92 3e 99 3d 00 bd 0e 3e 42 3e 80 be 21 be 80 3d
       0.28515625 0.07470703 -0.03125 0.13867188 0.18945312 -0.25 -0.15722656 0.0625
000190 41 3e e7 3d 96 be 41 3e 72 3e 58 be 8e 3e 62 3e
       0.18847656 0.11279297 -0.29296875 0.18847656 0.23632812 -0.2109375 0.27734375 0.22070312
0001a0 f6 bd 84 3e fe 3d 5c be 44 be aa bd 1a 3e 04 be
       -0.12011719 0.2578125 0.12402344 -0.21484375 -0.19140625 -0.08300781 0.15039062 -0.12890625
0001b0 d7 bd 8d bc 00 3e 29 bd 85 be 22 bd ea bd fd bd
       -0.10498047 -0.017211914 0.125 -0.041259766 -0.25976562 -0.03955078 -0.11425781 -0.123535156
0001c0 1a 3e 3e 3d af 3d 8f 3c 56 be ea 3c 06 be 89 be
       0.15039062 0.04638672 0.08544922 0.017456055 -0.20898438 0.028564453 -0.13085938 -0.26757812
0001d0 72 3e 85 3e 5c ba 1c be f5 3d d7 3d 24 3e 6e be
       0.23632812 0.25976562 -0.0008392334 -0.15234375 0.119628906 0.10498047 0.16015625 -0.23242188
0001e0 e4 bd 05 3e 8c 3d 46 be 22 be 8b bc 02 3e 14 bd
       -0.111328125 0.12988281 0.068359375 -0.19335938 -0.15820312 -0.016967773 0.12695312 -0.036132812
0001f0 86 3d 75 3e 36 be 1b bc b4 3c 4e 3d 06 bd c1 3d
       0.06542969 0.23925781 -0.17773438 -0.009460449 0.021972656 0.05029297 -0.032714844 0.09423828

layer_10.Uv bf16 [64, 4]
000000 ae 3d 12 3e 96 3e 91 3e 01 3e 9f bd 6e 3e 32 be
       0.08496094 0.14257812 0.29296875 0.28320312 0.12597656 -0.07763672 0.23242188 -0.17382812
000010 ef 3c 33 be 9d 3d 3c be 35 3e 7f 3c 3f be b3 3d
       0.029174805 -0.17480469 0.076660156 -0.18359375 0.17675781 0.015563965 -0.18652344 0.087402344
000020 3c be 33 3e 69 3b 18 3e 1f be 32 be 78 3e 80 3d
       -0.18359375 0.17480469 0.0035552979 0.1484375 -0.15527344 -0.17382812 0.2421875 0.0625
000030 b9 bd b0 3d 5a be 30 3c 4c be 3d be 89 bd a6 3c
       -0.09033203 0.0859375 -0.21289062 0.0107421875 -0.19921875 -0.18457031 -0.06689453 0.020263672
000040 2a 3e fe 3d ab 3d 5e be 81 3c 41 3e 77 be 4e be
       0.16601562 0.12402344 0.083496094 -0.21679688 0.01574707 0.18847656 -0.24121094 -0.20117188
000050 41 be 90 be 15 3e 25 3e af bb a5 bd fe bb d4 bc
       -0.18847656 -0.28125 0.14550781 0.16113281 -0.005340576 -0.080566406 -0.007751465 -0.025878906
000060 88 bd 70 be 3d 3e 4c be 90 3e db 3b 52 be 80 bd
       -0.06640625 -0.234375 0.18457031 -0.19921875 0.28125 0.0066833496 -0.20507812 -0.0625
000070 82 3e fd 3c f4 3d 5e bd bd bc 09 3e 4b 3d 61 3e
       0.25390625 0.030883789 0.119140625 -0.05419922 -0.023071289 0.13378906 0.049560547 0.21972656
000080 8c 3e 5e be e6 3d 3c 3e 92 be 8e 3e 23 be 41 3e
       0.2734375 -0.21679688 0.11230469 0.18359375 -0.28515625 0.27734375 -0.15917969 0.18847656
000090 49 3c 56 bd 7f be 8e be 94 3e 02 3d 6d 3d 89 3e
       0.012268066 -0.052246094 -0.24902344 -0.27734375 0.2890625 0.03173828 0.057861328 0.26757812
0000a0 02 3d 33 be 87 3e f3 bd 93 3e de 3c f0 3d 0b bd
       0.03173828 -0.17480469 0.26367188 -0.118652344 0.28710938 0.02709961 0.1171875 -0.033935547
0000b0 28 be 6f 3e 91 be 03 3d 21 3e 38 3d 34 3e 80 3e
       -0.1640625 0.23339844 -0.28320312 0.031982422 0.15722656 0.044921875 0.17578125 0.25
0000c0 71 be cc 39 de bd 82 3e fa bc 12 be 04 bc ce 3d
       -0.23535156 0.00038909912 -0.10839844 0.25390625 -0.030517578 -0.14257812 -0.008056641 0.10058594
0000d0 1c 3e 3d be 0f be a0 bd 19 3c 74 3e 07 3d a7 3d
       0.15234375 -0.18457031 -0.13964844 -0.078125 0.009338379 0.23828125 0.032958984 0.08154297
0000e0 0f bd 4d be 87 be 80 bd c9 bd e6 3d 00 3d 8d 3e
       -0.03491211 -0.20019531 -0.26367188 -0.0625 -0.09814453 0.11230469 0.03125 0.27539062
0000f0 64 be 71 3e b9 bd 2b 3d 5e 3e 4d 3e 18 3d 03 3e
       -0.22265625 0.23535156 -0.09033203 0.041748047 0.21679688 0.20019531 0.037109375 0.12792969
000100 67 be 15 3e 6a be 00 3d 28 3e 01 3d 4f 3d 38 3e
       -0.22558594 0.14550781 -0.22851562 0.03125 0.1640625 0.03149414 0.05053711 0.1796875
000110 03 3d e8 bd 94 3e 35 be 98 3e 93 be ad 3c 8f bd
       0.031982422 -0.11328125 0.2890625 -0.17675781 0.296875 -0.28710938 0.021118164 -0.06982422
000120 30 bc 25 3d 3e 3e 76 3e 7c 3e 3b be 94 3c c9 bd
       -0.0107421875 0.040283203 0.18554688 0.24023438 0.24609375 -0.18261719 0.018066406 -0.09814453
000130 04 3e 5b 3e f6 bd 16 bd 32 3e 41 3e 80 3d 1e 3e
       0.12890625 0.21386719 -0.12011719 -0.036621094 0.17382812 0.18847656 0.0625 0.15429688
000140 05 be 4e bd 6c bd 98 be 3c be 4e be eb bc 70 3e
       -0.12988281 -0.05029297 -0.057617188 -0.296875 -0.18359375 -0.20117188 -0.028686523 0.234375
000150 88 3e 10 3e 06 3d f6 bd 89 be 5b bd 6c be 06 3d
       0.265625 0.140625 0.032714844 -0.12011719 -0.26757812 -0.053466797 -0.23046875 0.032714844
000160 46 be d5 bd 4c 3e 90 3e 5c 3e 96 3d 3a 3d b5 bd
       -0.19335938 -0.104003906 0.19921875 0.28125 0.21484375 0.07324219 0.045410156 -0.088378906
000170 12 be 27 3e 8a 3d 3c 3e 4b be 53 be 76 be d1 bc
       -0.14257812 0.16308594 0.06738281 0.18359375 -0.19824219 -0.20605469 -0.24023438 -0.025512695
000180 0c 3e 0e 3e ce bd 7f 3e 80 3d 2e be 83 3e 96 be
       0.13671875 0.13867188 -0.10058594 0.24902344 0.0625 -0.16992188 0.25585938 -0.29296875
000190 bc 3d 79 be 19 3e 86 be 92 3e 81 bd 3e be b6 bd
       0.091796875 -0.24316406 0.14941406 -0.26171875 0.28515625 -0.06298828 -0.18554688 -0.08886719
0001a0 6a 3e 8e be c7 bd 3a 3e 96 3e f9 bd 36 3e 68 bd
       0.22851562 -0.27734375 -0.09716797 0.18164062 0.29296875 -0.12158203 0.17773438 -0.056640625
0001b0 ac 3d 89 3e 1c 3b 8b be 71 3d cb 3d d9 bc 95 be
       0.083984375 0.26757812 0.002380371 -0.27148438 0.05883789 0.099121094 -0.026489258 -0.29101562
0001c0 86 3e 64 be 94 be a5 3d c8 bc f9 bd 95 be f5 bd
       0.26171875 -0.22265625 -0.2890625 0.080566406 -0.024414062 -0.12158203 -0.29101562 -0.119628906
0001d0 e0 3d 77 3e a9 bd 09 3e f7 bd 13 be 93 3e 60 3e
       0.109375 0.24121094 -0.08251953 0.13378906 -0.12060547 -0.14355469 0.28710938 0.21875
0001e0 78 be 63 be a5 bd c9 bd 3d be 50 3e e9 3d 85 3d
       -0.2421875 -0.22167969 -0.080566406 -0.09814453 -0.18457031 0.203125 0.11376953 0.064941406
0001f0 22 bd db 3d 81 be 8c 3e 80 bc 74 be 91 3e 59 3e
       -0.03955078 0.106933594 -0.25195312 0.2734375 -0.015625 -0.23828125 0.28320312 0.21191406

layer_10.gate_k.net.0.weight bf16 [4, 64]
000000 b2 bd 7e bd 6d 3d df bd f6 bd b3 ba 84 3d 00 be
       -0.08691406 -0.06201172 0.057861328 -0.10888672 -0.12011719 -0.0013656616 0.064453125 -0.125
000010 4b 3d e8 bd a0 3d 9c bd 65 3d 10 3d cf bc 27 bd
       0.049560547 -0.11328125 0.078125 -0.076171875 0.055908203 0.03515625 -0.025268555 -0.040771484
000020 d3 3d 4a 3d dd 3a df 3d 87 bc 8c 3d 56 3d 09 3c
       0.103027344 0.049316406 0.0016860962 0.10888672 -0.016479492 0.068359375 0.052246094 0.008361816
000030 89 3d 84 bd c6 3d 47 bd 2b bd df bd e0 3d a5 bc
       0.06689453 -0.064453125 0.09667969 -0.048583984 -0.041748047 -0.10888672 0.109375 -0.020141602
000040 b1 3d 95 3c c7 bd 2c 3c 95 3d 65 bc f1 bc f4 bc
       0.08642578 0.018188477 -0.09716797 0.010498047 0.072753906 -0.013977051 -0.029418945 -0.029785156
000050 aa 3d 00 3d d7 bd c4 bc 07 bd b1 bd a7 3c b8 3d
       0.08300781 0.03125 -0.10498047 -0.023925781 -0.032958984 -0.08642578 0.020385742 0.08984375
000060 cf bc 8e 3d 90 3b 6f 3d a0 bd a5 3a fd bd ca 3b
       -0.025268555 0.06933594 0.0043945312 0.05834961 -0.078125 0.0012588501 -0.123535156 0.006164551
000070 84 bc 31 3c 76 3d 57 3d c1 bd e8 3d a8 3d f6 bc
       -0.016113281 0.010803223 0.060058594 0.052490234 -0.09423828 0.11328125 0.08203125 -0.030029297
000080 9d bd 3a 3c 5b 3c e3 bd ca 3d f3 3b e4 bd df bc
       -0.076660156 0.011352539 0.013366699 -0.110839844 0.09863281 0.0074157715 -0.111328125 -0.02722168
000090 df bd 14 3c c2 bb 93 bd ed bd 1f bc 97 bc 34 bd
       -0.10888672 0.009033203 -0.00592041 -0.071777344 -0.115722656 -0.00970459 -0.018432617 -0.043945312
0000a0 f9 3c 04 bb 9e 3d d0 bd c7 3d c5 3d 89 3d f1 3b
       0.030395508 -0.0020141602 0.07714844 -0.1015625 0.09716797 0.096191406 0.06689453 0.0073547363
0000b0 fa bd 38 bd bf 3d bc bd 8d 3d 5b bd f8 bd 9f 3d
       -0.12207031 -0.044921875 0.09326172 -0.091796875 0.068847656 -0.053466797 -0.12109375 0.07763672
0000c0 88 3d d9 3c bf 3c dd bd 1e 3b 5c bd ab 3d 2a 3d
       0.06640625 0.026489258 0.02331543 -0.107910156 0.0024108887 -0.053710938 0.083496094 0.041503906
0000d0 e9 3c 2f 3b ac bd 68 bd d1 3d f9 3d bb 3d 83 3d
       0.028442383 0.002670288 -0.083984375 -0.056640625 0.10205078 0.12158203 0.091308594 0.063964844
0000e0 e5 bd 56 bd 99 3c fe bd 6e bd e9 3d 78 bc 09 bd
       -0.111816406 -0.052246094 0.018676758 -0.12402344 -0.05810547 0.11376953 -0.015136719 -0.033447266
0000f0 52 bc 6e 3d f5 3d 35 3d c9 bc 81 3d 93 3d 7b bc
       -0.012817383 0.05810547 0.119628906 0.044189453 -0.024536133 0.06298828 0.071777344 -0.015319824
000100 2a bd 15 3d bd bd d1 bd 8f bd 1b bb 8f bd 84 3d
       -0.041503906 0.036376953 -0.092285156 -0.10205078 -0.06982422 -0.0023651123 -0.06982422 0.064453125
000110 e1 bd bd 3d 0a bd 33 3d 5b 3d be bd 96 bc 3a bc
       -0.10986328 0.092285156 -0.033691406 0.043701172 0.053466797 -0.09277344 -0.018310547 -0.011352539
000120 6c bd 76 bc b4 3d 5a bd ef bb c4 3d 68 3d 66 bd
       -0.057617188 -0.015014648 0.087890625 -0.053222656 -0.007293701 0.095703125 0.056640625 -0.056152344
000130 ac bc a0 bc 6a 3c 27 bc 8b 3d b5 bd 0c bd 02 bd
       -0.020996094 -0.01953125 0.014282227 -0.010192871 0.067871094 -0.088378906 -0.034179688 -0.03173828
000140 64 bb 76 ba e4 bd 9a 3c 5e bb a0 3d 00 bd ed 3d
       -0.003479004 -0.0009384155 -0.111328125 0.018798828 -0.0033874512 0.078125 -0.03125 0.115722656
000150 b0 3c a3 3d fb bd fa bd e7 3a b0 3c 34 bd f6 3d
       0.021484375 0.079589844 -0.122558594 -0.12207031 0.0017623901 0.021484375 -0.043945312 0.12011719
000160 63 bd 78 3c de 3d 17 bd ef 3d 34 bd 97 3d b8 bd
       -0.055419922 0.015136719 0.10839844 -0.036865234 0.11669922 -0.043945312 0.07373047 -0.08984375
000170 4d bd db b9 eb 3d 7d bd 86 3d f4 bc 11 bc b1 bc
       -0.050048828 -0.00041770935 0.114746094 -0.061767578 0.06542969 -0.029785156 -0.008850098 -0.021606445
000180 b4 3d 91 3d a2 3d d6 bd fd 3d e8 3d bb 3d 8b bd
       0.087890625 0.07080078 0.07910156 -0.10449219 0.123535156 0.11328125 0.091308594 -0.067871094
000190 ff 3c bf 3d 82 3d 2a 3d 26 3d 5e bd c4 3d c0 bd
       0.03112793 0.09326172 0.06347656 0.041503906 0.040527344 -0.05419922 0.095703125 -0.09375
0001a0 cb 3d 61 3d 0d bd 9e bd ff bc 46 bd 5d 3d 13 3c
       0.099121094 0.05493164 -0.034423828 -0.07714844 -0.03112793 -0.048339844 0.053955078 0.008972168
0001b0 92 3d 64 bd e8 bd aa bd df bd 84 3c 38 3c b2 bd
       0.07128906 -0.055664062 -0.11328125 -0.08300781 -0.10888672 0.016113281 0.011230469 -0.08691406
0001c0 c0 3d 43 bd 5c 3c af 3c e9 bc c4 3d 16 bd 53 3d
       0.09375 -0.047607422 0.013427734 0.021362305 -0.028442383 0.095703125 -0.036621094 0.051513672
0001d0 a5 bd ff 3d 19 3d ec bc 84 bd 37 bd ae bd d3 bd
       -0.080566406 0.12451172 0.037353516 -0.028808594 -0.064453125 -0.044677734 -0.08496094 -0.103027344
0001e0 c5 bc 60 3d f9 3d f1 bd 15 3d 1b 3d f9 bc bd bd
       -0.024047852 0.0546875 0.12158203 -0.11767578 0.036376953 0.037841797 -0.030395508 -0.092285156
0001f0 d9 bd 27 bd 8e 3d 8a 3d 16 bb da 3d a3 3d 15 3c
       -0.10595703 -0.040771484 0.06933594 0.06738281 -0.0022888184 0.10644531 0.079589844 0.009094238

layer_10.gate_k.net.0.bias bf16 [4]
000000 e7 bc d9 3d 51 bc 61 3d
       -0.028198242 0.10595703 -0.012756348 0.05493164

layer_10.gate_k.net.2.weight bf16 [4, 4]
000000 61 3e 91 be d9 3e 31 be db 3c d8 3e 5c bd df be
       0.21972656 -0.28320312 0.42382812 -0.17285156 0.026733398 0.421875 -0.053710938 -0.43554688
000010 0c 3e da 3a eb 3e 2c be 01 be 8d bd b1 3c a7 bd
       0.13671875 0.001663208 0.45898438 -0.16796875 -0.12597656 -0.068847656 0.021606445 -0.08154297

layer_10.gate_k.net.2.bias bf16 [4]
000000 e9 3d 4d be c0 be a9 3e
       0.11376953 -0.20019531 -0.375 0.33007812

layer_10.gate_v.net.0.weight bf16 [4, 64]
000000 c6 bd 11 bd ab 3d b1 bd 98 bc 0a bd a0 3d 9b 3d
       -0.09667969 -0.03540039 0.083496094 -0.08642578 -0.018554688 -0.033691406 0.078125 0.075683594
000010 92 3d a3 3d d2 3d e7 3d 7f bc 80 3d 80 3d 30 3d
       0.07128906 0.079589844 0.10253906 0.11279297 -0.015563965 0.0625 0.0625 0.04296875
000020 9b bd 00 3d 1d bd f3 3d f9 bd 80 bd c9 3c 8d 3d
       -0.075683594 0.03125 -0.038330078 0.118652344 -0.12158203 -0.0625 0.024536133 0.068847656
000030 80 bd f9 bd 0f 3d 36 3d ae bc 69 bd bc 3c 80 3d
       -0.0625 -0.12158203 0.03491211 0.044433594 -0.021240234 -0.056884766 0.022949219 0.0625
000040 0f 3d fd bd b8 bd 31 bd 27 3d 48 bd d2 3d c9 3d
       0.03491211 -0.123535156 -0.08984375 -0.04321289 0.040771484 -0.048828125 0.10253906 0.09814453
000050 80 3d d4 bd 88 3d af 3d d9 3d 50 bd 9a 3d 20 bd
       0.0625 -0.103515625 0.06640625 0.08544922 0.10595703 -0.05078125 0.07519531 -0.0390625
000060 dc bd 0c 3d 8f bd ef 3d 9d bd e8 3d 72 bd 8d 3d
       -0.107421875 0.034179688 -0.06982422 0.11669922 -0.076660156 0.11328125 -0.05908203 0.068847656
000070 c3 3d 8b 3d 02 bd 93 bd 85 3d 63 3d 82 3c b9 3d
       0.095214844 0.067871094 -0.03173828 -0.071777344 0.064941406 0.055419922 0.01586914 0.09033203
000080 d8 bd 8b 3d 2d 3d 3e 3d d3 3d 00 3d a0 bc 66 3b
       -0.10546875 0.067871094 0.042236328 0.04638672 0.103027344 0.03125 -0.01953125 0.0035095215
000090 05 bd ce 3d ff bd eb bc 84 bd fc 3d 3c bd 44 bd
       -0.032470703 0.10058594 -0.12451172 -0.028686523 -0.064453125 0.123046875 -0.045898438 -0.047851562
0000a0 ab bd 8f 3b a4 3d e2 bd af 3d bf 3d 8a 3d 80 bd
       -0.083496094 0.0043640137 0.080078125 -0.11035156 0.08544922 0.09326172 0.06738281 -0.0625
0000b0 bd 3d 41 3d c4 3c 55 3d b5 3d 06 bd 61 bd 90 bc
       0.092285156 0.04711914 0.023925781 0.052001953 0.088378906 -0.032714844 -0.05493164 -0.017578125
0000c0 c8 3d 22 bd f1 3d 2b bc 09 bd 72 bc d7 bc ad 3c
       0.09765625 -0.03955078 0.11767578 -0.010437012 -0.033447266 -0.014770508 -0.026245117 0.021118164
0000d0 34 bd 83 3d 80 bd 90 3d 0b bd a9 bd 24 3d f4 3d
       -0.043945312 0.063964844 -0.0625 0.0703125 -0.033935547 -0.08251953 0.040039062 0.119140625
0000e0 df 3d 9e b9 cb bd e9 3d c2 3d 2f ba 23 3d c5 bd
       0.10888672 -0.00030136108 -0.099121094 0.11376953 0.09472656 -0.000667572 0.039794922 -0.096191406
0000f0 bb bd 91 bc ef bd 7a 3c 00 3d 38 bd e5 bd e6 bd
       -0.091308594 -0.017700195 -0.11669922 0.015258789 0.03125 -0.044921875 -0.111816406 -0.11230469
000100 cd 3d 1f 3d 5a bd d5 bd d5 3d e8 3d c4 3d 4d bd
       0.100097656 0.03881836 -0.053222656 -0.104003906 0.104003906 0.11328125 0.095703125 -0.050048828
000110 80 bd 64 bd 2e bd 80 bd ab 3d 85 bd a2 3d a4 3c
       -0.0625 -0.055664062 -0.04248047 -0.0625 0.083496094 -0.064941406 0.07910156 0.020019531
000120 23 3d 7b 3c 0f 3d af 3d 33 3d b7 bd 00 3d d1 bd
       0.039794922 0.015319824 0.03491211 0.08544922 0.043701172 -0.08935547 0.03125 -0.10205078
000130 d5 bc ad bc 2e 3d 99 3d 89 bd d1 3d 80 3d 00 3d
       -0.026000977 -0.021118164 0.04248047 0.07470703 -0.06689453 0.10205078 0.0625 0.03125
000140 19 bd a4 bd b5 3d 9a 3d e8 bc ba 3d ef 3d f9 3d
       -0.037353516 -0.080078125 0.088378906 0.07519531 -0.028320312 0.09082031 0.11669922 0.12158203
000150 2b 3c 78 bd 33 bd 80 bd 5d 3d 82 3d 6c 3d 1c 3d
       0.010437012 -0.060546875 -0.043701172 -0.0625 0.053955078 0.06347656 0.057617188 0.038085938
000160 80 3d c7 bd ea 3d a7 bd 3d 3d 09 bd d6 3d ea 3d
       0.0625 -0.09716797 0.11425781 -0.08154297 0.046142578 -0.033447266 0.10449219 0.11425781
000170 f0 bd c3 3d 42 3d 00 bd 11 bd 80 3d 71 3d 8f 3c
       -0.1171875 0.095214844 0.04736328 -0.03125 -0.03540039 0.0625 0.05883789 0.017456055
000180 81 3d 14 bd 76 bd 88 3d 96 3d 28 bd ae bc 62 3a
       0.06298828 -0.036132812 -0.060058594 0.06640625 0.07324219 -0.041015625 -0.021240234 0.0008621216
000190 f2 3d 09 bd 80 3d e5 3d 00 3d b5 bd aa bd ec 3d
       0.11816406 -0.033447266 0.0625 0.111816406 0.03125 -0.088378906 -0.08300781 0.115234375
0001a0 33 bd 80 bd e5 bd 9a 3d d7 bd 80 bd 6d bd 01 bd
       -0.043701172 -0.0625 -0.111816406 0.07519531 -0.10498047 -0.0625 -0.057861328 -0.03149414
0001b0 80 bd c5 bd ef bd 3a bd 9d 3d fa bc ab 3d 59 3d
       -0.0625 -0.096191406 -0.11669922 -0.045410156 0.076660156 -0.030517578 0.083496094 0.052978516
0001c0 bc bd 5c 3d 80 bd 8d 3d 76 bc 6f bd 00 3d ad bd
       -0.091796875 0.053710938 -0.0625 0.068847656 -0.015014648 -0.05834961 0.03125 -0.084472656
0001d0 80 3d 5a bd d1 3d 80 bd 82 3d 95 3d a4 3d c2 bd
       0.0625 -0.053222656 0.10205078 -0.0625 0.06347656 0.072753906 0.080078125 -0.09472656
0001e0 b5 bd 42 bd ea 3d dc bd 80 3d aa bd d6 bd fe bd
       -0.088378906 -0.04736328 0.11425781 -0.107421875 0.0625 -0.08300781 -0.10449219 -0.12402344
0001f0 88 3d 03 3d 8d bd 80 bd ac 3d 80 3d 80 3d 83 3d
       0.06640625 0.031982422 -0.068847656 -0.0625 0.083984375 0.0625 0.0625 0.063964844

layer_10.gate_v.net.0.bias bf16 [4]
000000 80 3d 83 3d b9 3d 9f bd
       0.0625 0.063964844 0.09033203 -0.07763672

layer_10.gate_v.net.2.weight bf16 [4, 4]
000000 a1 be 23 3e aa 3e d9 be f5 3e 1c bd be be 26 3e
       -0.31445312 0.15917969 0.33203125 -0.42382812 0.47851562 -0.038085938 -0.37109375 0.16210938
000010 f8 be d1 3e f9 be e8 be 8b be 99 3e 44 be 36 be
       -0.484375 0.40820312 -0.48632812 -0.453125 -0.27148438 0.29882812 -0.19140625 -0.17773438

layer_10.gate_v.net.2.bias bf16 [4]
000000 e3 3e de 3e d2 3e 85 3d
       0.44335938 0.43359375 0.41015625 0.064941406

layer_11.Wk bf16 [64, 4]
000000 39 be 80 be 17 be 8c 3e 81 3e 0e bd 5d bd 21 3d
       -0.18066406 -0.25 -0.14746094 0.2734375 0.25195312 -0.03466797 -0.053955078 0.03930664
000010 68 3e ce 3a 21 be 97 bd 84 3d 92 be 79 3d 5f bd
       0.2265625 0.0015716553 -0.15722656 -0.07373047 0.064453125 -0.28515625 0.060791016 -0.05444336
000020 35 be 98 be 1f be 04 be e4 3d 63 3c 5b 3c 0b 3e
       -0.17675781 -0.296875 -0.15527344 -0.12890625 0.111328125 0.0138549805 0.013366699 0.13574219
000030 93 be 4f be 9d 3d cc 3d 1c 3d 7e 3e 28 bb 5b bb
       -0.28710938 -0.20214844 0.076660156 0.099609375 0.038085938 0.24804688 -0.0025634766 -0.0033416748
000040 89 be 58 be 8c be e8 3d 08 be 82 be 1c 3e 86 bd
       -0.26757812 -0.2109375 -0.2734375 0.11328125 -0.1328125 -0.25390625 0.15234375 -0.06542969
000050 68 be cb bc fa 3d f1 bd 59 3b 17 bd 81 be 5d 3d
       -0.2265625 -0.024780273 0.12207031 -0.11767578 0.0033111572 -0.036865234 -0.25195312 0.053955078
000060 8b bd 15 3e 6e be 93 3e 6d bd ee bc cf 3d f7 3c
       -0.067871094 0.14550781 -0.23242188 0.28710938 -0.057861328 -0.029052734 0.10107422 0.030151367
000070 80 3d 7f 3e fa 3d 23 bd 24 be 3a be e2 3c 6c 3e
       0.0625 0.24902344 0.12207031 -0.039794922 -0.16015625 -0.18164062 0.02758789 0.23046875
000080 88 3e e6 3c 65 bd 9d bb 78 3d 8f be b2 bd 41 be
       0.265625 0.028076172 -0.055908203 -0.0047912598 0.060546875 -0.27929688 -0.08691406 -0.18847656
000090 84 3e 8c be ff 3b bc 3b c6 3c 38 be 51 bd 64 3e
       0.2578125 -0.2734375 0.0077819824 0.0057373047 0.024169922 -0.1796875 -0.05102539 0.22265625
0000a0 ce bd 2f bd d6 3d 39 3e f6 bd 88 3e 85 3e 28 be
       -0.10058594 -0.04272461 0.10449219 0.18066406 -0.12011719 0.265625 0.25976562 -0.1640625
0000b0 90 3e 5b be 86 be 37 be ec 3d 84 be 07 be ee bc
       0.28125 -0.21386719 -0.26171875 -0.17871094 0.115234375 -0.2578125 -0.13183594 -0.029052734
0000c0 28 be 8b bd 05 3e 04 3e 10 be 4d be 79 3d 55 be
       -0.1640625 -0.067871094 0.12988281 0.12890625 -0.140625 -0.20019531 0.060791016 -0.20800781
0000d0 eb bc 93 bd 06 3e eb bd 8f be 59 3a d3 3d 56 3e
       -0.028686523 -0.071777344 0.13085938 -0.114746094 -0.27929688 0.0008277893 0.103027344 0.20898438
0000e0 20 3e 0e be f1 bc dd 3b 80 be 15 be dc bd 4b bd
       0.15625 -0.13867188 -0.029418945 0.0067443848 -0.25 -0.14550781 -0.107421875 -0.049560547
0000f0 dc bc 18 3b f8 3c 1b be 86 bd b7 bd 12 be 8c be
       -0.026855469 0.002319336 0.030273438 -0.15136719 -0.06542969 -0.08935547 -0.14257812 -0.2734375
000100 1a bd 25 3d 91 bd 54 be 8b 3e b5 3c 36 3e 97 bd
       -0.037597656 0.040283203 -0.07080078 -0.20703125 0.27148438 0.022094727 0.17773438 -0.07373047
000110 eb 3d b1 3c b9 bd 5e be 91 3d 37 3e 99 3d 87 be
       0.114746094 0.021606445 -0.09033203 -0.21679688 0.07080078 0.17871094 0.07470703 -0.26367188
000120 97 3e 07 3e 65 be 19 bd 3d 3c 37 bd c0 3d 72 3e
       0.29492188 0.13183594 -0.22363281 -0.037353516 0.0115356445 -0.044677734 0.09375 0.23632812
000130 19 be 53 3d 30 3e 0e be e0 3d 9c bc 1b 3e 97 be
       -0.14941406 0.051513672 0.171875 -0.13867188 0.109375 -0.019042969 0.15136719 -0.29492188
000140 29 3d c6 bd 8f 3e 18 3c c0 3d 07 bd 36 3c 13 be
       0.041259766 -0.09667969 0.27929688 0.009277344 0.09375 -0.032958984 0.011108398 -0.14355469
000150 91 be 68 3d 6d 3e 82 3e 46 be f2 bd 65 3e 86 3e
       -0.28320312 0.056640625 0.23144531 0.25390625 -0.19335938 -0.11816406 0.22363281 0.26171875
000160 3f bc 32 3e 16 3e 59 3e 30 3e df bd 83 3e 57 be
       -0.011657715 0.17382812 0.14648438 0.21191406 0.171875 -0.10888672 0.25585938 -0.20996094
000170 d1 3c 22 be 47 3e 10 3e 34 be 85 be 89 3e 98 be
       0.025512695 -0.15820312 0.19433594 0.140625 -0.17578125 -0.25976562 0.26757812 -0.296875
000180 8e be c7 3c 03 be 85 3e af bd 98 3e 1c bc 93 be
       -0.27734375 0.024291992 -0.12792969 0.25976562 -0.08544922 0.296875 -0.009521484 -0.28710938
000190 04 b7 1a 3e ed bd 6f bd b9 bc 8f 3e 19 3e e2 3d
       -7.867813e-06 0.15039062 -0.115722656 -0.05834961 -0.022583008 0.27929688 0.14941406 0.11035156
0001a0 5b 3e 9d bc 2f 3e 3c 3e 75 3c 41 bd 74 be 6d be
       0.21386719 -0.019165039 0.17089844 0.18359375 0.014953613 -0.04711914 -0.23828125 -0.23144531
0001b0 5a be 3e 3e d4 3d f4 bd 29 be 56 3e 9e 3c 97 3e
       -0.21289062 0.18554688 0.103515625 -0.119140625 -0.16503906 0.20898438 0.01928711 0.29492188
0001c0 a5 bc 71 be 4b be 8d be 51 3e b5 bd 6a 3e ed bd
       -0.020141602 -0.23535156 -0.19824219 -0.27539062 0.20410156 -0.088378906 0.22851562 -0.115722656
0001d0 34 be 80 3d 95 3c 92 3e 57 3e c8 3d 79 be b0 bd
       -0.17578125 0.0625 0.018188477 0.28515625 0.20996094 0.09765625 -0.24316406 -0.0859375
0001e0 52 be 9b bd 29 3e dd 3b d7 3d 30 be 32 bd 93 3e
       -0.20507812 -0.075683594 0.16503906 0.0067443848 0.10498047 -0.171875 -0.04345703 0.28710938
0001f0 0c 3e 5c be 23 3e ac 3d 11 3e 91 be ac 3d 94 3e
       0.13671875 -0.21484375 0.15917969 0.083984375 0.14160156 -0.28320312 0.083984375 0.2890625

layer_11.Uk bf16 [64, 4]
000000 84 be 91 bd 4e 3e 79 bd 42 bc 9d 3d 4d 3e 49 bd
       -0.2578125 -0.07080078 0.20117188 -0.060791016 -0.01184082 0.076660156 0.20019531 -0.049072266
000010 5a 3d 20 3c 5a be 96 3e 50 3d 76 bd 5e 3e 38 be
       0.053222656 0.009765625 -0.21289062 0.29296875 0.05078125 -0.060058594 0.21679688 -0.1796875
000020 80 3e 88 be 59 3e 1e bc 5a 3d 8a 3d 87 bd b9 3c
       0.25 -0.265625 0.21191406 -0.009643555 0.053222656 0.06738281 -0.06591797 0.022583008
000030 49 3e 53 3e 6c bc 57 be 32 be 5e 3e 93 be fb 3d
       0.19628906 0.20605469 -0.014404297 -0.20996094 -0.17382812 0.21679688 -0.28710938 0.122558594
000040 41 be a7 3d 7a 3e 48 be 88 be 66 be 18 3d 10 be
       -0.18847656 0.08154297 0.24414062 -0.1953125 -0.265625 -0.22460938 0.037109375 -0.140625
000050 7f 3e 1f 3e 85 be 07 3c e9 3d 3a be 91 3e 00 be
       0.24902344 0.15527344 -0.25976562 0.008239746 0.11376953 -0.18164062 0.28320312 -0.125
000060 ae bb 7a be 98 3e 0d be 09 3e 49 bd 61 bd 00 be
       -0.0053100586 -0.24414062 0.296875 -0.13769531 0.13378906 -0.049072266 -0.05493164 -0.125
000070 8a 3d 40 be 2c 3d 40 be 8e be 36 be 01 be 92 be
       0.06738281 -0.1875 0.041992188 -0.1875 -0.27734375 -0.17773438 -0.12597656 -0.28515625
000080 91 be 89 bd 52 be 85 3e 3a 3d ca bd a5 bd 14 be
       -0.28320312 -0.06689453 -0.20507812 0.25976562 0.045410156 -0.09863281 -0.080566406 -0.14453125
000090 ba 3d 9f 3d 78 be 88 3e 83 be 64 3e 06 3e 09 bd
       0.09082031 0.07763672 -0.2421875 0.265625 -0.25585938 0.22265625 0.13085938 -0.033447266
0000a0 11 bc df 3d 77 3e 55 3e 82 ba e5 bd 4e 3d 2c 3e
       -0.008850098 0.10888672 0.24121094 0.20800781 -0.0009918213 -0.111816406 0.05029297 0.16796875
0000b0 00 be b3 bd 64 3e 3c 3e b5 bb a2 3d f1 3c 3d 3e
       -0.125 -0.087402344 0.22265625 0.18359375 -0.0055236816 0.07910156 0.029418945 0.18457031
0000c0 3c 3e 0a bd 5a 3e 96 bd 42 be 2a bd 89 be 26 3d
       0.18359375 -0.033691406 0.21289062 -0.07324219 -0.18945312 -0.041503906 -0.26757812 0.040527344
0000d0 92 be 98 be 41 3e 48 bd 35 3e 6a 3e 86 be 81 3d
       -0.28515625 -0.296875 0.18847656 -0.048828125 0.17675781 0.22851562 -0.26171875 0.06298828
0000e0 71 be 6b bd ab bd 93 3e 73 be 44 3e 51 3e 69 be
       -0.23535156 -0.057373047 -0.083496094 0.28710938 -0.23730469 0.19140625 0.20410156 -0.22753906
0000f0 8c 3e 88 3e 45 3e 10 be 89 3e 21 be 4c be 4e be
       0.2734375 0.265625 0.19238281 -0.140625 0.26757812 -0.15722656 -0.19921875 -0.20117188
000100 1b 3e 17 be 89 be 5c bd 3e 3e 94 3e 08 be a2 3d
       0.15136719 -0.14746094 -0.26757812 -0.053710938 0.18554688 0.2890625 -0.1328125 0.07910156
000110 5a be 15 3d 25 be 1b 3e 09 3e c3 3d 0e 3d 43 bd
       -0.21289062 0.036376953 -0.16113281 0.15136719 0.13378906 0.095214844 0.03466797 -0.047607422
000120 67 3d 97 be 06 3d 7b 3e fa 3d c1 3d 0e 3e 40 3e
       0.056396484 -0.29492188 0.032714844 0.24511719 0.12207031 0.09423828 0.13867188 0.1875
000130 0e be 64 be 0b be 82 3e a4 bd 8a 3e 5d be 29 be
       -0.13867188 -0.22265625 -0.13574219 0.25390625 -0.080078125 0.26953125 -0.21582031 -0.16503906
000140 cd bd 30 3e 50 be e8 3d 9b bd 55 be 58 3e 00 3d
       -0.100097656 0.171875 -0.203125 0.11328125 -0.075683594 -0.20800781 0.2109375 0.03125
000150 f7 bd 4d 3e 59 3e 50 bc 63 3e c4 3d 42 3e a7 bd
       -0.12060547 0.20019531 0.21191406 -0.0126953125 0.22167969 0.095703125 0.18945312 -0.08154297
000160 1d 3e 25 3e de bd 08 be 90 3d 4b 3e c8 bb ff bd
       0.15332031 0.16113281 -0.10839844 -0.1328125 0.0703125 0.19824219 -0.0061035156 -0.12451172
000170 7d bd fd bd 08 be 92 be a5 bc 2a be b4 bd 41 3d
       -0.061767578 -0.123535156 -0.1328125 -0.28515625 -0.020141602 -0.16601562 -0.087890625 0.04711914
000180 98 3d 76 3e 87 be 07 be 0b 3e 2d 3e 8b 3e 95 3e
       0.07421875 0.24023438 -0.26367188 -0.13183594 0.13574219 0.16894531 0.27148438 0.29101562
000190 5e 3e 69 3e 6a 3e 89 3e 94 3d 37 3e 1e 3e 06 3e
       0.21679688 0.22753906 0.22851562 0.26757812 0.072265625 0.17871094 0.15429688 0.13085938
0001a0 96 bc 6a be 40 3e 38 bc 35 be 7d 3e a7 3d 6b be
       -0.018310547 -0.22851562 0.1875 -0.011230469 -0.17675781 0.24707031 0.08154297 -0.22949219
0001b0 2a 3e cd 3d 06 be 2d 3e 9f 3c 54 3c 95 be 8a be
       0.16601562 0.100097656 -0.13085938 0.16894531 0.01940918 0.012939453 -0.29101562 -0.26953125
0001c0 7e be 44 3e 4d be 5b be 0d 3e 94 be 46 3e c4 3d
       -0.24804688 0.19140625 -0.20019531 -0.21386719 0.13769531 -0.2890625 0.19335938 0.095703125
0001d0 2f 3e 59 3e a2 bd a4 bc 45 3e 59 3e 7d 3e 35 3d
       0.17089844 0.21191406 -0.07910156 -0.020019531 0.19238281 0.21191406 0.24707031 0.044189453
0001e0 81 bd 8f bd 0a 3e b5 3d b3 bc 75 bd 94 be b4 bd
       -0.06298828 -0.06982422 0.13476562 0.088378906 -0.021850586 -0.059814453 -0.2890625 -0.087890625
0001f0 58 be 89 3e 1c be ad 3c aa bd 1f 3e 8d be 74 3e
       -0.2109375 0.26757812 -0.15234375 0.021118164 -0.08300781 0.15527344 -0.27539062 0.23828125

layer_11.Wv bf16 [64, 4]
000000 6d be 5f 3e a9 3d 6f be 85 3e 86 3e c5 3d 73 be
       -0.23144531 0.21777344 0.08251953 -0.23339844 0.25976562 0.26171875 0.096191406 -0.23730469
000010 aa bd c7 3d 88 3d da 3d 2f 3e 10 be d2 3d 4b 3e
       -0.08300781 0.09716797 0.06640625 0.10644531 0.17089844 -0.140625 0.10253906 0.19824219
000020 90 3e 64 be 22 3e 93 be 12 3b 3a 3e 1e be 81 3e
       0.28125 -0.22265625 0.15820312 -0.28710938 0.0022277832 0.18164062 -0.15429688 0.25195312
000030 9e 3d 75 be 14 bc 1f be 8b be 85 3e 25 3e 80 bd
       0.07714844 -0.23925781 -0.009033203 -0.15527344 -0.27148438 0.25976562 0.16113281 -0.0625
000040 43 bd 7c 3e f6 3d 8a 3e 7e be 29 3e 3e 3e 64 be
       -0.047607422 0.24609375 0.12011719 0.26953125 -0.24804688 0.16503906 0.18554688 -0.22265625
000050 8b be 96 3e 20 be 54 be 0a bd 3a be 00 3d 94 3e
       -0.27148438 0.29296875 -0.15625 -0.20703125 -0.033691406 -0.18164062 0.03125 0.2890625
000060 88 3e e8 bb 41 be 01 3e 14 3e 16 3d 52 be 3f be
       0.265625 -0.007080078 -0.18847656 0.12597656 0.14453125 0.036621094 -0.20507812 -0.18652344
000070 b8 bd 60 3e 57 be 8a be 84 3e 38 3e dd bb 8c 3d
       -0.08984375 0.21875 -0.20996094 -0.26953125 0.2578125 0.1796875 -0.0067443848 0.068359375
000080 92 be 74 bb 94 be 54 be 1e bb a7 3d 8b 3e 1a be
       -0.28515625 -0.0037231445 -0.2890625 -0.20703125 -0.0024108887 0.08154297 0.27148438 -0.15039062
000090 02 be d4 bd 33 3e 15 3d 90 be f2 3d 6e be df bc
       -0.12695312 -0.103515625 0.17480469 0.036376953 -0.28125 0.11816406 -0.23242188 -0.02722168
0000a0 d8 bc 89 be 02 3d e2 bd 9e 3d 42 3e 6f be 48 3e
       -0.026367188 -0.26757812 0.03173828 -0.11035156 0.07714844 0.18945312 -0.23339844 0.1953125
0000b0 63 3e ca bd 3d be 07 3e 91 be 83 be c9 bb 55 3e
       0.22167969 -0.09863281 -0.18457031 0.13183594 -0.28320312 -0.25585938 -0.006134033 0.20800781
0000c0 80 be 96 3e 94 be 85 bd 1a 3d d2 3c 82 be 85 3a
       -0.25 0.29296875 -0.2890625 -0.064941406 0.037597656 0.025634766 -0.25390625 0.0010147095
0000d0 72 3e 7d 3b 6b be 0e bd 8a 3d 72 bc 58 be bc 3c
       0.23632812 0.0038604736 -0.22949219 -0.03466797 0.06738281 -0.014770508 -0.2109375 0.022949219
0000e0 62 3e 22 3d c8 bd cd bd 7f be 88 3e f0 bc 1d be
       0.22070312 0.03955078 -0.09765625 -0.100097656 -0.24902344 0.265625 -0.029296875 -0.15332031
0000f0 75 3e b7 bd b4 bd 84 be f3 bd 7c 3e 05 be 21 bd
       0.23925781 -0.08935547 -0.087890625 -0.2578125 -0.118652344 0.24609375 -0.12988281 -0.03930664
000100 09 be 14 3e 97 3e bd bc 7f be 75 be 56 be 98 3e
       -0.13378906 0.14453125 0.29492188 -0.023071289 -0.24902344 -0.23925781 -0.20898438 0.296875
000110 93 3e 17 bb 76 3e b7 bd 3b bd 91 bc dc bc 81 be
       0.28710938 -0.0023040771 0.24023438 -0.08935547 -0.045654297 -0.017700195 -0.026855469 -0.25195312
000120 df bd 92 bc 2e 3e 68 3e 1d 3e 84 3c 8c be 66 be
       -0.10888672 -0.017822266 0.16992188 0.2265625 0.15332031 0.016113281 -0.2734375 -0.22460938
000130 38 be a1 3d 87 3d 4f 3e 8c 3e 98 3e 32 3e 95 3e
       -0.1796875 0.07861328 0.06591797 0.20214844 0.2734375 0.296875 0.17382812 0.29101562
000140 e2 bd cb 3d 11 3e 36 bd 2c bc 2c be bb 3d 33 be
       -0.11035156 0.099121094 0.14160156 -0.044433594 -0.010498047 -0.16796875 0.091308594 -0.17480469
000150 20 be c2 3c 00 3d bc bd 99 3d 8e 3e 15 bd 9b bd
       -0.15625 0.02368164 0.03125 -0.091796875 0.07470703 0.27734375 -0.036376953 -0.075683594
000160 56 be 15 be 4c be 12 3e 88 3e ea bd 12 bd 84 3e
       -0.20898438 -0.14550781 -0.19921875 0.14257812 0.265625 -0.11425781 -0.03564453 0.2578125
000170 28 be 4e 3e 75 3e b7 bd 8a be ca bd 97 3e ec 3d
       -0.1640625 0.20117188 0.23925781 -0.08935547 -0.26953125 -0.09863281 0.29492188 0.115234375
000180 f7 3d a8 3c 8f be 66 be 96 bd 4b 3e f0 3d d5 3d
       0.12060547 0.020507812 -0.27929688 -0.22460938 -0.07324219 0.19824219 0.1171875 0.104003906
000190 10 bd 60 3c 27 be 13 be 6c 3e 48 3e 58 be 13 3c
       -0.03515625 0.013671875 -0.16308594 -0.14355469 0.23046875 0.1953125 -0.2109375 0.008972168
0001a0 32 3c 92 3e f9 3d a5 3d b5 bd 55 3e 92 be 1c bd
       0.010864258 0.28515625 0.12158203 0.080566406 -0.088378906 0.20800781 -0.28515625 -0.038085938
0001b0 ff 3d b3 3c 36 3e 53 be 5e be 31 3e 2c be 00 bd
       0.12451172 0.021850586 0.17773438 -0.20605469 -0.21679688 0.17285156 -0.16796875 -0.03125
0001c0 22 3e e8 bd 93 3d 98 3e ee 3d 33 be 7c be 8a be
       0.15820312 -0.11328125 0.071777344 0.296875 0.11621094 -0.17480469 -0.24609375 -0.26953125
0001d0 8a 3e 53 3e c9 3d 05 3e 37 be 4c bc fd 3d 80 3d
       0.26953125 0.20605469 0.09814453 0.12988281 -0.17871094 -0.012451172 0.123535156 0.0625
0001e0 6c 3e 24 3e 78 3e 94 3e cf bd df 3d 91 be 7b be
       0.23046875 0.16015625 0.2421875 0.2890625 -0.10107422 0.10888672 -0.28320312 -0.24511719
0001f0 94 be 8f 3e 2f be bb 3d 01 bc 94 be f4 3d 5a 3e
       -0.2890625 0.27929688 -0.17089844 0.091308594 -0.007873535 -0.2890625 0.119140625 0.21289062
